PPO/pi_v2.pth (torch, 702267 bytes, 14 tensors)

h1.weight f4 [64, 9]
0	0x3da2fc7e	0.07958315
1	0x3c4fa198	0.012672804
2	0xbe81a15a	-0.25318414
3	0x3d4b02cf	0.049563225
4	0x3d3c42b8	0.045962065
5	0xbd88ad65	-0.066736974
6	0x3edf19d5	0.43574396
7	0xbe420a7a	-0.18949309
8	0xbd80252e	-0.062570915
9	0x3e204380	0.15650749
10	0xbdf52051	-0.119690545
11	0x3ef18b00	0.4717636
12	0x3e5a5bb9	0.21324052
13	0xbe378801	-0.17922975
14	0x3e21fbab	0.1581866
15	0x3d99109c	0.07473871
16	0xbeabc884	-0.3355142
17	0xbe34f49f	-0.1767144
18	0xbe908f47	-0.28234312
19	0xbe9294d2	-0.28629166
20	0xbe006384	-0.12537962
21	0xbc8105cb	-0.015749833
22	0xbe5b5f56	-0.21423087
23	0xbdaebd35	-0.08532182
24	0x3d6a0c54	0.057140663
25	0xbeb35319	-0.35024336
26	0x3d5de7d2	0.05417616
27	0x3dbbd0fc	0.0917072
28	0x3d77e8e7	0.060524847
29	0xbd9a6263	-0.07538297
30	0xbd2138a0	-0.039360642
31	0x3e4aab6d	0.19791956
32	0x3df8e77f	0.121535294
33	0xbebca41c	-0.36843956
34	0xbe8fea80	-0.28108597
35	0x3e0f455b	0.13991301
36	0x3edd3e2c	0.43211496
37	0xbda7ad1e	-0.08187316
38	0x3eb6ace9	0.35678795
39	0xbe694b28	-0.22782576
40	0xbe514d07	-0.2043954
41	0xbe251a8a	-0.16123405
42	0x3db1b15d	0.086764075
43	0x3d6e0306	0.058108352
44	0xbce7154f	-0.028208403
45	0x3f1a1d3e	0.6020087
46	0x3e89d5d9	0.26920965
47	0x3dfca0d5	0.12335364
48	0xbe851c87	-0.25998327
49	0x3d6a1e70	0.057157934
50	0x3ce20e83	0.02759481
51	0xbc8aa0e7	-0.016922427
52	0x3eaedc37	0.34152386
53	0xbd49e317	-0.049288835
54	0xbf1a3fa2	-0.60253346
55	0xbd053116	-0.032517515
56	0xbe72519e	-0.23663947
57	0xbe4f4624	-0.202416
58	0xbb34c2fe	-0.0027582045
59	0xbd707bb9	-0.05871174
60	0x3e218c20	0.1577611
61	0x3dc620c4	0.09674218
62	0x3e2d23ff	0.16908263
63	0xbf11b2f7	-0.56913704
64	0x3d8cb011	0.068695195
65	0xbcb1503a	-0.0216447
66	0x3ee9d9d4	0.45674002
67	0x3e7567e0	0.23965406
68	0x3e133ae6	0.14377937
69	0xbd49eeb7	-0.04929992
70	0x3c74da77	0.014944664
71	0x3e64bf3d	0.22338577
72	0xbe575617	-0.21028934
73	0xbe0e9421	-0.13923694
74	0xbe13642c	-0.14393681
75	0xbdc14f8f	-0.09439003
76	0x3dfc44ac	0.123177856
77	0xbdc52a6c	-0.09627232
78	0x3e3044b5	0.1721371
79	0xbec675ca	-0.3876174
80	0xbe0dc303	-0.13843922
81	0xbcf649d9	-0.03006451
82	0x3e5dc817	0.2165836
83	0x3e084833	0.13308792
84	0x3e8f2642	0.27958876
85	0xbd8e8fcb	-0.0696102
86	0x3e76c187	0.24097262
87	0xbef422ad	-0.47682706
88	0xbe755699	-0.23958816
89	0xbe6b1b98	-0.22959745
90	0xbd60574c	-0.054770753
91	0xbe759223	-0.23981528
92	0xbdc40219	-0.095707126
93	0x3ea5bf4b	0.32372507
94	0xbe16383c	-0.14669889
95	0xbe087044	-0.13324076
96	0x3d7493c8	0.059711248
97	0x3d0ec28e	0.03485351
98	0xbd972fee	-0.07382189
99	0x3cc9c196	0.024628442
100	0x3e89c43b	0.26907524
101	0x3ed5e256	0.41774243
102	0xbd09209d	-0.033478368
103	0xbcc2bb3d	-0.023770923
104	0xbcc70206	-0.024292957
105	0xbeacabdd	-0.3372487
106	0xbe7109db	-0.23538916
107	0xbed64086	-0.41846102
108	0x3e4ecfa0	0.2019639
109	0xbe4a0e9a	-0.19732133
110	0x3db519ae	0.08842789
111	0xbd935e7e	-0.07195757
112	0x3d999da7	0.07500773
113	0x3d9e0bd9	0.077171035
114	0x3ed1ce36	0.4097764
115	0x3ec934bd	0.3929805
116	0xbdf0886d	-0.11744771
117	0x3e9ac5fe	0.3022918
118	0x3dccaad5	0.09993521
119	0xbe25a606	-0.16176614
120	0x3ea37a4b	0.3192924
121	0xbe011de3	-0.12609057
122	0xbe10de2d	-0.14147253
123	0xbe050621	-0.12990619
124	0x3e49de3c	0.19713682
125	0xbd92599e	-0.07145999
126	0x3dba217a	0.090884164
127	0x3e8560bc	0.26050365
128	0x3f008425	0.50201637
129	0x3d870443	0.0659261
130	0xbd1c80c0	-0.038208723
131	0xbd8172d0	-0.06320727
132	0xbe8948a5	-0.26813236
133	0x3da1b15b	0.07895156
134	0x3e1e1d03	0.15440755
135	0xbe8bccc5	-0.27304664
136	0x3e6c004f	0.23046993
137	0xbdd57e58	-0.10424489
138	0x3e1201c0	0.1425848
139	0x3e190fd9	0.14947452
140	0x3e487449	0.1957561
141	0xbea224a5	-0.31668583
142	0x3d9e8d17	0.077417545
143	0xbda18e93	-0.07888522
144	0xbed1aefa	-0.4095381
145	0x3e93c485	0.2886087
146	0xbe12d036	-0.14337239
147	0x3e311453	0.1729291
148	0xbda1d809	-0.079025336
149	0x3d83c2ef	0.06433665
150	0x3e5c45ef	0.21511053
151	0xbdac7c92	-0.084221974
152	0xbe2a579e	-0.16634986
153	0x3e3db9a0	0.18527842
154	0x3e3a47b3	0.18191414
155	0xbdb2d281	-0.08731557
156	0xbe0553df	-0.13020276
157	0xbe17bf1e	-0.14818999
158	0xbcf34502	-0.029695991
159	0x3ec4e763	0.38457784
160	0xbe94c9d7	-0.29060242
161	0xbe457c6a	-0.19285741
162	0x3e1e835f	0.15479802
163	0x3da1a792	0.078932896
164	0xbd838f4a	-0.064238146
165	0x3e225ca1	0.15855648
166	0xbd3c9188	-0.046037227
167	0x3cd81e73	0.026381707
168	0xbd6913e2	-0.056903727
169	0xbe22d60f	-0.1590197
170	0xbe111580	-0.14168358
171	0xbee55550	-0.4479165
172	0x3e594e07	0.21221171
173	0xbe6ff50e	-0.23433325
174	0x3e34bbdd	0.17649789
175	0xbdb57394	-0.088599354
176	0x3da82ca5	0.0821164
177	0xbeb5e75c	-0.35528076
178	0x3e341ca5	0.17589052
179	0x3e1eb746	0.15499601
180	0xbce93c48	-0.028471127
181	0x3eb46766	0.35235137
182	0x3f03ad0f	0.5143594
183	0x3ecffe65	0.40623775
184	0x3eaf9194	0.34290755
185	0x3e77f4d1	0.24214484
186	0xbed100fe	-0.4082107
187	0x3eaefd37	0.34177563
188	0xbd96ff7a	-0.07372947
189	0xbee89b4c	-0.45430982
190	0xbd8c9e00	-0.068660736
191	0x3d33ebdd	0.04392611
192	0xbea38102	-0.31934363
193	0xbd89f9d3	-0.06737103
194	0xbe28109a	-0.16412583
195	0x3ee954ee	0.4557261
196	0xbe5f6fbe	-0.2181997
197	0xbc0d6ccc	-0.008631896
198	0xbf08fec4	-0.5351374
199	0x3e861442	0.2618733
200	0xbe627ee3	-0.22118716
201	0x3d3bb29c	0.045824632
202	0xbd010f4b	-0.031508725
203	0xbd4604ad	-0.048344303
204	0x3b6128c9	0.0034356585
205	0xbe999f4e	-0.30004352
206	0x3e1cece3	0.1532474
207	0x3e8275e7	0.25480577
208	0xbe820cef	-0.25400493
209	0x3ecea330	0.40358877
210	0x3e0ea492	0.13929966
211	0x3dde83b4	0.10864964
212	0xbe937bf3	-0.28805503
213	0xbe94455d	-0.2895917
214	0x3eba1d0d	0.3635029
215	0xbe83bb70	-0.2572894
216	0x3e7e874b	0.24856298
217	0xbee40e62	-0.44542223
218	0x3f09e515	0.53865176
219	0x3d027493	0.031849455
220	0x3de4c3b8	0.11170143
221	0x3dc5f435	0.096657194
222	0x3e7da2eb	0.2476918
223	0xbd28ee59	-0.04124293
224	0x3e5ec9ed	0.21756716
225	0x3d7b752a	0.061391033
226	0xbec936f5	-0.3929974
227	0xbe4a2adc	-0.19742912
228	0xbe9ae6a1	-0.3025408
229	0xbe08821e	-0.13330886
230	0x3de411dd	0.1113622
231	0x3dce23b4	0.100654036
232	0x3de3ffe4	0.11132792
233	0xbd289f3b	-0.04116748
234	0xbd00b6b2	-0.03142423
235	0xbec64739	-0.38726214
236	0xbd9debbf	-0.077109806
237	0xbe885340	-0.26626015
238	0x3d5bc4b8	0.053654402
239	0xbe9e98af	-0.30975863
240	0x3eeb39d6	0.45942563
241	0xbe9f441a	-0.31106645
242	0xbe9443d0	-0.28957987
243	0x3eba3482	0.36368185
244	0xbe8aa627	-0.2707989
245	0x3ec49b0b	0.38399538
246	0xbe632700	-0.22182846
247	0xbdeba953	-0.115069054
248	0xbe2795c8	-0.16365731
249	0x3e019b09	0.12656797
250	0xbe9d8d94	-0.30772078
251	0x3e6eddaf	0.23326753
252	0xbc49181b	-0.012273814
253	0xbea6780e	-0.3251347
254	0x3cb56ab9	0.022145616
255	0xbec42019	-0.3830574

h1.bias f4 [64]
0	0xbea8d9a7	-0.32978556
1	0x3e30fb87	0.1728345
2	0x3cae3a1a	0.02126794
3	0x3c9e1109	0.019295232
4	0x3eb56a95	0.35432878
5	0xbdac9279	-0.08426375
6	0xbe9c8cd5	-0.30576196
7	0xbe4da735	-0.20083316
8	0x3dcf9cd8	0.101373374
9	0xbd807aa2	-0.0627339
10	0xbd8361ce	-0.06415139
11	0xbdb64b05	-0.089010276
12	0x3e3de22f	0.18543313
13	0x3e647b86	0.22312745
14	0xbe61276a	-0.21987692
15	0xbe257728	-0.16158736
16	0x3e526a19	0.20548286
17	0x3dea9257	0.11453693
18	0xbb995111	-0.0046788533
19	0x3e4e7604	0.20162207
20	0x3ebb9b3c	0.36641872
21	0xbdd6a5d5	-0.10480849
22	0xbe22e0b1	-0.15906025
23	0xbda813d9	-0.08206911
24	0x3e9edded	0.3102869
25	0xbc7eb838	-0.015546851
26	0xbe61e7bf	-0.2206106
27	0xbe3e440a	-0.18580642
28	0xbd6fed80	-0.058576107
29	0xbdf2d951	-0.11857856
30	0x3e9dbe8e	0.30809444
31	0x3e3b04a7	0.18263493
32	0xbe6d2b76	-0.2316111
33	0x3dd1ebe1	0.102500685
34	0x3cbb35bd	0.022852773
35	0xbbe73a58	-0.0070565157
36	0x3e12a8ae	0.14322159
37	0x3e3e0831	0.18557812
38	0xbd707741	-0.05870748
39	0x3b2575b3	0.0025247156
40	0xbeb735d1	-0.35783246
41	0xbe24d8ef	-0.16098379
42	0xbbe72d4a	-0.0070549594
43	0xbe5dcfcf	-0.21661304
44	0xbe84cbbc	-0.25936687
45	0x3da2047a	0.0791101
46	0x3e1d1fd9	0.1534418
47	0x3eb3b13b	0.35096154
48	0x3da0925f	0.07840418
49	0x3e40adc5	0.18816288
50	0xbe04a546	-0.12953672
51	0x3e8d7842	0.27630812
52	0x3bf6c66e	0.007530979
53	0x3e7dee15	0.24797852
54	0xbd0b15da	-0.033956386
55	0x3d218579	0.03943393
56	0x3e9c8a83	0.30574426
57	0xbe0fc024	-0.1403814
58	0x3e80d114	0.25159514
59	0x3e8f0193	0.2793089
60	0xbe9d11b3	-0.30677566
61	0x3e05d3f2	0.13069132
62	0x3d8c3953	0.06846871
63	0xbcb553c9	-0.022134678

h2.weight f4 [128, 64]
0	0xbe365dc4	-0.17809206
1	0x3de88172	0.11352815
2	0xbd847c3a	-0.06469007
3	0xbd82ef6d	-0.06393323
4	0x3d04d4f3	0.032429647
5	0x3c9f00e7	0.01940961
6	0xbdfb2ad8	-0.12264031
7	0xbdb4cad2	-0.088277474
8	0xbdbbc0b8	-0.091676176
9	0xbd1bd77e	-0.038047306
10	0x3d76747d	0.060169686
11	0x3d4e53a0	0.05037272
12	0x3e49ed0b	0.19719331
13	0x3d7fa402	0.06241227
14	0x3e22ff5c	0.15917724
15	0x3cf4990a	0.029858131
16	0xbcac0c37	-0.021001918
17	0xbe8fa520	-0.28055668
18	0xbdaf3bfd	-0.08556364
19	0xbcc9cf54	-0.024634995
20	0x3db68858	0.08912724
21	0x3c82671f	0.015918313
22	0xbe00d01d	-0.12579389
23	0x3e380cfc	0.17973703
24	0x3dbf7dac	0.09350142
25	0x3e01083f	0.12600802
26	0xbdd0aa11	-0.101886876
27	0x3d629463	0.055317294
28	0x3d8b8f40	0.06814432
29	0xbdea005a	-0.11425848
30	0x3e0b4a24	0.13602501
31	0xbe13f7ed	-0.14450045
32	0xbdfbc2b3	-0.12292995
33	0x3d6c9ff2	0.057769723
34	0xbd4196b6	-0.04726287
35	0x3c96389b	0.018337538
36	0xbcc83207	-0.024437917
37	0xbd9b981b	-0.07597371
38	0x3d8d7949	0.06907899
39	0x3c8b5887	0.017009987
40	0xbd980b16	-0.074239895
41	0x3d34cfe6	0.04414358
42	0x3d12e6c3	0.035864603
43	0xbdb6e910	-0.08931172
44	0xbd735e02	-0.059415825
45	0x3e0aaecc	0.13543242
46	0x3b0e2752	0.0021690917
47	0xbebe9aca	-0.3722747
48	0xbde94f94	-0.113921314
49	0xbce3cf80	-0.027808905
50	0xbd2d3363	-0.042285334
51	0xbd8b3149	-0.0679651
52	0x3e090f84	0.13384825
53	0xbb90ddab	-0.004420956
54	0xbdc7e3d0	-0.09760249
55	0xbce06c05	-0.027395258
56	0x3de10005	0.10986332
57	0x3e493386	0.19648561
58	0x3de69456	0.112587616
59	0x3d8186c3	0.06324532
60	0x3dbc14df	0.09183668
61	0xbe3810d7	-0.17975174
62	0x3cbb7426	0.022882532
63	0xbda4b143	-0.080416225
64	0x3d022317	0.031771746
65	0x3cdbda51	0.0268375
66	0xbdd92b76	-0.10603993
67	0x3deb1e01	0.11480332
68	0xbe6dddb8	-0.2322911
69	0xbe0b0642	-0.13576606
70	0xbdbbd28a	-0.091710165
71	0x3da44703	0.08021357
72	0x3c2975a3	0.010342988
73	0x3cf613de	0.03003877
74	0xbc90e4c7	-0.017687215
75	0x3cb61c5f	0.022230325
76	0xbe80609c	-0.25073707
77	0xbdbe3193	-0.09286799
78	0x3d01fe04	0.03173639
79	0xbcc1321d	-0.023583466
80	0x3a2646f0	0.0006342968
81	0xbdbbfcd8	-0.091790855
82	0xbd73e6ee	-0.059546404
83	0x3d209e5f	0.039213534
84	0xbdf0dfc4	-0.1176143
85	0x3c0e9c0c	0.008704197
86	0x3d15c637	0.036565986
87	0xbd1705ca	-0.036870755
88	0xbe19c409	-0.15016188
89	0xbe147c2a	-0.1450049
90	0xbc811c8f	-0.015760688
91	0xbe366a9a	-0.17814103
92	0x3df75d83	0.12078383
93	0x3c06c08d	0.008224619
94	0x3dc909ad	0.09816299
95	0x3d89f775	0.06736652
96	0x3d3e6b33	0.046488952
97	0xbbe80985	-0.007081213
98	0xbda92fce	-0.08261071
99	0x3d2c0827	0.041999962
100	0x3d18885f	0.03723943
101	0x3d40761b	0.046987634
102	0xbe1027b2	-0.14077643
103	0xbd5522c1	-0.052035097
104	0xbd037b7f	-0.032100197
105	0xbe49b967	-0.19699632
106	0x3d6a70b8	0.057236403
107	0x3d83d4a8	0.06437045
108	0xbdddfc41	-0.10839129
109	0xbdd69e65	-0.1047943
110	0xbdee1179	-0.116244264
111	0x3dfe6320	0.1242125
112	0xbe0467dc	-0.12930244
113	0x3dcba866	0.09944229
114	0xbd94b788	-0.07261568
115	0x3e1c1e1d	0.15245862
116	0x3d98400b	0.0743409
117	0x3c6cedfd	0.014461038
118	0xbd4a6b0a	-0.049418487
119	0xbc4f5024	-0.012653384
120	0x3d27f825	0.041008133
121	0xbe16c0ca	-0.1472198
122	0xbdf1a36d	-0.11798749
123	0x3d24a178	0.04019305
124	0xbc7f4bd3	-0.015582043
125	0x3e1876b2	0.14889029
126	0xbdcde7b1	-0.10053957
127	0x3d36493d	0.04450344
128	0xbdcfe6c3	-0.10151436
129	0xbd7e22c5	-0.062044878
130	0xbd2ac5a9	-0.04169241
131	0xbd12f2e9	-0.03587619
132	0xbdb9cd37	-0.09072345
133	0x3cf20741	0.029544475
134	0x3d8d802e	0.06909214
135	0xbc294ebc	-0.010333713
136	0x3d4ec757	0.050483074
137	0x3ba6d152	0.005090871
138	0x3da0799e	0.07835697
139	0xbacc4123	-0.0015583377
140	0xbd997432	-0.074928656
141	0xbd3dc3a4	-0.046329156
142	0x3e3dbbb1	0.1852863
143	0xbc1bd3c5	-0.009510939
144	0x3d8fdc0d	0.07024393
145	0xbd4a641b	-0.049411874
146	0x3e0578b0	0.1303432
147	0xbd19819c	-0.03747712
148	0x3e7af95a	0.24509183
149	0x3ccba486	0.024858724
150	0x3d95d1a1	0.07315374
151	0xbdf6b4f6	-0.12046234
152	0xbda86aa2	-0.082234636
153	0x3d7e37b6	0.06206485
154	0xbcd40d84	-0.025885351
155	0xbe1ca847	-0.15298568
156	0xbe1ca436	-0.15297017
157	0x3da11eb2	0.07867183
158	0x3cb1629f	0.021653472
159	0x3c89d268	0.016823962
160	0x3d931460	0.071816206
161	0x3d71d28a	0.059038676
162	0x3b27de9e	0.0025614868
163	0x3c180ab0	0.009279892
164	0x3caa358a	0.020777483
165	0x3d317752	0.043326683
166	0xba33131f	-0.00068311574
167	0x3d98fd21	0.074701555
168	0xbd6db9ac	-0.0580384
169	0xbda54f2a	-0.0807174
170	0xbc8c67a8	-0.01713927
171	0xbdccf126	-0.10006933
172	0xbd58e8b5	-0.0529563
173	0xbd04fe4a	-0.03246907
174	0xbdefb3f5	-0.11704246
175	0xbdc1f35f	-0.094702475
176	0x3d6af13f	0.057358976
177	0xbe7183e5	-0.2358547
178	0xbca3de28	-0.020003393
179	0xbe4d97a5	-0.20077379
180	0xbdece1e3	-0.11566522
181	0xbdb5f59d	-0.08884738
182	0x3d15c708	0.036566764
183	0x3dbaea84	0.091267616
184	0x3e04fed3	0.12987833
185	0x3dfba6f8	0.12287706
186	0xbe3c8ccd	-0.18413086
187	0x3db1720e	0.08664332
188	0x3d9942ad	0.074834205
189	0xbd6e1a81	-0.058130745
190	0xbdb6b252	-0.08920731
191	0x3d5c1bff	0.053737637
192	0xbd531908	-0.051537544
193	0x3d735f2f	0.059416946
194	0x3d2d59b1	0.042321865
195	0xbcbfa7e6	-0.02339549
196	0x3cd5a8b8	0.026081428
197	0x3d2e57dd	0.04256426
198	0xbd8f126d	-0.06985936
199	0x3ba29811	0.0049619754
200	0x3ca2a691	0.019854816
201	0x3cc8a6db	0.024493625
202	0x3d96c455	0.07361666
203	0x3d110377	0.035403695
204	0xbcbc0bdd	-0.022954876
205	0xbdae3a1c	-0.08507177
206	0x3d85a073	0.06524744
207	0xbd6e70c3	-0.058213007
208	0xbe01b96b	-0.12668388
209	0x3bac377e	0.0052556386
210	0xbca43c35	-0.02004824
211	0x3ba40f17	0.0050066817
212	0x3e4fb5c4	0.20284182
213	0xbde54ff3	-0.1119689
214	0xbd970953	-0.07374825
215	0x3e75e47b	0.2401294
216	0x3d3c3ad7	0.04595455
217	0xbc98ec62	-0.018667404
218	0xbe79c279	-0.24390592
219	0x3df6b5fc	0.120464295
220	0xbce9dcb0	-0.028547615
221	0xbc726fe2	-0.014797183
222	0x3c637185	0.013882046
223	0xbd30422a	-0.04303185
224	0x3dcbe24d	0.09955273
225	0x3cb2e70d	0.02183869
226	0x3d66faa6	0.05639138
227	0xbd9b94cd	-0.07596741
228	0xbe2f6058	-0.17126596
229	0xbdaba7a3	-0.083815835
230	0x3d62dbda	0.055385448
231	0x3c9905a5	0.01867945
232	0x3d67a448	0.056553155
233	0xbdbfae60	-0.09359431
234	0xbe03b49c	-0.12861866
235	0xbcae9d97	-0.021315379
236	0xbe3e8908	-0.18606961
237	0x3c26aa04	0.010172371
238	0xbe223e1c	-0.15844005
239	0xbe92a5fd	-0.28642264
240	0xbd24475e	-0.040107124
241	0xbe2d071f	-0.16897248
242	0xbd4913ae	-0.049091034
243	0xbddc16e9	-0.10746557
244	0x3e216587	0.15761386
245	0xbe06d306	-0.13166437
246	0x3e04b754	0.12960559
247	0xbdb5c959	-0.08876295
248	0x3e077b87	0.13230716
249	0x3e491f14	0.19640762
250	0xbd99e7dd	-0.075149275
251	0x3d70a72a	0.05875317
252	0x3df203a7	0.11817103
253	0x3cbe681d	0.023243004
254	0x3c2bb075	0.010479082
255	0xbdcd7fa0	-0.10034108

h2.bias f4 [128]
0	0x3dec2bfd	0.115318276
1	0xbddc5879	-0.10759062
2	0x3b7c0702	0.0038456325
3	0x3dc2f88b	0.09520062
4	0xbd43b5d8	-0.04778084
5	0x3d1ae136	0.037812434
6	0xbe05a83e	-0.1305246
7	0xbce1a59f	-0.027544795
8	0xbd0e2ea2	-0.03471244
9	0xbde3797d	-0.111071564
10	0xbe1a59e2	-0.1507335
11	0x3cc4e583	0.024035221
12	0xbd965cbd	-0.07341907
13	0xbd947762	-0.07249333
14	0x3d372d04	0.044720665
15	0x3c1a7d67	0.009429312
16	0x3c92d13c	0.017922036
17	0xbd76e1bb	-0.060273867
18	0xbd884654	-0.06654039
19	0xbe0136df	-0.12618588
20	0x3d847239	0.06467099
21	0x3c8d7aaa	0.017270405
22	0xbe2fc3e2	-0.17164567
23	0xbda80fd0	-0.08206141
24	0x3d0b4f66	0.034011267
25	0x3db64cf3	0.08901396
26	0xbe002ce9	-0.12517132
27	0xbdd1bd43	-0.10241177
28	0xbd8807ad	-0.06642089
29	0x3dbc0d5f	0.09182238
30	0xbe65716d	-0.2240655
31	0x3b7cb39d	0.0038559206
32	0x3d8ed7cb	0.06974753
33	0xbda4793f	-0.08030938
34	0xbbda3435	-0.0066590556
35	0xbdddef44	-0.10836652
36	0xbdd6f667	-0.10496216
37	0xba79978d	-0.0009521179
38	0xbbd5096e	-0.0065013682
39	0xbe8404c7	-0.25784895
40	0xbec07cc0	-0.37595177
41	0x3deff55a	0.11716719
42	0x3d6e82e7	0.058230307
43	0xbdaf35ad	-0.0855516
44	0x3d81b520	0.06333375
45	0xbda1af41	-0.07894755
46	0x3d2fd22a	0.042925037
47	0x3d06ec63	0.03294028
48	0xbe1f0f21	-0.15533115
49	0xbde0da75	-0.10979167
50	0xbe10815a	-0.14111844
51	0x3df419cd	0.119189836
52	0x3dea61bf	0.11444425
53	0x3c74ea0a	0.014948377
54	0xbc06ab89	-0.008219608
55	0xbdaa2b4a	-0.08309038
56	0x3e0caa57	0.13736854
57	0xbd54502e	-0.051834278
58	0x3dafd69d	0.08585856
59	0xbd24ed0a	-0.04026512
60	0xbbef4549	-0.0073019606
61	0xbdd2e0dc	-0.10296795
62	0x3e004c09	0.12529005
63	0xbd1642cc	-0.036684796
64	0xbc72f315	-0.014828463
65	0xbe8e13cc	-0.2774948
66	0x3d7fcf15	0.06245335
67	0xbd850ee1	-0.064969786
68	0x3ca38598	0.019961163
69	0xbdcfdfa7	-0.1015008
70	0xbe08d104	-0.13360983
71	0xbd7afbbf	-0.06127524
72	0x3d298fb8	0.041396827
73	0x3d1b7c15	0.03796013
74	0xbdea1c16	-0.11431138
75	0x3e039b2d	0.12852164
76	0xbda0985e	-0.07841562
77	0xbe85827a	-0.26076108
78	0xbe5ce022	-0.21569875
79	0x3db9f99c	0.09080812
80	0xbcdf1827	-0.027233196
81	0x3ddc9a56	0.10771625
82	0xbd8fb543	-0.07016995
83	0xbe01463b	-0.12624447
84	0xbc903fe3	-0.017608589
85	0xbdd8fb72	-0.105948344
86	0xbcce782a	-0.025203783
87	0xbd294ab9	-0.041331027
88	0xbea9efc6	-0.33190745
89	0x3d9b0289	0.07568843
90	0x3cd1cede	0.025611337
91	0xbe05c75c	-0.13064331
92	0x3d2fe57b	0.04294346
93	0x3dd453eb	0.103675686
94	0xbd138129	-0.03601185
95	0x3d75a763	0.059974086
96	0xbccd5584	-0.025065191
97	0x3d8d8bf9	0.06911463
98	0x3c29c40b	0.010361682
99	0xbe5bac42	-0.2145243
100	0x3cea2294	0.028580941
101	0xbdc760aa	-0.09735234
102	0x3d144de8	0.03620711
103	0xbdb8f440	-0.09030962
104	0xbe7c0180	-0.24609947
105	0x3c78f8c0	0.015196025
106	0xbe0d48ad	-0.13797255
107	0x3dbdaf91	0.09262002
108	0xbde7ae5e	-0.11312555
109	0xbdcd5ad5	-0.100270905
110	0xbddc32a2	-0.10751845
111	0xbe1d1e20	-0.15343523
112	0x3b27cc02	0.0025603776
113	0x374fb809	1.23810105e-05
114	0x3dc4740f	0.09592449
115	0xbdb6d0d6	-0.08926551
116	0x3d8e52a2	0.06949355
117	0xbd9da2a2	-0.07697035
118	0xbd485a99	-0.048914526
119	0xbdd0dfe4	-0.10198954
120	0xbd88fc7f	-0.06688785
121	0xbcadbad5	-0.021207253
122	0x3e05ec54	0.13078433
123	0x3d698855	0.057014782
124	0x3dcaa35e	0.09894441
125	0xbdb91ddc	-0.09038898
126	0xbce28a9e	-0.027653988
127	0xbdd84008	-0.10559088

h3.weight f4 [256, 128]
0	0x3d06a348	0.03287056
1	0x3d9c2451	0.07624114
2	0xbc491eca	-0.012275407
3	0xbdd43706	-0.103620574
4	0x3c6bc8a4	0.014391098
5	0xbdb9bd7a	-0.09069343
6	0xbde11c1b	-0.10991689
7	0x3c968d8e	0.018378045
8	0xbd562ae5	-0.052287
9	0xbe16ae38	-0.14714897
10	0x3c4671f7	0.012112132
11	0x3e1701f0	0.14746833
12	0x3d911ce1	0.07085586
13	0xbd67293d	-0.056435812
14	0xbd701c38	-0.05862066
15	0xbc1ef19c	-0.009701159
16	0xbd0e4dd9	-0.03474221
17	0xbc45dd9b	-0.012076761
18	0x3d90692f	0.07051312
19	0xbdd4974f	-0.10380422
20	0x3d3d373c	0.046195254
21	0xbde00eb7	-0.10940307
22	0x3d275a30	0.040857494
23	0x3db44c78	0.08803648
24	0xbcfa8f6a	-0.030585963
25	0xbd9defe7	-0.07711773
26	0xbcd1d9d7	-0.02561657
27	0xbdaba0b9	-0.08380265
28	0xbdc66486	-0.09687142
29	0x3bcf64d6	0.0063291593
30	0x3d6b8eea	0.05750934
31	0x3ceaa6c2	0.02864397
32	0x3dbc134d	0.09183369
33	0x3d461367	0.048358347
34	0xbd41b475	-0.047291238
35	0x3dc5a492	0.0965053
36	0x3da0630c	0.07831392
37	0x3cb80541	0.022463443
38	0xbd326b03	-0.043559086
39	0xbd4e2e9f	-0.05033743
40	0xbc6c591b	-0.014425541
41	0xbd7456e2	-0.05965317
42	0xbd885d88	-0.06658465
43	0xbce8f810	-0.028438598
44	0x3d774749	0.060370717
45	0xbd986447	-0.074410014
46	0x39c94529	0.00038389236
47	0x3ded29d9	0.115802474
48	0x3d25b4d7	0.040455665
49	0xbd6d7fe0	-0.05798328
50	0x3d24213a	0.04007075
51	0xbd718880	-0.058968067
52	0x3c48a5a8	0.012246527
53	0x3d5477ca	0.051872052
54	0x3da319fa	0.07963939
55	0xbd9e8418	-0.07740039
56	0x3df81808	0.121139586
57	0xbd3b422b	-0.0457174
58	0x3d036e9b	0.032087903
59	0x3d8816c1	0.06644965
60	0xbc2b6a92	-0.01046242
61	0xbb39edc7	-0.0028370486
62	0x3c885c62	0.016645614
63	0x3d224563	0.039616954
64	0x3da07b88	0.07836062
65	0xbd0eab00	-0.034831047
66	0x3d9f99ae	0.07792984
67	0xbd2fa6c7	-0.04288366
68	0xbd01c23f	-0.031679388
69	0x3da6a18e	0.08136283
70	0xbc1bf033	-0.009517717
71	0x3d741c14	0.05959709
72	0x3cda3531	0.026636692
73	0x3d841012	0.06448378
74	0x3d8ed646	0.06974463
75	0xbcaaaac6	-0.020833384
76	0xbe18d52b	-0.14925067
77	0x3b0f069d	0.002182401
78	0xbd5d646b	-0.054050844
79	0x3d4a5d6f	0.04940551
80	0x3dbeb667	0.09312134
81	0xbd3d7c6b	-0.046261232
82	0xbc7e0d9c	-0.015506174
83	0xbda62082	-0.08111669
84	0xbc81b67f	-0.015834091
85	0x3bd43117	0.0064755785
86	0xbc4017c1	-0.011724413
87	0x3c2aa9df	0.010416477
88	0x3c181258	0.009281717
89	0xbcfd20f1	-0.030899497
90	0x3d7c7bd2	0.06164152
91	0x3d4f5f6c	0.05062811
92	0x3ce1e32d	0.027574146
93	0xbd006bfe	-0.03135299
94	0x3d63c898	0.055611223
95	0x3baf59f7	0.005351301
96	0x3c95c517	0.018282456
97	0xbd845a97	-0.06462591
98	0xbc2baeae	-0.010478659
99	0xbc06e99e	-0.00823441
100	0x3dd88b98	0.105735004
101	0xbc3e878e	-0.011628998
102	0x3c924b73	0.017858243
103	0xbd1785cb	-0.03699283
104	0xbd23c632	-0.039983936
105	0xbd1fa5cc	-0.038976476
106	0x3dbe71f2	0.09299077
107	0x3cd9a40b	0.02656748
108	0xbdc38426	-0.0954669
109	0x3dd66f9a	0.10470505
110	0xbddff05b	-0.10934516
111	0x3dbaa5b0	0.09113634
112	0x3c253045	0.010082309
113	0xbd0941eb	-0.03351013
114	0x3d60ef3c	0.05491565
115	0xbc79a092	-0.015236037
116	0xbdc3d249	-0.09561593
117	0x3d3fb1e3	0.046800505
118	0xbc38df97	-0.011283777
119	0xbd2d4e41	-0.042310957
120	0xbc1a7758	-0.009427868
121	0xbd8f6ce8	-0.07003194
122	0xbce71a2c	-0.028210722
123	0x3da833aa	0.08212979
124	0xbd82219d	-0.063540675
125	0x3ca5587d	0.020183796
126	0x3df590db	0.119905196
127	0xbda73137	-0.08163684
128	0x3d7c1af8	0.061549157
129	0x3d95ee11	0.07320798
130	0xbd93ce99	-0.0721714
131	0xbd2cb19b	-0.042161565
132	0xbd27a921	-0.04093278
133	0x3c97e359	0.018541025
134	0xbcd791f2	-0.02631471
135	0x3b67e6bc	0.003538533
136	0xbd0b5626	-0.034017704
137	0x3c91e571	0.017809602
138	0x3df1339b	0.11777421
139	0xbd41879b	-0.047248464
140	0xbe167cbd	-0.14696021
141	0x3d66696e	0.05625289
142	0xbd146a1d	-0.03623401
143	0x3c61ca36	0.013781121
144	0x3d982d2b	0.0743049
145	0xbd316b65	-0.04331531
146	0x3c748698	0.014924668
147	0xbc7aba4b	-0.015303205
148	0x3e0009e0	0.12503767
149	0x3cd721a8	0.026261166
150	0x3d89d20f	0.067295186
151	0x3c7d149a	0.015446806
152	0x3d698cc0	0.057018995
153	0x3dc095f0	0.09403598
154	0xbdad886c	-0.08473286
155	0x3d05975d	0.032615054
156	0x3d22af87	0.039718177
157	0xbdda1d9b	-0.10650178
158	0x3d122de0	0.03568828
159	0x3d18949b	0.037251096
160	0x3db9b668	0.09067994
161	0x3d0f76a2	0.035025246
162	0x3dbc8649	0.092053
163	0xbe04062a	-0.12892976
164	0xbd54866d	-0.05188601
165	0x3db55516	0.088541195
166	0x3db549ef	0.08851992
167	0x3d83b55b	0.06431075
168	0xbdb70276	-0.08936016
169	0x3e10a8a4	0.14126831
170	0xbcdb6c78	-0.02678512
171	0x3d0266ab	0.031836193
172	0xbddc89a1	-0.10768438
173	0x3cb5edb3	0.02220807
174	0xbca55fc9	-0.020187275
175	0xbca349dc	-0.01993268
176	0x3dc0a4fb	0.094064675
177	0x3dce68e4	0.100786
178	0xbcf29435	-0.029611686
179	0x3ce6e9a1	0.028187575
180	0x3e17b332	0.14814451
181	0x3d57fbb5	0.05273028
182	0x3def3b7d	0.11681268
183	0xbddd0b70	-0.10793197
184	0x3d198498	0.037479967
185	0x3d360bc5	0.044444818
186	0xbd9e0305	-0.0771542
187	0xbda57b4e	-0.08080159
188	0x3dde214e	0.10846196
189	0xbd57f9a8	-0.052728325
190	0xbd227398	-0.03966102
191	0x3d2307d4	0.039802387
192	0x3d1191ba	0.035539366
193	0x3cfbcbd3	0.03073684
194	0xbcf16761	-0.02946824
195	0x3dae3909	0.08506972
196	0x3cd7627c	0.026292078
197	0x3d687063	0.056747805
198	0x3da6f2d3	0.08151784
199	0xbcd73d72	-0.026274417
200	0xbc4da8bb	-0.0125524355
201	0xbd457155	-0.048203785
202	0xbd414fee	-0.047195368
203	0xbbfca343	-0.007709892
204	0x3e32c080	0.17456245
205	0xbd0cabfa	-0.034343697
206	0xbd714722	-0.05890573
207	0x3d280534	0.041020587
208	0x3bef7132	0.007307195
209	0xbc4c75c4	-0.012479249
210	0x3d88b50a	0.066751555
211	0x3da4aa64	0.08040312
212	0x3d127d73	0.03576417
213	0x3ddc607d	0.10760591
214	0xbd15cbf0	-0.036571443
215	0xbd8c04ac	-0.068368286
216	0xbc3bcfee	-0.0114631485
217	0x3d19d50f	0.037556704
218	0x3c46e84c	0.012140345
219	0xbdaa5b1c	-0.08318159
220	0x3c03d3c9	0.008046099
221	0xbd49a040	-0.049225092
222	0xbd37696c	-0.044778273
223	0xbcbd7f9a	-0.023132134
224	0xbc2a5b20	-0.010397702
225	0x3d40151f	0.046895143
226	0x3e2d4b3e	0.16923234
227	0xbd8ced90	-0.06881249
228	0xbc178127	-0.009247101
229	0xbd8cd664	-0.06876829
230	0x3dc6e11b	0.09710904
231	0x3c9fc681	0.019503834
232	0x3d15e2fc	0.036593422
233	0x3c9fc27d	0.019501919
234	0x3dcfd16c	0.10147366
235	0xbe20d9b5	-0.15708049
236	0xbd79e5de	-0.061010234
237	0x3d4f43ea	0.050601877
238	0x3e20e31e	0.15711638
239	0xba2bee39	-0.000655863
240	0xbda6565e	-0.08121942
241	0x3d1568f4	0.036477044
242	0x3c7b0d7a	0.015323037
243	0x3da67e36	0.081295416
244	0x3cafeb38	0.021474466
245	0xbc377bc6	-0.0111989435
246	0xbdc1bf9e	-0.09460376
247	0x3c011b89	0.0078801
248	0xbd82617d	-0.06366251
249	0x3dc428a9	0.09578068
250	0x3d70b4f9	0.05876634
251	0xbc964f1c	-0.01834827
252	0x3ca78131	0.020447345
253	0x3e0aa7fb	0.13540642
254	0x3c170ad9	0.009218895
255	0x3c6c47f5	0.014421453

h3.bias f4 [256]
0	0xbb83bda8	-0.0040204115
1	0xbdcd4bf6	-0.10024254
2	0x39906f63	0.0002754881
3	0x3d85794e	0.06517278
4	0x3c5fda04	0.013662819
5	0xbd9795a8	-0.074015915
6	0x3c65110f	0.013981118
7	0xbcb0251c	-0.02150207
8	0x3cf7a0e0	0.030228078
9	0xbd0ae15e	-0.033906333
10	0xbc90ecd1	-0.017691048
11	0xbcd96843	-0.026538974
12	0xbca5b070	-0.020225734
13	0xbd75fa0a	-0.06005291
14	0xbd652716	-0.05594548
15	0xbcb58911	-0.022160085
16	0xbd3431d3	-0.04399283
17	0xbd60153f	-0.05470776
18	0x3b96b5d3	0.004599312
19	0x3b5818e2	0.0032973816
20	0x3d2df006	0.042465232
21	0x3c23c3d3	0.009995419
22	0xbda49dd2	-0.08037914
23	0x3c111805	0.008855824
24	0xbd8fdffc	-0.070251435
25	0xbd783021	-0.060592774
26	0x3bf7971f	0.007555857
27	0xbd2c6df1	-0.042097036
28	0xbdba72f3	-0.09103956
29	0x3bcaf517	0.006193768
30	0xbd85299c	-0.06502077
31	0x3bb6cc13	0.0055785268
32	0xbc8a4591	-0.016878875
33	0x3d2328a5	0.039833684
34	0xbd81de61	-0.063412435
35	0x3d8c85ca	0.06861456
36	0x3d75eb06	0.06003859
37	0xbd90ed67	-0.07076531
38	0xbca53040	-0.020164609
39	0xbd0749d9	-0.03302941
40	0xbdccdc27	-0.10002928
41	0xbccefd19	-0.02526717
42	0xbd864af0	-0.06557262
43	0xbdea2631	-0.11433066
44	0x3d33adee	0.043867044
45	0x3bb09603	0.0053889765
46	0xbd9ec172	-0.077517405
47	0x3b715970	0.003682699
48	0x3d52f2c0	0.051501036
49	0xbd3ba261	-0.045809153
50	0x3cfb4f01	0.03067732
51	0x3bf71abf	0.00754103
52	0xbddb8121	-0.10717989
53	0xbb733ba4	-0.0037114406
54	0x3c20b36b	0.009808402
55	0x3bad7acc	0.0052941795
56	0x3c499394	0.012303252
57	0xbaae4119	-0.0013294547
58	0x3d06ef5a	0.032943107
59	0xbd2b35c3	-0.041799318
60	0x3d258751	0.04041225
61	0x3bf672e1	0.007521019
62	0xbd5667db	-0.052345138
63	0xbdca02b1	-0.098637946
64	0xbd9759df	-0.073901884
65	0xbcd39d3b	-0.02583181
66	0xbd9edd51	-0.077570565
67	0xbc11f2fe	-0.0089080315
68	0xbdc93612	-0.09824766
69	0x3d340f92	0.04396016
70	0xbde15190	-0.11001885
71	0x3cfe2ce0	0.031027257
72	0x3c21d8ff	0.009878396
73	0x3a44b83a	0.00075042585
74	0xbdbe88b1	-0.093034156
75	0xbd30386f	-0.04302257
76	0x3d3a9db5	0.045560557
77	0x3cfd56bf	0.030925153
78	0xbd282dac	-0.04105918
79	0xbc20196b	-0.009771685
80	0xbd20a559	-0.039220188
81	0x3b95d414	0.004572401
82	0xbd4a3759	-0.04936919
83	0xbd395cb0	-0.04525441
84	0x3c93d85b	0.018047502
85	0xbc9a42a4	-0.018830605
86	0x3c7d3ea9	0.015456834
87	0xbdf7c650	-0.12098372
88	0xbd54dc99	-0.05196819
89	0xbd2da39d	-0.042392362
90	0x3c83a71b	0.016070893
91	0xbcecea3d	-0.028920287
92	0x3d2ba985	0.041909713
93	0xbdef88d5	-0.116960205
94	0x3d3d7a2e	0.046259098
95	0xbd1b56fd	-0.037924755
96	0xbbead9e1	-0.0071670865
97	0x3d025428	0.03181854
98	0x3c8a15ff	0.016856192
99	0x3d33455a	0.04376731
100	0xbda4d5bf	-0.08048581
101	0xbb8ebc8e	-0.0043559736
102	0xbcfc644f	-0.03080955
103	0x3d3e9368	0.046527296
104	0x3c599c90	0.013281956
105	0xbcd09a7b	-0.025464287
106	0xbc86f481	-0.01647401
107	0xbc7af73e	-0.015317736
108	0x3c2c6882	0.0105229635
109	0xbd49436c	-0.049136564
110	0xbd3cf838	-0.046135157
111	0xbdf70fdd	-0.120635726
112	0xbd02b0c3	-0.031906854
113	0xbd40fa30	-0.047113597
114	0xbbe95eaf	-0.007121883
115	0x3d4689b2	0.04847116
116	0xbdc79456	-0.0974509
117	0xbdc9108a	-0.09817608
118	0xbc35094d	-0.011049581
119	0x3b5714e1	0.0032818841
120	0x38b4ca79	8.620782e-05
121	0x3d2d228f	0.042269286
122	0xbddf704d	-0.109100915
123	0xbc81eda5	-0.015860388
124	0xbd7d250f	-0.06180292
125	0xbdee1fbe	-0.11627148
126	0x3d05a637	0.032629218
127	0x3c9552aa	0.018227894
128	0xbddb0870	-0.10694969
129	0xbde3f14d	-0.11130009
130	0xbdb851a0	-0.08999944
131	0x3da76120	0.08172822
132	0xbd315f20	-0.04330361
133	0x38bd4bf5	9.0263704e-05
134	0x3d62a172	0.055329747
135	0x3ca97db2	0.020689819
136	0xbd10b825	-0.035331864
137	0xbd21677a	-0.039405324
138	0x3cd35940	0.025799394
139	0xbd50fffd	-0.05102538
140	0xb9bdeca7	-0.0003622521
141	0xbd4e2a22	-0.05033315
142	0xbbb10adc	-0.005402906
143	0xbc284610	-0.01027061
144	0xbd1d1f5e	-0.038359992
145	0xbd3499ac	-0.044091865
146	0x3c012d26	0.007884299
147	0xbd98201d	-0.07428
148	0xbdb8100d	-0.089874364
149	0xbdc086e1	-0.09400726
150	0x3c08a7f2	0.0083408225
151	0xbd84b207	-0.064792685
152	0x3bbdaa34	0.005788112
153	0xbd4cfa25	-0.050043244
154	0xbbd2cf2b	-0.0064333878
155	0xb9df7b3a	-0.00042625685
156	0xbc1f9b44	-0.009741608
157	0x3cdc8a2c	0.026921354
158	0xbcf3e4cb	-0.029772183
159	0xbccb9f1a	-0.024856139
160	0xbd7d344d	-0.061817456
161	0xbc1ea5a4	-0.0096830465
162	0x3c06c941	0.008226694
163	0xbcb6422f	-0.022248356
164	0xbc18bfc5	-0.009323065
165	0x3cd34f4a	0.025794644
166	0x3cf5a6bf	0.029986737
167	0xbcd10937	-0.02551709
168	0xbdbd782b	-0.09251436
169	0xbd74402a	-0.059631504
170	0xbdaf556d	-0.085612155
171	0xbd0fe9f1	-0.035135213
172	0xbd57cef3	-0.052687597
173	0xbc11c51e	-0.008897094
174	0xbc32083f	-0.010866224
175	0xbda38306	-0.07983975
176	0xbd42e04b	-0.047577184
177	0xbd74dfeb	-0.059783857
178	0xbc971551	-0.018442782
179	0xbdf88ce0	-0.12136245
180	0x3d85ff2c	0.06542811
181	0xbc2d03bb	-0.010559971
182	0x3ccce29c	0.0250104
183	0x3bfce129	0.007717271
184	0xbd7067dc	-0.058692798
185	0xbc9dd1d0	-0.019265085
186	0x3da6bdbe	0.08141659
187	0xbdfaf56e	-0.12253843
188	0x3d0725f6	0.032995187
189	0xbdf5b481	-0.11997319
190	0xbd7f55b2	-0.062337585
191	0x3ca9c30a	0.020722885
192	0xbd99dbe5	-0.07512645
193	0xbd24dd4d	-0.04025011
194	0xbaf1207f	-0.0018396525
195	0x3ce46968	0.027882293
196	0xbd25958e	-0.04042583
197	0x3d42a28a	0.04751829
198	0x3bfb9091	0.007677146
199	0x3cab74b8	0.02092968
200	0xbd5d3652	-0.054006882
201	0x3d7ae2f9	0.061251614
202	0xbce1141f	-0.027475415
203	0xbd03a66d	-0.032141138
204	0xbd3be2d7	-0.04587063
205	0x3b7c7aee	0.003852542
206	0xbd716d8e	-0.05894237
207	0xbde0c757	-0.10975521
208	0xbd11bf3a	-0.03558276
209	0xbd8736dc	-0.066022605
210	0x3c3cdbc9	0.01152701
211	0x3c655c02	0.013998987
212	0xbd199d4b	-0.037503522
213	0xbd77177b	-0.060325127
214	0xbda21546	-0.07914214
215	0xbc4f8bfe	-0.012667654
216	0xbd225f38	-0.03964159
217	0x3ce20dc0	0.027594447
218	0xbdb395eb	-0.08768829
219	0x3d6c0bf9	0.057628606
220	0xbd6719cb	-0.056421082
221	0xbdc6ac6a	-0.09700854
222	0xbd8a66e4	-0.06757906
223	0x3b168318	0.0022966322
224	0x3da78740	0.08180094
225	0x3cb8646d	0.022508824
226	0x3c81813d	0.015808696
227	0xbcf9c93a	-0.03049146
228	0xbd89cec6	-0.06728892
229	0x3d111c10	0.035427153
230	0xbda3bbf9	-0.07994837
231	0xbdba2069	-0.09088213
232	0x3cb85e2a	0.022505838
233	0xbda794c6	-0.08182673
234	0xb8718ff4	-5.7592944e-05
235	0xbd99ffa1	-0.075194605
236	0x3cd2bd0c	0.02572491
237	0xbccc1af4	-0.024915196
238	0x3aa7e5fe	0.0012809632
239	0xbcd255fb	-0.025675764
240	0xbc2edae9	-0.010672309
241	0xbd6c95c5	-0.05776002
242	0x3dc98ebe	0.09841679
243	0xbd7b418d	-0.06134181
244	0xbc055578	-0.008138053
245	0x3c8ce85f	0.017200647
246	0x3cedfdff	0.029051779
247	0x3a548ddb	0.00081082963
248	0x3d00ab81	0.03141356
249	0xbd2643a1	-0.04059184
250	0xbcc76f6a	-0.024345119
251	0x3bbb4fe8	0.0057163127
252	0x3d049241	0.03236604
253	0xbd1c2aa6	-0.03812661
254	0xbd8b4e5a	-0.06802054
255	0xbcf02742	-0.029315595

h4.weight f4 [256, 256]
0	0xbd1afcce	-0.03783875
1	0xbc96c76e	-0.018405642
2	0x3cc12914	0.023579158
3	0xbcc86e98	-0.024466798
4	0x3d12ff03	0.03588773
5	0xbbbc1548	-0.0057398416
6	0xbb630a14	-0.0034643458
7	0xbc9c5ddc	-0.019087724
8	0x3a8d9212	0.0010800979
9	0x3d861d01	0.06548501
10	0x3c9b00c9	0.018921273
11	0x3cc3d549	0.023905413
12	0xbd6a43a5	-0.057193417
13	0x3bb96ea4	0.0056589413
14	0x3d4120cf	0.04715043
15	0xbd8b0b36	-0.06789248
16	0x3ceaad9a	0.028647233
17	0xbd827e74	-0.06371775
18	0xbcc6b85d	-0.024257833
19	0xbd7414fe	-0.059590332
20	0xbd0cd774	-0.03438516
21	0x3cacaf30	0.02107963
22	0x3d584506	0.0528002
23	0x3d1e63cd	0.038669396
24	0x3c13f75f	0.009031146
25	0xbcd23cf9	-0.02566384
26	0x3cae8439	0.021303283
27	0xbcab9bed	-0.020948375
28	0xbb03fc39	-0.002013935
29	0x3c13d0b4	0.009021927
30	0xbc9e86df	-0.01935142
31	0x3d13635c	0.03598343
32	0x3d6b75f4	0.057485536
33	0x3d146524	0.036229268
34	0xbc228207	-0.009918696
35	0x3b8c421b	0.0042803413
36	0xbcc557b4	-0.024089672
37	0xbda693e8	-0.0813368
38	0xbd295ac8	-0.04134634
39	0x3d79f695	0.061026175
40	0x3b3bdfd0	0.0028667338
41	0x3c8ddd06	0.017317306
42	0xbc91f1d0	-0.0178155
43	0x3cd3e8bc	0.025867812
44	0x3d5a8968	0.053353697
45	0xbcdf346e	-0.02724668
46	0xbd125560	-0.03572595
47	0xbc2e2d2f	-0.01063089
48	0x3c3abc35	0.011397411
49	0xbc8207ca	-0.015872855
50	0xbcc404ad	-0.02392801
51	0x3d09bf99	0.033629987
52	0xbc2834c7	-0.010266489
53	0x3d0e55bd	0.034749735
54	0x3c6f2947	0.014597244
55	0x3d5c92ba	0.053850867
56	0x3dba63a3	0.091010354
57	0xbd23742e	-0.03990572
58	0x3d9a3fb2	0.0753168
59	0xbcb0a248	-0.021561757
60	0xbc4d193d	-0.012518224
61	0xbd0c5f3d	-0.034270514
62	0xbcf1541f	-0.029459057
63	0x3c35750b	0.0110752685
64	0x3ab088ef	0.0013468544
65	0x3d378bb7	0.044810977
66	0xbd1316b9	-0.035910342
67	0x3d547acc	0.05187492
68	0xbd2c4ad6	-0.042063557
69	0x3d11913a	0.03553889
70	0xbd243366	-0.04008808
71	0xbcf89472	-0.030344222
72	0x3d30d62f	0.04317301
73	0x3cb82763	0.022479719
74	0x3da33371	0.07968796
75	0xbcdcb150	-0.026940018
76	0x3c86f89d	0.01647597
77	0x3c6dc30e	0.014511837
78	0xbd25a253	-0.040438008
79	0x3da0dc0f	0.07854473
80	0x3c239ef6	0.00998663
81	0xbd695d3f	-0.056973692
82	0xbaa4cd02	-0.0012573304
83	0x3aa45bba	0.0012539544
84	0x3d306e1f	0.04307377
85	0x3b87f551	0.004149117
86	0x3d04dccd	0.032437135
87	0x3c466a46	0.0121102985
88	0xbca6c7a0	-0.02035886
89	0xbd15c503	-0.03656484
90	0x3d571999	0.052514646
91	0xbd86ee55	-0.06588427
92	0x3d58c833	0.0529253
93	0xbcbd59ef	-0.023114173
94	0x3cb1f987	0.02172543
95	0x3d679aa3	0.056543957
96	0x3c8aa4f3	0.016924357
97	0xbbae32bc	-0.0053161066
98	0xbc7e590c	-0.01552416
99	0x3ccba1d7	0.024857445
100	0x3d0522b7	0.03250381
101	0x3cf9107c	0.030403368
102	0x3cebfb6a	0.028806407
103	0xbca4de3b	-0.020125499
104	0xbc47e121	-0.012199671
105	0xbb5d84d1	-0.0033801089
106	0xbcabbeb0	-0.02096495
107	0xbd25e620	-0.040502667
108	0x3d290b11	0.04127032
109	0x3c3a8ad3	0.011385637
110	0x3d89fc45	0.0673757
111	0x3cdb63f6	0.026781064
112	0xbcfd3506	-0.030909073
113	0xbca6e6c0	-0.020373702
114	0xbd18ba3f	-0.037286993
115	0xbd8f826e	-0.07007299
116	0xbd5e10c9	-0.054215226
117	0x3bf05bdb	0.007335169
118	0xbd6d54ae	-0.057942085
119	0xbcaa3fd2	-0.020782385
120	0x3cfb7289	0.030694263
121	0xbd29adae	-0.0414254
122	0x3b337daf	0.0027388146
123	0xbcc7ea2a	-0.02440365
124	0xbd0518dc	-0.03249441
125	0x3cbd83d1	0.023134144
126	0x3bb244fe	0.0054403534
127	0xbc960ccf	-0.018316654
128	0xbae34fab	-0.0017342468
129	0x3b742f29	0.0037259555
130	0xbd0c4e55	-0.03425439
131	0xbd311dd5	-0.04324134
132	0x3d93930f	0.072057836
133	0xbd3eb3ad	-0.04655807
134	0xbd227a88	-0.039667636
135	0xbcaa2d81	-0.020773651
136	0x3d825592	0.063639775
137	0xbb9f6808	-0.0048646964
138	0xbd86bf02	-0.065794006
139	0x3bd09cd3	0.006366351
140	0x3d84f687	0.06492334
141	0x3d09b439	0.03361914
142	0xbbc6894b	-0.006058847
143	0x3d2d8438	0.04236242
144	0xbd1e9ff1	-0.03872675
145	0xbb79bc98	-0.0038106795
146	0xbccf6379	-0.025315987
147	0xbcf63d42	-0.030058507
148	0x3d0edcb0	0.034878433
149	0xbc91de8c	-0.017806314
150	0x3b628ea3	0.0034569881
151	0xbcfc9b55	-0.030835787
152	0x3d9cab17	0.0764982
153	0x3d029988	0.0318847
154	0x3da7ea95	0.0819904
155	0xbd1148ba	-0.035469748
156	0x3c92e7e3	0.017932838
157	0x3c9acbbb	0.018895974
158	0xbd255357	-0.040362682
159	0x3c9db694	0.0192521
160	0x3d298579	0.041387055
161	0x3d7480c3	0.05969311
162	0xbd47c541	-0.0487721
163	0xbc0378d5	-0.008024414
164	0x3c73b1e1	0.014873953
165	0x3caedc87	0.02134539
166	0x3c5ff8f8	0.013670199
167	0x3c9a0c9b	0.018804839
168	0xbc840c30	-0.016119093
169	0xbd317b98	-0.04333076
170	0x3d1dbf87	0.038512733
171	0xbcf3a478	-0.02974151
172	0xbd342e38	-0.04398939
173	0xbd5e59c5	-0.05428483
174	0x3c9a2594	0.018816747
175	0x3cec436e	0.028840747
176	0xbce77fcd	-0.028259182
177	0x3b1f73a4	0.0024330402
178	0xbd09ddac	-0.03365867
179	0x3b6e52dd	0.0036365308
180	0x3d3e1ce6	0.04641428
181	0x3c1df90d	0.009641898
182	0xbd07df3d	-0.03317188
183	0x3c031f3f	0.008003055
184	0x3b9177ac	0.004439315
185	0xbcc920f1	-0.02455184
186	0x3b2d3697	0.0026430243
187	0x3c5d68ea	0.013513783
188	0x3d9953a2	0.07486655
189	0x3ca9d2da	0.020730425
190	0xbd544df6	-0.05183216
191	0x3cc0b32b	0.023522934
192	0xbc96c5f1	-0.018404933
193	0x3d1058c1	0.035240892
194	0x3d8210be	0.063508496
195	0xbddbe046	-0.10736136
196	0xbcd18d9f	-0.025580226
197	0xbd5d9c3d	-0.05410408
198	0x3bbe066d	0.005799106
199	0x3d29edb3	0.041486453
200	0x3a7b0132	0.0009575068
201	0x3d1e2393	0.038608145
202	0xbc510404	-0.012757305
203	0xbcaa1ac1	-0.02076471
204	0xbcdf6b78	-0.027272925
205	0x3d806a82	0.06270315
206	0xbce5ab9e	-0.028035935
207	0xbcb21369	-0.021737771
208	0x3d11c9f1	0.035592977
209	0x3d2d5171	0.042313997
210	0x3caaf8cf	0.020870594
211	0xbd00b07a	-0.0314183
212	0x3d934a44	0.071918994
213	0x3d399110	0.045304358
214	0xbd891bc5	-0.0669475
215	0x3d025a43	0.03182436
216	0xbdab5385	-0.083655395
217	0x3cd30299	0.025758075
218	0x3aaf24a6	0.0013362363
219	0x3c455c1a	0.0120458845
220	0x3a9bfd9f	0.0011901146
221	0xbb72e6fb	-0.0037063945
222	0x3c7cc79a	0.015428448
223	0xbd06e9e6	-0.032937907
224	0xbd961b84	-0.07329467
225	0xbcbf63b8	-0.02336298
226	0xbc259897	-0.010107181
227	0x3cf2374a	0.02956738
228	0x3bb70001	0.0055847173
229	0xbd7a6c7a	-0.061138608
230	0x3b4cc0da	0.0031242878
231	0x3ac899a4	0.0015304578
232	0xbd24ab9f	-0.040202733
233	0x3d923c1e	0.07140373
234	0xbd92b67f	-0.071637146
235	0x3cb4f59a	0.022089768
236	0xbd707e2d	-0.05871408
237	0x3d64aaf1	0.055827085
238	0xbd153072	-0.036423154
239	0x3bbb71f7	0.005720373
240	0xbb951955	-0.004550139
241	0x3d89d6f2	0.06730451
242	0x3d4e7e17	0.050413217
243	0x3d225071	0.039627496
244	0xbc14475e	-0.009050218
245	0xbd0ae08b	-0.033905547
246	0xbcd6574c	-0.026164673
247	0xbcd3b09c	-0.02584105
248	0xbd08edec	-0.033430025
249	0xbccb8dae	-0.024847832
250	0xbc4df6a0	-0.012571007
251	0xbbf1d3ba	-0.007379976
252	0x3d67f0cd	0.05662613
253	0xbce99684	-0.028514154
254	0xbd11abe0	-0.035564303
255	0xbcc8c38e	-0.02450731

h4.bias f4 [256]
0	0xbbecbc1f	-0.007224574
1	0x3b810e58	0.0039384775
2	0x3ba4f62d	0.0050342293
3	0xbc9add54	-0.018904366
4	0x3bc8174f	0.006106294
5	0x3a9affc5	0.0011825493
6	0xbc4a6719	-0.012353682
7	0x3ab78ff9	0.0014004699
8	0x3b81ec0f	0.003964908
9	0xbb5d1d79	-0.003373949
10	0xbd8b535d	-0.0680301
11	0xbc1bb9d4	-0.009504754
12	0x3a2d2d5a	0.0006606184
13	0xbb70bcb9	-0.0036733581
14	0xbbb9c80c	-0.0056695994
15	0xbb66d8f0	-0.003522452
16	0xbbb84d67	-0.0056244615
17	0xbc3e68a4	-0.011621628
18	0x3a066445	0.00051266357
19	0xbb642855	-0.0034814079
20	0xbbc02ffd	-0.0058650956
21	0xbd14c27d	-0.03631829
22	0x3b157cc4	0.0022809962
23	0xbc8e4bb7	-0.017370088
24	0x3c1cc7aa	0.009569088
25	0xbc5347cf	-0.0128955385
26	0xbb8bc7fa	-0.0042657824
27	0x3b8f235e	0.00436823
28	0x3b772235	0.0037709598
29	0xbc2d9576	-0.010594716
30	0xbb187600	-0.0023263693
31	0xbb4c9c68	-0.0031221155
32	0xbc80b635	-0.015711883
33	0xbd619352	-0.055072136
34	0xbaf895ec	-0.0018965579
35	0xbc884f5e	-0.016639408
36	0xbc447e7b	-0.011993046
37	0xbb52ee36	-0.0032185442
38	0xbddab250	-0.10678542
39	0xbbdba406	-0.0067029027
40	0x3b1bf2bf	0.002379581
41	0x3ba5036e	0.0050358092
42	0x3bb48a6e	0.005509666
43	0x3c6ce60e	0.014459146
44	0xbc718c64	-0.014742944
45	0x3a42141a	0.0007403508
46	0x39dd81be	0.0004224907
47	0x3c287a48	0.01028306
48	0xbc3e01c0	-0.011597097
49	0x3cdca60b	0.026934644
50	0xbc6fb679	-0.014630907
51	0xbc4de0b2	-0.012565779
52	0xbca02fee	-0.019554105
53	0xbc1ef779	-0.009702557
54	0xbb543ab3	-0.003238362
55	0x3b4b4a20	0.0031019524
56	0xbca5844e	-0.02020469
57	0x3be797d7	0.0070676613
58	0x3bd86756	0.0066041155
59	0xba283cd4	-0.00064177555
60	0xbb63ff06	-0.0034789457
61	0x3bc53a0e	0.0060188835
62	0x3c1a8b64	0.009432647
63	0xbaaae389	-0.0013037781
64	0x3c804e1e	0.01566225
65	0xbc6362ae	-0.013878508
66	0xbbd4499b	-0.006478501
67	0xbc74bcb9	-0.014937573
68	0x3b9df2eb	0.004820218
69	0xbd0b1aa4	-0.033960953
70	0x3a97863b	0.001156039
71	0xbc193532	-0.009351062
72	0x3c4cbf33	0.012496757
73	0xbc68933c	-0.01419526
74	0xbd333d59	-0.043759678
75	0xbba5abda	-0.0050558867
76	0x3b2873e6	0.0025703846
77	0xbe151307	-0.1455804
78	0xbbd0adbe	-0.006368368
79	0xbc106833	-0.0088139055
80	0x3ccadedd	0.024764473
81	0x3c390cc0	0.011294544
82	0xbc05c49a	-0.008164549
83	0x3c5226bd	0.012826619
84	0x3c5848d4	0.013200957
85	0xbc235a1d	-0.009970215
86	0xbc4e7c96	-0.012602946
87	0x3da8afb9	0.082366414
88	0xbc4626d8	-0.012094222
89	0xbb9192cf	-0.00444255
90	0xbb67cdc8	-0.0035370458
91	0x3c203f58	0.009780727
92	0x39770006	0.00023555764
93	0xbbf9977c	-0.0076169353
94	0xbc271793	-0.010198492
95	0x3c28a00c	0.010292064
96	0xbb20485e	-0.0024457197
97	0xbab1e1de	-0.0013571342
98	0xbb223831	-0.002475273
99	0x3a1cb80d	0.00059783534
100	0x3ba6e2ee	0.00509297
101	0xbc24c1e2	-0.010055991
102	0xba6b2fb1	-0.0008971645
103	0x3d03b492	0.032154627
104	0xbae11e86	-0.0017175234
105	0xbd1b92e3	-0.03798188
106	0x3b95f52c	0.004576346
107	0xbc22ed7b	-0.009944315
108	0x3b01bab4	0.0019795122
109	0xba4b21a3	-0.0007748848
110	0x3b088355	0.0020830233
111	0xbc9d7922	-0.0192228
112	0xbaeea35a	-0.0018206642
113	0xbc89c29a	-0.016816426
114	0xbbd40dec	-0.006471386
115	0xbc07ece0	-0.0082962215
116	0x3c59098a	0.013246903
117	0xbbf2564d	-0.0073955418
118	0xbc38fb06	-0.011290317
119	0xbc1bb502	-0.009503605
120	0x3c1b63db	0.009484257
121	0xbc8e4ea9	-0.017371492
122	0x3c037057	0.008022389
123	0xbc911e31	-0.017714592
124	0xbc2b2460	-0.010445684
125	0xbd95179d	-0.072798945
126	0x3c0ba07a	0.008522147
127	0xbc413c97	-0.011794231
128	0xbb00f5d8	-0.0019677784
129	0xba78a9a7	-0.00094857294
130	0xb828ba9e	-4.0228122e-05
131	0xbc5f8f07	-0.01364494
132	0x3a8ee502	0.001090199
133	0xbc3bb5aa	-0.011456886
134	0xb63d51bd	-2.8210773e-06
135	0xbcb7bb4c	-0.022428177
136	0x3a98aed5	0.0011648784
137	0xbcb394a3	-0.021921461
138	0xbaacaa73	-0.0013173356
139	0xbc6a3d58	-0.014296852
140	0x3c32bf2b	0.010909836
141	0x3a8f4dc1	0.0010933207
142	0xbc88f52c	-0.01671847
143	0xbc07aa08	-0.008280285
144	0xba2ec910	-0.0006667534
145	0xbc1e1eed	-0.009650928
146	0x3c3da511	0.011574999
147	0x3c26a847	0.010171956
148	0xbc155d9b	-0.009116556
149	0x3defc159	0.117068
150	0xbc5a102b	-0.013309519
151	0x3b83d39b	0.004023028
152	0xba7eb701	-0.0009716601
153	0xbcee9434	-0.029123403
154	0x3a58bb83	0.00082676875
155	0x39da6444	0.00041654904
156	0xbc71e33a	-0.014763648
157	0xb9e5f347	-0.0004385954
158	0xbc0bd35f	-0.0085342815
159	0xb97f14b9	-0.00024326415
160	0x3aae8f3b	0.0013317832
161	0xbbeacd02	-0.007165552
162	0x3af42430	0.0018626507
163	0x3a8df284	0.0010829722
164	0xbc4d54e5	-0.012532447
165	0xbc2af983	-0.010435465
166	0x3b50ae04	0.0031842003
167	0xbd161615	-0.036642153
168	0xbbfb88d3	-0.007676223
169	0xbc22c3f3	-0.009934413
170	0xbc45c92b	-0.012071888
171	0xbc72f866	-0.014829731
172	0x3b4dacc8	0.0031383503
173	0xbc037157	-0.008022628
174	0x3bfe6e2e	0.0077645993
175	0x3b566319	0.0032712875
176	0x3d268ea3	0.040663373
177	0x3b7eadd6	0.0038860939
178	0xbbcae2cf	-0.0061915885
179	0x3bf50370	0.0074772164
180	0xbc64afb8	-0.01395791
181	0xbc34bf28	-0.011031903
182	0xbcb0a393	-0.021562373
183	0x3b752882	0.0037408178
184	0xbc8fbe82	-0.017546896
185	0xbb1e2083	-0.0024128265
186	0x3d7275d9	0.05919442
187	0x3b136456	0.0022490225
188	0xbc66376b	-0.014051299
189	0xbc04ccf8	-0.008105509
190	0xbbf49dbd	-0.007465093
191	0xbc4b3ef3	-0.012405145
192	0xba84c276	-0.0010128755
193	0xbaa26f29	-0.0012392747
194	0xbbb60225	-0.005554455
195	0xbc43b0b4	-0.011943985
196	0xbcd55669	-0.02604218
197	0xbdd01cec	-0.101617664
198	0xbc3a4549	-0.011369058
199	0xbc32f69e	-0.010923056
200	0xbc75e795	-0.015008827
201	0x3c0d71df	0.008633106
202	0x3abe08ae	0.0014498436
203	0x3c2add21	0.010428698
204	0x3baf68ca	0.005353068
205	0x3c4507f1	0.012025819
206	0xbbc70fdd	-0.006074889
207	0xbc66a0ad	-0.014076394
208	0xbccf409d	-0.025299365
209	0x3c30f825	0.01080135
210	0xbc6987c4	-0.01425356
211	0xbb6d43ce	-0.0036203745
212	0x3d9d55aa	0.07682355
213	0xbaa3737f	-0.0012470334
214	0x3bfe3704	0.007758023
215	0xbc03b5f6	-0.008038988
216	0xbb18abac	-0.0023295684
217	0xbc29e840	-0.010370314
218	0xba1b2e32	-0.00059196644
219	0x3af09ba1	0.0018356928
220	0xbbf54b86	-0.0074858097
221	0x3a4c9712	0.00078044937
222	0xbcbdbfc7	-0.023162736
223	0x3d2bc2eb	0.041933935
224	0xbbae0ea9	-0.005311806
225	0xbb0b9025	-0.0021295634
226	0xbc3b066e	-0.011415107
227	0xb9786101	-0.0002368726
228	0xbc4f48f3	-0.01265167
229	0xbc23b07e	-0.0099908095
230	0xbc8d0141	-0.017212512
231	0xbbfb6715	-0.0076722004
232	0xbc62e959	-0.01384958
233	0x3acc0442	0.0015565234
234	0x3d31b560	0.043385863
235	0xbacf83d0	-0.001583213
236	0xbc2820a5	-0.010261689
237	0xbce01cde	-0.027357515
238	0x3aa2563c	0.0012385319
239	0x3be27339	0.0069107083
240	0x3ac5894b	0.0015070824
241	0x3c0767ae	0.008264465
242	0xbae92d20	-0.0017789938
243	0xbcec63b4	-0.028856136
244	0xbd45076d	-0.048102785
245	0xbbb3a487	-0.0054822597
246	0x3b125158	0.0022326317
247	0xbc1d3b79	-0.009596699
248	0x3c39c4a9	0.011338391
249	0xbb9a91a6	-0.0047170697
250	0xbc646c0d	-0.013941777
251	0xbc8c8017	-0.017150922
252	0x3bf4d493	0.00747163
253	0xbc52f25d	-0.012875167
254	0xbc803281	-0.015649082
255	0xbbf4960c	-0.007464176
