PPO/pi_v1.pth (torch, 702267 bytes, 14 tensors)

h1.weight f4 [64, 9]
000000 ae 36 68 3e eb 17 6b be 6e a9 82 3e ac 3e 80 3e
       0.22677109 -0.22958343 0.2551989 0.25047815
000010 78 4d 7e 3e d7 d8 2a be 67 52 60 3e 88 2c 52 3e
       0.2483424 -0.1668428 0.21906434 0.205248
000020 2f be a9 3e 7a ee c3 3d 1a 5c 96 be 4e 45 84 3e
       0.3315291 0.0956697 -0.29367143 0.25834125
000030 da 9d a4 be e9 03 97 3e b1 e9 a1 bd 0f fb 5e 3e
       -0.3215168 0.2949517 -0.07905901 0.21775459
000040 27 ff fe bd 28 f4 49 be bf f1 0b be e2 84 4b 3e
       -0.1245101 -0.19722044 -0.13666438 0.1987491
000050 8b 8e 9f 3e 99 d6 79 3e b0 75 c4 3d c7 12 6d 3e
       0.3116344 0.24398269 0.095927596 0.23151694
000060 b5 b2 7a bd d7 dd 9d bd f4 73 19 bd eb 5b a2 be
       -0.061205585 -0.07708328 -0.037464097 -0.31710753
000070 18 ec 94 bd d8 4c 73 be 45 77 9f be 21 93 4d be
       -0.07271594 -0.23759782 -0.31145683 -0.20075656
000080 90 a6 4c be 36 fb 31 be 11 03 7f 3c 10 93 97 3e
       -0.19985414 -0.17380986 0.015564696 0.29604387
000090 68 41 7c bd b9 0b 8b be 24 c7 18 3e 09 84 42 be
       -0.061585814 -0.2715738 0.14919716 -0.1899568
0000a0 c2 4c 67 be 1d d3 58 3e 5d f8 73 be 4e a8 13 3e
       -0.22587875 0.21174283 -0.23825212 0.14419672
0000b0 61 15 77 3d f7 fa c8 3d fd 17 5d 3d 5c e3 a2 3e
       0.060323123 0.09813493 0.053977955 0.31814086
0000c0 47 2b 92 be 1c 8b 1d be 27 f5 85 3e 08 ab 52 3d
       -0.28548643 -0.15385097 0.261636 0.05143264
0000d0 01 38 10 3e 1a 49 9f 3e 6a fa 8d be e9 3f 54 bd
       0.14083864 0.3111046 -0.27730113 -0.051818762
0000e0 79 a9 aa be c1 00 49 3e fe e5 a1 be fd e4 50 be
       -0.33332422 0.19629194 -0.31620783 -0.20399852
0000f0 d6 9b 58 3e 4a 7e 56 3e da 45 7d 3e 5a 24 c3 3d
       0.21153197 0.20946613 0.24733678 0.09528418
000100 2d f9 61 3e 53 3f 9b be 7c 5a 74 bd e5 2d 21 3d
       0.2206771 -0.3032175 -0.059656605 0.03935041
000110 19 84 9f be 69 64 2a bc bd 21 a5 3d e4 26 3a 3e
       -0.3115547 -0.010399916 0.08063076 0.18178898
000120 0e 8d ac 3e f8 34 95 be 7b e6 12 be 09 4f 07 bd
       0.33701366 -0.29141974 -0.14345734 -0.03303436
000130 dd 36 a7 3e 91 1b 0f 3d 06 16 16 be 01 b4 92 be
       0.32659045 0.0349384 -0.14656839 -0.28652957
000140 27 be 86 bd 8c 67 20 3e c0 66 66 bd 2f e1 09 3e
       -0.065792374 0.156645 -0.056250334 0.13464807
000150 50 c2 2a 3c ee fa 03 bc eb a8 03 3e e2 5a be bb
       0.010422304 -0.008055432 0.12857406 -0.005809174
000160 ca d6 88 bd bd 94 9c 3d c3 83 51 3e ce 2f 38 be
       -0.06681593 0.07645557 0.2046042 -0.17986986
000170 dc ff 80 bd 4e 37 37 be 84 77 9d 3d 91 00 03 3e
       -0.06298801 -0.17892191 0.076888114 0.12793185
000180 dc 2e 6e 3e ea c4 40 3d 00 1e 12 be c2 d5 3a bd
       0.23260063 0.047062792 -0.14269257 -0.04561401
000190 46 f3 50 3e 57 ff 79 3e 5c 45 f2 bd 23 5d 93 be
       0.20405301 0.2441381 -0.118296355 -0.28781995
0001a0 b3 3e 43 be 52 c1 a2 3e b8 da 1e 3d a7 9d 77 bd
       -0.19066887 0.31788117 0.038782805 -0.060453083
0001b0 72 d8 14 3e 4e 23 99 3e 2e 6a b3 3d 04 1c 1c bd
       0.14535692 0.29909748 0.087604865 -0.038112655
0001c0 4b d3 9f 3d 99 18 2c 3d f7 91 91 3e 53 a3 e4 3d
       0.07803973 0.042015646 0.28431675 0.11163964
0001d0 2d c0 85 bd 1a bf 07 3e 2f 3b 4f be 5b 77 53 be
       -0.06530795 0.13256493 -0.2023742 -0.20650999
0001e0 d0 db 28 3e cb 1b 89 bd 43 ab e4 bd de 94 bf 3d
       0.16490102 -0.06694754 -0.11165478 0.09354566
0001f0 88 78 4f bd dc 2c da bd 82 d2 a8 3e d4 35 bf bd
       -0.050652057 -0.106530875 0.32973105 -0.09336439
000200 95 67 72 bd e2 96 68 be 52 52 d2 bc f3 28 29 3e
       -0.059180815 -0.22713807 -0.025674019 0.16519527
000210 bb d2 a7 be 4f ee be bc 75 3a 2c be 3f d8 63 be
       -0.32777962 -0.023306994 -0.16819175 -0.2225046
000220 ac 99 d7 bd b2 68 a0 3d 1c 35 a5 3b b3 b6 53 3e
       -0.105273575 0.07832469 0.0050417315 0.20675163
000230 fd c6 a1 3e 79 98 5b 3d 23 9f f1 bd 84 70 7d 3d
       0.3159713 0.053612206 -0.11797931 0.06187488
000240 29 b2 5a 3e fb 01 85 bd 0b b9 53 be a1 62 a4 be
       0.21357025 -0.06494518 -0.20676057 -0.32106498
000250 da f2 ed bd 20 d5 e0 3d 17 59 fb 3d 08 e6 0b be
       -0.11618586 0.1097815 0.12272852 -0.13661969
000260 e3 b2 06 3e da fd 53 3e 18 e2 80 be f0 4e 36 3e
       0.13154177 0.20702305 -0.25172496 0.1780355
000270 96 50 9f be fd 1c d9 3d 9e f1 f8 3d 49 52 b5 be
       -0.3111617 0.10601232 0.1215546 -0.3541434
000280 a9 31 00 3e b8 7a 77 be a2 31 93 be 18 bb af be
       0.12518944 -0.24167907 -0.28748804 -0.3432243
000290 6f af 95 3e 56 6f 37 3e dc 99 ec 3d f9 4a 69 be
       0.29235408 0.17913565 0.11552784 -0.22782506
0002a0 b4 1a 24 be f9 7a 01 3d d7 58 16 be 74 68 a0 3e
       -0.16025811 0.031611416 -0.14682327 0.3132969
0002b0 aa 19 66 3d b2 aa 8b be c7 4f 02 3e 6d 36 74 3d
       0.05617682 -0.27278668 0.12725745 0.059622217
0002c0 59 dc 25 be c7 71 a4 3e ae d8 ff bb c3 55 71 3e
       -0.16197337 0.32118055 -0.0078078127 0.23567872
0002d0 1a b9 f6 3d 6b 63 90 bd f5 b1 80 be 9e 83 19 bd
       0.12047024 -0.070502125 -0.2513577 -0.037479036
0002e0 ff f6 38 be 77 20 0e be 4f bd 5a 3e f3 a5 a5 bd
       -0.18062972 -0.13879572 0.21361278 -0.08088293
0002f0 20 22 9d 3e 08 18 d7 3c 61 74 56 be 67 87 75 be
       0.30690098 0.026256576 -0.20942833 -0.23977433
000300 f2 97 30 3d 8d 65 8a 3d 14 30 ec bc f3 3d 25 3e
       0.043113656 0.067576505 -0.02883152 0.16136913
000310 8a 81 5d be e5 96 ad 3e 1b 1f 2d 3e 62 e7 60 be
       -0.21631446 0.33904186 0.16906397 -0.21963266
000320 65 ac 2d be 3d d4 83 3d c6 17 3a 3e 00 e9 03 be
       -0.16960295 0.064369656 0.18173131 -0.12881851
000330 fb c3 4d be d8 79 03 3c 06 60 99 3e 3b 10 5e be
       -0.20094292 0.008024655 0.29956073 -0.21685879
000340 0d 77 cb 3c f7 14 7b 3e d0 2a 18 bd d0 a5 22 3c
       0.024837041 0.24519716 -0.037150204 0.009927228
000350 ab 52 ab bd dc b8 5d be cc 7b 4b 3e fb f8 a7 3e
       -0.08365377 -0.2165255 0.19871444 0.32807145
000360 dc 66 f3 bd b0 01 85 be 4d 68 90 be 3c 45 5a 3e
       -0.11884853 -0.2597785 -0.28204575 0.21315473
000370 ed 64 55 bd 75 8a 30 be 82 3e b2 3e 9d 4f 2a 3e
       -0.052098203 -0.17240317 0.34813315 0.16631933
000380 b8 30 9e 3e cd c8 61 bc 0b fc 50 3e 17 64 b2 3e
       0.30896544 -0.013780785 0.20408647 0.34841987
000390 ee 6a a0 3e 07 8f 9b be 2d aa 97 be b1 4c e1 bd
       0.3133158 -0.3038256 -0.2962202 -0.11000956
0003a0 39 87 b6 3d 6d 6f 4e 3d 73 eb 8f 3d 74 9a 86 bd
       0.089125104 0.050399233 0.0702733 -0.06572428
0003b0 48 ca 0c bc 35 e7 fd bd 41 95 95 be 44 2f 6f 3d
       -0.0085931495 -0.12397615 -0.29215434 0.058394685
0003c0 76 d0 fa 3d 5a c9 a8 3e 74 29 f6 bd c1 60 60 bd
       0.12246792 0.3296612 -0.12019625 -0.05477977
0003d0 40 ab 3c 3e dd ed 16 3e f5 bc a7 3e de 32 23 be
       0.18424702 0.14739175 0.3276135 -0.15937373
0003e0 1a 5d 0a be 4f c8 0a 3e 24 83 14 be 98 5a 3c bd
       -0.13512078 0.13552974 -0.14503151 -0.045984834
0003f0 34 44 a9 3e 51 bf 2a be 9c af a1 3e fa b6 85 3e
       0.33059847 -0.16674544 0.31579292 0.26116163

h1.bias f4 [64]
000000 dc 71 6e be db 15 a9 bd 15 18 a8 3e fe 61 83 be
       -0.23285621 -0.08256122 0.32830873 -0.256607
000010 26 46 d8 bd cf 41 85 3d c0 a9 93 3d 51 a7 33 3e
       -0.10560255 0.065066926 0.072101116 0.17544295
000020 b0 28 58 be 2f bd a8 be 4f 79 7a be af a8 5e be
       -0.21109271 -0.32956836 -0.24460338 -0.21744035
000030 08 12 22 3e cc 52 b0 be d7 99 9d bc d0 84 9d 3e
       0.15827191 -0.3443817 -0.019238396 0.3076539
000040 d7 5b 60 be d7 2b 9c bd 26 d1 70 3e 91 f8 2d be
       -0.21910034 -0.07625549 0.23517284 -0.16989352
000050 d6 f2 0a 3e a8 84 1d be 9b 40 ac 3e 92 2a 9a be
       0.13569197 -0.15382636 0.3364304 -0.30110604
000060 e1 4b 68 be cd 10 b1 3e 51 78 4a 3e 77 2f bf bd
       -0.22685196 0.3458313 0.1977246 -0.09335225
000070 cf ad 87 be 2b 36 5e be 4e 38 5e be 11 89 20 be
       -0.26499793 -0.21700351 -0.21701166 -0.15677287
000080 5b de ca bd b6 3f d5 bd 04 5f 8e 3e f2 d8 75 3e
       -0.09905692 -0.104125425 0.27806866 0.2400854
000090 a6 3d 7b 3e 06 43 5f 3c f4 3b 47 3e f2 67 05 be
       0.24535236 0.0136268195 0.19456464 -0.13027933
0000a0 4b 5d 0b be e0 a9 f4 bc f0 9c 12 be 36 48 52 be
       -0.13609807 -0.029866159 -0.1431768 -0.20535359
0000b0 d8 e3 94 be ca 9c 8d 3e 66 6d c7 3d 9e a2 6e bd
       -0.2908008 0.27658683 0.09737663 -0.058260553
0000c0 67 1a 85 3e c8 3e 10 be ac 56 81 bd 33 41 94 3e
       0.25996706 -0.14086449 -0.063153595 0.28955993
0000d0 a9 0f 8e 3e 8c 7e 08 bd 14 54 a5 3a d7 d3 37 3e
       0.27746323 -0.03332381 0.0012613558 0.17951904
0000e0 04 39 a2 be 06 ff 17 3e 49 76 eb 3d 5a c3 f5 bd
       -0.31684124 0.14843377 0.114971705 -0.12000151
0000f0 5c 34 f9 3d d5 06 09 bd b7 73 96 3e 5a 1a 0e be
       0.1216819 -0.03345378 0.29385158 -0.1387724

h2.weight f4 [128, 64]
000000 48 fd 51 3d 8c d1 30 bd 91 da f0 bd ff cd 68 bd
       0.05126694 -0.04316859 -0.11760438 -0.05683708
000010 b6 5a 4f bc 57 2b 5c 3d 7b ce 36 3b c4 c6 d6 3d
       -0.0126559045 0.05375227 0.0027894068 0.1048713
000020 a5 77 04 3e 4c 29 61 3d 2b 80 a3 bd 65 fd 66 3d
       0.12936266 0.054971024 -0.079834305 0.056394
000030 4e 0e cd bd d2 2b 8d 3d 2b ef ad bd 23 d2 d7 3d
       -0.10012494 0.06893124 -0.08492883 0.10538127
000040 d6 ad 02 be 5e 13 a2 3c 07 e3 ed bd c0 ab 19 bd
       -0.12761626 0.019784626 -0.11615568 -0.03751731
000050 0c 32 ca 3d 12 68 8c 3c 89 78 b0 3d 7a 18 9a 3d
       0.09872827 0.017139468 0.0861674 0.075242
000060 b1 ba f3 3c 83 e0 79 3d df e0 8c bd 56 71 a0 bd
       0.029752107 0.061005127 -0.06878828 -0.07834117
000070 a7 9e 33 bd a4 c5 6b bd eb 53 c0 3d a9 97 87 bd
       -0.043852475 -0.05756153 0.09391006 -0.06620724
000080 5d cc a3 bc 84 59 33 bd 1d 81 84 bd ef e3 c2 3d
       -0.019994909 -0.04378654 -0.06469939 0.09516131
000090 69 b6 99 3d b5 33 b9 3c ad 50 59 bd 7c 44 9e bd
       0.07505495 0.022607664 -0.053055454 -0.07727906
0000a0 11 a1 de 3d 5a a2 ca bd 59 31 be bd 12 0e 90 bc
       0.10870565 -0.09894247 -0.09286756 -0.017584834
0000b0 f6 87 7d b9 56 44 e9 3d 2d 7f b6 3d f0 67 c4 3d
       -0.0002417861 0.11389987 0.089109756 0.09590137
0000c0 46 57 a8 bd c7 d9 16 3e d5 a8 d2 3c 62 cd 1b 3d
       -0.08219771 0.14731513 0.025715271 0.038037665
0000d0 df 7d bf 3d da 46 fa bd 2c a8 8f 3d e1 e6 bd 3d
       0.0935018 -0.12220545 0.07014498 0.09272552
0000e0 81 44 de 3c e1 bc b3 bd 9d f5 1e bd 26 39 97 3c
       0.027132275 -0.0877626 -0.038808454 0.018459868
0000f0 87 bc c8 bd 1d ef 99 bd f6 f7 cd 3d 2d b4 b0 bd
       -0.09801584 -0.0751631 0.100570604 -0.08628116
000100 8d 4f f1 3c 43 21 0b be 60 ff 48 3d 9c be 0d 3e
       0.029456878 -0.13586907 0.04907167 0.13842243
000110 37 b5 b4 3d 87 52 ad 3d 80 89 1e bc cc 6e ba bd
       0.088236265 0.084630065 -0.009676337 -0.09103164
000120 f4 68 13 be af 14 b8 bd be 71 0e bd 76 94 ec 3d
       -0.14395505 -0.0898832 -0.03477644 0.11551754
000130 7a 19 b2 bd 1c c6 50 bc 1f d8 e1 3d 9a ea 07 bd
       -0.086962655 -0.012742545 0.1102755 -0.033182718
000140 fc c4 96 bd 88 16 06 3c 6f 42 ce 3d e6 ea d4 3c
       -0.073617905 0.008184083 0.10071265 0.025990915
000150 0b d8 13 bd d1 fa 81 bc 5f 42 03 3e 6a 4f a5 3d
       -0.036094707 -0.015866669 0.12818287 0.08071788
000160 70 2c dd bd ad 45 d4 bd 5c 08 cc 3d 28 a9 07 bd
       -0.107994914 -0.10364852 0.09962532 -0.033120304
000170 79 b9 dd bd 99 48 d3 bd fa 3d 9b bd 48 24 67 bc
       -0.10826392 -0.10316581 -0.075801805 -0.014107771
000180 93 e0 82 bd b4 75 e0 3d b1 65 b3 bd cf 98 91 bc
       -0.063904904 0.1095995 -0.087596305 -0.01777306
000190 66 8f 85 bd ce 1a c8 bc ef 9e cd 3c 88 54 81 3d
       -0.06521492 -0.024426844 0.0251002 0.06314951
0001a0 51 2c 36 3c 82 8f 8a 3c 25 72 f9 bd 30 77 a1 3d
       0.011118964 0.016914133 -0.121799745 0.07884061
0001b0 8b 50 ac 3c ce e3 00 be d6 c1 d3 bd d7 4c a0 3c
       0.0210345 -0.125869 -0.10339706 0.01956789
0001c0 06 28 ca bd 4a cd d7 ba 4b f5 08 ba 8b 44 94 3c
       -0.09870915 -0.0016464379 -0.000522454 0.01809909
0001d0 c2 4d c9 bd 02 15 34 3d 5d db b9 bd 5f 52 fd 3d
       -0.09829284 0.043965347 -0.09075043 0.12369227
0001e0 55 05 6c 3d b7 07 72 bd 7f ac 77 3d 13 f7 31 3d
       0.057622273 -0.05908939 0.06046724 0.04344852
0001f0 1a 90 15 3d ae dd 17 3d fd 07 3b bd 1a 61 06 3d
       0.03651438 0.037076645 -0.045661915 0.032807447
000200 92 c6 44 3d 14 88 c8 3c aa 19 d3 3d 1c cc a7 3d
       0.048040934 0.02447895 0.103076294 0.08193228
000210 c6 5d 6d 3d 2a a6 ec bb b8 d7 04 be 15 ca cc bd
       0.057950757 -0.0072219567 -0.12972915 -0.099994816
000220 71 d2 df 3d a4 55 34 3d 17 e3 1c be 77 7a d1 3d
       0.109288104 0.044026986 -0.15321003 0.102284364
000230 58 f6 49 bd fe 2d 48 3d d7 90 3b 3d c5 2c 4e 3d
       -0.049307197 0.048871987 0.045792427 0.050335664
000240 e4 2a 8b 3d 6a 90 b4 bd 46 b2 8a bd 8e 76 e7 bc
       0.0679529 -0.08816607 -0.06772284 -0.028254773
000250 0a 3b de bd e8 af e4 bd 28 87 df 3d 20 fd f6 3d
       -0.108511046 -0.11166364 0.10914451 0.120599985
000260 1e 45 9b bd ea 10 af bc b6 10 ba 3d dd 15 e6 bd
       -0.075815424 -0.02137037 0.090852186 -0.11234639
000270 3b 15 a2 3d a1 27 b7 3d 46 37 d4 bd ff d4 e2 bc
       0.07914206 0.089431055 -0.10362105 -0.027689455
000280 a7 a9 8e 3d 42 b6 2b bd 07 11 b8 3d ba 9a 59 3c
       0.06965952 -0.04192186 0.08987623 0.013281519
000290 1a 67 36 bd de 73 e6 3d 7d 8b 04 3d 2f 02 24 bc
       -0.04453192 0.11252569 0.03235959 -0.010010286
0002a0 14 cc 27 3d f6 99 7d bd a8 e0 6f 3d 53 c3 2e 3d
       0.04096611 -0.061914407 0.05856386 0.042666744
0002b0 24 c3 9d 3d 24 46 45 3d 49 d7 7d bd dd 68 10 bd
       0.07703236 0.048162594 -0.06197289 -0.035256255
0002c0 70 17 fe 3c 42 27 a9 bb 52 fd be 3d fc f9 f2 3d
       0.031017035 -0.0051621506 0.09325661 0.11864087
0002d0 28 51 83 bc 63 d0 35 bc 50 61 30 3d 1e 87 ef 3d
       -0.01602991 -0.011097047 0.043061554 0.116956934
0002e0 0a 2f 83 3d f0 d1 a2 bd da 64 2b 3d e4 7f 29 bd
       0.06405456 -0.07950199 0.041844226 -0.04138173
0002f0 88 3d 55 3c 3e d5 e3 bc df 8f 87 bc 51 f2 b7 3d
       0.0130151585 -0.027811643 -0.016548095 0.08981765
000300 6a dd a1 bd 88 f6 8f bd ec 21 cd bd 9e 09 13 bd
       -0.079035595 -0.07029444 -0.10016236 -0.035897844
000310 0f c9 8b 3d c1 e9 b5 bd af 92 1b bd 4a 32 ec bd
       0.06825458 -0.08882476 -0.037981685 -0.115330294
000320 ea 48 6f 3d c6 62 8f bc 5a 31 0b bd a5 ac e5 3d
       0.058419146 -0.017503154 -0.033982612 0.1121457
000330 b3 a6 8a 3c 31 a3 e0 3d 07 62 d2 bc d8 fd ca bd
       0.016925192 0.10968626 -0.025681509 -0.09911698
000340 7f 84 f9 bc 59 1c bb bd c2 fd fb bc 58 10 c1 bd
       -0.030458687 -0.09136266 -0.03076065 -0.094269454
000350 b6 c2 95 bc b2 5d ee bd fa 94 03 3e 5c 69 37 bd
       -0.018281322 -0.11638965 0.12849799 -0.044778213
000360 8c ab cf 3c 9a e4 e4 3c 7e ef f7 b9 fe 2e 6e b9
       0.025350355 0.027941037 -0.00047289947 -0.00022714955
000370 22 39 08 3e 3f 4f 09 3e 70 02 56 bd 3e 43 38 bc
       0.13303044 0.13409136 -0.05224842 -0.011246501
000380 e9 dc f7 bd 39 b4 b0 3d 1c a3 d0 3d 94 4e af 3d
       -0.12102682 0.08628125 0.10187361 0.085599095
000390 19 e8 b5 bd f0 8a 9c 3d ec b5 8d 3d 32 32 b4 3d
       -0.0888216 0.07643688 0.069194645 0.087986365
0003a0 4e c9 09 3e 21 b8 a4 bd c6 c4 11 bd c0 2d 59 bd
       0.13455698 -0.08042932 -0.03558805 -0.053022146
0003b0 72 91 62 bd 4e 9b 0a 3d a2 ec fb 3d 7f 09 b3 3d
       -0.05531449 0.033839516 0.123009935 0.087420456
0003c0 70 c3 03 3e 42 0c 8c bd 39 95 e1 bd 91 14 47 bd
       0.12867522 -0.068382755 -0.1101479 -0.048603598
0003d0 6d ca ce bd 75 6a e1 bd 1b 60 f8 3c 2e 64 b5 3c
       -0.100972034 -0.11006633 0.030319264 0.022142496
0003e0 bb f6 72 bd ca 06 ad bd 6e 93 eb 3d 06 40 5b 3d
       -0.05931733 -0.084485605 0.11502729 0.053527854
0003f0 c2 d7 d3 bb 87 b2 bf bd b3 9e 78 bd b1 02 ad 3b
       -0.0064649293 -0.09360223 -0.060698222 0.005279862

h2.bias f4 [128]
000000 4b 95 0f bd ff 85 bb 3d 5a 0a 71 bd 53 6f f8 3d
       -0.035054486 0.09156417 -0.058847763 0.121306084
000010 79 05 b3 3c e6 ba 57 bd aa 61 a7 bc cb 5a bb bd
       0.021853196 -0.052668475 -0.020432312 -0.09148177
000020 ca b2 ab bd 20 5d c4 3d 58 a0 60 bd 1f 02 0a 3d
       -0.08383711 0.09588075 -0.054840416 0.03369343
000030 e9 dc ed bd a0 cb 05 3e 06 fd 9f 3d 3e 38 75 3d
       -0.11614401 0.13065958 0.07811932 0.05986809
000040 57 67 8f bd 37 92 c1 bd 09 b3 48 bd 6c d9 99 bd
       -0.070021324 -0.094517164 -0.048998866 -0.07512173
000050 5f 1c 52 bc 49 df a0 bd f2 0c 70 bd f8 fc 26 3d
       -0.012824147 -0.07855088 -0.058606096 0.040768594
000060 8e c9 1b bd dc 76 9b bd 5d be d8 3d 6b 03 e2 3d
       -0.038034014 -0.0759103 0.10583184 0.11035808
000070 be a3 8c 3d d7 db cf 3d 19 9a 12 bd 92 57 e9 bd
       0.06867169 0.10149353 -0.03579149 -0.11393656
000080 08 b9 c1 bd b9 4a a3 bd ea c6 c2 bc 61 e1 ae 3d
       -0.0945912 -0.079732366 -0.02377649 0.08539081
000090 1c 2c a7 bd 01 5c 1c 3d a1 08 1a bd cf 60 42 3d
       -0.0816271 0.03817368 -0.037605885 0.047455605
0000a0 4d f9 1b bd 32 c2 a6 3d 68 9a db bd d9 f1 a2 bd
       -0.03807955 0.081425086 -0.1072281 -0.07956285
0000b0 73 45 4a 3d 6b 35 71 bd 5e 23 da ba 73 43 96 bd
       0.04938264 -0.058888834 -0.001664262 -0.07337084
0000c0 ec b3 06 3e af e1 48 3d 4c b1 81 bd f2 65 8e 3d
       0.13154572 0.049043354 -0.06332645 0.06953038
0000d0 95 92 bd 3d f8 44 e6 3d 24 e5 ff 3c ff 22 26 bd
       0.09256474 0.112436235 0.031237192 -0.04056072
0000e0 3b 2c 06 bc 2a 79 df 3d ae 5e b8 bd 36 ce dd 3d
       -0.008189256 0.10911782 -0.09002434 0.10830347
0000f0 82 e4 be bc fc a8 23 bd 30 34 07 be ca 6e 09 3c
       -0.02330232 -0.039956078 -0.13203502 0.008388231
000100 33 3f 05 3d 0c 51 07 3e 56 df f9 3c bc ef 59 3d
       0.032530975 0.1321451 0.030502003 0.053207144
000110 49 b3 26 3d 83 f3 b5 3d a7 05 0b bd 5f 81 a0 3d
       0.040698323 0.08884337 -0.033940937 0.078371756
000120 dd d2 37 3d b7 06 33 bb e2 38 d5 3d 8f c0 af 3d
       0.04487883 -0.0027317235 0.1041124 0.085816495
000130 90 23 c4 3d 9a 7d 12 bc ba 1d 70 3d 0c 4f 39 bd
       0.095770955 -0.008941079 0.0586221 -0.0452414
000140 09 9b d4 3c ce d4 bc 3d bc ef 21 bd e7 d4 a6 3c
       0.025952833 0.09220277 -0.03953527 0.020365192
000150 c5 8b dc 3d 2f 5c ee bd 19 37 02 3e 5e 94 8c 3d
       0.107688464 -0.116386764 0.1271633 0.06864236
000160 ea bc a5 3d 2d e0 ba bd ed eb 17 3d f5 15 95 bd
       0.08092673 -0.091247894 0.03709023 -0.072795786
000170 89 cc 0c 3c 1f 85 0a bd 26 5f 51 bd 08 55 bf 3c
       0.008593687 -0.03381836 -0.05111613 0.023355976
000180 cc c0 5a 3d 85 52 c7 3d af 94 83 bd ba d5 66 bd
       0.05340652 0.09732536 -0.064248435 -0.05635617
000190 b3 db 6b 3d 36 4a e8 3d 51 7f 8b 3b c2 85 60 bc
       0.05758257 0.113422796 0.0042571207 -0.013703765
0001a0 1f b0 b9 3d fd 0b c9 bd 09 b7 63 bd fe c7 1a 3d
       0.090667956 -0.0981674 -0.055594478 0.037788384
0001b0 8a be 17 bc a0 c8 db 3d 03 8b ec bc 6b f4 2f 3d
       -0.009261737 0.107316256 -0.02887488 0.042957705
0001c0 1a 81 c6 bd 79 bb a2 bd b1 17 b4 bd 36 5c 90 3d
       -0.09692593 -0.07945914 -0.08793581 0.07048838
0001d0 b2 c7 b3 bd da 4c dd bd 1f 3b b2 3d 17 f1 64 bd
       -0.08778323 -0.10805674 0.08702683 -0.055893984
0001e0 b4 56 47 bd 72 1f 13 bd 68 3e 1c bc f3 1f 50 3d
       -0.04866667 -0.03591866 -0.009536363 0.05081172
0001f0 94 74 22 bd 03 66 f1 3d e5 d4 fe 3d bf c9 ff 3d
       -0.03966196 0.11787035 0.1244295 0.12489652

h3.weight f4 [256, 128]
000000 70 0c 93 3d 1b cf bc bd 3e ab 20 3c 01 6a 7c 3d
       0.07180107 -0.0921919 0.009806452 0.06162453
000010 cd 19 38 3c 07 d2 a9 bd c3 05 1b 3d 84 1f c8 b9
       0.01123662 -0.08292013 0.03784729 -0.00038170454
000020 9f 63 b0 3a 8f 27 8e 3d 2e ab 8b bd bd 51 91 3c
       0.0013457424 0.06941139 -0.06819759 0.017739171
000030 f8 46 7d bd 5d 93 7c 3d f3 a5 51 3c e6 0b 93 3a
       -0.06183526 0.061663974 0.012795913 0.0011218756
000040 e1 21 00 bc 38 1c ac bd 1a f0 61 3d af a0 81 3c
       -0.007820577 -0.0840382 0.05516062 0.01582369
000050 54 4c 95 3c 48 3b 16 bd 4c 1a 9c 3d 41 67 95 bd
       0.018224873 -0.03667763 0.07622203 -0.07295085
000060 15 14 81 bc d4 60 0b bd ea 54 74 bd 64 f6 79 bc
       -0.015756646 -0.03402789 -0.059651293 -0.015256498
000070 e3 ad 6a bc 0a f8 9d 3d 8e 80 92 3d 3d 4c 46 bd
       -0.014323684 0.07713325 0.07153426 -0.04841255
000080 29 ee 09 bd ee 93 07 bd ae 5b 9e 3d a5 02 b1 3c
       -0.033674393 -0.03310006 0.0773233 0.021607706
000090 61 4e 0f 3d 39 50 9b 3d 6b e7 09 bc 0c 64 6e bd
       0.034986857 0.07583661 -0.008416991 -0.05820088
0000a0 00 c0 a2 bd 5a 55 8e bb ec f0 15 3c 15 99 8b 3b
       -0.07946777 -0.004343671 0.0091516785 0.004260192
0000b0 d5 11 60 3c dc ea a7 bd b1 93 cf bc a7 9b 83 3d
       0.0136761265 -0.08199093 -0.02533898 0.06426173
0000c0 ed e5 f0 bc dd 27 71 bd 02 53 5b 3d 2f 55 50 3c
       -0.029406512 -0.058875907 0.05354596 0.012715622
0000d0 d2 95 8f 3d 41 b3 c7 3d 66 70 b9 bd 2f ca c7 bc
       0.07010998 0.09750987 -0.090546414 -0.0243884
0000e0 4f ba 11 bd 6a 1f d2 3c db 98 b8 bd 46 dd 7d 3d
       -0.03557807 0.025649745 -0.0901353 0.0619786
0000f0 1d bd ae 3c f8 22 0b bd f2 76 ed 3b 27 db 05 3c
       0.02133041 -0.033968896 0.0072468454 0.008169926
000100 f1 b4 5a bc 9d 58 a5 3d 4a 08 a8 3d 56 33 31 3c
       -0.013348804 0.08073542 0.08204706 0.010815462
000110 94 0a bf bc d3 b7 aa bc ef 24 4a bc c9 53 be bc
       -0.023320474 -0.020839607 -0.012337907 -0.023233311
000120 fa 3b d3 3b 65 67 13 bd d2 0c 56 3c 36 41 78 bd
       0.0064463587 -0.035987277 0.01306458 -0.060609065
000130 93 49 a1 3d 1b c7 4c 3c 20 7b 87 3d 62 76 c1 bd
       0.07875361 0.012498642 0.06615281 -0.09446408
000140 ce 2d 81 3d fd 64 1e bd f6 42 31 3d a5 2c b8 bd
       0.06307565 -0.03867053 0.04327675 -0.0899289
000150 e3 63 8b 3d d1 73 21 3d 75 c6 13 bb 0b 98 9b 3d
       0.06806161 0.03941709 -0.002254871 0.07597359
000160 f5 2c 89 3d 08 9f c7 bd 3e b8 95 bc 9d ef 0a 3d
       0.06698028 -0.0974713 -0.01827633 0.03391992
000170 48 a3 20 bd 7a 68 7a bd df 89 82 bd b5 40 ad bd
       -0.039218217 -0.061134793 -0.06373953 -0.084596075
000180 cc bd 91 3d 1e a5 54 bd cd 66 34 3c e6 dc 8e 3d
       0.07116279 -0.05191528 0.011010838 0.06975727
000190 27 70 e7 3c 43 99 49 3c 60 f1 64 3b 55 dc 8a bc
       0.02825172 0.012304607 0.003493391 -0.016950766
0001a0 ff a6 95 3d 4b d4 b8 bc 9d 1c b9 bd d4 1c 0f bd
       0.073072426 -0.022562167 -0.09038661 -0.034939602
0001b0 2c 32 4e bd b7 86 4e bd 3c 35 71 3d d1 e7 0a 3d
       -0.050340816 -0.050421443 0.05888866 0.033912484
0001c0 d3 2a 95 bd 2e 8e 31 bc 2d e1 a1 3d bf a1 9e 3d
       -0.07283559 -0.010837121 0.07904277 0.07745694
0001d0 73 ee b3 bb a7 46 20 3d e7 91 a7 3d 44 31 47 bd
       -0.005491072 0.03912988 0.081821255 -0.048630968
0001e0 32 1f 95 bd 5d 94 8b 3d 49 5d 34 ba 1b 47 b6 bc
       -0.07281341 0.068154074 -0.00068803556 -0.022250703
0001f0 9c fa 20 bc 3e e9 97 3d aa a1 41 3d d3 54 77 bd
       -0.009825375 0.07417534 0.047273315 -0.06038363
000200 be 84 5f 3c ee 02 73 bd 48 eb b6 bc 66 ea 7b 3d
       0.013642488 -0.059328966 -0.022328988 0.061502837
000210 1b 0a b5 bc 7d 0f 63 bd dc d9 0e 3d 2c 09 2b bd
       -0.022099545 -0.055434693 0.034875736 -0.041756794
000220 95 d4 09 3d a8 d5 6c 3c 4e 11 5e 39 83 4b 5e 3d
       0.03365 0.0144552365 0.00021178016 0.054271232
000230 78 a9 70 3d 89 d2 13 bd 31 cf 7f bd 5c a8 64 bd
       0.058755368 -0.036089454 -0.062453452 -0.055824623
000240 20 7c a1 3d 5b ea 98 3c 1d c3 39 3a 59 ab 98 3d
       0.07885003 0.018666437 0.0007086264 0.07454557
000250 fa 5e 75 3d f1 a6 b3 3c 0a 57 89 3d ff 94 26 3d
       0.05990503 0.02193019 0.067060545 0.040669437
000260 e5 ee 81 bc 38 e4 29 3c 0c 38 c9 3c 01 f0 0a bd
       -0.015860984 0.010369353 0.024562858 -0.03392029
000270 23 36 ad bd 3e e4 6b bd 1a 59 39 3b 48 79 9f 3d
       -0.084575914 -0.057590716 0.0028281868 0.077868044
000280 76 29 57 3d c3 98 cf 3c 2d 78 4c bd 2f 3b 29 bd
       0.052529775 0.025341397 -0.049919296 -0.041316207
000290 ba f8 10 bd a2 06 70 bd 85 4f a5 bd 95 69 6d bb
       -0.035393454 -0.058600076 -0.08071808 -0.0036226262
0002a0 a9 55 97 bd a5 c6 a5 3d 08 4d 9f 3d 2b 3a 6f 3d
       -0.07389385 0.08094529 0.077783644 0.058405083
0002b0 68 43 98 3d 55 23 9a 3d 5f b6 52 bd 52 76 26 bd
       0.07434732 0.0752627 -0.051443454 -0.040640183
0002c0 19 66 1f bd 69 46 b7 bd d4 45 f1 3c 29 b0 6a bd
       -0.038915727 -0.089489765 0.029452242 -0.057296906
0002d0 d3 93 86 bc 61 0f b7 bd 4f f4 5f bc a5 4d 42 bd
       -0.01642791 -0.0893848 -0.013669088 -0.04743733
0002e0 20 69 89 3d 4c 6b 89 bc ab 60 af bc 6b 23 23 3d
       0.06709504 -0.016774796 -0.0214084 0.0398287
0002f0 e4 ac c9 bc 92 46 c7 3c 1f 50 48 bb 81 44 08 bd
       -0.024618573 0.024325643 -0.0030565334 -0.033268455
000300 c2 1d 82 bd 78 71 c0 3c 23 3a 37 3c ea 85 c7 bb
       -0.06353332 0.023491606 0.0111832945 -0.006088962
000310 4d 8e 49 3d 48 db 94 3d 49 7d 1f bd c7 7b 8b bc
       0.049207974 0.07268387 -0.03893784 -0.017026795
000320 0b 67 74 bd f6 13 fb bb 5f 81 2f 3c d2 ce b6 3d
       -0.059668582 -0.0076622916 0.010711997 0.089261666
000330 98 78 ca 3b cb 00 85 3d 4c 75 81 bd 7d fc 8d bd
       0.0061789267 0.06494292 -0.06321201 -0.06932924
000340 f2 64 8f 3d fc 6d 9e 3d c8 9a a4 3d 09 c7 75 bd
       0.07001676 0.077358216 0.08037335 -0.060004268
000350 f2 f0 94 bd 9c 4a ae bd 68 a8 3d 3d a8 5c ab bc
       -0.07272519 -0.08510324 0.046303183 -0.020918205
000360 4f 7a 6a 3c 4c c1 96 3d ae 07 da bb 6d 4e 33 bd
       0.014311387 0.07361087 -0.0066537475 -0.043775965
000370 7a 47 8f 3d fb cf 7b bd 4f 86 53 3d fa c0 74 3d
       0.06996055 -0.061477643 0.05164176 0.05975435
000380 28 1a a0 bc 9a 94 b3 bc 0c cc 40 bd 24 21 24 bd
       -0.019543722 -0.021921445 -0.047069594 -0.040070668
000390 4e 96 84 3d a9 fa 14 3d 8b ce bd bd ef 55 8f 3d
       0.06473981 0.03637186 -0.092679106 0.069988124
0003a0 d4 0e 8c 3d 48 ae 46 3c ee 55 cb 3d 6c 17 0a 3c
       0.06838766 0.012126513 0.09928499 0.008428436
0003b0 e7 44 0c 3d e2 12 87 bd f7 57 80 bd 62 b7 22 3d
       0.034245398 -0.065953985 -0.06266778 0.03972567
0003c0 0f 0c 0e 3d ab 39 78 3d 93 2d 8e 3d b9 ac d1 bc
       0.03467947 0.06060187 0.06942286 -0.025595056
0003d0 61 ce 42 3d 3a da 80 b9 00 0c 83 bd d6 af 31 3d
       0.0475601 -0.00024576654 -0.06398773 0.04338058
0003e0 39 f7 07 3d ba 3f b7 3d ef 19 ad bc c5 2a 5f bd
       0.033194754 0.08947702 -0.02113053 -0.054484148
0003f0 01 9f 6c 3a 42 c5 34 3d ed 67 37 3d f5 56 b8 3d
       0.0009026379 0.044133432 0.044776846 0.09000961

h3.bias f4 [256]
000000 f0 f0 64 bc c7 3c a6 bd e6 c5 a5 bd 67 ef 05 3d
       -0.01397346 -0.08117061 -0.08094387 0.032699015
000010 d5 bc c3 b9 24 f6 fc bc b3 e8 a8 3d 97 ca 88 3d
       -0.0003733399 -0.030879088 0.08247509 0.06679266
000020 ea a4 bc bc 69 c3 aa 3d 80 fe 7c 3d 84 59 96 bd
       -0.023027856 0.08338053 0.061766148 -0.073412925
000030 6d 29 6d bc 6f 54 09 3b 88 b2 a7 3c 09 1d fb bc
       -0.014475209 0.0020954867 0.020470873 -0.030653493
000040 71 10 62 bc ba 43 c5 3d 6c e2 04 3d 8f 70 b6 3d
       -0.013797865 0.096320584 0.032442495 0.089081876
000050 22 9d 93 bd 1f 50 22 bd 73 d5 02 3d 80 90 7f 3b
       -0.07207705 -0.03962719 0.031941842 0.003899604
000060 17 1d f6 bc 36 82 99 bc cd 33 12 3d 91 47 b6 3c
       -0.030043168 -0.018738847 0.035693932 0.022250922
000070 6c c9 f9 bb 99 bf 69 3d a5 c5 18 3b 97 f8 a6 3d
       -0.0076228883 0.057067487 0.0023311165 0.081528835
000080 42 2f 8e bd 29 04 45 3c 78 7f 27 3c 50 c0 7f 3d
       -0.069426075 0.012024918 0.010223262 0.062439263
000090 08 de ce bc 49 8b 8b bd da ae 70 3d 00 2a 49 3d
       -0.025252357 -0.06813676 0.0587605 0.04911232
0000a0 20 e4 96 bc 8d 16 98 3d 91 e9 c4 3c 57 ed 7d 3c
       -0.018419325 0.07426176 0.024037154 0.015498481
0000b0 2b e6 03 bd 87 4d 81 bd 6d 97 20 3d 1f 6c 2b 3d
       -0.032201927 -0.06313615 0.03920691 0.04185116
0000c0 34 94 ac 3d 44 4b 26 bd 43 f5 71 3d 82 c3 39 3d
       0.08426705 -0.040599123 0.05907179 0.045352466
0000d0 aa be f6 bc 86 81 f3 3c 2a 40 5a bc 9d f3 7c bd
       -0.030120213 0.029724848 -0.013320962 -0.061755765
0000e0 55 52 18 bd d3 7a 7f 3c a7 17 a5 3d 29 0f 25 bd
       -0.037187893 0.015593248 0.08061152 -0.04029766
0000f0 9e c4 ad bd 63 c4 1f bd 92 9c 6a 3d c3 49 8c 3d
       -0.084847674 -0.03900565 0.057278223 0.068500064
000100 cf 1b a0 bb 51 d2 63 3d 3f 39 5e 3d 9c 90 7a bd
       -0.0048861275 0.055620495 0.054253813 -0.061173066
000110 da 8d be 3c 78 58 98 3d d4 9a 5e 3d ec fd 93 3d
       0.023261 0.07438749 0.054346874 0.07226166
000120 94 60 65 3d 10 da 82 3d 3a c6 08 bd 4c 9a 5d bd
       0.056000307 0.06389248 -0.03339217 -0.054102227
000130 58 8d 38 bd c9 bd 8e 3d aa 1e 97 bd 41 e4 07 3d
       -0.04505667 0.069697924 -0.073788956 0.033176664
000140 58 42 86 bd c8 23 97 3b 73 ae 05 bd 28 54 5e bd
       -0.06555623 0.0046124198 -0.03263707 -0.054279476
000150 88 b1 a1 bd 9e 95 80 3d 1a e7 c5 3d 95 3a 72 bc
       -0.078951895 0.06278537 0.0966322 -0.014784475
000160 61 1e ab 3d a5 d0 b1 3d 21 a8 48 bd b6 69 19 3d
       0.08355404 0.08682374 -0.048988465 0.03745433
000170 64 81 b3 bd f7 65 ab 3d 4f d3 f8 bb c9 dd 82 bd
       -0.08764914 0.083690576 -0.0075935493 -0.063899584
000180 ff c2 8e bd b4 91 7a 3d 0f 18 8c bc e8 1e 47 3d
       -0.06970786 0.06117411 -0.017101316 0.04861346
000190 b7 cf 98 3d 69 94 ab 3d dc 8b fa 3c ff 2a b4 bd
       0.074614935 0.08377916 0.030584268 -0.08797263
0001a0 2b 49 82 bd 8f a0 c5 bd 78 53 40 3d 00 dc 63 3c
       -0.06361612 -0.09649765 0.046954602 0.013907433
0001b0 16 2d aa 3c 58 e8 30 3c 2c ad 89 3d 76 bf 49 3d
       0.020773452 0.010797583 0.06722483 0.049254857
0001c0 2e b7 bb bc 9f b7 4a 3b 4d f4 22 bd a3 39 84 3d
       -0.022914495 0.00309322 -0.039783765 0.06456306
0001d0 6b 88 4c 3d e9 08 03 bd 51 28 44 bd b8 ae b7 3d
       0.049934786 -0.03199092 -0.04789001 0.08968872
0001e0 33 5a c3 3c ab c3 ca 3d f9 90 86 bd a7 25 73 3d
       0.023846721 0.09900602 -0.0657062 0.05936208
0001f0 22 3d be 3d a7 a1 d6 bc f7 fe 52 3d 6b f3 8d bd
       0.09289004 -0.026200129 0.051512685 -0.06931194
000200 3f f8 ae 3c df bb 88 bd 93 51 d1 3c 7a 17 ab 3d
       0.021358607 -0.066764586 0.025551593 0.08354087
000210 84 43 a2 bd 05 9b 34 3b ed d4 4a bd f8 8b 28 3d
       -0.07923034 0.002755822 -0.049519468 0.04114911
000220 2d 3e 6b 3d c2 33 51 3d 47 e9 02 3c e1 ea 3f bc
       0.057432342 0.05107475 0.007990188 -0.011713714
000230 d6 d5 a2 3d 2a 69 f3 bc c4 84 a8 bc f2 fd 80 3d
       0.07950942 -0.029713232 -0.02057112 0.06298436
000240 f8 43 49 3c 67 af 04 3d c8 1a 2b bd e0 d1 b3 3a
       0.012284271 0.03239384 -0.041773587 0.0013719164
000250 6f f5 a0 3b b5 dc ff 3c a1 21 06 bd 0e 50 55 3d
       0.0049120705 0.031233171 -0.032746915 0.0520783
000260 ef 5d 49 3d b4 16 38 3c 5f b0 a3 3c 65 25 41 3d
       0.049161848 0.011235882 0.019981561 0.047154803
000270 cb 64 a4 bd cb 63 78 3d 83 2b 30 3d 41 6b 1b bd
       -0.08027037 0.060642045 0.043010246 -0.037944082
000280 88 1c 86 bd 81 5a 8f bd 6f 9e 4c bd 66 5b 9c 3b
       -0.06548411 -0.06999684 -0.04995578 0.0047716377
000290 85 2d 81 3c b0 b3 0e 3c ff 76 c0 bc b0 82 b7 bd
       0.015768776 0.008709833 -0.023494242 -0.089604735
0002a0 9e 6d 34 bd 28 90 51 3d d0 0e 5d bd bc 37 62 3c
       -0.04404985 0.05116287 -0.053969204 0.013807233
0002b0 83 17 31 bd ca 83 da 3c 06 16 29 3d 9f 23 9b 3d
       -0.043235313 0.02667417 0.04128077 0.075751536
0002c0 ca 3d 68 3d da 6a 86 bd 26 75 15 3d 25 1f 4c 3d
       0.05669955 -0.06563349 0.036488675 0.04983439
0002d0 d0 4e 67 3b b8 b4 83 3d 7e 12 68 bd c7 2f 4b bc
       0.0035294779 0.06430954 -0.05665826 -0.012401528
0002e0 2a 10 7a bd cd 25 c5 3c 75 48 2d 3d 18 f2 30 3c
       -0.06105057 0.024065876 0.04230543 0.010799907
0002f0 b9 eb a6 bd c9 e7 24 bd d0 b8 8f bc 56 c2 47 bd
       -0.08150429 -0.04026011 -0.01754418 -0.048769318
000300 c9 82 5b 3d 27 e9 51 3d 2c 14 64 3d 8a 1b 92 bd
       0.053591523 0.051247742 0.0556833 -0.07134159
000310 f1 06 06 bd 6f e6 af 3c a9 83 46 bd 58 01 bb 3d
       -0.032721464 0.021472184 -0.048465405 0.09131116
000320 7b 8f 88 3d 86 8a 16 bd a7 51 7f bd 97 8b 0f 3d
       0.06667992 -0.0367532 -0.06233373 0.035045233
000330 76 9a 7b bd 7f 0c d4 3b 29 a3 06 3d d0 a6 96 bc
       -0.061426602 0.006471216 0.032870445 -0.01839009
000340 fd fd 29 bc ca eb 35 3d d1 09 74 3d 39 f1 80 bd
       -0.010375497 0.04441432 0.059579674 -0.062960096
000350 93 ac ab 3d cd 23 9b 3d 27 ec 9f bc 2f a2 b3 3d
       0.08382525 0.07575188 -0.019521786 0.087711684
000360 92 21 7e bd d6 c2 ba 3c f2 3c 02 3d e8 0d 81 3d
       -0.062043734 0.022797983 0.031796403 0.063014805
000370 ca 84 c3 bc 3e 31 a1 3d 5b f1 29 bd 4c da de 3c
       -0.02386703 0.0787072 -0.04148994 0.027203701
000380 29 7d 84 3c 22 35 94 bc a4 fa 8a bc 6d 69 a0 3d
       0.016172962 -0.018091742 -0.016965218 0.07832608
000390 03 ac 10 3d af 07 a1 3d dd 53 94 3d da a6 c3 bd
       0.035320293 0.07862794 0.07242558 -0.09553309
0003a0 e9 d0 94 bd a6 6f 5a bd 35 d9 79 3d ef 6e 95 bb
       -0.07266409 -0.053329132 0.06099816 -0.0045603435
0003b0 21 4e df 3c 2e c3 69 3d 5a 0e ba 3d 84 0e 40 bd
       0.027258934 0.057070903 0.090847686 -0.046888843
0003c0 d1 2a 94 bd a9 e4 3d 3b 47 5c 08 bd 51 9f 66 bd
       -0.07234729 0.0028975403 -0.033291128 -0.05630428
0003d0 bb 71 c6 bc 45 ea 4b 3c 2d 7e 52 3d b4 59 3b bd
       -0.024224153 0.012445991 0.05138986 -0.045739844
0003e0 6f 2e b7 3d fc 84 29 3d a0 e4 c0 bc 20 21 74 bd
       0.089444034 0.04138659 -0.023546517 -0.059601903
0003f0 b8 6b a6 3d 90 4c 9e bb 5f 62 8e bd db 59 aa 3d
       0.081260145 -0.0048309043 -0.069523565 0.0831792

h4.weight f4 [256, 256]
000000 45 e7 57 bd c4 2b 8a bd 78 a6 d6 bc b0 d0 11 bd
       -0.05271079 -0.06746629 -0.026202425 -0.03559941
000010 d9 05 80 bd 08 2f 93 3c b6 12 86 3d 2b fe e8 bc
       -0.06251115 0.017966762 0.065465376 -0.02844151
000020 87 f4 10 bd 1f c3 75 3d 64 bf 7f bd 41 6f 20 3d
       -0.03538945 0.060000535 -0.062438384 0.0391686
000030 3f f4 eb bc e9 b8 43 3d f9 a6 42 3d 1b 69 5e bd
       -0.028802989 0.047783766 0.04752252 -0.054299455
000040 1f 78 4f 3d 44 f4 20 bb 7a 2a 9e bd f0 6d 0b bd
       0.050651666 -0.0024559656 -0.077229455 -0.03404039
000050 89 16 5e bd a3 86 37 3d 48 86 7a bd cc b1 67 bd
       -0.05422071 0.044806134 -0.061163217 -0.056566045
000060 f7 6a d5 bb d8 da 35 bd 7f 34 f6 bc 0d ce 1d bd
       -0.0065129953 -0.04439816 -0.030054329 -0.038526583
000070 a8 91 45 3b 15 8a 12 3d cd eb 3d bc c3 65 a8 bc
       0.0030146632 0.035776217 -0.011591864 -0.020556336
000080 82 6b 10 bd 7b 03 1c bd 1a 34 71 bd 52 c2 92 3d
       -0.035258777 -0.038089257 -0.05888758 0.0716597
000090 d4 0f 4b bd 84 29 10 bc fe 4a cf 3c 1d 8b 2c 3d
       -0.04957564 -0.008798961 0.025304314 0.042124856
0000a0 f8 b9 83 3c 12 30 26 bd b8 ff 51 3d 19 69 47 bb
       0.016079888 -0.040573187 0.051269263 -0.0030427633
0000b0 8f 0b c0 bc e8 5e 77 bd 9a 80 51 bd 80 85 4f 39
       -0.023443012 -0.060393244 -0.051148035 0.00019790791
0000c0 0a 60 07 3d ff 1a 5b 3d 15 40 54 3d c5 c8 1d 3d
       0.033050574 0.053492542 0.051818926 0.038521547
0000d0 fc ac 14 3d 6c 7d 3d bd 80 17 02 3d ab d8 55 bd
       0.036297783 -0.04626219 0.031760693 -0.052208584
0000e0 33 a8 ca 3c 6c fa 3a 3d 84 44 1e bc 62 8b f6 bc
       0.024738407 0.045648977 -0.00965989 -0.03009576
0000f0 96 a2 f4 bc 78 55 43 3c 0c e8 85 3d be a4 01 3d
       -0.029862683 0.011922233 0.065384 0.03165125
000100 89 af cb bc 49 5c f1 3c b7 01 b4 bc c2 b4 4b bc
       -0.024863975 0.02946295 -0.021973474 -0.012433233
000110 93 38 0f bd dc e0 0c bd 85 9e 75 3d 8c c2 3d 3d
       -0.034966063 -0.03439413 0.05996563 0.046328112
000120 9f 0f 91 3c b6 d2 e1 bc 63 89 9f 39 43 d9 8e bd
       0.017707644 -0.027566295 0.00030429204 -0.06975033
000130 11 39 2b 3d 6d 61 ef 3c 8f 65 57 bd 8b 16 7e bd
       0.04180247 0.02922126 -0.05258709 -0.062033217
000140 1e d2 c2 bc 4b bd 53 3c 8a 06 9b 3d 00 88 9b bc
       -0.023781832 0.012923549 0.075696066 -0.018985748
000150 98 67 03 bd d4 d5 ab bc 40 61 90 bb 9a 4d db 3c
       -0.032081217 -0.020975985 -0.0044061244 0.026770402
000160 08 87 2d bd 8a 5a ef ba de da 34 3d 79 ac 07 bd
       -0.042365104 -0.0018261236 0.04415404 -0.033123467
000170 21 38 84 bd 64 46 b7 3c 99 76 d3 3c 7c 40 2c 3d
       -0.06456018 0.022372432 0.025813388 0.042053685
000180 96 68 65 bd a5 0b 81 3c 94 05 79 3d fd 2f fc bc
       -0.056007944 0.015752623 0.060796335 -0.030784601
000190 5e 42 18 3c 16 75 03 bd 82 38 cd 3a b3 fa 69 3c
       0.009293167 -0.032094084 0.00156571 0.014280963
0001a0 87 d0 5d bd 5d 51 5a 3c 77 16 cb bb 21 0b 54 3d
       -0.054153945 0.013325063 -0.0061977464 0.051768426
0001b0 da 3f 12 bc 3e 91 41 bd 2d 96 00 bd fd 67 1f bc
       -0.008926356 -0.047257654 -0.03139322 -0.009729383
0001c0 0d b4 cf bc 16 7f 91 bc 05 6b 3d 3d 69 f1 a8 3c
       -0.02535441 -0.017760795 0.04624464 0.020622926
0001d0 f2 4b 84 bc b1 fa 77 3d 96 b2 5c 3d 93 4b 84 3d
       -0.016149495 0.060541812 0.05388125 0.06459727
0001e0 3f 3f 10 3d c0 e7 2f bd 29 81 94 3c 8d bc 99 bc
       0.035216566 -0.042945623 0.018127995 -0.018766666
0001f0 f7 fb 44 3d 64 cc 09 3d 2b ab 61 bd 1e ba 22 bd
       0.048091855 0.033642188 -0.05509488 -0.039728276
000200 a4 f4 80 3d c4 4c 83 3c 22 20 bd bb 8c 33 33 bc
       0.062966615 0.016027816 -0.005771653 -0.010937583
000210 d6 91 b3 3c 9b 54 08 3d dc 7c 55 bb 05 17 6f bd
       0.021920126 0.03328381 -0.0032575643 -0.058371563
000220 f7 12 8b 3c bc 57 8b ba c7 9e 00 3d 7d 4d 19 bd
       0.016976817 -0.0010631005 0.031401422 -0.037427414
000230 3e c2 38 bd c4 bb 79 3c 8d 41 2e 3d e2 93 d5 3c
       -0.04510712 0.015242521 0.042542983 0.026071493
000240 5c 44 ee 3b 09 bb 82 bd 50 13 c0 3c c5 bf 93 3d
       0.0072713327 -0.063833304 0.023446709 0.072143115
000250 b3 14 ec bb d1 1a ca 3c 22 a2 ca 3c 5a 7f 64 bb
       -0.007204616 0.02467099 0.024735514 -0.0034865947
000260 61 5f 0d bd 23 b5 06 bb 41 b0 6b 3d 77 c4 d6 3b
       -0.03451479 -0.0020554743 0.057541136 0.006554182
000270 97 86 aa bc d1 8e 9e 3c a9 76 9d bb 2e 68 1f bd
       -0.02081613 0.01935521 -0.004805405 -0.038917713
000280 9e f9 6a bb 30 f7 41 bd 1c ef 06 3d c5 28 31 3d
       -0.003585435 -0.047354877 0.032942876 0.04325177
000290 5b d7 21 bc 02 e0 89 bb 78 75 25 3c 0b f7 8b bc
       -0.009878005 -0.004207612 0.0100988075 -0.017085573
0002a0 cd 63 73 bd d6 d6 03 3c 8c 1a 4b 3d 78 22 2e bd
       -0.05942135 0.008046826 0.049585864 -0.04251334
0002b0 48 87 ed bc 88 dc 29 3b 08 ca 87 bc 29 49 9a 3c
       -0.028995171 0.00259188 -0.016575828 0.018833714
0002c0 3b 4a 04 3c e3 0e ba bc a9 c4 54 bd a7 2f fe bb
       0.008074339 -0.022712177 -0.051945362 -0.0077571454
0002d0 c4 4e 8f bd 80 96 59 bd 65 bc 32 3d ff 00 08 bd
       -0.06997445 -0.053122044 0.0436367 -0.033204075
0002e0 8a 7c 3f bd ae d9 8e 3b 0a 88 7c 3d bc f8 68 bd
       -0.04674963 0.0043594455 0.061653174 -0.056877837
0002f0 4a 25 3f bd 4c 86 80 3d e3 54 37 bd 9e 6e c6 3c
       -0.04666642 0.06275615 -0.04475869 0.024222668
000300 fe 64 25 3d 1c d9 17 3d ef 07 a1 3b 4e e4 8b ba
       0.040379517 0.037072286 0.004914276 -0.0010672898
000310 19 e1 05 bc 2f d1 ff bc d7 f6 aa bb bb 2e 5a 3d
       -0.008171343 -0.031227676 -0.005217414 0.053267222
000320 51 fc 36 3c c3 3a e4 bc c5 7c dc 39 02 b3 8d 3d
       0.011168555 -0.027860051 0.0004205463 0.06918909
000330 48 0b e9 3c ed 0c 70 3d f0 45 f0 bc 8b a4 3a bd
       0.028447762 0.058606077 -0.029330224 -0.045567077
000340 aa af 77 bd cf c8 7e 3d 3b ac 1e bd 9a 6b 54 bb
       -0.06047026 0.062203225 -0.03873847 -0.0032412768
000350 e5 4f 1d bd ae 6a 28 ba e0 55 a2 3c 81 9b 42 3d
       -0.03840627 -0.0006424588 0.019816339 0.04751158
000360 ea 38 25 bd 1e bc 31 3d 8a 61 17 3d 3d 5e 16 3c
       -0.04033748 0.043392293 0.036958255 0.009177742
000370 c2 b7 bd bc d9 f6 80 bd 5a 6f 19 3d 3a 94 11 3d
       -0.023158912 -0.062970825 0.03745971 0.03554175
000380 93 ac 14 3d 1c 6e 95 bd b8 a7 33 bd c3 21 8b bd
       0.036297392 -0.07296392 -0.04386112 -0.06793549
000390 5b fe db 3b da 4d 48 bd 11 2a f3 bb 46 cb cf bb
       0.006713671 -0.04890237 -0.007420786 -0.0063413708
0003a0 a0 a7 5a 3d 24 02 af 3c 7a c3 43 3d 00 02 5f bd
       0.053382516 0.021363325 0.047793843 -0.054445267
0003b0 1c e6 a7 3c 44 52 85 bc 3d ef 89 3c 3c 2b 94 3c
       0.020495467 -0.016274579 0.01683771 0.018087022
0003c0 fa fb 2c 3d e8 a4 6e bd c9 4c 08 3d ce 0f 9d 3a
       0.04223249 -0.058262736 0.033276353 0.001198286
0003d0 9f 4f c9 3b 40 f0 c0 bc a7 a2 0b 3d a1 fd 1b 3d
       0.006143525 -0.02355206 0.034090664 0.038083676
0003e0 92 0c 2c bc f6 7e 52 3d f8 56 13 bb b4 3f 01 3d
       -0.010501044 0.05139061 -0.0022482257 0.031554893
0003f0 55 db 0b bd a2 80 06 3d cb ba 71 3c 9f ce 8f 3c
       -0.03414472 0.032837518 0.014754008 0.01755458

h4.bias f4 [256]
000000 0d 80 29 bd 74 c0 49 3c 25 32 99 3c 25 34 45 bd
       -0.041381884 0.012313951 0.018700669 -0.048145432
000010 a9 d0 50 bd b6 31 38 3c b3 5c b7 3c 15 e9 54 bb
       -0.050980244 0.011242321 0.02238307 -0.003248756
000020 aa db ec 3c cc 92 35 3d 91 93 51 3c 59 a4 1c 3d
       0.028913338 0.04432945 0.01279153 0.03824267
000030 dc 90 84 3d 0c cf 15 bb d1 11 36 bd 09 c4 88 3c
       0.06472942 -0.0022859005 -0.044450585 0.01669504
000040 52 c0 4a 3d 70 1a 68 3d cf 88 87 3b 7e 5d a1 bc
       0.049499817 0.056665838 0.004136182 -0.0196979
000050 4d e3 81 bd 41 42 f7 3c 16 d1 df bc 16 28 a4 bc
       -0.06342182 0.03018296 -0.02732138 -0.020038646
000060 18 22 cc bc 6d 93 fe bb 08 02 43 bd 6a b1 54 bd
       -0.0249186 -0.0077690394 -0.04760936 -0.051927008
000070 4c 46 5b bd e1 b4 03 3d 9c a6 16 bd c5 0d b2 3b
       -0.053533837 0.03215492 -0.036779985 0.0054337704
000080 27 53 7f 3d 24 a0 af 3c 03 57 51 3d 6d 6a c8 3c
       0.06233516 0.021438666 0.05110837 0.02446481
000090 4b 70 4b ba eb 80 7d 3d c3 e5 4c 3c 33 a2 9b bb
       -0.00077605684 0.061890524 0.012505951 -0.0047495603
0000a0 d5 7e 70 3d 9a 70 32 bd 1c f4 60 bd 8a 8b 44 bd
       0.058714706 -0.043564416 -0.0549203 -0.047984637
0000b0 56 2a 7d 3d 65 a7 70 bd 05 84 b0 bc 73 9f b2 bc
       0.061807953 -0.05875339 -0.021547327 -0.021804547
0000c0 57 91 64 3d 43 eb 82 3d 6d 98 50 3d 96 75 e9 3c
       0.05580267 0.06392529 0.050926615 0.028498452
0000d0 78 47 2d bd 6a 35 57 bd 0f 82 3a 3d ac 8e 68 3c
       -0.042304486 -0.052541174 0.04553419 0.014194172
0000e0 e3 a3 00 bd ba 2a 02 bc 52 f8 12 3c 4e 6d b0 bb
       -0.031406295 -0.007944757 0.008970337 -0.005384124
0000f0 11 d6 5b bc c8 57 9f bb 5b 28 c0 bc bf 69 a7 3b
       -0.013417737 -0.0048627593 -0.023456743 0.0051090415
000100 9a c6 19 bc 65 8d ae 3c eb 9a 30 bd 38 9f 83 3d
       -0.009385729 0.021307657 -0.04311649 0.06426853
000110 fd 7f ac bc 9a 02 45 bd 00 04 3b 3b 8f b9 13 bd
       -0.021057123 -0.048098184 0.002853632 -0.036065634
000120 22 60 39 bd a5 4b 2a bc c2 06 23 3c 05 75 f8 bc
       -0.045257695 -0.010394012 0.009950342 -0.030329237
000130 67 1e 2a 3c 61 d3 a1 bc c4 ed 5e 3d 19 81 c0 3b
       0.010383225 -0.019754114 0.05442597 0.0058747646
000140 90 e2 28 bd 72 90 07 bd f7 02 a3 bc fb c3 cb ba
       -0.04123169 -0.03309674 -0.019898875 -0.0015546078
000150 64 f5 a9 3c 38 f1 f0 bc a2 da 8d 3c 91 90 2d 3d
       0.020746894 -0.029411897 0.017316166 0.042374197
000160 b1 1b 18 bd 0d 5d e6 bc 2c 6e 93 3d 04 4f fd bb
       -0.037135784 -0.028120542 0.07198748 -0.0077303667
000170 78 26 ce bc 7a df b8 bc fb 58 7e 3c 28 ec 57 bd
       -0.025164828 -0.0225675 0.015524144 -0.05271545
000180 a3 72 06 3d 41 5f 6a 3c b7 1e 78 bd d1 bc 82 3c
       0.03282417 0.014304937 -0.060576167 0.015959175
000190 aa 42 39 3d a9 45 20 bd 53 19 8e bc 71 f1 9f bc
       0.04522959 -0.039128933 -0.01734606 -0.019524308
0001a0 61 0c ab bc b6 1e af 3c 35 75 24 3d b8 72 01 3d
       -0.020879926 0.021376949 0.04015084 0.031603545
0001b0 37 8b 48 bd 0c c4 4c 3b 85 3e 61 3d 20 76 8b 3d
       -0.04896089 0.0031244783 0.054991264 0.0680964
0001c0 d1 4a 2a bd 2b 8f d2 bc d1 d2 87 3c 2d d9 50 bd
       -0.041575257 -0.025703033 0.016580017 -0.050988365
0001d0 f9 32 8e 3b a0 4e 17 bd e9 e1 b4 3c 18 f5 40 bd
       0.0043395725 -0.036940217 0.022080379 -0.04710874
0001e0 44 73 0c 3d b7 e6 a8 3c 4a d8 26 3d 9d 69 e6 bc
       0.034289613 0.020617826 0.040733613 -0.028126532
0001f0 80 14 0b bd 9a 57 af 3b 48 71 ae bc d3 b7 8a 3c
       -0.033955097 0.005351019 -0.021294251 0.016933357
000200 68 b2 a5 bc af 42 28 bc 01 0c 0a bd 5d 9d 09 bd
       -0.020226672 -0.010269805 -0.033702854 -0.03359734
000210 e8 f2 48 3d 30 3a a5 3b 53 79 49 3b 36 d2 27 3c
       0.04905978 0.005042337 0.003074248 0.010242989
000220 5a 15 5e bd e1 fd 08 3c c8 e9 51 bd 21 e1 27 bd
       -0.05421958 0.008361311 -0.05124834 -0.040986184
000230 ca c4 c3 bc 2c ce 7b bd 43 1e ef 3c 1a 58 89 bb
       -0.023897547 -0.061475918 0.029189235 -0.0041914107
000240 2a 73 4d 3d d0 e3 a7 bc cc 3a 45 3c 24 86 8a bc
       0.050158657 -0.020494372 0.012037944 -0.016909666
000250 2a 39 da 3c f8 fc 20 bd f4 bb 1b bc 3e 33 6c bc
       0.026638586 -0.03930375 -0.009505261 -0.014416514
000260 cc 4d 94 3b d9 66 64 bd 5d cc 2b 3d 60 f0 25 3c
       0.0045258757 -0.055762146 0.041942943 0.010128111
000270 c6 f9 01 3d 12 95 60 3d 79 33 69 3d 33 41 66 bd
       0.031732343 0.054829665 0.056933854 -0.056214523
000280 95 e5 59 bd ac 49 3b 3d 79 bc 9b bc 39 bf 10 3c
       -0.053197462 0.045724556 -0.01901077 0.0088346535
000290 57 9d 8e 3d f2 22 08 3d 18 c4 91 3c 46 b5 3f bd
       0.06963604 0.03323645 0.0177937 -0.046803735
0002a0 8c b5 1e bc 6e a3 4c 3c fe d7 1f 3c 0c 32 ee 3c
       -0.009686839 0.012490137 0.009756086 0.029076599
0002b0 eb c8 fb 3c 9c 64 7d bd 29 28 19 bd ed 70 6a 3d
       0.030735454 -0.061863527 -0.037391815 0.0572366
0002c0 b1 5a e6 bc a2 19 ec 3c a3 1d 74 3c 5e 93 10 bc
       -0.028119417 0.028820816 0.014899644 -0.008824198
0002d0 1b 98 8a 3c bc 0b 06 bc f6 e2 20 ba 6d b1 b2 3c
       0.016918233 -0.008181509 -0.00061373354 0.021813119
0002e0 47 ed 68 bc 83 b4 57 3d 8b 20 7c 3b 10 a7 58 bd
       -0.014216728 0.052662384 0.0038471546 -0.0528937
0002f0 32 7b 35 bd 7c 14 32 bd 99 89 3c 3d 3d ef 6b bd
       -0.04430694 -0.043476567 0.04602966 -0.057601202
000300 6b d4 ad 3c 7c b7 3d 3d ac bc 26 3b 38 fb 42 bd
       0.021219453 0.046317562 0.0025442047 -0.047602862
000310 e5 40 f3 bc 62 8c 88 3c ea 55 2a 3d 9f 9b 23 3d
       -0.02969403 0.016668502 0.04158584 0.039943334
000320 57 3f 6b 3d 96 c0 8e bc 52 e8 ad 3c 81 0a 61 bd
       0.057433452 -0.017425817 0.021228943 -0.054941658
000330 ca ac 19 bb 54 ab 19 3c 20 32 f7 bc 0f 08 d4 3c
       -0.0023448938 0.009379227 -0.030175269 0.025882749
000340 f4 df 27 bd 4a 8d 29 bd 42 f2 2e 3d 98 77 07 bd
       -0.040985063 -0.04139451 0.042711504 -0.033073038
000350 fc d1 7a bd fa a0 2a bd 20 2e 84 3d 1c 02 18 3d
       -0.061235413 -0.041657425 0.0645411 0.037111387
000360 d3 c8 ef 3c c2 97 26 3d 25 05 88 bc 85 68 32 bd
       0.029270565 0.04067207 -0.016604016 -0.04355671
000370 72 03 ad 3c 15 37 9c bc cc b1 88 3c 85 f6 c2 3b
       0.021119807 -0.019069234 0.016686343 0.0059497976
000380 bf 8a 64 3d 24 22 45 3d 56 c8 65 bc b9 2d 05 bd
       0.05579638 0.048128262 -0.014024815 -0.032514308
000390 69 60 64 bd 77 5c 45 3d 9b 29 64 3d 9b 65 61 3d
       -0.055756006 0.048183884 0.05570374 0.05502854
0003a0 c8 7f 10 3b 05 f6 91 3d cc 48 e7 bc 67 98 8a 3d
       0.002204882 0.071270026 -0.028232954 0.0676735
0003b0 7e d1 78 bd ef a7 59 3d c8 b3 69 3c 5e 3b 92 bc
       -0.060746662 0.05313867 0.014264055 -0.017850574
0003c0 58 9d f4 bb 01 b3 ac bb 65 77 82 bc e1 5f 53 3d
       -0.007465046 -0.0052703624 -0.015926072 0.05160511
0003d0 00 8a 69 3d 3b e4 c8 bc 9b 83 ed ba 2b cb 17 3d
       0.057016373 -0.024522891 -0.0018120887 0.03705899
0003e0 7b a3 e7 bc 88 8f 0e bc 0d 35 90 bc c9 55 3a 3d
       -0.028276196 -0.008701213 -0.017603422 0.045491967
0003f0 6b 00 00 bc 75 c6 8f bc e0 9d 2e bd 99 1b 22 bd
       -0.0078126 -0.017550686 -0.04263103 -0.0395771
