PPO/target_v_v1.pth (torch, 171279 bytes, 7 tensors)

h1.weight f4 [64, 9]
00000000: 16f5 90bc e2b8 a2be 6b9a c2bc c40a 923e
00000010: cb7e 413e f6bc dcbd 236e 143e 0641 95be
00000020: 1c81 a53e 06c0 4c3e 003c 28be 000b b33c
00000030: db4e ad3d 369a 46bd 76ee 0bbd 1629 eb3d
00000040: b0a1 a7be 7b86 a7be d005 6dbe 7b1d 35be
00000050: 0087 bd3c 203f 0e3d 438e 823e 5ba2 063e
00000060: ab03 9fbc 7305 9fbe ea15 8fbe 3030 8d3d
00000070: 4b01 38bd 56cb 693d e0ec a4bd 0032 a9bb
00000080: ebeb 783e eb19 20bd f431 883e 8030 7f3c
00000090: c374 a7be 230d 163e 7063 333e 5bd4 853d
000000a0: 9f3e 80be beca 813e 5800 18be 430f 90be
000000b0: 56e2 09bd 8b4c 0ebd 06d0 013e 0821 1bbe
000000c0: ab41 82bc 4683 85bd d748 96be 0099 78bd
000000d0: 405c 863e 9863 0a3e 7817 043e ab15 403e
000000e0: feba 263e 0bc8 913d f673 52bd 26c5 f2bd
000000f0: 265b 6f3e 0869 903e f61f c3bd 5c57 82be
00000100: 967b 7d3e 36ec 6fbd 401c 89bc 3e52 553e
00000110: 7c96 8fbe 361f 173e f664 7e3d 36b6 ec3d
00000120: b07b e2bd e6ef e13d 5b30 ab3d 636c 7abe
00000130: 941e 80be 6373 88be d6bf 633c 3058 a03e
00000140: a3ab 97be 9e40 9abe 568d ee3d c865 1a3e
00000150: ca0f 943e 03ba 39be 70b3 ee3d 0be5 12be
00000160: 80f8 03be 5a03 90be a642 2f3e 0e22 68be
00000170: 3be5 0ebe 2857 18be 0b2d 8b3e f4cf 823e
00000180: db80 aa3d b018 323e 68ac 6bbe 96ed 853c
00000190: f874 6a3e 6620 8b3e ccb9 a4be 461b 4abe
000001a0: b05a 903e 7655 263d aba7 9f3c 90d4 a4bd
000001b0: c668 cf3d 5b63 583e 4b6f aa3e 4b16 2dbe
000001c0: 0093 39bc 10ce 853d 7877 83be 10fd 3b3e
000001d0: d046 3f3e 6674 48be 98a7 9dbe 32f0 803e
000001e0: 3358 63be c032 47be 90a6 593e 6ba8 b7bc
000001f0: 5b82 773e 08ec 7ebe 032d a8be 8339 7b3e
00000200: d03f fe3d 402a 2ebd 6b22 3dbd 8e94 12be
00000210: 52b5 9ebe bbdb a7be 4e9f 30be 0b49 3a3e
00000220: 6edd 2ebe d673 bbbc 367f 5e3d 50d5 55be
00000230: 339e 65be a3f8 0a3e 1680 063e 5bfc 7d3e
00000240: 8be5 15bd 0694 6f3e 56fb c6bc 8e51 4abe
00000250: ab73 9ebd e6a4 6a3e 5634 6d3e 40b9 ac3d
00000260: 3401 8d3e 2b64 893d f042 413e 136a 5abe
00000270: 5898 4e3e b827 3e3e 745d 953e c0d9 743e
00000280: c38d 4abe f3f9 21be 76b3 80be 5e74 343e
00000290: 0eda 97be f0d4 8abd 4bed 27be 68d4 1b3e
000002a0: eb69 a23c e060 613e cbb7 62be 23b0 6a3e
000002b0: ab48 033d b088 5c3e 8c48 aa3e a028 3ebe
000002c0: 7023 293e 28a4 4c3e ac01 82be 2bf9 85bd
000002d0: 4b2a 10be 530b 12be 64fb 873e c873 553e
000002e0: e034 c43d 7a54 8abe f05e 43be 3e66 8a3e
000002f0: 3b8a debd 2b28 3fbd db1d 8e3e 4b50 42bd
00000300: abba 0cbe 8e40 90be 90d9 3a3e 2bc5 08bd
00000310: 625e 94be eb96 4f3d cefb 30be d6ef e13c
00000320: 34b2 8c3e 6053 7cbd e8ef 68be 03b7 a63e
00000330: e8a7 173e a04a 13be b6fe 36bd 97e2 a53e
00000340: c09f b53d 8edd 15be 0018 c3bb 805a 143e
00000350: d6d6 693d 2b88 533c 7099 9abd b624 133e
00000360: be28 8a3e 9621 783e 468d 53be 3b54 323e
00000370: e346 82be 2bcb 99be 53e0 203e f0ff 66be
00000380: 93a3 58be 9e48 84be 0838 723e 80e6 333c
00000390: 7b51 943d 76c1 bf3d 40e1 09be 632c 593e
000003a0: aeaa 8a3e a6db da3d acfa 8ebe dbda 74be
000003b0: 2c78 88be 76d4 5d3d fe24 70be 237d 863e
000003c0: f008 24be 28ab 91be ab4e 453e 3b6c 283e
000003d0: d680 4dbd 506d b93d e3eb 193e bbd9 c63d
000003e0: 0e6f 063e aea1 753e d8b6 87be 801b 703e
000003f0: 2606 b73d 282a 0abe 9e38 9fbe f6d3 6d3e
-0.017694991 -0.3178168 -0.023755273 0.2852384 0.18896024 -0.10778229 0.14495139 -0.2915117
0.32325065 0.19995126 -0.16429138 0.021855831 0.08462306 -0.04848691 -0.03416296 0.11482446
-0.32740545 -0.32719788 -0.23146749 -0.17687027 0.023135662 0.03472817 0.25499162 0.13147871
-0.019410929 -0.31058845 -0.27946407 0.06893957 -0.044923108 0.057078682 -0.08052993 -0.005163431
0.24308746 -0.039087217 0.2660061 0.015575528 -0.3270627 0.14653449 0.17518401 0.06534644
-0.25047776 0.25349993 -0.14843881 -0.28136644 -0.033663116 -0.034740966 0.12677011 -0.15149319
-0.015900454 -0.06519179 -0.29352447 -0.060692787 0.26242256 0.13514555 0.12899578 0.18758266
0.1628227 0.07118233 -0.05138012 -0.11854009 0.23374614 0.28205132 -0.095275804 -0.25457275
0.24754176 -0.058574878 -0.016737103 0.20832154 -0.28044498 0.14758 0.062108003 0.115581915
-0.11058748 0.11032085 0.083588324 -0.24455409 -0.2502333 -0.26650533 0.013900718 0.31317282
-0.29623136 -0.30127424 0.116480514 0.15077889 0.28918296 -0.18137364 0.11655319 -0.14345185
-0.12887764 -0.28127557 0.17115268 -0.22669241 -0.13954632 -0.14876997 0.27182803 0.2554928
0.083253585 0.1739223 -0.23014987 0.016348641 0.22896183 0.27173156 -0.32173002 -0.19736966
0.2819419 0.040608846 0.01948913 -0.080483556 0.10127406 0.21131651 0.33288035 -0.16903035
-0.011326551 0.06533444 -0.25677085 0.18358254 0.18679357 -0.19575652 -0.30791926 0.25183254
-0.22201614 -0.19452953 0.21254945 -0.022419175 0.2417082 -0.24894726 -0.3284684 0.24533658
0.12414515 -0.04252076 -0.0461754 -0.14314482 -0.3099771 -0.3278483 -0.1724827 0.18191926
-0.17076656 -0.022882383 0.054320537 -0.20882154 -0.2242363 0.1357141 0.13134798 0.24803297
-0.036595862 0.2339631 -0.024289768 -0.19757673 -0.07736906 0.22914466 0.23164496 0.08433771
0.2753998 0.06708559 0.18873191 -0.21329527 0.20175302 0.18569839 0.29172862 0.2391119
-0.1978064 -0.15818004 -0.25136918 0.17622516 -0.2965855 -0.06778896 -0.16399114 0.15217745
0.019825896 0.22009611 -0.22140424 0.22918753 0.032051723 0.21536517 0.33258474 -0.18570185
0.16517425 0.19984496 -0.253919 -0.06541666 -0.14078633 -0.14262132 0.26558983 0.20844948
0.095803976 -0.27017576 -0.19079185 0.2703113 -0.10866209 -0.046669167 0.27757153 -0.047439855
-0.13743083 -0.2817425 0.18247056 -0.03339116 -0.28978258 0.050681036 -0.17283556 0.027580183
0.27479708 -0.06160295 -0.22747767 0.32561502 0.14810145 -0.14383936 -0.044676505 0.32399437
0.088683605 -0.14635298 -0.0059537888 0.14487648 0.05708965 0.012910883 -0.07548797 0.14369473
0.2698421 0.24231562 -0.2065936 0.17414944 -0.25444707 -0.30037817 0.15710573 -0.2255857
-0.21156149 -0.25836653 0.23654187 0.010980248 0.07242104 0.093630716 -0.13464832 0.21208338
0.27083343 0.10686426 -0.27925622 -0.23911612 -0.26654184 0.054157697 -0.23451611 0.26267347
-0.16019034 -0.28450894 0.1926829 0.16447537 -0.050171696 0.09054053 0.1503139 0.097094975
0.13128302 0.23987457 -0.26506686 0.2344799 0.089367196 -0.13492644 -0.31097883 0.23225388

h1.bias f4 [64]
00000000: a637 b9bd 4ba8 d2bd 53e2 503e c059 7abe
00000010: b66b 3b3d 667c 95be 43d0 703e 56be fdbc
00000020: a862 54be 0e4f a4be 16d0 a7bc c69d 8f3e
00000030: 9bce b0bd 96b8 8a3c e749 aabe fb70 193e
00000040: b090 a8bd 9062 a3bd a00c 14be b793 913e
00000050: abdc 363b 2720 a2be 1b30 823e a6e2 47be
00000060: 63f7 083e 001e edbb 6b65 d63c a6f9 933e
00000070: 400d 123e c6bc 55be eb41 f5bc 8aa2 933e
00000080: e80b 603e e6a9 e5bd 6fec 9fbe bba8 a3be
00000090: a07e 2ebd a398 01be d098 863d 461f 28be
000000a0: 8420 963e 635a a43e f4e2 a7be 4b71 00bd
000000b0: 286d 963e c673 213e 168d 293e 7e21 923e
000000c0: 5684 6cbc f659 5f3e 53d7 a5be 00a7 9dbc
000000d0: ab75 ffbb 8f67 a33e e35d 783e a66f 8bbd
000000e0: 008c f73a ae25 1ebe bc5a a7be 0709 a5be
000000f0: 6b83 013e 90d0 71be d01f f23d d69b 41be
-0.09043817 -0.102860056 0.20398836 -0.244483 0.045757018 -0.2919647 0.23516946 -0.030974548
-0.2074076 -0.32091564 -0.020484965 0.2805006 -0.08633157 0.01693372 -0.33259508 0.14984505
-0.08230722 -0.07977784 -0.14457941 0.2843301 0.0027902524 -0.31665155 0.25427327 -0.19520053
0.1337562 -0.0072362423 0.026171407 0.28901404 0.14262867 -0.20872793 -0.029938659 0.28834945
0.21879542 -0.11214046 -0.31235072 -0.3196467 -0.042601228 -0.12655883 0.065721154 -0.1641818
0.29321682 0.3210021 -0.3279034 -0.031358045 0.29380155 0.1576682 0.16557726 0.28541178
-0.014435848 0.21811661 -0.32390842 -0.01924467 -0.0077960095 0.31914946 0.24254565 -0.068084046
0.0018886328 -0.15444061 -0.32686412 -0.3223345 0.12647788 -0.23614717 0.11822474 -0.18907103

h2.weight f4 [128, 64]
00000000: 5008 9fbc 58dc 7fbd 284d 88bd 9cad 5b3d
00000010: fc7e d63d 08d2 ed3c b23e d2bd e606 c6bd
00000020: 8850 92bc 942e bfbd 6e66 f03d 4043 00bd
00000030: 501f 753d 5009 66bd 7eac f9bd 2635 d8bd
00000040: 60e9 85bc 6423 24bd 1c3d 7cbd 5ccc 8e3d
00000050: 0039 9b3c ec00 13bd 84d1 d8bd 90b6 cb3d
00000060: da91 cf3d e8a9 393d c04d eabb 04b0 2cbd
00000070: ce6f 803d 98cc cdbd 0ad8 e03d 8e4c febd
00000080: b8ba 853c a4cd 373d d88c a0bc 9011 8cbd
00000090: 703c 773d e03f a8bb 78e9 a23d 8c05 6fbd
000000a0: e4c3 303d 88de f93c 5edd 83bd 5cb4 cdbd
000000b0: 7665 e2bd 00f4 d0ba 6c9e fb3d 0480 283d
000000c0: 8061 acbb 50ed ec3c 5cba 0a3d 8029 3f3d
000000d0: a84e 1dbd 4490 9abd 4cac 7d3d b035 a4bd
000000e0: 3005 6abd a876 0abd bc36 f23d a0c3 49bd
000000f0: e0b8 22bc 7804 e53c a0f3 bbbd 76d1 aebd
00000100: 20ae ad3c 58ba af3d 5ae6 f8bd 042f 2ebd
00000110: 80c7 64bb c0b1 7f3d e0c4 ad3d b27e 9dbd
00000120: c0bb 5f3c 6075 d33d 0046 16bd 1202 aa3d
00000130: 0012 01bb 882f 563d 8869 1abd 9448 f53d
00000140: c047 50bb b4be 61bd 52ff b03d bebb b13d
00000150: f849 283d 74b3 0abd 30e3 ee3d 3618 8f3d
00000160: 0230 f93d 9035 a5bc 9a4d 8cbd 942b 0bbd
00000170: 98d8 c9bd 4838 543d 3e3e e1bd 1ae1 85bd
00000180: aa49 d13d 5a48 f53d f25c 9abd 7a36 b1bd
00000190: c0f9 fc3b 4c23 b8bd ba07 91bd 4ce0 8bbd
000001a0: a0cd 013c eeb6 e7bd 003b eb3d 706c 3b3d
000001b0: d054 343c 04d1 393d 9c9a d53d b0a7 4b3c
000001c0: cc30 34bd 80f3 d9ba a2b1 89bd 50e8 86bd
000001d0: 00e3 5c3d f837 0dbd fefe 9a3d ca1c 9cbd
000001e0: 94aa 77bd 1021 edbd 6ecf a9bd a2b4 cd3d
000001f0: 8009 fbbc 543e b93d d4c5 a53d f0c3 8e3c
00000200: d0a1 953d 7c74 3b3d 24c0 8e3d ec64 d93d
00000210: d2b7 dd3d 8045 fdbb c2a8 f93d b082 0d3d
00000220: 8049 223b 9c1d db3d 3867 ca3d b0dd bebd
00000230: b260 823d ec28 79bd 6a53 b9bd e0d0 6b3c
00000240: 44ca 733d 74b9 a9bd 2eed ddbd 5cef 5bbd
00000250: e0f2 ecbc d680 d83d 14f0 983d 824c b3bd
00000260: 98b3 b43d 002e 853d 409a 99bb 1c99 c93d
00000270: 5e19 b3bd 7435 c3bd 7061 a9bd f0b0 9a3c
00000280: e44f ffbd ecc9 423d 9a73 f73d e0b0 96bd
00000290: 7092 783c cab4 ca3d cc53 9ebd d042 073d
000002a0: 2821 dc3d e040 3b3d 680d b13d 0854 a73c
000002b0: b804 1dbd a80a 9b3d c0ad e93c 043d e1bd
000002c0: 0894 cbbc 60dc af3c f07b 663c 5c08 103d
000002d0: 4860 54bd c886 a83d f0a3 533c 14bb 0abd
000002e0: 0e8f f5bd 28aa bfbd e060 73bd 5853 cabc
000002f0: 800d d83a 00da 073d 70e4 9ebc 5aa4 b13d
00000300: bcbe bb3d 6a7d d6bd 6049 a4bd 10ae 693c
00000310: 20ad babd e039 b1bc 64f9 993d b040 36bc
00000320: 7662 ae3d 886b 45bd 7aff c13d d2aa f33d
00000330: 28da 753d 20b6 b2bb 8889 b33d 80f6 113b
00000340: 76f3 83bd c0ee a03d feb6 cd3d 848c 1f3d
00000350: 8809 c8bc b6a5 a73d f855 a23c c67b f1bd
00000360: c07e d53c c838 c93c f013 b63c b207 a0bd
00000370: c0e4 00bc 2655 aebd a469 9cbd dc44 8d3d
00000380: 1e9c b13d a0fd 5f3d 70cd a7bc 00ff 7e3a
00000390: 0009 e7ba 7201 b9bd 0a1c d0bd 38bf 603d
000003a0: e084 6e3c 58e1 bf3c e473 1c3d 1c55 ef3d
000003b0: 1021 4fbd 80aa 47bc f825 bd3d 4cd2 d33d
000003c0: 945f 44bd 78d1 dcbd dcf1 003d f03a a73c
000003d0: 684a cf3c 844d 443d 5c16 923d 3ab4 f83d
000003e0: 2831 c13d e443 65bd f6e8 cabd ea1b abbd
000003f0: a8fe dd3c cc7a 773d f615 86bd b445 f1bd
-0.019413143 -0.062465996 -0.066553414 0.053632364 0.10473439 0.029030815 -0.102658644 -0.096692845
-0.017860666 -0.09335056 0.11738287 -0.031314135 0.059844315 -0.056161225 -0.121911034 -0.10557012
-0.016346633 -0.040072814 -0.061581716 0.06972572 0.018948078 -0.03588955 -0.10586837 0.099469304
0.10135241 0.04532805 -0.007150382 -0.04216005 0.06271325 -0.10048789 0.10978706 -0.124169454
0.016324386 0.04487385 -0.01959841 -0.06839287 0.060360372 -0.0051345676 0.07954687 -0.0583549
0.043155566 0.030501619 -0.06438707 -0.100441664 -0.110545084 -0.0015941858 0.12286076 0.04113771
-0.0052606463 0.028921753 0.033869132 0.046670437 -0.03840509 -0.07547048 0.061931893 -0.080180526
-0.057133853 -0.033804566 0.11826846 -0.04925883 -0.009931773 0.027956232 -0.09177327 -0.08536045
0.021201193 0.08580464 -0.12153311 -0.042525306 -0.003490895 0.062425375 0.084848166 -0.07690181
0.013655603 0.10325122 -0.03668785 0.08301176 -0.0019694567 0.052291423 -0.0376983 0.11976734
-0.0031781048 -0.05511351 0.086424485 0.08678387 0.041086167 -0.033862546 0.11664426 0.0698704
0.1216736 -0.020167142 -0.06850739 -0.033977106 -0.09855765 0.051811486 -0.109982 -0.06537075
0.102191284 0.119766906 -0.07537259 -0.08652969 0.007720202 -0.08991107 -0.07081552 -0.068298906
0.00792256 -0.11314188 0.11485863 0.04575771 0.011006549 0.04536535 0.1042988 0.0124301165
-0.04399185 -0.0016628355 -0.06723334 -0.06587279 0.05392742 -0.034477204 0.07568167 -0.076226786
-0.06046541 -0.11578572 -0.08291517 0.100442186 -0.030644178 0.09045091 0.08094373 0.017427415
0.07306254 0.045765385 0.06970242 0.106149524 0.108260766 -0.0077292323 0.12190391 0.03454846
0.0024763048 0.10699007 0.09882969 -0.09319627 0.063660994 -0.06083004 -0.09049113 0.014393061
0.059519067 -0.082873255 -0.10836254 -0.053695068 -0.028924406 0.105714485 0.07467666 -0.08754827
0.08823317 0.065029144 -0.0046875775 0.098436564 -0.08745073 -0.0953168 -0.08270538 0.018883198
-0.1246641 0.04755585 0.12082596 -0.07357955 0.015171632 0.09897764 -0.07730827 0.0330227
0.107485116 0.045716166 0.08645135 0.020425811 -0.03833458 0.07570392 0.028525233 -0.10997966
-0.02485086 0.021467388 0.014067635 0.035164222 -0.051849633 0.082288325 0.012917504 -0.033869818
-0.11990176 -0.093586266 -0.05941856 -0.024697945 0.0016483516 0.033166885 -0.019396037 0.08673926
0.09167239 -0.104731396 -0.08021808 0.014262691 -0.09115052 -0.021634042 0.075182706 -0.011123821
0.08514874 -0.048198253 0.094725564 0.11897816 0.060022503 -0.00545384 0.087664664 0.002227217
-0.06442921 0.07858038 0.100446686 0.038952366 -0.024418607 0.08185904 0.019816384 -0.11791186
0.026061416 0.024563208 0.022226304 -0.07813968 -0.007867038 -0.085123345 -0.07637337 0.068978995
0.08672355 0.054685235 -0.020483702 0.0009727329 -0.0017626584 -0.09033479 -0.10161598 0.05486986
0.014558047 0.023422882 0.03819646 0.11686155 -0.05056864 -0.012186646 0.092357576 0.10342845
-0.047942713 -0.107821405 0.031480655 0.020413846 0.025304034 0.047925487 0.07133171 0.121437505
0.09433204 -0.05597295 -0.09907715 -0.083549336 0.027098969 0.060419843 -0.065471575 -0.11780873

h2.bias f4 [128]
00000000: fabc ab3d d037 6bbc ac9e 6fbd 90ec 0cbc
00000010: 56e0 df3d 062f fc3d 54aa 74bd a843 e13d
00000020: 5424 a43d 90f9 083c 0e53 ca3d a4cf 403d
00000030: c641 89bd 90ef a2bc 40c3 08bc a0a4 febd
00000040: 28fc 873d e016 fdbb 0059 b3bb a4f5 cabd
00000050: 16fe cc3d d4e6 c4bd 48b5 89bd 2ee7 e83d
00000060: 724b 833d d07b 553d 309b e53c 80de b63d
00000070: 6c90 2f3d a08d 77bd 987c e7bd e0e3 3d3d
00000080: c837 c43c 0ed9 883d c073 8dbd 4003 813b
00000090: b60f 8e3d d081 423d 6cd2 5e3d 600e 85bd
000000a0: a0f6 f9bb aa5e 953d 72c3 993d 22bb dbbd
000000b0: 3415 d0bd b096 d23d 6421 8fbd ac01 9b3d
000000c0: 74af e03d 785d 2b3d 1425 a53d 1cd8 0e3d
000000d0: 2ca5 72bd 840a 5a3d 8080 d3bb acd3 8e3d
000000e0: c01e 013c 7c11 84bd 34fc bfbd 6008 20bd
000000f0: 342a f3bd 208a 00bc cabe c53d 0884 ebbc
00000100: 0846 92bc 002c 1c3c 1cc4 d13d 18e4 4fbd
00000110: a29e 993d d857 36bd 1804 193d a802 da3c
00000120: 48fd 8e3d fe47 8d3d ea6a d93d 08f7 04bd
00000130: a852 d5bc b073 5b3c 2800 92bc f429 543d
00000140: a412 d5bd ded1 ff3d 5e14 b43d d49f 403d
00000150: 00ee d53d 882d 7ebd 000f ce3a 9cb6 97bd
00000160: 0698 813d d623 fa3d a03d d63b cc1a 873d
00000170: 526c c0bd c8bb 043d 042b c3bd ec7d 8e3d
00000180: d041 e9bd c00b b2bc 7847 fbbc 9072 563c
00000190: dca2 f33d ceb9 bb3d ac2a 08bd bc6d 50bd
000001a0: 2c14 ae3d c89c 5a3d e06d 48bc ce5a 8b3d
000001b0: 0032 a3ba 00d6 803b 1c62 77bd 6060 d53d
000001c0: 0872 f53d 5084 63bc e041 e03c ba46 e6bd
000001d0: 4e77 ab3d b0a9 cebd 7c5e 8a3d c02f 463b
000001e0: 6cb1 f03d 18f9 9e3d 109c 7b3c 60bd f8bb
000001f0: 909d 45bd c475 7c3d 7676 c2bd 508e b8bd
0.08385654 -0.014356568 -0.05850093 -0.008601323 0.109314606 0.123136565 -0.05973275 0.109992325
0.080147415 0.008360282 0.09879123 0.04707302 -0.067019984 -0.019889623 -0.0083473325 -0.124337435
0.06639892 -0.007723674 -0.005473256 -0.099101335 0.100094005 -0.096143395 -0.0672403 0.11372219
0.064108744 0.05212003 0.0280281 0.08929157 0.04286234 -0.0604378 -0.11303061 0.046359897
0.02395238 0.06682025 -0.06906843 0.003937155 0.069365904 0.04748708 0.054399893 -0.064968824
-0.007628277 0.07293446 0.07507981 -0.10729052 -0.10160294 0.102826476 -0.06988791 0.07568678
0.10970965 0.041837186 0.08063713 0.034874067 -0.05923955 0.053232685 -0.0064545274 0.06973967
0.0078808665 -0.064486474 -0.09374276 -0.039070487 -0.11873284 -0.007845432 0.09655531 -0.02874948
-0.01785566 0.009531975 0.10242483 -0.050754637 0.0750096 -0.044517368 0.03735742 0.026612595
0.06981903 0.06898497 0.10616095 -0.03246215 -0.02604039 0.013394281 -0.01782234 0.051797822
-0.10403946 0.12491201 0.08792947 0.047027424 0.104457855 -0.06205514 0.0015721023 -0.07407877
0.06327824 0.122138664 0.006538108 0.06596908 -0.093956605 0.032405645 -0.09529689 0.069576114
-0.11389506 -0.021734118 -0.030673727 0.013088837 0.11896297 0.09166299 -0.03324382 -0.0508859
0.08499941 0.053372175 -0.0122332275 0.06804429 -0.0012450814 0.003931761 -0.0603963 0.10418773
0.1198464 -0.013886526 0.027375162 -0.11243959 0.08372365 -0.10090959 0.06756303 0.0030240864
0.117525905 0.077623546 0.015357032 -0.0075909346 -0.048245966 0.061635748 -0.09495251 -0.09011519

h3.weight f4 [256, 128]
00000000: 898f 6fbd 7cc1 523b 886e 433d 9d9d a53c
00000010: 2d0a e53b d14a 0e3d cddf a43c b68f bf3b
00000020: 51ef 64bd c84e 90bd d65e 60bd 09f8 e83c
00000030: d6bb b73c b11f 06bb 1db8 9f3d fc68 74bd
00000040: faa8 00bd 6c6b 81bd 1c44 81bd b80b 643d
00000050: 54c4 29bd 5c2e 8fbd d987 f9bc 6b88 74bd
00000060: 0b30 543d ac1e cabc c215 83bd 32e9 9f3d
00000070: 06f3 743c 90d0 893d 8fcf 0d3d 4855 07bd
00000080: 9ed0 a4bd 56ec 7bbd 6bfa 67bd 43e9 383d
00000090: 9790 c03c 4fe1 963d ee17 373d 3da1 573d
000000a0: e370 ed3c d379 193d d0b0 473b 045b 9cbc
000000b0: e833 a9bd fcf2 9ebd 7854 96bd 1f12 26bd
000000c0: 1797 65bd 0067 79bd 056c b3bd 3253 11bd
000000d0: 321a 33bd 4884 823d 6a63 5bbc d39f 793d
000000e0: 2439 9e3d 737b ac3d c911 a93d a3dc dbba
000000f0: 1679 753d 9ebc ad3d 8bff f6bc b08c 713d
00000100: 6d65 52bc 8685 fa3c 9b87 05bd f452 5b3d
00000110: 6eea 99bd 586d 593d 0d64 603d 7b6f 523d
00000120: 5c2a f83b a010 7fbc 1ec7 13bd 27a7 c83b
00000130: e6c6 17bc 2610 d33b 6077 a1bd 7963 08bd
00000140: 4d2c abbd 4359 a6bd 6e3c 43ba ad41 67bd
00000150: 607c 833d 2beb 8dbc c6d9 4dbd 70bc 253d
00000160: 19de 783c 9a5e ab3d 73ac 003d cf30 d3bc
00000170: 028d 81bd b8b8 8ebd 75d4 5ebd 1265 48bd
00000180: f5b1 463d 5474 2fbd 8a44 1d3c 2eb1 9ebd
00000190: b02d ccbb fe49 943d 0c59 99bd 8798 e5bc
000001a0: df7f 8abd 4869 863d c438 aebd e04b baba
000001b0: 3371 6a3d 1b50 17bd 2fbf 763d b0e7 9ebd
000001c0: 25ba 7dbd cae7 993c 2384 363d d671 d8bc
000001d0: 1d51 733d 96bd 453d 39bc ca3c d024 b53c
000001e0: 2563 a5bd 6d82 893c 0dd4 7f3d a202 d6bb
000001f0: 637e 3dbd 772d d93c 5b09 bcbb ebd8 bbba
00000200: 2ec5 81bd 1b60 b3bd 305e 5dbd aad8 763d
00000210: e781 43bc bd50 a53d 38ed 7bbc 111e 5cbd
00000220: e454 a03d 7f6e 1cbd e71b d83c b49b 05bd
00000230: 4d20 1d3d 40f4 ccbc ba3b 863d dcda 8c3d
00000240: 376b a83c da3f 3fbc 5c6c acbd ce08 6e3d
00000250: b29e 90bb f334 1b3c 4799 84bd 60b3 4e3d
00000260: 1573 4cbd 580f d5bc 58cc 76bc f35c 6abb
00000270: 6b0b 913d 2f49 883d 71b4 c23c bc14 03bd
00000280: 14c0 af3c c25e 623d 417c 633c 216d bb3c
00000290: 43ae dabc c247 a93d 7208 89bd 3264 383d
000002a0: 7c0a 22bd d30d 97bd 81d9 a4bd 6306 5b3d
000002b0: bee3 5f3d 3330 21bd ce7e 8cbd 7d3f b23d
000002c0: 1aff ed3c 8161 7a3d 552a 8cbd ed51 8d3d
000002d0: 62bf 933d 03b2 e43c 1447 50bc a277 85bd
000002e0: 1842 fcbc 83fd 3b3c fc9c 2dbd 5a65 943d
000002f0: af34 86bd 4b08 01bd d565 723d a675 583d
00000300: 628a c4bc ac9a 3fbc efd3 7cbd 5638 ff3c
00000310: 9275 1fbd 94da a53b 4444 813c fa0a 6dbc
00000320: 2d21 ab3c a285 353d f893 91bd ee3d 673d
00000330: fc0f 82bd 13ea 28bd ac1d 943d 29cc c53c
00000340: 17aa 7b3b 44dd 933d efc7 31bd 78a7 babc
00000350: dcfe dcbc 0be3 3e3c 9389 07bd 8087 15bd
00000360: 08d8 743d b088 25bc 84fe 2a3d 66d1 213d
00000370: 2445 b93c 8d20 413d 89c3 87bc e49c a33d
00000380: f266 8c3c 8c51 3c3d 0361 77bd 6e76 373d
00000390: d532 ee3c 1010 46bd e3bb 4b3d 22c2 c83c
000003a0: 620d 49bd adae 4abd a171 53bd 8f96 d03c
000003b0: 218d 60bd 67b2 65bd 3e77 29bd 536e 1fbd
000003c0: dc88 e53c 62a9 a83d be14 a0bd 888c 9dbc
000003d0: d6dc 94bc eebb d8bc a6b8 71bd 0f98 273b
000003e0: 927a 7bbd 74c2 20bd cdd2 a13c e1d5 043d
000003f0: f1c1 03bd 87d2 6e3d 48ec 893d 5fe4 20bd
-0.058486495 0.0032158783 0.047712833 0.020216757 0.0069897384 0.03473932 0.020126248 0.005845989
-0.055892292 -0.07046276 -0.054777943 0.028438585 0.022428434 -0.0020465667 0.07798789 -0.059670433
-0.03141115 -0.06319317 -0.06311819 0.05567524 -0.041447 -0.06991264 -0.030460285 -0.05970041
0.05180363 -0.024672829 -0.06400634 0.0780815 0.014950519 0.06729233 0.03462177 -0.033040315
-0.08047603 -0.061504684 -0.0566353 0.04514433 0.023506446 0.07367193 0.044700556 0.052644003
0.028984493 0.037469696 0.0030470379 -0.019086368 -0.082618535 -0.07761189 -0.0734033 -0.040544625
-0.056052294 -0.060889244 -0.087608375 -0.03547973 -0.043726154 0.06372887 -0.013390401 0.060943436
0.077257425 0.084219836 0.082553454 -0.0016774129 0.05992993 0.084832415 -0.03015115 0.05897206
-0.012841565 0.030581247 -0.032600027 0.053545907 -0.07515417 0.053082794 0.054782916 0.051375847
0.007573409 -0.015567929 -0.036078565 0.0061234417 -0.00926373 0.006441134 -0.07884097 -0.03329799
-0.08358059 -0.08122494 -0.00074476644 -0.056459118 0.06420207 -0.01732405 -0.050256513 0.04046291
0.015189671 0.08367653 0.03141446 -0.02578011 -0.06325723 -0.06968826 -0.054401834 -0.048924513
0.048509557 -0.04283555 0.0095988605 -0.07748638 -0.0062310323 0.072406754 -0.074876875 -0.028026832
-0.06762671 0.065630496 -0.08506921 -0.0014213286 0.05723686 -0.03694163 0.06024092 -0.07759035
-0.0619451 0.018787283 0.04455961 -0.026421469 0.059403528 0.048276506 0.024747955 0.02211228
-0.08075551 0.016785825 0.062458087 -0.0065310756 -0.04626311 0.026510937 -0.00573842 -0.0014331614
-0.06336437 -0.08758565 -0.054044902 0.06026522 -0.011932827 0.0807204 -0.015376382 -0.05373961
0.078286916 -0.038191315 0.026380492 -0.032619193 0.038360883 -0.025018811 0.06554361 0.068776816
0.020558937 -0.011672938 -0.084191054 0.058113866 -0.004413449 0.009473073 -0.06474548 0.050464034
-0.04991444 -0.026008293 -0.015063368 -0.0035760968 0.07082256 0.06654584 0.023767682 -0.032002196
0.021453895 0.05526615 0.013884605 0.022879185 -0.026694423 0.0826564 -0.06691064 0.04501743
-0.03956078 -0.07375684 -0.08049298 0.053472888 0.05466055 -0.039352607 -0.068601236 0.08703516
0.029052306 0.061128143 -0.06844012 0.06900392 0.07214238 0.027916914 -0.012712259 -0.06516959
-0.030793235 0.011474016 -0.04238604 0.07245894 -0.06553017 -0.03150205 0.059179146 0.052846573
-0.023991767 -0.0116945915 -0.061725553 0.031154793 -0.038930483 0.005061457 0.015779622 -0.014467949
0.020889843 0.044316895 -0.07108301 0.056455545 -0.06350705 -0.041238856 0.07232222 0.024145203
0.0038400942 0.072199374 -0.043403562 -0.022784933 -0.026976995 0.011650811 -0.033090185 -0.036506176
0.059776336 -0.01010339 0.04174663 0.03950634 0.022615977 0.047150183 -0.01657273 0.07988909
0.017138932 0.045976207 -0.060395252 0.044790678 0.029076973 -0.048355162 0.04973973 0.024506632
-0.04908503 -0.04948299 -0.051622037 0.025462417 -0.05482209 -0.05607834 -0.041373484 -0.038923573
0.028019361 0.08235432 -0.07816456 -0.01923205 -0.018171709 -0.0264568 -0.059013985 0.0025572812
-0.06139619 -0.039247945 0.019753838 0.032430533 -0.03216738 0.058306243 0.0673452 -0.03928029

h3.bias f4 [256]
00000000: cf29 e33c 4a84 5c3d 8d6a 5fbc 42f3 2e3c
00000010: e074 853d fe9c 00bd 49ed 8cbd 68df 063c
00000020: bb26 603d a0b2 a1bc 54bb 1e3d 64da bc3c
00000030: 7df8 953d 6d3f 363d 8097 9b3b c727 b2bd
00000040: 9686 e93c 648f c53c f2fe 9dbd abc3 b0bd
00000050: 23b3 753d 94ae 2abd d430 f5bc c1a0 31bc
00000060: 4e8c 88bd 245d 673d 4a54 5d3b 2e11 373c
00000070: f4ca 453d 2c79 473c ba64 81bc 69e7 553b
00000080: 272c 283d ef8b 433d 528b ac3d f9c5 b2bd
00000090: d545 603d 335b 363d 86c4 f13c 6e7b 833d
000000a0: cbc3 65bb 24a4 9dbd 60a2 0e3c 9ef1 eebc
000000b0: 828b 0d3c 57fa a83c a3c0 45bd 4dea 923d
000000c0: 2656 9f3d 21fd 60bd a97a 42bd 304d a7bd
000000d0: bb06 fe3c 7289 ae3d fa3b a3bd 656d 83bd
000000e0: d6e5 2ebd 9bd3 d6bc d3c2 383d 205c 543d
000000f0: ef73 85bd 589a 34bd af51 a83d 4c62 af3d
00000100: 87ed 8abc fc7d 6a3d d840 9fbd 4791 b3bc
00000110: 77f0 a23d 1f6c 39bd ad5b 8dbd f8e9 273d
00000120: 2245 4e3d 3d54 883d 05e6 b33c ff50 4abd
00000130: 56af 14bc bf58 b13d 9141 2c3d 96a9 a7bd
00000140: 80e0 773d cf95 43bd 3501 ad3d c92f a63a
00000150: 8838 90bd 244c 10bc 4f25 eabc ca13 56bd
00000160: 7226 993d 2d9a 2c3d 44af 3f3b 8708 98bd
00000170: 8d35 85bd 9c4a 6c3d 8524 9e3d 95f9 7d3c
00000180: 8ddc 70bd fd7c 813d a180 8e3d 7669 9cbd
00000190: da0a ebbc 73ac 6f3c 8f03 a8bd eb41 d23c
000001a0: 63ab 8fbd ad38 ad3d 93ca 263d 9787 673c
000001b0: 7088 723c e368 d43c ca5c 413c 16b0 58bd
000001c0: f822 933d 96f6 ae3d ecfc f0bc 2dad 963d
000001d0: ea20 d43c de70 79bc 6d6a 913d ca02 b83c
000001e0: 7248 a63b da93 65bd fd22 9d3d 3669 64bd
000001f0: 18af acbd d9e4 05bd ced2 9a3d def3 343d
00000200: 2223 97bd a59d 9fbc 7cc3 aabc 456e 0a3d
00000210: 35d2 1a3d 935c a33d 9671 993d b890 73bd
00000220: dbed 43bd 2fbb 9c3b b65a b9bc b921 833d
00000230: 4b5b cc3c 0990 943d 9c08 98bd 0920 9dbd
00000240: 4c0f 62bd 5016 49bd c39d 61bd fcb5 5cbd
00000250: f42f 5a3c ec3c 4ebc 963c 953d a280 8abc
00000260: bd78 61bd a1f8 7abd 0e48 60bd 2a1b a3bc
00000270: 4f0e 933d d8bb 293d 23a6 a43d 1530 59bd
00000280: 00a3 7ebd e97b 98bd 6079 49bd e881 6abd
00000290: 36b3 ae3d 0182 abbd 0aa7 bcbb 586b 643d
000002a0: 88a6 833d 3529 a1ba 1a2e 6abd 13b6 103c
000002b0: f924 5ebc 266b a13d 0d7f 58bd 56fd 2a3d
000002c0: 2ca9 3e3d 6e3f 61bd d398 e73c 0ff0 7bbd
000002d0: b7cb 8ebd e804 11bd e4d5 54bc 7d4c 333d
000002e0: 5b70 583b ce17 8a3a b9fb 06bd 1a91 95bc
000002f0: b4f9 92bc 295f 7fbd dce9 25bd 8c7e 89bd
00000300: 7f39 133c ed98 b1bd 0a4b 8b3c 0e70 8fba
00000310: e8e8 88bd 24b6 75bd aaeb dfbc bc72 4b3d
00000320: ca75 b43d eca6 11bd 75f1 a83d 7d40 81bc
00000330: cb63 113d bd6c 353d d502 fcbc 319b 813d
00000340: 9ac9 853b f1d5 2dbb 121e 013d c4a7 233c
00000350: 5d01 fe3b 102d 493c d12d fb3b a39c 3b3b
00000360: da7c 1f3d adb1 383d aa63 36bd 71d5 8c3d
00000370: f4fd 9ebd 8aba 4f3c ff62 93bc dab2 183d
00000380: 0a1c 09bd 3a1e 9e3d 93c5 9f3c 1ad3 273c
00000390: b008 7abd 4692 13bd b284 2e3d 22ed 7bbc
000003a0: d578 08bd 9983 8ebd a580 0ebd 5f0b 583d
000003b0: 1919 5c39 1a9a 983c 7ebb 883d 5e4e 80bc
000003c0: f06a c4bc dd62 d23c 77c0 873d 4dde 733d
000003d0: 40fe 133b 7264 34bd 0cee 4bbd 7fb2 98bc
000003e0: 45f2 983c c24a d23c fb2e aebd 6f25 0dbd
000003f0: 0610 0a39 a6fe cebc 83d7 83bd 674f 77bd
0.027729897 0.0538371 -0.0136362435 0.010678114 0.06516433 -0.03139972 -0.06881196 0.008231975
0.054724436 -0.019738495 0.03875287 0.023053356 0.07322786 0.04449408 0.004748285 -0.08698993
0.028506558 0.024116226 -0.077146426 -0.08631071 0.05998529 -0.041670397 -0.02993051 -0.010841549
-0.06667386 0.05648531 0.0033772164 0.01117353 0.048289254 0.012174886 -0.0157951 0.0032639152
0.041057732 0.047740873 0.08425011 -0.087291665 0.054754097 0.044520568 0.029512655 0.06420027
-0.0035059329 -0.07697323 0.008705705 -0.029167946 0.008639218 0.020627184 -0.048279416 0.071735956
0.077801034 -0.054928903 -0.04748026 -0.08169019 0.031009069 0.08522309 -0.07970424 -0.0641735
-0.042699657 -0.026223948 0.045107674 0.05184567 -0.06516253 -0.044092506 0.08218705 0.085636705
-0.016958965 0.057249054 -0.0777604 -0.02191986 0.07956021 -0.045269128 -0.069022514 0.040994614
0.0503589 0.06656692 0.021960268 -0.04939365 -0.0090750065 0.08659505 0.042054716 -0.08186643
0.060516834 -0.04775029 0.08447496 0.0012679036 -0.070420325 -0.008807216 -0.028582243 -0.052264966
0.07478036 0.04213922 0.0029248754 -0.074235015 -0.065043546 0.05768834 0.07721809 0.0155013995
-0.058804084 0.06322668 0.06958128 -0.076373026 -0.028691698 0.014628517 -0.08203804 0.025666198
-0.07015111 0.08458076 0.040720534 0.014131448 0.014803037 0.02592892 0.011801908 -0.052902304
0.07184404 0.08543126 -0.029417478 0.073572494 0.0258946 -0.015224664 0.07100377 0.022462267
0.005074554 -0.056049205 0.07672689 -0.0557644 -0.08431834 -0.03268895 0.07559739 0.044177882
-0.07379748 -0.01948435 -0.020845167 0.033796567 0.037798125 0.079766415 0.07492368 -0.059464186
-0.04783426 0.004783056 -0.022626262 0.064029165 0.024945876 0.07254035 -0.07423517 -0.07672126
-0.05519037 -0.049093544 -0.055082094 -0.05388449 0.013317097 -0.012587767 0.072869465 -0.01690704
-0.055046786 -0.061272267 -0.054756217 -0.019910414 0.071804635 0.041438907 0.080395006 -0.05302437
-0.062167168 -0.07445509 -0.049188018 -0.057252795 0.085302755 -0.08374406 -0.0057572173 0.055766433
0.06428248 -0.0012295606 -0.057172872 0.008832472 -0.01355862 0.07881765 -0.05285554 0.041745506
0.046548054 -0.054992132 0.028271114 -0.061508235 -0.06972449 -0.03540507 -0.012990449 0.043774117
0.0033025953 0.0010535659 -0.032954905 -0.018257666 -0.017941333 -0.06234661 -0.04050623 -0.0671359
0.008985876 -0.086717464 0.017003555 -0.0010943429 -0.06685048 -0.059988156 -0.027334053 0.049669966
0.08811529 -0.03555958 0.08249179 -0.01577782 0.03549556 0.044293154 -0.03076307 0.063284285
0.0040828707 -0.0026525224 0.031522818 0.009988729 0.0077516274 0.01227881 0.007665374 0.0028627298
0.038937427 0.04509132 -0.04452864 0.06876648 -0.077632815 0.012678752 -0.017991541 0.03727994
-0.033474006 0.07720609 0.01950339 0.010243202 -0.06104344 -0.03602817 0.042607017 -0.015376361
-0.03331836 -0.06958694 -0.034790654 0.05274522 0.00020990185 0.018628169 0.06676386 -0.015662368
-0.023976773 0.025681907 0.06628507 0.059538174 0.0022581965 -0.044041105 -0.049787566 -0.018639801
0.01867021 0.025670413 -0.085050546 -0.034459528 0.00013166675 -0.02526791 -0.0643759 -0.06037846

v.weight f4 [1, 256]
00000000: f4d5 473d 8c64 0a3d c814 b73c b673 43bd
00000010: 2cfe c83c 9035 833b be4a 45bd f648 38bd
00000020: 6c85 e03c 28e2 153c f051 09bc e064 0abc
00000030: b4cf dd3c 68c7 1bbd 40c7 ecba 9e1a 393d
00000040: 0010 3eb9 1c54 823c b2d2 163d 2081 3abb
00000050: a2f3 143d a21b 2fbd 20d0 9a3c 84e1 6e3d
00000060: 4825 93bc 0e5d 15bd 40f8 4ebc a6d2 423d
00000070: 10fd 83bc 90ba 76bd a805 5d3c c8cc 173c
00000080: d423 9f3c 3e70 6ebd e0e8 013b 20c9 283c
00000090: 4cbf 8d3c eedb 49bd 80b9 10bd 3094 293c
000000a0: b477 273d a0c9 9c3b b8a9 3ebd 9097 e23c
000000b0: 409c ce3b f8de 92bc 28c4 8d3c f06a 77bd
000000c0: c0de d8ba e05e 5cbd 8cd2 85bc 22a1 1a3d
000000d0: a85f dc3c 3444 13bd 08f6 b23c 4cc9 ffbc
000000e0: 20bb 8a3b 4e06 793d 1240 32bd 44aa 7abd
000000f0: f46c 99bc 4c88 c53c a406 433d 062f 5fbd
00000100: 0a01 3f3d 18fa a0bc 00d7 b63a a0dd 013c
00000110: 8a20 5ebd cc1f fd3c 0cee d6bc 0ac7 253d
00000120: 7832 563c 0273 14bd d65d 6f3d 5aa8 2cbd
00000130: 6024 c6bc d459 2c3d 26b1 4ebd 3860 233d
00000140: 2684 723d e635 773d 4849 4bbd e0e9 afbb
00000150: a8b1 7d3c 72e9 3f3d 0891 a9bc 42f8 3bbd
00000160: 00b2 efb9 5c4a f8bc 808d 90bc e0ef 1e3b
00000170: 1441 f9bc 1a31 4cbd 5004 053d 4ebb 7f3d
00000180: 04a3 bebc 0219 5d3d 643f 06bd 4015 8abb
00000190: 085b 883c 4c81 283d 70fb 2d3d 28c9 69bc
000001a0: 5c3d 09bd 0806 133d fc8f 523d 740b 223d
000001b0: 701e 123d cc90 88bc a21e 4e3d d63d 7dbd
000001c0: 4a31 7fbd 605c 09bd be0f 123d 9202 32bd
000001d0: 3a94 1c3d 58ee 203c 7443 c23c f4a7 923c
000001e0: 10c3 943c baa0 38bd 80b0 36bd 5660 62bd
000001f0: 84bc 4e3d 00d3 3ebb 00a3 c73b 6628 36bd
00000200: d491 d5bc fc23 fcbc 4848 a9bc b27e 41bd
00000210: aec5 533d 6ccb 453d b4e5 ed3c e06f 1a3d
00000220: 2a22 31bd a04b 703b 80c2 693d 00a2 733c
00000230: ac15 8fbc 807c c7bb 0acb 7a3d 3c8c bbbc
00000240: 00a5 f93b 8c2c d73c 1001 f0bc de31 7dbd
00000250: cadc 05bd 3ce7 7b3d f4c1 a9bc 1406 47bd
00000260: 5895 ae3c 702d 8d3b b4a1 233d ec60 793d
00000270: a011 123d 18d9 c33c f8bd a43c 5e97 3bbd
00000280: 94c2 1ebd 7a57 423d 46ab 353d 0ed8 25bd
00000290: 0ee8 693d ac0e 0d3d 5636 02bd 3871 3f3d
000002a0: 6014 0b3b 4cfc 5ebd 206c 383c 7e61 58bd
000002b0: 5888 6c3c 78a4 913c 0a2e 3b3d 386a e7bc
000002c0: 6201 07bd 488a 273d a016 38bc 605e 603d
000002d0: 10bd 6abc a0d1 5a3c 8aa7 4e3d 5a5e 5d3d
000002e0: 92e3 623d cef4 62bd 282f edbc 42bd 0dbd
000002f0: 7062 ffbc c880 d03c c8d5 2dbd 78b2 b0bc
00000300: e43f febc 987f 1a3d 967f 153d 32ee 603d
00000310: 3a23 503d b04d ee3c 982f 48bd 40b1 683b
00000320: e2cb 14bd 9862 983c 404a 1e3b c88b c53c
00000330: 14a9 b1bc 001d 1bba d0b8 553d 3047 bc3b
00000340: 1600 1dbd 70c4 643c 520a 77bd 3c1c d7bc
00000350: 30e6 26bc 866b 183d 2807 2c3d ac8b 873c
00000360: 405c 773b d0a0 223c 70c2 723c e48b fcbc
00000370: 00ab 253c 6a75 4a3d d898 b53c b007 343d
00000380: 6e50 723d 402b de3a 4055 93ba 58a6 84bc
00000390: b08d efbc 9028 a23c 7867 28bc 4c04 563d
000003a0: 98ba 243c 44c5 66bd b0cb cabc 14dd 8dbc
000003b0: 9264 483d 94ad 033d 8c6a 9d3c 32df 173d
000003c0: 2c9d 77bd 5260 07bd 208a 16bb 507d e4bc
000003d0: 88cb a3bc 6087 103c 1c67 61bd 9a1b 2cbd
000003e0: f897 78bd 6082 0d3b 2839 7a3c acd4 13bd
000003f0: 88e9 d03c 6067 513d 548c 393d 004b c639
0.048788026 0.033787295 0.022348776 -0.047717772 0.024535261 0.004004188 -0.048166983 -0.044991456
0.02740737 0.009148158 -0.008381352 -0.008446902 0.02707658 -0.038031965 -0.0018064752 0.0451914
-0.00018125772 0.015909247 0.03682203 -0.0028458312 0.03636516 -0.042750962 0.01889807 0.058320537
-0.017962113 -0.036465697 -0.01263243 0.04756417 -0.01611188 -0.060236514 0.013490118 0.009265132
0.019426264 -0.05821251 0.0019822642 0.010301858 0.017303132 -0.049282007 -0.035333157 0.010350272
0.040885642 0.0047847778 -0.046548575 0.027660161 0.0063052475 -0.017928585 0.017305449 -0.060404718
-0.0016545877 -0.053801417 -0.016335748 0.037751324 0.026901081 -0.035953715 0.021845832 -0.031223916
0.004233733 0.06079703 -0.043518133 -0.061197534 -0.01872871 0.024112843 0.047613755 -0.054488204
0.04663185 -0.019650504 0.0013949573 0.007926375 -0.05423025 0.030898951 -0.026236556 0.04047302
0.013073556 -0.036242492 0.0584391 -0.04215274 -0.024187267 0.042077854 -0.05046191 0.039886683
0.059208058 0.060354136 -0.049630433 -0.0053684562 0.015484251 0.04685349 -0.02069904 -0.045891054
-0.00045718253 -0.030308895 -0.017645597 0.0024251863 -0.03042654 -0.049851514 0.032474816 0.062434487
-0.023271091 0.053978927 -0.032775298 -0.004213959 0.01664497 0.041138932 0.042476118 -0.014269151
-0.033505782 0.035894424 0.051406845 0.039561704 0.03567356 -0.016670607 0.050322182 -0.06182655
-0.062302865 -0.03353536 0.035659544 -0.043459482 0.038227297 0.009822451 0.023713805 0.017902352
0.01815942 -0.045075156 -0.044601917 -0.055267654 0.05047275 -0.0029117465 0.006092429 -0.04447212
-0.026070513 -0.030778877 -0.02066435 -0.047239967 0.051702194 0.0482897 0.029040195 0.03770435
-0.043245472 0.003666617 0.057070255 0.014870167 -0.017466389 -0.0060878396 0.06122879 -0.022894017
0.0076185465 0.026266359 -0.029297382 -0.061815135 -0.032681264 0.06149982 -0.020722367 -0.04858978
0.021311447 0.004308395 0.039949134 0.060883448 0.03566134 0.02390723 0.020110115 -0.045798652
-0.038759783 0.047446705 0.044352792 -0.04048925 0.05710607 0.03443782 -0.0317901 0.046738833
0.0021221861 -0.054439828 0.011256248 -0.05282735 0.014436804 0.01777862 0.045698203 -0.028248891
-0.032960303 0.04090336 -0.011235863 0.054777503 -0.014327303 0.013355643 0.050452746 0.05404506
0.05539281 -0.055409245 -0.02895315 -0.03460432 -0.031174868 0.025452033 -0.042440206 -0.021569476
-0.031036325 0.03771934 0.03649863 0.05491466 0.050814845 0.029089779 -0.048873514 0.003550604
-0.03632725 0.0186017 0.0024153143 0.024114504 -0.021687068 -0.0005917102 0.052178204 0.005745791
-0.03833016 0.01396285 -0.060312577 -0.02625858 -0.010186717 0.037211917 0.041999012 0.016546093
0.0037744194 0.009926036 0.014816865 -0.030828424 0.01011157 0.04942838 0.022167608 0.043952644
0.059158735 0.0016950145 -0.0011240616 -0.0161926 -0.029242367 0.019794732 -0.010278575 0.05225019
0.010054253 -0.05634047 -0.024755329 -0.017317332 0.048924036 0.03214796 0.019215845 0.03707809
-0.060452625 -0.033050843 -0.0022970513 -0.027891785 -0.019994512 0.008821338 -0.055029973 -0.04201851
-0.060691804 0.0021592602 0.015272416 -0.03609149 0.025501981 0.051123977 0.045299843 0.00037821382
