PPO/target_v_v2.pth (torch, 171279 bytes, 7 tensors)

h1.weight f4 [64, 9]
-0.27112406 -0.19716935 -0.09601104 -0.17407188 -0.32358512 0.012317857 -0.024331292 -0.18140805
0.11895347 -0.24020028 0.16266629 -0.040652238 -0.1749984 -0.008076549 0.12585044 -0.20948374
-0.26646143 0.09865892 -0.042883478 0.04269743 0.23322837 -0.007934014 0.2903907 0.007220467
0.20509323 0.17133483 0.0051610074 0.31410158 -0.21509156 -0.32057747 0.27366292 -0.24155176
0.15808567 -0.21383831 0.3121766 0.15180063 -0.06781038 0.328475 -0.2553774 0.29232413
-0.21972844 -0.08351358 0.10012039 -0.12619945 -0.062178057 -0.20367575 -0.13202786 -0.1708988
0.23571174 -0.060376447 -0.12689678 0.32481807 0.054057717 -0.14978862 0.33204573 -0.12846777
0.19065325 0.22677752 -0.31294882 0.31519112 0.21662772 -0.32174045 0.11849086 0.16616587
0.06604159 -0.009321531 -0.1561962 0.30212495 0.062083922 -0.14390855 -0.22918205 -0.29237282
-0.16914114 -0.26483998 0.25725687 0.007821759 -0.09158254 0.0921156 0.22438097 0.12515354
0.06764679 -0.28192294 0.20666575 0.29021138 -0.28378028 0.25831813 0.039821506 0.28113413
0.295725 -0.27846524 0.29041514 -0.11673411 -0.15574965 -0.22251432 -0.30964896 0.28166372
0.30683896 0.24872515 -0.08557074 -0.08454772 -0.049438875 0.14149818 0.25496835 0.29933318
-0.29812485 -0.018190822 -0.2603476 0.21759567 -0.23713848 0.25144857 -0.16722059 -0.3161323
-0.2944442 0.3314703 -0.11503112 0.029789886 -0.20808773 0.013868491 0.11687648 0.3074615
-0.19568503 0.14406642 0.32338822 0.1659902 0.31347102 -0.27023166 -0.037223976 -0.09063216
-0.07818159 -0.16241574 0.2786764 -0.32801533 0.30120263 0.108468816 -0.00923574 -0.044533413
-0.29407543 0.2815474 -0.16235694 -0.15740931 -0.2062711 -0.2520365 -0.20728311 -0.3024151
-0.09117465 0.2315459 0.08107793 0.2055953 -0.22404718 0.24115667 0.31461534 0.005785386
-0.23801658 -0.25141805 -0.09964192 0.27229887 -0.15704808 -0.007856369 0.21649167 0.23055267
-0.25668603 0.18037412 0.2186875 -0.1518902 -0.028662166 -0.32891232 -0.08322029 -0.011074464
0.31075463 -0.14686224 -0.04001705 0.26514518 0.15729973 0.23084486 0.2058135 0.2709316
-0.06433388 0.31527746 0.19279405 0.0023947954 0.064295135 0.11079999 -0.028965592 -0.08732931
0.08615379 -0.13648209 -0.32423627 -0.062437177 -0.326122 -0.33322725 -0.13146648 0.11171373
0.24689898 0.29056048 -0.19255209 -0.23150127 0.100990616 0.24954903 -0.18667218 0.28276312
-0.16693875 0.31127757 0.21459803 0.30899176 -0.3054665 -0.080962345 -0.0044390364 0.10321157
0.0077450275 -0.25252602 0.22674327 -0.2681911 -0.13336548 0.32594186 0.04016761 0.24421291
0.16834629 -0.067239285 -0.10273858 -0.20394199 -0.20104837 -0.15469842 -0.08371954 0.025970578
-0.29011118 0.19163315 0.107687 0.26987025 0.055063408 0.03765921 0.3304703 0.250005
0.32627055 -0.014695088 -0.30426818 0.28500104 0.28689787 0.21545586 0.18882248 -0.27234113
0.2725432 0.3183753 0.24566679 0.14238016 0.0073202057 -0.0035976171 0.15272212 0.33156845
0.1471281 -0.27784348 0.31406224 -0.2825217 -0.2569079 -0.19639382 -0.1404371 -0.16086304
00000000: c6d0 8abe c3e6 49be 70a1 c4bd e63f 32be
00000010: f3ac a5be d6d0 493c 6b52 c7bc 08c3 39be
00000020: e09d f33d 10f7 75be fe91 263e f682 26bd
00000030: c832 33be 8053 04bc f0de 003e e882 56be
00000040: a26d 88be b00d ca3d 96a6 2fbd 80e3 2e3d
00000050: 6bd3 6e3e abfd 01bc 17ae 943e ab99 ec3b
00000060: f603 523e 6672 2f3e ab1d a93b ecd1 a03e
00000070: f640 5cbe bb22 a4be 8c1d 8c3e 5859 77be
00000080: 36e1 213e 6ef8 5abe 9cd5 9f3e a071 1b3e
00000090: 2be0 8abd e02d a83e d4c0 82be 82ab 953e
000000a0: 7e00 61be 2b09 abbd eb0b cd3d 6e3a 01be
000000b0: 6bae 7ebd 6090 50be 5032 07be 1800 2fbe
000000c0: 6b5e 713e 4b4d 77bd 3bf1 01be 8e4e a63e
000000d0: a06b 5d3d 3062 19be e601 aa3e 0e8d 03be
000000e0: 9b3a 433e 5e38 683e d43a a0be bb60 a13e
000000f0: a8d3 5d3e 2abb a4be 56ab f23d 6327 2a3e
00000100: d040 873d 56b9 18bc e6f1 1fbe 1fb0 9a3e
00000110: b64b 7e3d c35c 13be b3ae 6abe e4b1 95be
00000120: 5633 2dbe 1b99 87be 2cb7 833e d626 003c
00000130: a08f bbbd 1ba7 bc3d 20c4 653e 4028 003e
00000140: 668a 8a3d 3458 90be 30a0 533e 9696 943e
00000150: a64b 91be 4642 843e e01b 233d d0f0 8f3e
00000160: 4469 973e ff92 8ebe 4bb1 943e 4b12 efbd
00000170: d67c 1fbe cbda 63be 4f8a 9ebe 3a36 903e
00000180: ff19 9d3e ceb1 7e3e b63f afbd 5b27 adbd
00000190: 6b80 4abd e6e4 103e 368b 823e 3342 993e
000001a0: d2a3 98be eb04 95bc 484c 85be 66d1 5e3e
000001b0: 6ed4 72be debd 803e e03b 2bbe 18dc a1be
000001c0: 64c1 96be 7ab6 a93e 7095 ebbd eb09 f43c
000001d0: f314 55be ab38 633c f05c ef3d 986b 9d3e
000001e0: a861 48be 2686 133e 2493 a53e 56f9 293e
000001f0: 467f a03e ce5b 8abe 2b78 18bd 5b9d b9bd
00000200: ab1d a0bd 5050 26be acae 8e3e a0f1 a7be
00000210: 3b37 9a3e e624 de3d 8051 17bc ab68 36bd
00000220: 0e91 96be fb26 903e e640 26be e82f 21be
00000230: bb38 53be ee0a 81be 0642 54be 27d6 9abe
00000240: c6b9 babd 5e1a 6d3e 300c a63d 9387 523e
00000250: a06c 65be c6f1 763e 4315 a13e 5693 bd3b
00000260: 9eba 73be deb9 80be 1011 ccbd c26a 8b3e
00000270: 36d1 20be 00b8 00bc feaf 5d3e 0016 6c3e
00000280: 5a6c 83be feb3 383e 9eef 5f3e 1b89 1bbe
00000290: ebcc eabc 3267 a8be 666f aabd ab71 35bc
000002a0: 3b1b 9f3e 0e63 16be ebe8 23bd 1cc1 873e
000002b0: 2e13 213e 9862 6c3e c6c0 523e 8cb7 8a3e
000002c0: 7bc1 83bd 0c6c a13e ce6b 453e 00f2 1c3b
000002d0: 2bad 833d 1beb e23d 4049 edbc b6d9 b2bd
000002e0: 6671 b03d f6c1 0bbe 4c02 a6be 20be 7fbd
000002f0: 76f9 a6be c39c aabe 269f 06be 2bca e43d
00000300: 16d3 7c3e 58c4 943e 602c 45be ab0e 6dbe
00000310: 2bd4 ce3d c889 7f3e fe26 3fbe 54c6 903e
00000320: fef1 2abe c65f 9f3e 96bf 5b3e 2b34 9e3e
00000330: 1b66 9cbe 96cf a5bd 5675 91bb 9660 d33d
00000340: 00ca fd3b 174b 81be 632f 683e 5850 89be
00000350: f690 08be dae1 a63e cb86 243d f312 7a3e
00000360: f862 2c3e c0b4 89bd 9b68 d2bd 2bd6 50be
00000370: a0df 4dbe 4369 1ebe 2675 abbd 40c0 d43c
00000380: 7489 94be 7b3b 443e 008b dc3d 6f2c 8a3e
00000390: 2b8a 613d 8b40 1a3d 6733 a93e a800 803e
000003a0: ef0c a73e abc3 70bc 0ac9 9bbe a8eb 913e
000003b0: 47e4 923e 76a0 5c3e ae5a 413e 4c70 8bbe
000003c0: c88a 8b3e 1602 a33e 1390 7b3e 1bcc 113e
000003d0: 56de ef3b 00c6 6bbb 3063 1c3e 57c3 a93e
000003e0: c0a8 163e 8041 8ebe c4cc a03e afa6 90be
000003f0: 6f89 83be 761b 49be bece 0fbe 48b9 24be

h1.bias f4 [64]
0.033358335 -0.11385207 -0.1685609 -0.088724256 -0.15171282 0.021695178 -0.1841321 0.29213727
0.28870437 0.13811883 -0.12268531 -0.2983836 -0.055446785 0.105103776 0.14860225 -0.0448794
-0.15835552 0.23313794 -0.25347102 0.29616803 -0.060226798 0.26134306 0.015631597 0.32062632
0.20424771 -0.15705626 0.25546795 0.23688158 0.041736882 0.25529692 0.09278715 -0.33317816
-0.09202437 0.06640303 -0.30200312 -0.1760236 0.29613099 -0.2840899 0.1247834 -0.24327561
0.14932024 0.099061534 -0.29500124 0.06877836 0.06553678 0.21452396 0.032022953 -0.30537748
0.080877624 0.28098285 -0.027273616 0.039073788 -0.30597055 -0.2570595 0.024009189 0.23500685
-0.252089 -0.14808688 -0.26173913 0.28571308 -0.046115875 0.20276856 -0.0041131577 -0.12297003
00000000: c0a2 083d 462b e9bd 3b9b 2cbe 10b5 b5bd
00000010: 9b5a 1bbe 16ba b13c 208d 3cbe 0493 953e
00000020: 0fd1 933e 066f 0d3e 7042 fbbd bcc5 98be
00000030: 2b1c 63bd a640 d73d 302b 183e 76d3 37bd
00000040: f327 22be b6bb 6e3e f4c6 81be 56a3 973e
00000050: 60b0 76bd c2ce 853e d60d 803c 2229 a43e
00000060: 5026 513e 5bd3 20be b2cc 823e 1691 723e
00000070: 4bf4 2a3d 47b6 823e 3007 be3d 5496 aabe
00000080: 4677 bcbd 50fe 873d 27a0 9abe 883f 34be
00000090: 7b9e 973e 3b74 91be 708e ff3d 3e1d 79be
000000a0: 68e7 183e c6e0 ca3d 670a 97be abdb 8c3d
000000b0: 2638 863d 2bac 5b3e 802a 033d 705a 9cbe
000000c0: 2ba3 a53d fcdc 8f3e eb6c dfbc d60b 203d
000000d0: 2ca8 9cbe 4e9d 83be ebae c43c a3a5 703e
000000e0: cf11 81be 16a4 17be ac02 86be fc48 923e
000000f0: 00e4 3cbd 90a2 4f3e abc7 86bb b6d7 fbbd

h2.weight f4 [128, 64]
0.06725788 -0.10776521 -0.11708997 0.048063427 -0.022217125 0.07343483 0.11272946 0.05499892
-0.048618034 -0.05430974 -0.07463753 0.05156599 -0.05795443 -0.026553616 0.12331858 0.07510421
-0.122543156 -0.100654885 -0.027238697 -0.029820576 -0.105936795 0.050565615 -0.07906039 -0.024254799
-0.12216009 -0.074453145 0.06243512 -0.054783463 0.005369559 -0.11754535 -0.10007095 -0.089877546
0.049266234 0.008493364 -0.047280356 -0.077983215 0.00081279874 0.029359639 0.008363396 -0.00616993
0.084187314 -0.026530102 0.08845778 -0.11078711 0.031205252 0.1243372 -0.104952574 0.11149128
0.07262264 -0.027142659 0.08656363 -0.06687626 0.11053273 -0.009235352 0.109794825 -0.12228307
-0.043491587 0.009227172 0.09971297 -0.06493069 -0.02210407 -0.03613484 0.062345922 0.04174553
0.056714624 -0.09412786 -0.021031186 0.07219313 -0.05401662 -0.11096117 -0.07427311 -8.305907e-05
-0.087234676 0.11659925 -0.06811176 0.050700396 0.11968544 -0.056904346 -0.080019325 0.02119641
0.027237892 -0.0011486858 -0.0023247004 0.10317999 5.5879354e-06 0.003906384 0.06359656 -0.038125187
-0.10211739 -0.06020066 -0.0035532415 0.065676376 0.037383348 -0.10159172 -0.043315068 0.04358849
-0.10542509 0.07414296 0.007003993 -0.11838058 -0.07929984 -0.009875029 0.03666532 0.122247994
-0.048415884 -0.049935102 -0.016750216 -0.015583217 -0.11132993 -0.076959 -0.04717326 -0.0035820156
0.08758667 0.10286561 -0.09478673 -0.040807173 -0.013251111 -0.09747113 -0.061214507 0.07833381
-0.095118046 0.0114849955 -0.09175961 0.122093126 -0.010140032 -0.10151903 -0.03843659 -0.042037368
-0.015234277 0.119408324 0.10929561 0.019407913 0.123253495 -0.055168137 0.024607554 -0.102035716
-0.115985066 -0.10802427 -0.09862432 -0.07716708 -0.074302256 0.11448559 0.020905659 -0.08436094
-0.12109126 0.07583436 -0.011878654 0.08778469 -0.03472513 -0.034517422 0.05600448 0.055621266
0.073445484 -0.027409434 -0.017605692 0.084824964 -0.03640856 -0.08980048 0.008370981 -0.06409444
-0.04809566 0.0011354536 -0.0041095912 -0.087911025 -0.02756989 0.0252406 0.07930033 0.069454
-0.03199461 0.089902505 -0.07157946 0.085637346 0.06842627 -0.048528016 0.05251248 0.08065982
-0.045165583 -0.105477914 0.10868372 0.03905733 -0.0967066 -0.01190035 -0.08912529 -0.091829136
0.008003101 0.089687556 -0.11782491 -0.10125023 -0.012808025 0.0055562556 0.0531732 0.056196615
-0.0391863 0.0684284 0.008586392 0.009860098 -0.022945926 0.11334497 -0.056217015 0.006976098
0.022667378 -0.071761 -0.12234607 -0.09148042 -0.0013453811 0.11904204 -0.048069164 0.05433874
0.042896032 0.034251258 -0.0984097 -0.0062297434 0.07015516 0.11423153 -0.091805026 0.09109515
-0.10873523 -0.055387676 -0.07798606 0.024835631 -0.116982356 0.043459922 -0.107626766 0.035989955
-0.0015653968 -0.09325816 0.08540662 0.07995498 0.004691094 -0.052453294 -0.07178931 0.11128411
0.085205495 0.035118833 -0.09331012 -0.06301279 -0.014129698 -0.03576997 0.049701154 -0.07765773
0.0040653497 -0.028922707 -0.11669876 -0.048226833 -0.08347727 0.049806982 -0.086142376 -0.08219205
-0.10242739 -0.04870476 0.05857317 -0.11806589 0.024031848 0.043748245 0.08989446 -0.052635044
00000000: 80be 893d 02b4 dcbd decc efbd 28de 443d
00000010: b000 b6bc 0065 963d b4de e63d 8c46 613d
00000020: b423 47bd e473 5ebd 90db 98bd dc36 533d
00000030: a061 6dbd f886 d9bc 748e fc3d 3cd0 993d
00000040: e8f7 fabd 2624 cebd b023 dfbc 484a f4bc
00000050: 64f5 d8bd e41d 4f3d 6aea a1bd 00b2 c6bc
00000060: 122f fabd e47a 98bd f8bb 7f3d a064 60bd
00000070: 20f3 af3b 9ebb f0bd 00f2 ccbd b811 b8bd
00000080: 64cb 493d c027 0b3c 0ca9 41bd aab5 9fbd
00000090: 0012 553a a083 f03c a006 093c 202d cabb
000000a0: 666a ac3d a855 d9bc 5a29 b53d 5ae4 e2bd
000000b0: 28a2 ff3c 80a4 fe3d 60f1 d6bd 8a55 e43d
000000c0: 2ebb 943d 485a debc 4648 b13d 6cf6 88bd
000000d0: fc5e e23d e04f 17bc 1cdc e03d 8c6f fabd
000000e0: 3c24 32bd 902d 173c 5036 cc3d 62fa 84bd
000000f0: 9813 b5bc 2002 14bd 705e 7f3d 5cfd 2a3d
00000100: 984d 683d 1cc6 c0bd 9849 acbc fed9 933d
00000110: 8840 5dbd 9c3f e3bd 801c 98bd 0030 aeb8
00000120: 18a8 b2bd 96cb ee3d 2e7e 8bbd 38ab 4f3d
00000130: a41d f53d 8814 69bd 2ce1 a3bd 18a4 ad3c
00000140: 0022 df3c 808f 96ba 005a 18bb 0850 d33d
00000150: 0080 bb36 2001 803b ea3e 823d 2829 1cbd
00000160: ec22 d1bd f894 76bd 80dd 68bb 5681 863d
00000170: 481f 193d 520f d0bd 246b 31bd d889 323d
00000180: 1ce9 d7bd 44d8 973d c081 e53b 8471 f2bd
00000190: f467 a2bd e0ca 21bc 602e 163d 285d fa3d
000001a0: bc4f 46bd c088 4cbd c037 89bc c050 7fbc
000001b0: f200 e4bd ae9c 9dbd c038 41bd 40c0 6abb
000001c0: a460 b33d 34ab d23d 8c1f c2bd 6c25 27bd
000001d0: 301b 59bc f29e c7bd 10bc 7abd 7a6d a03d
000001e0: 40cd c2bd 902b 3c3c 76ec bbbd f60b fa3d
000001f0: 6022 26bc 36e9 cfbd b06f 1dbd 602f 2cbd
00000200: 3099 79bc 5a8c f43d 60d6 df3d 58fd 9e3c
00000210: 546c fc3d fcf7 61bd c895 c93c 1af8 d0bd
00000220: 9489 edbd d43b ddbd 8cfb c9bd c609 9ebd
00000230: c82b 98bd 6c77 ea3d 5842 ab3c 6ec5 acbd
00000240: b2fe f7bd 0c4f 9b3d b09e 42bc 76c8 b33d
00000250: f03b 0ebd 2462 0dbd f464 653d 20d3 633d
00000260: 966a 963d c089 e0bc d039 90bc b6b8 ad3d
00000270: 2421 15bd 50e9 b7bd 7026 093c f243 83bd
00000280: f4ff 44bd 80d3 943a c0a9 86bb b20a b4bd
00000290: 40da e1bc 60c5 ce3c 3668 a23d e63d 8e3d
000002a0: c80c 03bd ce1e b83d 4098 92bd a262 af3d
000002b0: 1223 8c3d 50c5 46bd 5417 573d fa30 a53d
000002c0: 8cff 38bd ce04 d8bd 9295 de3d 94fa 1f3d
000002d0: 1c0e c6bd b0f9 42bc 5287 b6bd ea10 bcbd
000002e0: 701f 033c 1cae b73d 304e f1bd 485c cfbd
000002f0: c0d8 51bc 4011 b63b 24cc 593d 6c2e 663d
00000300: d081 20bd 3024 8c3d f0ad 0c3c 408c 213c
00000310: 18f9 bbbc 6821 e83d d043 66bd c097 e43b
00000320: f0b0 b93c 6ef7 92bd 9490 fabd 165a bbbd
00000330: 8057 b0ba 50cc f33d 2ce4 44bd 4c92 5e3d
00000340: c0b3 2f3d 0c4b 0c3d 068b c9bd e022 ccbb
00000350: 82ad 8f3d 38f2 e93d 4604 bcbd 1890 ba3d
00000360: 94b0 debd 30de 62bd 28b7 9fbd 1874 cb3c
00000370: 7294 efbd 0803 323d 6c6b dcbd 346a 133d
00000380: 002e cdba 22fe bebd aae9 ae3d 70bf a33d
00000390: c0b7 993b 44d9 56bd 4606 93bd ece8 e33d
000003a0: 3880 ae3d c4d8 0f3d 6019 bfbd da0c 81bd
000003b0: 4080 67bc 8883 12bd 7093 4b3d 040b 9fbd
000003c0: a036 853b 50ef ecbc c2ff eebd 8089 45bd
000003d0: 22f6 aabd 6802 4c3d 6a6b b0bd 4e54 a8bd
000003e0: 74c5 d1bd a47e 47bd 6cea 6f3d 88cc f1bd
000003f0: 70de c43c 5c31 333d 961a b83d d897 57bd

h2.bias f4 [128]
-0.048346967 -0.061443835 0.11665487 0.07412271 0.029961511 -0.069326475 -0.086918026 0.08945733
-0.036667228 0.002103448 -0.061134517 0.027279451 0.12095961 -0.036962405 -0.09207563 0.076525256
-0.095591545 -0.012246817 -0.02067621 0.04481645 0.0738841 -0.015784621 0.09566669 -0.07762417
-0.09677243 0.08962625 0.056807682 0.103462204 -0.041688308 -0.016377985 -0.08386254 0.100722566
0.03828831 -0.07992239 -0.0445289 -0.046561986 0.10907586 0.044734836 0.11357859 0.0012907535
-0.10566719 -0.053002194 0.05020246 -0.09739712 0.07751992 0.073932275 0.116102904 -0.026470006
0.066510916 -0.02915506 -0.021075845 -0.09852663 -0.03576596 0.11439596 -0.11132701 0.12391904
-0.07330331 0.027399674 0.014418736 -0.075111344 -0.022356063 0.06972985 -0.03210318 0.0037662834
-0.04771085 -0.10955691 0.08072066 -0.09835224 -0.1016473 0.07902339 -0.073811084 -0.024447724
0.015913278 0.10333909 0.088450685 0.03111495 -0.0019504726 -0.07137658 -0.082491204 -0.0034958124
0.08280383 0.0020640343 -0.09843068 -0.11965807 0.09472944 0.0523158 0.09880413 0.042706117
-0.105678946 0.068556115 -0.010775566 -0.11482258 -0.118892685 -0.12464015 -0.016690329 0.085269794
0.010483757 -0.043933302 -0.03290099 0.056041136 0.06267619 -0.024835527 -0.06112519 0.0701123
-0.060097665 0.11360785 -0.04072407 -0.09796341 0.03273341 -0.10937311 -0.06908853 0.10714029
0.075330496 -0.011550486 0.0016803443 -0.09736648 0.0946697 0.028052405 -0.100051925 0.12212774
-0.049573123 -0.0037904978 -0.11540958 0.00294666 -0.054776922 -0.10663694 -0.005742848 -0.10313706
00000000: 7807 46bd 88ac 7bbd c0e8 ee3d a6cd 973d
00000010: d871 f53c 0afb 8dbd 1402 b2bd 6835 b73d
00000020: 6030 16bd 00da 093b 3068 7abd 2879 df3c
00000030: acb9 f73d e465 17bd 2692 bcbd 46b9 9c3d
00000040: 80c5 c3bd e0a6 48bc 2861 a9bc 7491 373d
00000050: 8c50 973d c04e 81bc e6ec c33d 6cf9 9ebd
00000060: a030 c6bd f88d b73d 2caf 683d fee3 d33d
00000070: 5cc1 2abd 202b 86bc 20c0 abbd a247 ce3d
00000080: 34d4 1c3d 5aae a3bd f063 36bd c8b7 3ebd
00000090: 2a63 df3d e03b 373d e49b e83d 802e a93a
000000a0: 0a68 d8bd d418 59bd 18a1 4d3d 2478 c7bd
000000b0: c4c2 9e3d ce69 973d 5cc7 ed3d a0d7 d8bc
000000c0: e036 883d 98d6 eebc 40a7 acbc 54c8 c9bd
000000d0: 547f 12bd 6e48 ea3d 6aff e3bd 44c9 fd3d
000000e0: 0c20 96bd 4875 e03c 903c 6c3c fad3 99bd
000000f0: 1024 b7bc 86ce 8e3d a07e 03bd c0d3 763b
00000100: 746c 43bd 605f e0bd e050 a53d e66c c9bd
00000110: 762c d0bd 04d7 a13d 442a 97bd 9846 c8bc
00000120: 905c 823c 72a3 d33d a225 b53d c8e4 fe3c
00000130: 00a7 ffba e22d 92bd 26f1 a8bd 001a 65bb
00000140: 0e95 a93d c044 073b 0696 c9bd 4a0f f5bd
00000150: 8201 c23d 1849 563d d259 ca3d 9cec 2e3d
00000160: 346e d8bd 2667 8c3d 008c 30bc 1a28 ebbd
00000170: 027e f3bd 5643 ffbd 28ba 88bc eea1 ae3d
00000180: 10c4 2b3c 68f3 33bd 30c3 06bd 648b 653d
00000190: 605c 803d e073 cbbc 685e 7abd 0a97 8f3d
000001a0: f828 76bd 3cab e83d 48ce 26bd 0aa1 c8bd
000001b0: 7813 063d 02ff dfbd 4a7e 8dbd 5e6c db3d
000001c0: e046 9a3d 403e 3dbc 003f dc3a 1468 c7bd
000001d0: 30e2 c13d 28ce e53c 06e8 ccbd 1c1e fa3d
000001e0: 300d 4bbd 006a 78bb dc5b ecbd c01c 413b
000001f0: c45d 60bd 7864 dabd 802e bcbb 8639 d3bd

h3.weight f4 [256, 128]
-0.07661025 0.012375589 0.044279847 0.03739401 0.04480346 -0.026761299 -0.041067626 -0.039219495
-0.05438072 -0.008102563 -0.04645688 0.053029627 0.060142152 -0.07545364 -0.060127158 -0.038574122
0.019326827 -0.08138894 0.076345 -0.018681148 0.08530856 0.083472684 0.059849452 0.0814913
0.066169836 -0.073534735 0.062326875 0.033808053 -0.027690278 -0.064290665 0.082979895 0.05463204
-0.0013157824 -0.020605614 -0.006139089 -0.06981023 -0.06971276 -0.03357381 0.01702543 0.06878965
0.0519925 0.04307844 -0.049905956 0.08662848 -0.024256311 0.02691699 -0.03619198 -0.0067016543
-0.057577588 -0.052812245 0.023238897 0.0039948677 0.0194973 -0.046184167 -0.068720475 0.037818924
-0.011188144 -0.041008282 -0.0012391384 0.050389454 -0.038032662 -0.020478489 -0.040841624 -0.010369041
0.03555108 -0.025722358 -0.074940436 0.04057164 -0.068242975 -0.037647326 -0.03481529 0.06729238
-0.058228716 0.018849187 0.06187071 0.07641566 0.05285747 0.030265093 0.062497053 -0.06795932
0.041846287 0.026016237 0.015352243 -0.062177032 0.06255391 -0.013585784 0.0116225835 0.006240062
0.03342518 0.07044839 0.017360676 -0.080754064 -0.08601308 0.075371474 -0.05267352 -0.08103479
0.050030753 -0.014928382 -0.04101631 -0.015105778 0.018224392 -0.0182381 0.04136795 -0.042872384
0.04474593 0.023990618 -0.04407399 -0.0838424 -0.0031932138 0.07743709 -0.007887593 -0.009717019
-0.008194127 -0.06643874 -0.07614008 -0.05763885 0.015781539 0.07821398 -0.013557535 -0.007794111
-0.014927908 -0.053684883 0.08832073 -0.06826374 0.012749538 0.07766646 0.05630937 0.08733029
-0.053513125 -0.083340004 -0.00012245767 -0.02661411 0.04587871 -0.080168456 -0.021006947 0.033864465
-0.070944816 0.07649317 -0.0068703364 0.0007967756 -0.04764341 -0.07875428 0.08556888 0.072148114
0.046357412 0.07662457 0.03675162 0.019356983 0.07378391 0.0778778 -0.032606065 0.07318859
-0.03660754 -0.029021688 0.032013346 -0.021404676 -0.014223044 0.042412184 0.06851522 0.06992009
0.039521087 -0.005338583 0.039460093 0.010062265 0.06618324 0.0150840515 -0.026038723 0.05046357
-0.008665381 -0.031950038 -0.08677324 -0.08590503 -0.08731436 -0.0700618 0.061923854 -0.041541167
-0.05646545 -0.0041956343 -0.020060109 0.06467984 -0.08133742 -0.08162742 0.0832414 0.07371857
-0.06741828 -0.05344505 0.07066435 -0.047950383 -0.082205154 0.017018497 -0.086288676 -0.07771729
-0.070652395 0.015968123 0.011794363 0.010180087 -0.054045755 0.014553896 -0.009862646 0.03557258
-0.03696818 -0.04248018 0.07475267 -0.044518504 0.009478215 0.08320472 0.07001736 0.078089364
0.020969827 0.0015016395 -0.07847157 -0.016077906 0.046205472 -0.04813782 -0.07379246 0.019606797
0.005623285 0.04799408 -0.022853749 -0.075280786 0.030798303 0.028871823 -0.008032862 0.013307182
-0.056647778 -0.0015170863 0.0069594984 -0.006072655 0.04983168 -0.06992459 0.069850445 0.06332603
0.07503532 0.04164354 0.014969286 -0.031796563 -0.04934023 0.0036835081 0.022078954 0.07743642
-0.04350113 0.014303081 -0.009922179 0.047491014 0.067344815 -0.020567589 -0.07108611 0.025362393
0.0342992 -0.058404192 0.055707376 0.064190924 0.014861347 0.040666852 -0.044811826 -0.03778271
00000000: d6e5 9cbd fcc2 4a3c c95e 353d 762a 193d
00000010: d583 373d 833a dbbc 8736 28bd 9fa4 20bd
00000020: 51be 5ebd 9dc0 04bc 9249 3ebd 9835 593d
00000030: 9e57 763d 7087 9abd e547 76bd e6ff 1dbd
00000040: 4b53 9e3c 3faf a6bd c45a 9c3d 3509 99bc
00000050: 41b6 ae3d baf3 aa3d b324 753d e9e4 a63d
00000060: 0d84 873d 6199 96bd 774a 7f3d 507a 0a3d
00000070: b9d6 e2bc d3aa 83bd 5df1 a93d d9c5 5f3d
00000080: 5576 acba 1bcd a8bc 692a c9bb aaf8 8ebd
00000090: 90c5 8ebd b184 09bd ea78 8b3c 97e1 8c3d
000000a0: 16f6 543d 0573 303d 306a 4cbd 466a b13d
000000b0: 2cb5 c6bc 0581 dc3c 0b3e 14bd 8d99 dbbb
000000c0: 7ad6 6bbd a751 58bd 805f be3c 61e7 823b
000000d0: cdb8 9f3c 9c2b 3dbd 52bd 8cbd 04e8 1a3d
000000e0: 7a4e 37bc 4df8 27bd 966a a2ba 2c65 4e3d
000000f0: 23c8 1bbd 81c2 a7bc 8c49 27bd e9e2 29bc
00000100: 029e 113d b2b7 d2bc 5f7a 99bd 732e 263d
00000110: f9c2 8bbd 1534 1abd 7a9a 0ebd 96d0 893d
00000120: 3c81 6ebd 9c69 9a3c 246c 7d3d d07f 9c3d
00000130: 1381 583d 80ee f73c e9fc 7f3d 422e 8bbd
00000140: 0367 2b3d 0120 d53c f987 7b3c 58ad 7ebd
00000150: 441c 803d e896 5ebc a66c 3e3c 6f79 cc3b
00000160: d7e8 083d 3f47 903d fa37 8e3c 6362 a5bd
00000170: a027 b0bd 5c5c 9a3d 30c0 57bd 91f5 a5bd
00000180: 0ced 4c3d 2c96 74bc b800 28bd 3a7e 77bc
00000190: 524b 953c 1168 95bc 7171 293d f49a 2fbd
000001a0: 8247 373d f987 c43c ee86 34bd 90b5 abbd
000001b0: 3d45 51bb 5697 9e3d f63a 01bc 2234 1fbc
000001c0: a940 06bc 0911 88bd 55ef 9bbd b716 6cbd
000001d0: 4948 813c a72e a03d 6c20 5ebc be65 ffbb
000001e0: 2f94 74bc aee4 5bbd 80e1 b43d dccd 8bbd
000001f0: 70e3 503c 980f 9f3d a7a4 663d 39da b23d
00000200: 9430 5bbd 2aae aabd fb67 00b9 d605 dabc
00000210: 50eb 3b3d 5c2f a4bd c316 acbc 77b5 0a3d
00000220: 844b 91bd 73a8 9c3d 8f20 e1bb b5de 503a
00000230: bc25 43bd ed49 a1bd bd3e af3d 64c2 933d
00000240: 45e1 3d3d 58ed 9c3d de88 163d 8992 9e3c
00000250: 051c 973d 657e 9f3d f08d 05bd e6e3 953d
00000260: caf1 15bd e4be edbc 6d20 033d dc58 afbc
00000270: c507 69bc 66b8 2d3d b551 8c3d 4432 8f3d
00000280: dde0 213d 48ef aebb e8a0 213d 33dc 243c
00000290: 148b 873d 1923 773c 294f d5bc e3b2 4e3d
000002a0: 3ef9 0dbc 0bde 02bd 2bb6 b1bd faee afbd
000002b0: dfd1 b2bd 907c 8fbd dea3 7d3d 1227 2abd
000002c0: 5148 67bd 887b 89bb 1955 a4bc dd76 843d
000002d0: 3c94 a6bd 472c a7bd 787a aa3d c3f9 963d
000002e0: 9812 8abd 32e9 5abd 79b8 903d 9f67 44bd
000002f0: 2d5b a8bd 606a 8b3c 1eb8 b0bd 3e2a 9fbd
00000300: 34b2 90bd 95cf 823c 253d 413c 61ca 263c
00000310: 155f 5dbd 7773 6e3c f096 21bc 8eb4 113d
00000320: f26b 17bd b2ff 2dbd ee17 993d 0959 36bd
00000330: 844a 1b3c 3c67 aa3d 4365 8f3d 51ed 9f3d
00000340: eac8 ab3c a9d2 c43a b4b5 a0bd d0b5 83bc
00000350: f341 3d3d 2a2c 45bd 8020 97bd 6f9e a03c
00000360: 8943 b83b 7195 443d c937 bbbc d02c 9abd
00000370: b94c fc3c 9a84 ec3c 449c 03bc 5e06 5a3c
00000380: 8007 68bd f8d8 c6ba 810c e43b 1ffd c6bb
00000390: 4e1c 4c3d a034 8fbd c00d 8f3d 14b1 813d
000003a0: 1eac 993d 6b92 2a3d bc41 753c 1d3d 02bd
000003b0: fb18 4abd 0367 713b ecde b43c fc96 9e3d
000003c0: 3e2e 32bd 7857 6a3c a390 22bc f085 423d
000003d0: 14ec 893d 5c7d a8bc 9895 91bd cbc4 cf3c
000003e0: 517d 0c3d 3c39 6fbd 6b2d 643d 8876 833d
000003f0: 027d 733c 4992 263d 9b8c 37bd 0bc2 1abd

h3.bias f4 [256]
0.05911542 -0.076346405 -0.062006272 0.007466841 -0.035456933 0.08688334 0.032556016 0.06428293
-0.0018526174 0.033277825 0.08363386 -0.021803934 0.047265835 -0.018884717 -0.0008888033 -0.082055636
-0.080175936 -0.054018825 0.08816427 0.050850328 0.015557698 -0.019898318 -0.022687195 0.035722952
0.011513739 0.023041239 -0.08038806 -0.022581091 -0.019026015 -0.022790508 -0.047963988 -0.05845991
0.016452033 -0.07542468 0.04800385 0.023884892 -0.015740141 -0.017063899 -0.034660008 0.048966862
-0.029564055 -0.03602329 0.066482805 0.068777755 -0.08108125 0.08187235 -0.04419531 0.08485515
0.009692795 -0.05676936 0.0765945 0.01571973 -0.059052635 0.048777904 0.0366912 -0.041419655
-0.048631128 -0.026209766 0.01734231 -0.06922662 0.036396015 -0.04450079 0.04024966 -0.08033005
0.06886554 0.051880736 0.007118118 -0.04261886 -0.086573526 -0.040383562 0.008672694 -0.06821579
-0.014713718 0.040069673 -0.042604584 -0.049421877 0.026391419 0.04275746 -0.07892126 0.022338957
0.06554056 0.018317515 0.03191202 0.076927975 0.08368659 0.010829348 0.06255496 -0.080889136
0.016624581 0.02069738 -0.007196427 -0.030620074 0.00074791687 0.063317336 -0.047949195 0.06463414
0.013296066 0.0032010847 -0.027154887 -0.07708699 -0.03749276 -0.0004069278 0.005530762 -0.0031738789
-0.000114428694 -0.08229145 -0.03351593 -0.00046235093 -0.03995302 0.027847402 -0.05750795 0.08718203
0.06521013 0.0545663 0.08287609 -0.055202138 0.04679887 -0.013074721 -0.06320666 0.07536224
-0.0040327366 0.025201255 -0.06501496 -0.04560841 0.04458127 0.0104634715 0.0357577 0.08717524
0.023756882 0.03783155 0.03485583 0.057796214 -0.058604434 0.054463778 -0.059540387 -0.045094915
-0.048775926 0.0022815668 0.08150645 0.042026404 0.060869236 -0.04607819 -0.049469747 -0.064557284
0.05158751 -0.010248038 -0.05453467 0.007674899 0.08649323 0.053362746 -0.07708446 0.024860697
-0.07784518 0.0044874274 -0.013853501 -0.00071765546 0.0029008305 -0.08249609 -0.055747785 -0.033094928
0.021780364 -0.022187132 0.06301846 -0.062248882 -0.06084674 0.06929331 -0.0017072108 -0.019317482
-0.061941072 0.045918223 -0.009764445 -0.014255676 0.060504045 -0.043142937 0.026539797 -0.020106966
-0.043496106 0.08519068 -0.013748039 -0.021984333 -0.03834318 -0.07827148 0.02433618 -0.009398157
-0.06942649 0.05017557 -0.0547604 -0.03342167 0.020347992 0.06984943 0.018172404 -0.025517292
0.03859013 -0.047349636 0.07637752 -0.051816534 -0.012108832 -0.026569014 -0.006158002 0.044003647
0.00023879351 -0.0414965 0.07905463 -0.031996675 0.010479087 0.028272716 -0.024459787 -0.06793283
-0.061508078 0.013999887 -0.0707103 -0.07805471 0.008145395 0.039671015 0.07845349 -0.05612272
-0.039552458 -0.03876708 0.06532517 0.02627717 -0.006345735 0.04452221 0.041031316 0.06790403
-0.08735913 0.04267792 0.0034827099 0.024632335 -0.033771574 0.07357485 0.07857026 0.0831692
-0.045716748 0.048591975 0.015622677 0.04689294 0.07713059 -0.043462377 -0.0127571765 -0.069690056
-0.029099185 -0.07042007 0.073452644 0.038991272 0.05323918 0.05220595 -0.008552491 -0.024707315
-0.08687828 -0.01890639 -0.015752817 -0.028359624 -0.023687888 0.021772873 0.037190747 0.0015661874
00000000: 0323 723d 815b 9cbd 4afa 7dbd 67ac f43b
00000010: 4a3b 11bd e4ef b13d 7559 053d c5a6 833d
00000020: 86d3 f2ba 544e 083d 3b48 ab3d 2a9e b2bc
00000030: d299 413d 1fb4 9abc 94fe 68ba c90c a8bd
00000040: 4833 a4bd d842 5dbd 788f b43d 6f48 503d
00000050: b7e5 7e3c cc01 a3bc 7fda b9bc 3b52 123d
00000060: 1fa4 3c3c fbc0 bc3c 7fa2 a4bd fbfb b8bc
00000070: 72dc 9bbc 29b3 babc e375 44bd a973 6fbd
00000080: 6ac6 863c 4178 9abd af9f 443d 40aa c33c
00000090: 78f1 80bc 97c9 8bbc a7f7 0dbd 7a91 483d
000000a0: 5130 f2bc 288d 13bd 2328 883d 5adb 8c3d
000000b0: ed0d a6bd b1ac a73d 2406 35bd 89c8 ad3d
000000c0: 87ce 1e3c fd86 68bd 94dd 9c3d aac6 803c
000000d0: 2de1 71bd 57cb 473d 8349 163d a8a7 29bd
000000e0: 6f31 47bd ddb5 d6bc 7611 8e3c b0c6 8dbd
000000f0: fd13 153d 7646 36bd d4dc 243d 1584 a4bd
00000100: 6009 8d3d e580 543d 1a3f e93b 1d91 2ebd
00000110: 764d b1bd 3c69 25bd ea17 0e3c b8b4 8bbd
00000120: ce11 71bc 1920 243d 2582 2ebd 986e 4abd
00000130: d132 d83c 7222 2f3d 78a1 a1bd 3000 b73c
00000140: 213a 863d 9d0e 963c 2eb6 023d 6a8c 9d3d
00000150: e063 ab3d 946d 313c d11c 803d 34a9 a5bd
00000160: 4630 883c 8d8d a93c 01d0 ebbb f3d6 fabc
00000170: da0f 443a 85ac 813d 6066 44bd e75e 843d
00000180: bed7 593c 4ac9 513b ed73 debc c9df 9dbd
00000190: 0292 19bd ed58 d5b9 653b b53b da00 50bb
000001a0: 70f9 efb8 6b88 a8bd 0048 09bd b167 f2b9
000001b0: c7a5 23bd 3c20 e43c 758d 6bbd 7e8c b23d
000001c0: e38c 853d ea80 5f3d f1ba a93d a31b 62bd
000001d0: 2cb0 3f3d 5b37 56bc 7e72 81bd 8557 9a3d
000001e0: 0c25 84bb dd72 ce3c 9026 85bd e2cf 3abd
000001f0: da9a 363d fb6e 2b3c ab76 123d ef88 b23d
00000200: cb9d c23c 41f5 1a3d fdc4 0e3d b9bb 6c3d
00000210: 340b 70bd 6915 5f3d 9fe0 73bd 72b5 38bd
00000220: 44c9 47bd 5786 153b dbec a63d e123 2c3d
00000230: 0552 793d 7cbc 3cbd caa0 4abd 9c36 84bd
00000240: 6d4d 533d 63e7 27bc bf5f 5fbd b87d fb3b
00000250: 5d23 b13d e592 5a3d 75de 9dbd a9a8 cb3c
00000260: 4b6d 9fbd 450b 933b cbf9 62bc 0b21 3cba
00000270: dc1b 3e3b b6f3 a8bd ca57 64bd 8c8e 07bd
00000280: bc6c b23c cac1 b5bc d30f 813d aff8 7ebd
00000290: 6e3a 79bd a7e9 8d3d 7dc4 dfba b23f 9ebc
000002a0: ecb5 7dbd bf14 3c3d 0dfb 1fbc a490 69bc
000002b0: 17d3 773d a6b6 30bd fd69 d93c 5db7 a4bc
000002c0: f928 32bd 7478 ae3d 743f 61bc 7d18 b4bc
000002d0: bd0d 1dbd cc4c a0bd ab5c c73c bafa 19bc
000002e0: 7a2f 8ebd e684 4d3d 714c 60bd 29e5 08bd
000002f0: d5b0 a63c 380d 8f3d 4bde 943c a409 d1bc
00000300: af10 1e3d b1f1 41bd d16b 9c3d 933d 54bd
00000310: 1f64 46bc 43a7 d9bc 11c9 c9bb 2b3d 343d
00000320: a564 7a39 3cf8 29bd 65e7 a13d f20e 03bd
00000330: 7ab0 2b3c 2f9c e73c e45f c8bc 5e20 8bbd
00000340: e5ef 7bbd c85f 653c 90d0 90bd 26db 9fbd
00000350: 4374 053c 137e 223d 39ac a03d f0e0 65bd
00000360: c201 22bd 3bca 1ebd 34c9 853d 3843 d73c
00000370: e2ef cfbb ec5c 363d 7410 283d 4511 8b3d
00000380: 58e9 b2bd 0bcf 2e3d 2d3e 643b c0c9 c93c
00000390: 1054 0abd 69ae 963d 72e9 a03d 9d54 aa3d
000003a0: 7c41 3bbd 6108 473d 42f6 7f3c d012 403d
000003b0: a5f6 9d3d 9b05 32bd 7a03 51bc a9b9 8ebd
000003c0: 6a61 eebc 6638 90bd 576e 963d 50b5 1f3d
000003d0: 5411 5a3d e8d5 553d bf1f 0cbc ff66 cabc
000003e0: 3ded b1bd 93e1 9abc 0d0c 81bc 7152 e8bc
000003f0: 1a0d c2bc 065d b23c 5355 183d 8748 cd3a

v.weight f4 [1, 256]
0.06198138 0.023744233 0.050353877 0.02135615 0.052347116 -0.006979756 0.031652823 0.047650658
0.052438937 -0.0077157468 0.06075245 -0.04081379 -0.031047806 -0.055676125 -0.05541718 0.0076837316
0.015406877 0.04532566 -0.046535134 0.012469038 -0.021359116 -0.0007335767 -0.039547488 -0.05195126
-0.058048002 -0.030873597 0.028476276 0.05535952 0.017031617 -0.02395901 -0.026322313 0.007829815
0.033054106 0.0036233142 -0.018001541 0.04453118 -0.015790477 -0.059393354 -0.0365775 -0.05790548
0.057925284 0.058201604 0.059195995 0.057977892 0.042830773 0.03874345 0.01557973 -0.05034472
0.029566161 -0.0034766346 0.057018124 0.038715743 0.058521606 -0.018522568 0.012630917 0.009615578
-0.060322575 0.05883228 0.03780902 -0.06169846 -0.023830295 0.024814703 -0.018356875 0.028599277
0.018202 0.040495723 0.0067817196 0.021023043 0.00065635145 -0.040046506 -0.0014118925 -0.031221338
-0.025625728 -0.057899162 -0.050983213 0.008439019 0.05901186 0.03915084 0.05755525 0.01592569
0.032735646 0.044636205 0.0111334175 -0.041492432 0.014901973 -0.044362597 0.058448277 0.03612028
-0.030720435 0.059424862 -0.05495294 -0.056761786 0.050747924 0.02321259 -0.022024713 -0.03404303
0.05184664 -0.027681038 0.044581033 -0.045991004 0.027825072 -0.016443096 -0.014879942 0.053493366
0.015923783 -0.03202057 -0.00080189854 0.06006752 0.054123417 -0.013394959 -0.018407084 -0.019355454
0.016236678 -0.057290196 -0.02972664 0.049705602 0.048982263 -0.0065026656 -0.0141272545 -0.018286273
-0.0084595755 -0.011115901 -0.011193156 0.041347407 -0.008714162 -0.029270425 -0.03912276 0.05065985
0.010507606 0.018912561 0.05566962 -0.03951768 0.019966193 0.05729886 -0.023635052 0.059414327
0.038014784 0.042562656 -0.037042633 0.019914813 -0.05764994 -0.0060600787 0.054886 0.045218557
-0.053344168 0.05431874 0.04005132 0.02733805 0.05538345 0.04341533 0.0034634545 0.027375042
0.05776964 0.05631558 -0.0005739778 -0.03040611 0.048956007 0.011270344 -0.02595888 0.050704226
-0.036479644 0.04181625 0.01763226 -0.025805399 -0.037375487 0.00023399293 -0.046172746 0.050871864
0.04913529 -0.029934019 -0.019626454 -0.015867323 -0.05440989 0.05247303 0.019945107 -0.0021741837
-0.050805643 -0.030859083 -0.048598677 -0.026564144 0.030717827 0.016178302 0.010486439 -0.0068134293
-0.0063871965 -0.011435777 0.043540567 0.058893822 0.00382033 -0.013111867 0.010095552 -0.04443468
-0.04955645 -0.033505723 0.008226551 0.050076343 0.04906176 -0.030215733 -0.058011778 0.015693575
0.049248457 0.024910487 -0.06126923 0.0070876107 0.0002156198 0.058772303 -0.001260601 0.052954227
-0.015192665 0.029309832 -0.016926318 0.05740042 -0.059096627 0.04460065 -0.004023388 0.009087056
-0.045261748 -0.006333776 -0.039454393 0.053847045 0.055799082 0.04843364 4.3042004e-05 -0.0041623637
0.0011929348 -0.02888617 -0.021575838 -0.03794259 0.057367347 -0.0114109665 0.030160353 -0.0100752115
-0.027596213 0.05650103 0.0060343593 -0.031326145 0.019465044 0.001816392 0.00039367378 -0.061460026
0.0011047721 0.019293077 -0.06210056 -0.026180357 -0.02618388 0.0073410496 0.053343862 -0.056903027
-0.0027261972 -0.030659765 0.061089694 -0.034137994 0.023264386 0.011519395 -0.014895573 0.0073567927
00000000: 30e0 7d3d 4483 c23c de3f 4e3d 18f3 ae3c
00000010: ee69 563d 70b6 e4bb 64a6 013d 562d 433d
00000020: 36ca 563d 60d4 fcbb 90d7 783d 5c2c 27bd
00000030: f857 febc a60c 64bd 20fd 62bd d0c7 fb3b
00000040: 206d 7c3c 66a7 393d a09b 3ebd f04a 4c3c
00000050: 50f9 aebc 804d 40ba 8cfc 21bd d8ca 54bd
00000060: bec3 6dbd a0ea fcbc 1447 e93c aac0 623d
00000070: e485 8b3c b045 c4bc e4a1 d7bc a048 003c
00000080: be63 073d 2075 6d3b f877 93bc 5466 363d
00000090: 085b 81bc 7246 73bd 4ad2 15bd 4c2e 6dbd
000000a0: 1043 6d3d ce64 6e3d 8077 723d 3a7a 6d3d
000000b0: 526f 2f3d 74b1 1e3d 2042 7f3c 4436 4ebd
000000c0: bc34 f23c 40d8 63bb d68b 693d 6694 1e3d
000000d0: 5ab4 6f3d a4bc 97bc e8f1 4e3c a88a 1d3c
000000e0: ce14 77bd 1efa 703d a2dd 1a3d 86b7 7cbd
000000f0: c037 c3bc 3448 cb3c 2861 96bc 0849 ea3c
00000100: 5c1c 953c d8de 253d 3039 de3b 8438 ac3c
00000110: 000f 2c3a ce07 24bd 400f b9ba e4c3 ffbc
00000120: 0ced d1bc ac27 6dbd c6d3 50bd d043 0a3c
00000130: 6cb6 713d a25c 203d 0ebf 6b3d 9876 823c
00000140: d015 063d 74d4 363d f068 363c f8f3 29bd
00000150: 6827 743c 8eb5 35bd 7667 6f3d dcf2 133d
00000160: 6ca9 fbbc 7c67 733d 5616 61bd 0c7f 68bd
00000170: 0edd 4f3d 5428 be3c 2c6d b4bc b470 0bbd
00000180: 245d 543d 58c3 e2bc 9a9a 363d 1061 3cbd
00000190: 68f1 e33c acb3 86bc 00cb 73bc dc1b 5b3d
000001a0: 9872 823c 0028 03bd 8036 52ba 5c09 763d
000001b0: 84b0 5d3d 8876 5bbc 74ca 96bc 548f 9ebc
000001c0: c802 853c 20a9 6abd 4885 f3bc 1a98 4b3d
000001d0: a0a1 483d 5014 d5bb 0076 67bc 18cd 95bc
000001e0: 089a 0abc 781f 36bc 8063 37bc e65b 293d
000001f0: d8c5 0ebc 88c8 efbc 303f 20bd b480 4f3d
00000200: 1828 2c3c 84ee 9a3c d405 643d 4add 21bd
00000210: 2490 a33c 36b2 6a3d 4c9e c1bc 705c 733d
00000220: 64b5 1b3d 2e56 2e3d 04ba 17bd 6424 a33c
00000230: 5822 6cbd a093 c6bb 24d0 603d 1837 393d
00000240: 6a7f 5abd 547d 5e3d da0c 243d 0cf4 df3c
00000250: c2d9 623d 46d4 313d 20fb 623b a041 e03c
00000260: dc9f 6c3d 2aab 663d 0077 16ba 3c16 f9bc
00000270: 1886 483d 40a7 383c b8a7 d4bc 3caf 4f3d
00000280: ae6b 15bd 8447 2b3d 8871 903c d865 d3bc
00000290: 0a17 19bd 005c 7539 a21f 3dbd 045f 503d
000002a0: 1642 493d 3038 f5bc a8c7 a0bc 30fc 81bc
000002b0: e8dc 5ebd f6ed 563d ec63 a33c c07c 0ebb
000002c0: 9419 50bd 30cc fcbc 680f 47bd 0c9d d9bc
000002d0: f4a3 fb3c 5c88 843c 50cf 2b3c 3043 dfbb
000002e0: b04b d1bb 205d 3bbc 9857 323d a63a 713d
000002f0: 805e 7a3b 28d3 56bc d067 253c 2401 36bd
00000300: b4fb 4abd 4c3d 09bd a8c8 063c da1c 4d3d
00000310: fcf4 483d fc86 f7bc c29d 6dbd d08f 803c
00000320: c0b8 493d 1411 cc3c 72f5 7abd 303f e83b
00000330: 0018 6239 3abb 703d c03a a5ba 88e6 583d
00000340: a8ea 78bc 2c1b f03c 10a9 8abc b41c 6b3d
00000350: 4e0f 72bd 2caf 363d a0d6 83bb e0e1 143c
00000360: 6264 39bd 908b cfbb ee9a 21bd b88e 5c3d
00000370: 948d 643d 5a62 463d 0088 3438 7064 88bb
00000380: 405c 9c3a b0a2 ecbc d0bf b0bc b069 1bbd
00000390: 06fa 6a3d 10f5 3abc d812 f73c 8012 25bc
000003a0: 7411 e2bc a06d 673d e0bb c53b d84f 00bd
000003b0: 2875 9f3c 0014 ee3a 0066 ce39 82bd 7bbd
000003c0: 00ce 903a 840c 9e3c 285d 7ebd 3078 d6bc
000003d0: 947f d6bc 308d f03b 187f 5a3d 2613 69bd
000003e0: 00aa 32bb 302a fbbc 3039 7a3d 48d4 0bbd
000003f0: f494 be3c d8bb 3c3c 900c 74bc 4011 f13b
