PPO/v_v2.pth (torch, 171279 bytes, 7 tensors)

h1.weight f4 [64, 9]
0	0x3ca69e08	0.020339027
1	0x3ea65dfe	0.32493585
2	0xbe941530	-0.28922415
3	0xbe2ee98f	-0.17081283
4	0x3a40d3f4	0.0007355802
5	0x3a6393d2	0.000868139
6	0x3f9858af	1.1902064
7	0x3eaaa218	0.33326793
8	0xbed2bc73	-0.411594
9	0x3e5df727	0.21676312
10	0xbf1cb317	-0.6121077
11	0xbe2aca26	-0.16678676
12	0x3f322e95	0.6960233
13	0x3d69708d	0.056992102
14	0x3d5e5bce	0.05428677
15	0x3f12b207	0.573029
16	0xbe3c69e2	-0.18399766
17	0x3d807586	0.06272416
18	0xbf94b09c	-1.1616397
19	0xbef5f2fc	-0.48036945
20	0xbec5438f	-0.38528106
21	0xbf3ede27	-0.7455773
22	0x3e0e2e1f	0.13884781
23	0x3da66a21	0.08125711
24	0x3f551097	0.8322844
25	0xbf95865a	-1.1681626
26	0xbd5bd725	-0.053671975
27	0xbe92570a	-0.2858203
28	0x3eb91395	0.36147752
29	0xbe3a8080	-0.18213081
30	0x3b108abf	0.0022055355
31	0xbd992382	-0.07477476
32	0xbd6462a4	-0.055758134
33	0xbd2c60cb	-0.042084496
34	0x3eedc8c9	0.4644225
35	0x3ea9b584	0.33146298
36	0x3e093edc	0.13402885
37	0xbe2b1578	-0.16707408
38	0x3e21f5af	0.15816377
39	0xbe88ada3	-0.26694974
40	0x3c6c07e7	0.014406181
41	0x3c6268f7	0.013818971
42	0x3ece8fbb	0.40344033
43	0xbf586e3e	-0.84543216
44	0xbc23ba54	-0.009993155
45	0x3e9b7f84	0.30370724
46	0x3edc66af	0.4304709
47	0x3e83fd82	0.2577935
48	0x3e5a1903	0.21298604
49	0x3d340708	0.043952018
50	0x3c906a49	0.017628806
51	0xbe0e577e	-0.13900563
52	0xbfd0034a	-1.6251004
53	0x3dce3a93	0.10069766
54	0x3d26452c	0.04059331
55	0xbebca4ca	-0.36844474
56	0xbea13fd5	-0.31494012
57	0x3e68a677	0.22719751
58	0xbd02af40	-0.031905413
59	0x3c8f0eb0	0.017463058
60	0xbe7071c3	-0.23480897
61	0xbe15e8e2	-0.14639619
62	0xbef1b7ce	-0.47210544
63	0x3d17bee0	0.037047267
64	0x3e81eb8c	0.2537502
65	0xbebb611c	-0.36597526
66	0xbec810f5	-0.39075437
67	0xbbc6ded1	-0.0060690423
68	0xbb23eaa4	-0.0025011683
69	0x3fd5f139	1.671424
70	0xbe988a67	-0.29793093
71	0xbecf917c	-0.40540683
72	0x3dae7177	0.085177355
73	0x3d360bfc	0.044445023
74	0x3f55f3ac	0.8357494
75	0x3e16e787	0.14736758
76	0x3e3be4c9	0.18348993
77	0x3d924ca4	0.07143524
78	0x3e13e9d1	0.14444663
79	0xbf2b8f45	-0.67015487
80	0xbd8b80c2	-0.06811668
81	0xbf814d51	-1.010172
82	0x3f127314	0.57206845
83	0xbf188bba	-0.59588206
84	0xbd76b043	-0.06022669
85	0x3d140c39	0.03614447
86	0x3b8dc5a3	0.0043265386
87	0x3eabe07c	0.33569705
88	0x3ea5fd61	0.32419875
89	0x3ebd3ed8	0.36962008
90	0x3eb2c6a6	0.34917182
91	0xbec43ee0	-0.3832922
92	0x3ec70f84	0.38879025
93	0xbeb51281	-0.3536568
94	0xbd9dc244	-0.07703069
95	0xbc8aa818	-0.016925856
96	0xbe8d1044	-0.27551472
97	0x3c630928	0.0138571635
98	0xbf13d4df	-0.5774669
99	0xbf59dcec	-0.85102725
100	0x3f39231a	0.72319186
101	0x3e73ef22	0.2382169
102	0x3e8a3218	0.26991343
103	0xbca44a1a	-0.020054866
104	0x3ab26810	0.0013611335
105	0xbf074736	-0.52843034
106	0xbe385114	-0.17999679
107	0x3e9ca96c	0.3059801
108	0xbc2cd2f7	-0.010548345
109	0xbeabd6f6	-0.3356244
110	0x3f475cc4	0.77875924
111	0xbda8d09c	-0.08242914
112	0x3aa78438	0.0012780493
113	0xbd926d9e	-0.07149814
114	0xbe69ab84	-0.22819334
115	0xbd9c17e4	-0.07621744
116	0x3e3ea9a0	0.18619394
117	0x3e758420	0.23976183
118	0xbe2edd30	-0.17076564
119	0x3e98d352	0.29848725
120	0x3e9ccd67	0.3062546
121	0x3de7fdf1	0.11327732
122	0x3d1a76e0	0.037711024
123	0xbe9d5655	-0.3072993
124	0x3db34c62	0.08754803
125	0xbef516d2	-0.47868973
126	0xbe5d7b99	-0.2162918
127	0x3f2454cb	0.64191884
128	0x3e9144cc	0.283728
129	0xbcf34fc2	-0.029701117
130	0x3d8e0c32	0.0693592
131	0xbda848ce	-0.082170114
132	0x3e8f0c32	0.27938992
133	0xbbf08290	-0.007339783
134	0x3c079db2	0.008277344
135	0xbef10f6e	-0.47082084
136	0xbe0a354d	-0.13496895
137	0x3e7c6fdb	0.24652044
138	0xbe884c3c	-0.26620662
139	0x3d7881e9	0.060670767
140	0xbcadd38d	-0.02121904
141	0x3efd9f03	0.4953538
142	0xbf7740a4	-0.9658301
143	0xbe73ebd7	-0.23820435
144	0xbee4adcd	-0.4466385
145	0xbeb67bc3	-0.35641298
146	0x3f271037	0.65259117
147	0xbf0428eb	-0.51624936
148	0xbeca0dfd	-0.39463797
149	0xbe019a29	-0.12656464
150	0x3eb7c368	0.3589127
151	0xbf317934	-0.69325566
152	0xbd1b729f	-0.037951108
153	0x3e881ec9	0.26585987
154	0xbe8a33b1	-0.26992562
155	0x3d36cbe2	0.04462803
156	0xbe85b024	-0.26110947
157	0x3d480fd6	0.048843227
158	0xbd7d2d02	-0.0618105
159	0xbe24323f	-0.16034792
160	0xbf4bc750	-0.79601
161	0xbe4fb979	-0.20285596
162	0xbdce12b6	-0.100621626
163	0xbe8e3ec7	-0.2778227
164	0x3f8abf02	1.0839541
165	0xbebe3326	-0.37148398
166	0x3da303b1	0.079596885
167	0x3c132c51	0.008982734
168	0x3e7f26c1	0.24917127
169	0xbfb467c1	-1.4094163
170	0xbca17dab	-0.019713243
171	0x3e0c65e9	0.1371075
172	0xbf4566db	-0.7711007
173	0xbf956d9a	-1.1674073
174	0xbf1b87e6	-0.6075424
175	0xbddb2080	-0.10699558
176	0xbcaf7865	-0.021419713
177	0x3f1325f5	0.5747979
178	0xbf260fac	-0.64867663
179	0xbded061d	-0.11573432
180	0x3ed69221	0.41908363
181	0xbee9d1c9	-0.45667866
182	0xbebe6f0a	-0.3719409
183	0xbe0c663d	-0.13710876
184	0xbd309a70	-0.043116033
185	0xbc0755fe	-0.008260248
186	0xbe6c06a1	-0.23049404
187	0x3f8a5477	1.0807027
188	0x3d552198	0.05203399
189	0xbbfa57d4	-0.0076398645
190	0xbefc9207	-0.4933016
191	0xbf421862	-0.75818455
192	0xbf0b8721	-0.54503065
193	0x38f0ef7c	0.00011488699
194	0xbb6a47c2	-0.0035748337
195	0x3f105ba3	0.56389827
196	0x3f4193bb	0.75616044
197	0xbe07bdad	-0.1325595
198	0xbe969821	-0.2941294
199	0x3dbe2bad	0.09285674
200	0x3fb50a2e	1.4143732
201	0xbcae33e3	-0.021264976
202	0x3d823844	0.06358388
203	0x3d37ffd4	0.04492171
204	0x3ecdc084	0.4018594
205	0x3f53c7b5	0.82726604
206	0xbe78e216	-0.24304995
207	0x3e64e734	0.22353822
208	0xbe96c3e2	-0.29446322
209	0x3ebbc4a7	0.3667347
210	0xbe82249a	-0.2541855
211	0x3cd3dfd9	0.025863575
212	0x3add140d	0.0016866938
213	0x3f835648	1.0260706
214	0xbeb1aa5b	-0.34700283
215	0xbeb886da	-0.36040384
216	0x3eb928c3	0.3616391
217	0x3dbde1dd	0.092715956
218	0x3f04df73	0.51903456
219	0x3f207d9e	0.62691677
220	0xbcf31240	-0.029671788
221	0x3d15a706	0.03653624
222	0xbe931533	-0.2872711
223	0xbea916f6	-0.3302533
224	0x3f0442e4	0.51664567
225	0xbeab60de	-0.3347234
226	0xbf2dc47c	-0.67877936
227	0xbe0a81d1	-0.13526084
228	0xbe90a003	-0.2824708
229	0x3ba34612	0.0049827183
230	0x3cb23db1	0.021757932
231	0x3db49c63	0.08818891
232	0xbfa08dac	-1.2543235
233	0xbc90a448	-0.01765646
234	0x3e11bbe6	0.14231834
235	0xbf4199a6	-0.75625074
236	0xbe829071	-0.25500825
237	0xbeba5b78	-0.3639791
238	0x3edfae85	0.43687835
239	0xbca9c791	-0.020725043
240	0x3efed9fb	0.4977568
241	0xbef3a74f	-0.47588584
242	0xbec76c93	-0.38950023
243	0xbf17f53b	-0.59358567
244	0xbf3ef896	-0.7459806
245	0x3f2dd07a	0.67896235
246	0xbe1d82b5	-0.15381892
247	0xbc5c15ed	-0.013432962
248	0xbbce4f71	-0.0062960912
249	0x3ebf04a8	0.3730824
250	0xbec0ecc6	-0.37680644
251	0x3e91d9ce	0.28486484
252	0x3ebe26ae	0.37138885
253	0x3d441a35	0.047876555
254	0x3e4677d7	0.19381653
255	0x3eab9afb	0.33516678

h1.bias f4 [64]
0	0xbecca474	-0.39969218
1	0xbe23889e	-0.15970084
2	0x3e82f904	0.2558061
3	0x3ef58eba	0.47960454
4	0xbe8588aa	-0.2608083
5	0x3c17d1ba	0.009266311
6	0xbef5ae68	-0.47984624
7	0xbed7631e	-0.42067808
8	0xbe964339	-0.29348162
9	0x3dbb65f1	0.09150303
10	0xbe518762	-0.204618
11	0x3eac4b82	0.33651358
12	0xbe3db20a	-0.18524948
13	0xbe266515	-0.16249497
14	0x3e358653	0.17727022
15	0xbe9fc637	-0.31205913
16	0xbee54990	-0.44782686
17	0xbd148c1f	-0.036266442
18	0xbacb4675	-0.0015508669
19	0xbe30d37f	-0.1726818
20	0x3dafe88a	0.08589275
21	0x3dbd93ef	0.09256732
22	0x3d1c8dfc	0.038221344
23	0xbed16ef9	-0.40904978
24	0x3eab0f99	0.33410338
25	0xbeecf6e7	-0.46282122
26	0xbe82d42a	-0.25552493
27	0x3dd753e2	0.10514046
28	0x3e4a7143	0.19769768
29	0x3e1f2ee3	0.1554523
30	0xbecefbf5	-0.40426603
31	0xbe561cf1	-0.20909478
32	0xbe8e462f	-0.2778792
33	0x3dfdd161	0.123934515
34	0xbef58ccd	-0.47958985
35	0xbeb83540	-0.35978127
36	0x3f04db9c	0.518976
37	0xbeab4e28	-0.33458066
38	0x3d72d866	0.059288405
39	0xbe51ef28	-0.20501387
40	0xbe84236d	-0.25808278
41	0xbf0f58c9	-0.5599485
42	0xbe8e6022	-0.2780772
43	0x3d89828a	0.067143515
44	0x3e5afda3	0.21385817
45	0xbee3da3b	-0.44502434
46	0xbe850604	-0.25981152
47	0xbd320513	-0.04346187
48	0xbf04c762	-0.51866734
49	0xbd10b176	-0.03532549
50	0xbc9bb4ad	-0.019007051
51	0xbefae281	-0.49000934
52	0xbe03f017	-0.12884556
53	0x3e9e90bf	0.30969808
54	0x3eafe852	0.34356934
55	0x3e94cd0f	0.29062697
56	0xbe75c152	-0.23999527
57	0x3e8efa74	0.27925456
58	0x3e74b6a7	0.23897801
59	0xbe81fdf3	-0.2538906
60	0xbeb41267	-0.3517029
61	0xbecf4795	-0.404843
62	0xbeb54d7d	-0.3541068
63	0xbecce0df	-0.40015313

h2.weight f4 [128, 64]
0	0xbe117d91	-0.14208056
1	0xbdbf9e84	-0.09356406
2	0x3dbe6d95	0.09298245
3	0xbddd9f9f	-0.10821461
4	0x3c860c16	0.016363185
5	0xbd94ccdb	-0.072656356
6	0x3ddaada1	0.10677648
7	0xbdd64496	-0.104623005
8	0xbdf1b593	-0.11802211
9	0xbc277e92	-0.010223048
10	0xbdc4e35d	-0.096136786
11	0xbddf7951	-0.10911811
12	0xbd80382a	-0.062607124
13	0x3de6a055	0.1126105
14	0x3d3c8ba4	0.04603161
15	0xbddd34e5	-0.108011045
16	0x3c8fb494	0.017542161
17	0x3d3c742e	0.046009235
18	0xbc7ba2bf	-0.015358626
19	0xbb88230d	-0.004154569
20	0xbd0214d4	-0.031758144
21	0xbe074b27	-0.13212262
22	0xbe0c8669	-0.13723148
23	0xbddbebca	-0.107383326
24	0x3d752213	0.05984695
25	0xbe1ae837	-0.15127645
26	0xbd184542	-0.037175424
27	0xbd20c5b6	-0.03925105
28	0xbbb4b21b	-0.005514396
29	0x3d3a6c79	0.045513604
30	0x3d961ff9	0.07330317
31	0xbd9e180a	-0.07719429
32	0xbd943361	-0.07236362
33	0xbe01400e	-0.12622091
34	0x3c8c87b7	0.017154558
35	0x3d21e78c	0.03952746
36	0xbce8122e	-0.028328981
37	0x3dc44415	0.09583298
38	0xbb941670	-0.0045192763
39	0xbaa7abb4	-0.001279226
40	0xbe0477ef	-0.12936376
41	0x3de89cc5	0.113580264
42	0xbc1e9fb5	-0.009681632
43	0xbcc28b18	-0.023747966
44	0xbd2de9df	-0.042459365
45	0xbd71e287	-0.059053924
46	0xbd228b5e	-0.039683692
47	0x3de003da	0.109382346
48	0xbd513d34	-0.05108376
49	0xbdb2c7da	-0.08729525
50	0xbdef9047	-0.116974406
51	0x3dcddd83	0.10052016
52	0xbddaf5d8	-0.10691422
53	0xbe11ebf2	-0.14250162
54	0x3dbffece	0.09374772
55	0x3cae94e3	0.02131123
56	0xbbce5108	-0.006296281
57	0xbd5fa19d	-0.054597486
58	0xbd9be8bb	-0.07612749
59	0xbd5b4dc5	-0.053540964
60	0xbd0aeff1	-0.033920232
61	0xbd29ace7	-0.04142466
62	0xbe2000fc	-0.15625376
63	0xbd972013	-0.073791645
64	0xbec39da4	-0.38206208
65	0xbd45f338	-0.048327655
66	0xbea4f800	-0.3222046
67	0xbef604e3	-0.48050603
68	0xbd0714b8	-0.032978743
69	0x3e8283c0	0.25491142
70	0x3e46f2c4	0.19428545
71	0x3d1c73cd	0.038196374
72	0xbd27ff00	-0.04101467
73	0xbdae553b	-0.0851235
74	0x3e1be7bd	0.1522512
75	0x3d4ec005	0.050476093
76	0xbe6b3646	-0.22969922
77	0xbd594255	-0.053041775
78	0xbe3f4777	-0.18679605
79	0x3cfd464f	0.030917315
80	0xbe0a5ae3	-0.13511233
81	0x3cab1946	0.020886075
82	0xbe79ccf7	-0.24394594
83	0x3e0db92f	0.13840173
84	0xbe966ece	-0.29381412
85	0x3e3aa8aa	0.18228403
86	0x3d83f1f2	0.06442632
87	0xbe615dd5	-0.2200845
88	0xbeb9c763	-0.36284932
89	0xbb863b50	-0.004096426
90	0xbc717382	-0.014737012
91	0xbd687892	-0.05675561
92	0xbe96540b	-0.29360995
93	0xbe498639	-0.19680108
94	0x3d94ea30	0.0727123
95	0x3ceef755	0.029170671
96	0x3c9ce150	0.019150406
97	0xbcb670fb	-0.02227067
98	0x3e789b7c	0.24278063
99	0xbd2d145d	-0.042255748
100	0xbe8f341b	-0.2796944
101	0xbdd137ab	-0.10215696
102	0xbd861deb	-0.06548675
103	0x3e931bfe	0.28732294
104	0x3dc32150	0.09527838
105	0x3f502e92	0.8132106
106	0x3dfc288a	0.1231242
107	0xbe8051db	-0.2506245
108	0xbe89fa81	-0.26948932
109	0x3e27107b	0.1631488
110	0x3d556926	0.05210223
111	0xbb0f93eb	-0.0021908234
112	0x3de980d2	0.11401524
113	0x3d24dbee	0.040248804
114	0xbedc95c3	-0.4308301
115	0x3ea2f177	0.31824848
116	0x3e1ad21a	0.1511921
117	0xbd2c3bbd	-0.04204916
118	0xbef4babc	-0.47798717
119	0xbd01bb1f	-0.031672593
120	0x3f684f55	0.9074605
121	0x3ed9c38c	0.42532003
122	0xbe1cdd5d	-0.15318818
123	0xbf0360ec	-0.51319766
124	0x3dd96831	0.10615576
125	0xbea09444	-0.31363118
126	0xbddab048	-0.10678154
127	0xbe889359	-0.26674917
128	0xbe13a931	-0.1442001
129	0xbebdaa47	-0.37043974
130	0xbf110552	-0.56648743
131	0xbed13525	-0.4086086
132	0xbebb3391	-0.3656278
133	0x3d142a66	0.036173247
134	0x3e0a4091	0.13501193
135	0x3e098f27	0.13433515
136	0x3d0b034f	0.033938702
137	0xbe082538	-0.13295448
138	0x3e621f18	0.22082174
139	0xbe5289cb	-0.20560376
140	0xbdf2a16d	-0.11847196
141	0x3dce647f	0.10077762
142	0xbe31d7e8	-0.17367518
143	0xbe3f1ef3	-0.1866415
144	0xbbd56e9e	-0.0065134307
145	0x3c7c1274	0.015385259
146	0xbed61c0b	-0.4181827
147	0x3d9350c6	0.07193141
148	0xbdae8587	-0.08521562
149	0x3d75b360	0.05998552
150	0xbdd79c74	-0.10527888
151	0xbe86215d	-0.2619733
152	0xbeac2467	-0.33621523
153	0x3c8629bd	0.016377324
154	0xbdaedeb0	-0.08538568
155	0xbdacdc67	-0.08440476
156	0xbe48a1ef	-0.19593023
157	0xbeead093	-0.45862255
158	0x3d415fc2	0.047210462
159	0x3e38edfd	0.18059535
160	0x3daa27ec	0.08308396
161	0xbd170668	-0.036871344
162	0x3dc66fbb	0.0968928
163	0xbe8e65ec	-0.27812135
164	0xbdf14e38	-0.11782497
165	0xbd2f6032	-0.04281635
166	0x3cf936d8	0.03042166
167	0x3f403cc8	0.75092745
168	0x3f059d95	0.52193576
169	0x3f8d27a0	1.1027718
170	0x3e458d01	0.1929207
171	0xbda8c554	-0.08240762
172	0xbd71ee22	-0.05906499
173	0xbe1367e8	-0.14395106
174	0xbd6c6130	-0.057709873
175	0xbdb42b18	-0.08797282
176	0x3e4b077d	0.19827075
177	0xbdf4095a	-0.11915846
178	0xbee9e78d	-0.45684472
179	0x3e82e116	0.25562352
180	0xbdd0229f	-0.101628534
181	0xbe47fe28	-0.19530547
182	0xbf05e3e7	-0.52300876
183	0x3cbdc5cc	0.023165606
184	0x3f23d794	0.6400082
185	0x3f43d1a9	0.7649179
186	0xbeb81ce3	-0.3595954
187	0xbeee8dad	-0.46592465
188	0xbf12be53	-0.5732166
189	0xbf336c5e	-0.7008723
190	0xbdd09bd0	-0.10185969
191	0xbd3459a8	-0.044030815
192	0xbe10240f	-0.14076255
193	0xbec4d0df	-0.38440606
194	0xbe29fef5	-0.16601165
195	0xbf57885a	-0.8419243
196	0xbe598ac1	-0.21244337
197	0x3e18645c	0.14882034
198	0x3e05ed7a	0.13078871
199	0x3e4c1a6a	0.19931951
200	0xbe455279	-0.19269742
201	0xbeee5315	-0.46547762
202	0x3e6349bb	0.22196095
203	0xbe74d86c	-0.23910683
204	0xbdb5ebdb	-0.088828765
205	0xbe0491f3	-0.129463
206	0xbea1ee47	-0.31627104
207	0xbd2b338d	-0.04179721
208	0xbda17935	-0.078844465
209	0xbbfc4658	-0.0076988153
210	0x3d57b2b1	0.052660648
211	0x3c9553e6	0.018228482
212	0xbe816307	-0.25270864
213	0x3d8fde70	0.070248485
214	0x3e0cb08b	0.13739221
215	0xbe7e9926	-0.24863109
216	0xbf1b67d3	-0.607053
217	0xbeb50c9e	-0.3536119
218	0xba280404	-0.000640929
219	0x3d4aa1ee	0.049470834
220	0xbd3c4940	-0.045968294
221	0xbee4adce	-0.44663852
222	0xbe07abdd	-0.13249154
223	0xbc1eba07	-0.009687907
224	0x3d59d956	0.053185783
225	0xbd2ffd85	-0.042966384
226	0x3e1c075a	0.1523718
227	0xbe55b8a6	-0.20871219
228	0xbf26bc01	-0.6513062
229	0xbe5a97c2	-0.21346954
230	0xbd00ef74	-0.03147836
231	0x3e68f845	0.22750957
232	0x3e6830dd	0.2267489
233	0x3f013192	0.50466263
234	0x3e3a89e2	0.1821666
235	0xbe046dc8	-0.12932503
236	0xbf01b27f	-0.5066299
237	0xbd043916	-0.032281004
238	0x3decc5c7	0.115611605
239	0xbe137c49	-0.1440288
240	0x3e280967	0.16409837
241	0x3decfec8	0.11572033
242	0xbf1ec040	-0.620121
243	0x3e3317bd	0.17489524
244	0x3e378c3c	0.17924589
245	0x3dc8b55e	0.09800218
246	0xbef2d88e	-0.47430843
247	0x3cf72a50	0.030171543
248	0x3f811218	1.0083647
249	0xbd9381fa	-0.072025254
250	0xbe532455	-0.20619328
251	0xbe188fa1	-0.1489854
252	0xbdf587bc	-0.1198878
253	0x3d1a885c	0.0377277
254	0x3c612e4a	0.013743946
255	0xbebc7295	-0.3680617

h2.bias f4 [128]
0	0x3d87e35c	0.06635162
1	0xbe05a7b1	-0.1305225
2	0xbe25fb6c	-0.16209191
3	0xbbc309b1	-0.005952083
4	0x3e2771d2	0.16352013
5	0xbdafe04f	-0.08587705
6	0x3cb60f40	0.022224069
7	0xbda4bd23	-0.080438875
8	0xbe3ec093	-0.18628149
9	0xbdd82428	-0.10553771
10	0x3cf7b3d0	0.030237108
11	0x3e560eea	0.20904127
12	0xbd141ad4	-0.036158398
13	0xbc4b7921	-0.012419016
14	0x3e7eb9d3	0.24875574
15	0xbd9dbce0	-0.07702041
16	0x3cf78514	0.030214824
17	0xbe1b75af	-0.15181611
18	0xbd446c08	-0.04795459
19	0xbe006c1e	-0.12541243
20	0xbd2d657b	-0.042333107
21	0xbd1934b7	-0.03740379
22	0xbe21e5a3	-0.15810256
23	0xbe1c8b98	-0.15287626
24	0x39ebfffe	0.00045013422
25	0x3db863b4	0.09003392
26	0xbe25064f	-0.16115688
27	0xbdd25af9	-0.10271258
28	0xbbf64ee8	-0.0075167306
29	0xbd342269	-0.04397813
30	0xbe6d6d23	-0.23186164
31	0x3e3f0695	0.18654855
32	0x3bc098db	0.005877597
33	0x3ef053d2	0.4693895
34	0x3f09d8cf	0.5384645
35	0x3dc5d005	0.09658817
36	0xbd80efd0	-0.062957406
37	0xbda453bf	-0.08023786
38	0x3d13f3d0	0.03612119
39	0xbdfa6d94	-0.122279316
40	0xbbe6320f	-0.0070250104
41	0x3c0b2d20	0.008494645
42	0xbe9913ab	-0.29897818
43	0x3ddfd21c	0.10928747
44	0xbe502b41	-0.20329
45	0xbd9a8fe3	-0.075469755
46	0x3cbf5173	0.023354268
47	0xbd1e603a	-0.038665988
48	0xbe0a4b2d	-0.1350524
49	0x3e669126	0.22516307
50	0xbda8f877	-0.08250516
51	0xbe071bdd	-0.13194223
52	0x3d0de811	0.034645144
53	0xbcf97e21	-0.03045565
54	0x3cb1215f	0.021622358
55	0xbbe13c83	-0.0068736686
56	0x3e0b8b02	0.13627246
57	0x3dc7bcf3	0.09752836
58	0x3d943b93	0.072379254
59	0xbe4a56a9	-0.1975962
60	0xbe0522ac	-0.13001508
61	0xbd1e6624	-0.038671628
62	0x3d2c006f	0.0419926
63	0xbb40e988	-0.002943607
64	0x3b73cf3e	0.0037202383
65	0xbda9f703	-0.08299067
66	0xbe1ef7f0	-0.15524268
67	0xbdf93ac6	-0.12169413
68	0xbdaa2803	-0.08308413
69	0xbd162e7a	-0.036665417
70	0x3d62ac72	0.055340238
71	0xbd5324b8	-0.05154869
72	0xbdd6f68d	-0.104962446
73	0xbd84e490	-0.06488907
74	0x3d9fb409	0.07798011
75	0x3e1c4a18	0.1526264
76	0x3d9feb0b	0.07808503
77	0x3e84810e	0.2587971
78	0x3e171ef1	0.14757897
79	0x3d850611	0.06495298
80	0xbda472fc	-0.08029744
81	0xbcb9992b	-0.022656044
82	0xbe13d48f	-0.14436553
83	0xbd3f8538	-0.046757907
84	0x3cb5301c	0.022117667
85	0x3db375bd	0.08762691
86	0xbe1e4418	-0.15455663
87	0x3bee9255	0.0072806277
88	0xbde22446	-0.11042075
89	0xbdc3d76e	-0.09562574
90	0xbd6f5a31	-0.058435623
91	0xbdd0d249	-0.10196359
92	0xbd618c34	-0.05506535
93	0x3dac8f69	0.08425791
94	0x3d5c403b	0.053772192
95	0xbdd6a116	-0.104799435
96	0x3d60e4b5	0.054905612
97	0xbd309643	-0.04311205
98	0x3d9c3b7d	0.07628534
99	0x3da9dec8	0.08294445
100	0xbca816fe	-0.020518776
101	0xbe521605	-0.20516212
102	0xbd6c0b26	-0.05762782
103	0x3cfaf263	0.030633157
104	0x3dc81d1d	0.09771178
105	0x3d727f99	0.059203718
106	0xbe0a03de	-0.13478038
107	0x3d8a9938	0.067675054
108	0xbb8b5494	-0.004252026
109	0xbdfa7a51	-0.12230361
110	0xbe830ef3	-0.25597343
111	0xbe8a2a24	-0.26985276
112	0x3de06ecc	0.10958633
113	0xbc913d07	-0.017729295
114	0x3d22591c	0.039635763
115	0xbdab1a06	-0.08354573
116	0x3dcbe414	0.09955612
117	0xbe3917de	-0.18075511
118	0x3b8e9457	0.0043511796
119	0xbdd24702	-0.1026745
120	0xbd139aff	-0.036036488
121	0x3e1ced1e	0.15324828
122	0x3cfb2622	0.030657832
123	0xbd3dc9ca	-0.04633502
124	0xbd255516	-0.040364347
125	0xbe059439	-0.13044824
126	0x3bdeccaa	0.0067993
127	0x3d066c4a	0.032818116

h3.weight f4 [256, 128]
0	0xbc280118	-0.010254167
1	0x3e4022cc	0.18763274
2	0x3e92c7c9	0.2866805
3	0x3e15b0ec	0.14618272
4	0x3e6df473	0.23237781
5	0x3f002002	0.5004884
6	0x3d2a9e7e	0.041655056
7	0xbab4a5ae	-0.0013782287
8	0xbe17f156	-0.14838156
9	0xbd9331d8	-0.07187241
10	0x3c114a96	0.00886788
11	0x3df98c6f	0.12184989
12	0x3d4706ff	0.048590656
13	0x3dc6ff08	0.09716612
14	0xbd60e442	-0.054905184
15	0x3db1d465	0.08683089
16	0xbdee1abd	-0.11626194
17	0x3d9866ec	0.07441506
18	0x3d60c67b	0.054876786
19	0x3d22c1b7	0.039735522
20	0x3d355f5d	0.0442804
21	0x3f01335c	0.50468993
22	0x3c03e0cb	0.0080492
23	0x3db0168d	0.08598051
24	0x3d6714b4	0.05641623
25	0xbea2ef85	-0.31823364
26	0x3e14ec71	0.1454332
27	0x3e883a84	0.26607144
28	0x3e6794d1	0.22615363
29	0x3e4bf4f1	0.19917656
30	0xbde1833a	-0.110113576
31	0xbe2e8d63	-0.17046122
32	0x3e74dd20	0.23912477
33	0xbb2dc7cb	-0.002651679
34	0x3f1466b7	0.5796923
35	0x3ec260a6	0.37964362
36	0x3da6aa22	0.08137919
37	0xbe8a2fc0	-0.26989555
38	0x3d6b68f9	0.057473157
39	0xbc7ec38b	-0.015549551
40	0x3e1a2f91	0.15057208
41	0x3deb71d1	0.11496318
42	0x3e7ba87c	0.2457599
43	0xbd26d4f4	-0.04073043
44	0xbe4c777a	-0.19967452
45	0x3f486a66	0.7828735
46	0x3cb2f93a	0.021847356
47	0x3e94bb2b	0.29049048
48	0x3e4434be	0.19160745
49	0x3e2a8c84	0.16655165
50	0x3e153f7f	0.14575003
51	0x3d5c3fab	0.053771656
52	0x3d0e5385	0.03474762
53	0x3e6f555b	0.23372404
54	0x3ed54954	0.41657507
55	0x3e162c93	0.14665441
56	0xbd03d562	-0.03218592
57	0xbe51a075	-0.20471366
58	0x3e6115ef	0.21981023
59	0x3eb3b019	0.3509529
60	0x3ea20e5c	0.3165158
61	0x3d912503	0.070871376
62	0x3d06f6c9	0.032950196
63	0x3d84c81f	0.064834826
64	0x3e1a6800	0.15078735
65	0x3e686380	0.22694206
66	0x3f414bac	0.7550609
67	0x3e7bcbb0	0.2458942
68	0x3ce42bab	0.027852854
69	0xbd619ed3	-0.055083107
70	0x3d018879	0.03162429
71	0xbdb1931d	-0.08670638
72	0xbcc8ee87	-0.024527801
73	0x3eb79d43	0.3586217
74	0x3dc80fb5	0.09768621
75	0x3f245f48	0.6420789
76	0x3e9fe96a	0.31232768
77	0xbdb0d39a	-0.0863411
78	0x3e5979fd	0.21237941
79	0x3dbe372f	0.09287869
80	0x3ebb5e99	0.3659561
81	0x3d5d149b	0.05397473
82	0xbe3f13be	-0.18659875
83	0xbca4f73c	-0.020137422
84	0x3ee7949f	0.45230576
85	0x3d33f772	0.043937154
86	0x3e8112e9	0.2520974
87	0x3da6f2b5	0.081517614
88	0xbd08e95b	-0.03342567
89	0x3ce7c665	0.028292844
90	0xbd36ec07	-0.044658687
91	0x3da4517e	0.08023356
92	0xbf06bda7	-0.52633137
93	0x3e6e5451	0.23274352
94	0x3e5ba8bf	0.2145109
95	0x3e75e753	0.24014024
96	0xbd4f9250	-0.050676644
97	0x3eb1f1ec	0.34754884
98	0x3e90e8db	0.28302655
99	0x3db9843c	0.09058425
100	0x3c8850a0	0.016640007
101	0xbe27b642	-0.1637812
102	0x3d6330e0	0.055466533
103	0x3e49733c	0.19672865
104	0x3ea6902d	0.32531872
105	0xbced7f5a	-0.02899139
106	0x3eb7c8c5	0.35895362
107	0x3eb9ce73	0.3629032
108	0x3daeda2e	0.08537708
109	0xbe91691a	-0.284005
110	0x3ec7d9b1	0.39033273
111	0x3edf7f4d	0.4365181
112	0x3f0c9c5f	0.54926103
113	0x3e27ef51	0.16399886
114	0x3da02911	0.07820333
115	0x3d64f788	0.055900127
116	0x3f163781	0.5867844
117	0x3d6d86be	0.05798983
118	0x3d5adab6	0.053431235
119	0xbc994ab6	-0.018712383
120	0x3ed55b27	0.41671106
121	0x3eb49ee2	0.35277468
122	0x3d1620bf	0.036652323
123	0x3d0561ea	0.03256408
124	0xbd128bc8	-0.035777837
125	0xbd56edfe	-0.05247306
126	0x3e597050	0.2123425
127	0x3d2e4827	0.04254928
128	0xbcf13fad	-0.029449308
129	0x3e9f08ac	0.31061304
130	0x3ebdbf30	0.37059927
131	0x3e7532b2	0.2394512
132	0x3e5cee30	0.21575236
133	0x3f001bcc	0.50042415
134	0x3da79d1b	0.08184262
135	0x3d700d01	0.05860615
136	0xbe30f3f4	-0.1728056
137	0xbd976854	-0.07392946
138	0xbd16c869	-0.03681222
139	0xbda4d89f	-0.0804913
140	0x3cf4061f	0.029788075
141	0x3c275841	0.010213912
142	0xbe8deef0	-0.27721357
143	0x3c63dd82	0.013907792
144	0xbda5eca4	-0.08101776
145	0xbf0b2954	-0.54359937
146	0xbbffc6e6	-0.007805693
147	0x3de55b89	0.111990996
148	0x3b9e0ab7	0.0048230547
149	0xbe8fcdbf	-0.2808666
150	0x3dbfe014	0.093689114
151	0x3e3bc129	0.18335404
152	0x3d926e87	0.07149988
153	0xbe76ca3a	-0.24100581
154	0xbd795287	-0.06086972
155	0x3e93158a	0.2872737
156	0xbd973abe	-0.07384251
157	0x3eae04d9	0.33988073
158	0xbd5fcf93	-0.054641318
159	0xbeb34581	-0.35013965
160	0x3e723649	0.2365352
161	0xbf2c19f4	-0.672271
162	0x3e4e1c1d	0.20127912
163	0xbe5d5924	-0.21616036
164	0xbd846fd0	-0.06466639
165	0xbe3e4ac0	-0.18583202
166	0x3c9dad4c	0.019247673
167	0x3d10ecb8	0.035382003
168	0x3dc5259d	0.09626315
169	0x3dd954e1	0.106118925
170	0x3e52d519	0.20589103
171	0x3d18cd8d	0.037305404
172	0xbe352f5e	-0.1769385
173	0x3f3709a0	0.7149906
174	0xbe9f9dc1	-0.31175044
175	0x3e92d466	0.28677672
176	0x3e6fcb77	0.2341746
177	0x3d2b0390	0.041751444
178	0x3e30429c	0.1721291
179	0xbe5df357	-0.21674858
180	0x3dd45066	0.10366897
181	0x3e0c0d8d	0.13677044
182	0xbe490fe7	-0.19634973
183	0x3e88d104	0.26721966
184	0xbc20e2ce	-0.009819699
185	0xbe016dc7	-0.12639533
186	0x3e975753	0.2955881
187	0x3f140e37	0.5783419
188	0x3e760052	0.2402356
189	0xbd615452	-0.055012055
190	0x3cb01ed3	0.021499073
191	0x3b44f8c2	0.0030055498
192	0x3d854c41	0.06508685
193	0x3e4e537c	0.20149034
194	0x3f51e7c3	0.81994265
195	0x3e74a2c4	0.23890215
196	0x3dc2a89a	0.095048144
197	0x3cf1d78b	0.029521724
198	0xbd5971b1	-0.05308694
199	0xbe9048e8	-0.28180623
200	0xbd1e7396	-0.03868445
201	0x3ef7337e	0.48281473
202	0x3a435568	0.0007451386
203	0x3ee2cb65	0.44295803
204	0x3ea7349f	0.32657334
205	0xbedd689f	-0.43243882
206	0x3cfa41d6	0.030548971
207	0xbe436493	-0.19081335
208	0x3efe9f0b	0.49730715
209	0x3da988d7	0.08278053
210	0xbe344a1f	-0.176064
211	0x3dc5d8ce	0.09660493
212	0x3ed5de54	0.41771185
213	0x3da51ae5	0.0806177
214	0x3e0cfcbc	0.13768286
215	0xbd672052	-0.056427307
216	0x3d3eefe7	0.046615507
217	0xbd3f1517	-0.046650972
218	0xbe194215	-0.14966615
219	0x3c1e0c4e	0.009646488
220	0xbecc3e99	-0.39891508
221	0x3e1b0944	0.15140253
222	0x3e7ba903	0.24576192
223	0x3e312aa2	0.1730142
224	0x3d7aa124	0.061188832
225	0x3e9800c7	0.29688093
226	0x3e719362	0.23591378
227	0x3ce606b1	0.028079363
228	0x3c3770aa	0.011196295
229	0xbd75ed38	-0.060040683
230	0x3cde17cb	0.027110955
231	0xbee57502	-0.44815832
232	0x3e650d6d	0.22368403
233	0x3d9cbe08	0.07653433
234	0x3ec00c36	0.37509316
235	0x3ea8eefb	0.32994828
236	0x3dea12a9	0.114293404
237	0xbe9dbe76	-0.30809373
238	0x3eb3e65f	0.35136697
239	0x3e42e140	0.19031239
240	0x3defc79f	0.117079966
241	0x3d40477c	0.046943173
242	0x3d3ee3a0	0.0466038
243	0x3dc8b26b	0.097996555
244	0x3f1b1d13	0.6059124
245	0x3da18235	0.07886163
246	0x3d593f3b	0.053038817
247	0xbd8b1609	-0.06791312
248	0x3ebf71f8	0.3739164
249	0x3d62fb58	0.05541548
250	0xbd8174d0	-0.06321108
251	0xbd1cd3d8	-0.038287967
252	0xbd4f22c3	-0.05057026
253	0xbce42a20	-0.027852118
254	0xbdcb67c9	-0.09931905
255	0xbce9307e	-0.028465506

h3.bias f4 [256]
0	0x3f0b0c7a	0.5431591
1	0x3e411513	0.18855695
2	0xbdcaf4e1	-0.09909988
3	0x3d87904f	0.066193216
4	0xbcdde3b5	-0.027086118
5	0x3dcd8701	0.100355156
6	0x3d3435be	0.043996565
7	0x3b622873	0.0034508973
8	0xbe293be1	-0.16526748
9	0xbdc2262e	-0.094799384
10	0x3da6750d	0.081277944
11	0xbe4ec0c7	-0.20190726
12	0x3d54c746	0.051947854
13	0x3e7a90f1	0.24469353
14	0xbd743cb1	-0.059628192
15	0xbd4f337b	-0.050586205
16	0xbebf0156	-0.37305707
17	0xbd6975bd	-0.05699705
18	0x3e36a033	0.17834549
19	0x3eadc66d	0.3394045
20	0xbd601d67	-0.05471554
21	0x3d181eef	0.037138876
22	0x3e50a0b3	0.20373802
23	0x3e90558b	0.28190264
24	0xbd981e5e	-0.07427667
25	0xbd6940fb	-0.056946736
26	0xbcef4cfa	-0.02921151
27	0xbdc3e4b3	-0.09565105
28	0xbce48c29	-0.027898865
29	0xbd8e7b7a	-0.06957145
30	0xbc541467	-0.012944317
31	0x3e3ffa40	0.18747807
32	0xbdf54c59	-0.11977453
33	0xbdb378fd	-0.08763311
34	0x3db3489e	0.08754085
35	0x3d4a6755	0.04941495
36	0x3ec9f3ab	0.39443716
37	0x3de2cde2	0.11074425
38	0xbd49e4fd	-0.049290646
39	0x3bf82a7e	0.007573425
40	0xbd4ec9a7	-0.05048528
41	0x3e3547cd	0.17703171
42	0xbc7d6915	-0.015466948
43	0x3e5ace6c	0.21367806
44	0x3cd972e1	0.026544036
45	0xbda0fdd2	-0.078609124
46	0xbd43cffd	-0.047805775
47	0xbc9bf711	-0.019038709
48	0x3dbf78bf	0.09349202
49	0xbe10702c	-0.1410529
50	0xbcf18fdb	-0.029487541
51	0xbdce4536	-0.10071795
52	0x3e5c9f69	0.21545185
53	0x3ce4a594	0.027910985
54	0xbde60cb3	-0.11232891
55	0xbd0c48b9	-0.03424904
56	0xbd32813c	-0.04358028
57	0x3d64ef3a	0.055892207
58	0x3e3f9772	0.18710116
59	0xbe0c3b25	-0.13694437
60	0x3cf1372f	0.029445259
61	0xbb9f3eeb	-0.0048597953
62	0x3f1f9235	0.6233247
63	0xbddcaf4c	-0.10775623
64	0xbd6fa282	-0.05850459
65	0xbd06ad29	-0.032879982
66	0x3dcfe208	0.10150534
67	0x3e3ba363	0.18324046
68	0x3f2173d1	0.63067347
69	0x3df38ebf	0.11892461
70	0x3b63ecd9	0.0034778623
71	0x3c221340	0.009892285
72	0x3f040be0	0.5158062
73	0x3c1a7e5a	0.009429539
74	0xbd542d28	-0.051800877
75	0xbd1b4d36	-0.03791543
76	0x3d55f94b	0.052239697
77	0xbe078cce	-0.13237306
78	0xbdbabb0f	-0.0911771
79	0xbd93fe90	-0.07226288
80	0xbe0b9853	-0.13632326
81	0xbcded61d	-0.027201707
82	0xbdd13c29	-0.10216553
83	0xbddbc818	-0.10731524
84	0xbda1cdb6	-0.079005644
85	0xbe0882f5	-0.13331206
86	0x3d51e5a8	0.051244408
87	0x3c1fd050	0.009754255
88	0xbd0131cd	-0.031541634
89	0x3d0966bd	0.033545244
90	0xbcf281c3	-0.02960289
91	0xbd9b6688	-0.07587916
92	0x3d0c090c	0.034188315
93	0xbd1d2ce4	-0.03837289
94	0xbdf851d8	-0.121249855
95	0xbe6076cd	-0.21920319
96	0x3e4cf77a	0.2001628
97	0x3ddb8a8a	0.107197836
98	0xbc6ad3d0	-0.014332727
99	0x3ec2106d	0.37903157
100	0xbd8e1a48	-0.069386065
101	0x3e95ac61	0.29233077
102	0x3ce0e187	0.02745129
103	0xbd1b8475	-0.037968118
104	0xbe0dd06b	-0.13849036
105	0xbe0b2f06	-0.13592157
106	0x3ef426ea	0.4768594
107	0xbdb842de	-0.08997129
108	0xbd19687f	-0.03745317
109	0xbd37e775	-0.04489847
110	0xbe3585a2	-0.17726758
111	0x3a6d7956	0.0009058913
112	0xbdecac11	-0.115562566
113	0xbdd2c8e6	-0.102922246
114	0xbc1f644e	-0.009728504
115	0x3cd10c86	0.025518667
116	0xbca1e5b0	-0.019762844
117	0xbdf4acad	-0.11946998
118	0xbdcc9a1f	-0.09990334
119	0x3d42a641	0.047521833
120	0x3da0c6b6	0.07850401
121	0x3de8ac65	0.11361007
122	0x3f21620a	0.6304022
123	0x3e1dfb48	0.15427887
124	0x3ec37e43	0.38182268
125	0x3d7e0d00	0.062024117
126	0x3dc2db47	0.0951448
127	0xbdba5f13	-0.09100165
128	0x3c414139	0.011795335
129	0xbde00e78	-0.1094026
130	0x3eebe00d	0.46069375
131	0xbb6ea7c1	-0.0036415907
132	0xbdd57197	-0.10422056
133	0xbd98777c	-0.07444665
134	0xba453de2	-0.0007524175
135	0xbda53b8a	-0.08067997
136	0xbdb053a8	-0.08609706
137	0xbe22624a	-0.15857807
138	0xbdbff880	-0.093735695
139	0x3da73b5a	0.08165617
140	0xbcfa4d0d	-0.030554319
141	0xbe2e3d01	-0.17015459
142	0xbd8c782c	-0.068588585
143	0xbcc72cd1	-0.024313362
144	0xbb0279c9	-0.0019909015
145	0x3e157def	0.14598821
146	0x3e00221c	0.12513012
147	0x3c4a64ca	0.012353132
148	0xbd8563ae	-0.06513153
149	0xbde616cc	-0.11234817
150	0xbb95f2d0	-0.0045760646
151	0xbd817a7c	-0.0632219
152	0xbda21cc3	-0.07915642
153	0x3d133777	0.035941567
154	0x3e67bb0e	0.2262995
155	0x3ed6acf8	0.4192884
156	0x3e1101fe	0.14160916
157	0x3d30b499	0.04314098
158	0x3e3c818d	0.18408795
159	0x3e013e2f	0.12621377
160	0xbdfeb636	-0.12437098
161	0xbd94197a	-0.07231422
162	0x3f2029f7	0.62564033
163	0xbdcc3e9b	-0.099728785
164	0xbe20172e	-0.15633842
165	0x3dade5f1	0.084911235
166	0xbe8f2328	-0.2795651
167	0x3d96c412	0.07361616
168	0xbdecfed1	-0.1157204
169	0xbd9acc5f	-0.07558512
170	0x3b7ac9a7	0.0038267167
171	0x3d4fda79	0.05074546
172	0xbd8e9e74	-0.06963816
173	0x3e3dafe7	0.18524133
174	0x3dc670a6	0.09689455
175	0xbe0baed3	-0.13640909
176	0xbda943f1	-0.08264912
177	0xbc5dbb93	-0.013533491
178	0x3d511f83	0.051055443
179	0x3ef9f57b	0.488201
180	0xbdc0a313	-0.09406104
181	0x3cfaa77d	0.030597443
182	0xbdb9afbd	-0.090667225
183	0xbbcfa7dd	-0.0063371495
184	0xbe4df00f	-0.20111106
185	0xbe00815c	-0.12549347
186	0x3de21036	0.11038248
187	0x3e5df1d8	0.21674287
188	0x3d3cb4af	0.04607075
189	0xbd9a68a7	-0.07539492
190	0xbd45ca90	-0.04828888
191	0x3d36f9eb	0.044671934
192	0xbd4aa6d2	-0.0494755
193	0xbd6ddd0b	-0.05807213
194	0x3e94256f	0.2893481
195	0x3df18b64	0.11794165
196	0x3d153ef7	0.036437
197	0xbd8140fa	-0.063112214
198	0xbd9e8ad4	-0.07741323
199	0xbd9b221d	-0.07574866
200	0xbdb85eee	-0.090024814
201	0xbdcb2235	-0.09918634
202	0xbe5c66f9	-0.21523656
203	0xbd2a353b	-0.04155467
204	0x3e15f6ce	0.1464493
205	0xbd646e77	-0.05576941
206	0xbd3e5a82	-0.046473034
207	0x3f06c5b6	0.5264543
208	0xbe0a74af	-0.13521074
209	0xbe29e90f	-0.16592811
210	0x3e1c1d48	0.15245545
211	0x3ea13eee	0.31493324
212	0xbd500854	-0.050789192
213	0x3e25beba	0.16186038
214	0xbd3bb115	-0.045823175
215	0xbe0f3bb8	-0.13987625
216	0x3e4162c2	0.1888533
217	0xbd70d4b9	-0.058796618
218	0x3ebf9928	0.37421536
219	0x3e881086	0.26575106
220	0xbdbc8e1f	-0.09206795
221	0x3d09e237	0.033663
222	0xbd6b5f5a	-0.05746398
223	0xbc950669	-0.018191533
224	0x3e904bc4	0.28182805
225	0xbd07b45b	-0.033130985
226	0xbdab822b	-0.08374437
227	0x3e399473	0.18123035
228	0xbad6c320	-0.0016385056
229	0x3e06a542	0.13148978
230	0x3e891273	0.26771888
231	0x3d9aebbe	0.075644955
232	0x3e199abc	0.15000433
233	0x3ba217c6	0.0049466817
234	0xbde581f3	-0.112064265
235	0x3e5fb763	0.218473
236	0xbe22cb96	-0.15897974
237	0xbd9ab179	-0.075533815
238	0xbdf17b49	-0.11791093
239	0xbddc81ca	-0.10766943
240	0xbe00f664	-0.1259399
241	0xbdd9412a	-0.10608132
242	0x3c5d2a45	0.013498847
243	0xbd82a455	-0.06379
244	0x3e37657f	0.17909811
245	0x3ee45054	0.44592535
246	0xbd69b916	-0.057061277
247	0xbda16604	-0.07880786
248	0x3e02ea59	0.12784709
249	0xbe462e58	-0.19353616
250	0x3d1c2a47	0.038126256
251	0x3e9acd69	0.3023484
252	0xbd36327c	-0.04448174
253	0x3ca7c2aa	0.020478565
254	0xbc9b5b09	-0.018964307
255	0x3ea1b16f	0.31580684

v.weight f4 [1, 256]
0	0xbe541f7e	-0.20715138
1	0xbda50e4d	-0.08059368
2	0x3d95fd1f	0.0732367
3	0x3ccd5f13	0.025069749
4	0x3b17112a	0.0023051002
5	0x3c04113c	0.00806075
6	0x3c8c6281	0.017136814
7	0x3d0cdf14	0.03439243
8	0x3f04fe2e	0.5195035
9	0x3c082b60	0.008311123
10	0xbc5a47c5	-0.013322775
11	0xbde55a95	-0.11198918
12	0x3e54c804	0.20779425
13	0xbd6e0be1	-0.058116797
14	0x3bf15e76	0.007365997
15	0xbd1b5206	-0.03792002
16	0x3cd98fc9	0.02655782
17	0xbc7e553e	-0.015523253
18	0x3d08494e	0.033273034
19	0xbd6b2b53	-0.057414364
20	0xbcda414e	-0.026642468
21	0x3ed0545d	0.40689364
22	0x3cda7765	0.02666826
23	0x3ee32b04	0.44368756
24	0x3c7af73b	0.015317733
25	0x3d0b8297	0.034060087
26	0xbc6c0a14	-0.0144067
27	0xbcc5c7bd	-0.024143094
28	0xbc429777	-0.011876932
29	0x3cc67140	0.024223924
30	0xbf262d02	-0.64912426
31	0x3db6b737	0.08921664
32	0x3c20fdf1	0.009826169
33	0xbb5d3088	-0.003375085
34	0xbe61137a	-0.21980086
35	0xbd80fd16	-0.06298272
36	0x3ea5c9a6	0.32380408
37	0xbd776dbe	-0.060407393
38	0x3cd52c15	0.026021997
39	0x3e7e09ba	0.24808398
40	0x3c896ffc	0.016777031
41	0x3a0ccd4e	0.0005371169
42	0xbc943a4b	-0.018094203
43	0xbe1b0afa	-0.15140906
44	0xbb056489	-0.0020354113
45	0x3ad1580f	0.0015971678
46	0xbd459cdb	-0.048245292
47	0x3cacd1af	0.021096079
48	0x3cf76963	0.03020162
49	0xbcda5109	-0.026649969
50	0xbbb955b9	-0.005655971
51	0xbae971d7	-0.0017810416
52	0x3ebd0c39	0.36923388
53	0x3e0d5b19	0.13804282
54	0x3cd092cf	0.025460629
55	0x3e959e3f	0.29222295
56	0xbdcf15e3	-0.101115964
57	0xbb64dd7d	-0.0034922056
58	0xbec073cd	-0.3758835
59	0xbc1c18c7	-0.009527392
60	0x3d89f858	0.06736821
61	0x3d1111c7	0.035417344
62	0xbe5ab346	-0.2135745
63	0xbc9e75fa	-0.019343365
64	0x3c437907	0.011930711
65	0xbc536bc2	-0.012904109
66	0xbf0ea76b	-0.5572421
67	0x3e1f2c25	0.15544184
68	0xbe322abc	-0.17399114
69	0x3cd74853	0.026279604
70	0xbd40616a	-0.0469679
71	0x3d71c10b	0.05902199
72	0xbe63bac2	-0.22239211
73	0xbe295678	-0.16536891
74	0xbd731ceb	-0.05935375
75	0x3daabcb9	0.08336777
76	0xbb25ccd1	-0.0025299082
77	0xbc4cfaf2	-0.012511002
78	0x3c604ac5	0.013689701
79	0x3d7a3b28	0.061091572
80	0x3d5ea8b1	0.054360095
81	0x3cbd4b27	0.023107124
82	0x3ccf55c7	0.025309457
83	0x3c9926b7	0.018695218
84	0x3c5d167b	0.013494129
85	0xbcba6f7b	-0.022758236
86	0xbdc70fd6	-0.09719817
87	0xbcf8af3c	-0.030356996
88	0x3c07831c	0.008271005
89	0xbcc7ee06	-0.02440549
90	0x3e659a08	0.2242204
91	0x3d2885f2	0.041143365
92	0xbbfd9fc9	-0.007739995
93	0xbc392875	-0.01130115
94	0x3ca595e6	0.020213079
95	0xbd36238e	-0.0444675
96	0xbd8b2ffc	-0.06796262
97	0x3e43f29a	0.19135514
98	0xbd37659f	-0.044774648
99	0x3ecc1ac5	0.39864174
100	0x3ce61c12	0.028089557
101	0x3e2d10b4	0.16900903
102	0x3e0d056f	0.13771604
103	0x3ca56ccc	0.02019348
104	0x3e317fdf	0.17333935
105	0xbd9b0830	-0.07569921
106	0x3e372cd3	0.17888193
107	0xbc28fc19	-0.010314011
108	0x3a00e026	0.0004916213
109	0xbd96efef	-0.073699825
110	0xbdc03927	-0.09385901
111	0xbe3ed5cf	-0.18636249
112	0xbc7be630	-0.015374705
113	0x3cacd5ae	0.021097984
114	0xb967c681	-0.00022103825
115	0xbe50410f	-0.20337318
116	0x3e81b7c6	0.2533552
117	0x3a0aa8dd	0.0005289445
118	0xbbde02f9	-0.0067752567
119	0xbf037751	-0.5135394
120	0xbf018f38	-0.5060916
121	0x3c847311	0.01616815
122	0xbe21bfd8	-0.15795839
123	0xbe05068a	-0.12990776
124	0xbe47f91d	-0.19528623
125	0x3e4739d8	0.1945566
126	0xbb4e4cba	-0.0031478838
127	0x3c4227ef	0.011850341
128	0xbe4c14a2	-0.19929746
129	0xbd3f2a80	-0.04667139
130	0xbe3536fc	-0.17696756
131	0xbb9183af	-0.0044407467
132	0xbc11c65c	-0.00889739
133	0x3de8163f	0.11332368
134	0x3ccc05fe	0.024905201
135	0x3cb593b7	0.022165162
136	0x3bf11227	0.0073569003
137	0xbe3ec29c	-0.18628925
138	0x3cc095fe	0.023509022
139	0xbdfa0004	-0.12207034
140	0x3d0e14b1	0.0346877
141	0x3d9940f4	0.07483092
142	0x3cca1398	0.024667546
143	0xbcc7f609	-0.02440931
144	0xbc17ddc5	-0.009269183
145	0xbd806951	-0.062700875
146	0xbcd60f3d	-0.026130313
147	0xbd1088bd	-0.035286654
148	0xbe5d5e4a	-0.21618
149	0x3e80250f	0.25028273
150	0xbc940271	-0.01806757
151	0x3d10ba36	0.035333835
152	0xbc982326	-0.018571448
153	0x3c9a5175	0.01883767
154	0x3eda638d	0.42654076
155	0xbe5b7994	-0.21433097
156	0x3e2bbacf	0.1677048
157	0xbc7f9f91	-0.015602008
158	0x3e7b5f81	0.2454815
159	0x3e404c18	0.18779027
160	0xbbdac68c	-0.0066765007
161	0xba958179	-0.0011406384
162	0xbeb52dba	-0.3538645
163	0x3c10b8d0	0.008833125
164	0xbc0ade50	-0.008475855
165	0x3e386d0f	0.18010353
166	0xbc3f22e7	-0.011666036
167	0xbb23d307	-0.0024997608
168	0x3e5d4014	0.21606475
169	0x3c8fb2e3	0.017541355
170	0x3d2b816a	0.041871466
171	0x3e2ba969	0.16763844
172	0xbe3080fd	-0.17236705
173	0xbdf7dea9	-0.12103016
174	0xbe459626	-0.19295558
175	0xbc4f1225	-0.012638603
176	0x3cfc4a62	0.030797187
177	0xbe33c219	-0.17554511
178	0x3e2f2003	0.17102055
179	0xbe7c712d	-0.24652548
180	0x3cea9d11	0.028639348
181	0x3d799ca7	0.06094041
182	0x3c3e44cb	0.011613081
183	0xbcabc249	-0.020966666
184	0xbd91efa7	-0.07125788
185	0xbd01a104	-0.031647697
186	0x3b071be8	0.0020615999
187	0xbe65c6d1	-0.22439124
188	0x3c97b3f1	0.01851842
189	0xbc286fbb	-0.010280545
190	0x3c360238	0.011108927
191	0xbcf50596	-0.02990989
192	0xbcf591e6	-0.029976796
193	0xbcd3ec71	-0.02586958
194	0xbe379380	-0.1792736
195	0xbbf7b8fd	-0.007559894
196	0xbd0c2dc2	-0.034223326
197	0xbcb64c54	-0.022253193
198	0x3cb031bc	0.02150809
199	0x3e5cffd2	0.21581963
200	0x3dd0e263	0.1019943
201	0x3eba8cac	0.3643545
202	0xbe5ed7bf	-0.21761988
203	0x3ce129cf	0.027485756
204	0xbb125b54	-0.0022332268
205	0xbdbca1d9	-0.092105575
206	0xbcdec23e	-0.027192231
207	0xbe5a062b	-0.21291415
208	0x39d8497a	0.00041253475
209	0xbdc0b232	-0.09408988
210	0x3b7e517a	0.0038805888
211	0xbecfaf78	-0.4056356
212	0x3b4ffb96	0.003173565
213	0xbd81ee45	-0.063442744
214	0x3d52eabf	0.051493403
215	0xbeac12a6	-0.33607978
216	0xbdecf31a	-0.115698054
217	0xbc9d9510	-0.019236118
218	0xbd148bb3	-0.03626604
219	0xbe8a95d7	-0.27067444
220	0x3e0cad8f	0.13738082
221	0xba48d6b9	-0.00076613907
222	0xbd11e908	-0.035622627
223	0xbc031701	-0.00800109
224	0xbf09880a	-0.53723204
225	0x3c8310ea	0.015999276
226	0xbcb2a35b	-0.02180641
227	0x3e52fb08	0.20603573
228	0x3bbeaab1	0.005818688
229	0x3e287152	0.16449478
230	0x3d2432c2	0.04008747
231	0xbb623515	-0.0034516503
232	0xbcab2c71	-0.020895215
233	0x3ea037e9	0.31292656
234	0x3bbda7ed	0.0057878406
235	0xbdbdbfe2	-0.09265114
236	0xbe317780	-0.17330742
237	0x3d32da6d	0.04366534
238	0x3ca47e1d	0.020079667
239	0xbc95c185	-0.018280754
240	0xbe1ffc12	-0.15623501
241	0x3cab3321	0.020898404
242	0xbc3fb68a	-0.011701236
243	0x3b47963c	0.0030454537
244	0xbf09021b	-0.5351884
245	0x3ee8b79e	0.4545259
246	0x3b01efb4	0.0019826712
247	0x3a391e1b	0.0007061676
248	0x3e138986	0.1440793
249	0xbe0a173c	-0.13485426
250	0x3d936e3f	0.07198762
251	0xbd1355d3	-0.03597052
252	0xbaaffce1	-0.0013426804
253	0xbd0d17cd	-0.034446526
254	0xbe170e5c	-0.14751571
255	0xbed8a1f4	-0.4231106
