SAC/actor_v2.pth (torch, 446267 bytes, 14 tensors)

fc1.weight f4 [32, 9]
00000000: 342d 41be c3db 663e 922c 0abf 3fa5 a5be
00000010: a655 f5bd c1da d73c 3167 d0bd 35b4 e13e
00000020: b7e3 81bd 22f6 673e 420e 12be 4d63 33be
00000030: 5e75 8dbe 0d64 59be 7ed1 47be 7716 a0bd
00000040: 7733 9abd de7f 013e 3df4 59bd 8c80 9fbe
00000050: 010a 133e 06bd bd3e 98bf e83c f395 733e
00000060: 78bd 11bd bf40 f83d bd73 b43e acc0 c6be
00000070: c33e bdbe 045e c6be 7bea e0bd 74c1 713e
00000080: 24b0 7dbe d27b 6abe 4d58 1bbe 02d2 84be
00000090: 5097 08bf c7c8 bc3e 4739 68be 1566 7b3d
000000a0: a34f 543d 5a82 3fbe cfde dd3e 52ee 34be
000000b0: 8731 18be a8e0 0abf 9123 853e 491b e73d
000000c0: f219 17be b116 f93c ab3b 243e 06ba 023f
000000d0: 7453 6e3e acfa a3b9 869e 123f af26 85be
000000e0: 34ff 083f c0f0 90be c344 08be 9bb5 30be
000000f0: 24ac 693d e87e 833e a210 0dbe 5453 bc3e
00000100: 471a 293e 076e c43e bcc9 32bd 9ab7 413e
00000110: 73b8 2a3e 0aca 9b3e a183 9fbe ad8f 82bd
00000120: 66ba dc3e 156c 763e be01 1f3f 3f1e a63e
00000130: cca3 153e 54ea 8cbe 1598 84be ad2b 4fbe
00000140: bf0b 88be 5dab de3e 9641 be3e 1b49 2cbf
00000150: 0be3 de3c 173a 173d c69c 3cbd 1e74 b0be
00000160: f125 293e 38f1 09be 594d 703e bc85 e63d
00000170: f33a 083f d3f3 3e3e 6cd5 afbe 4a57 69be
00000180: 5d75 b93e 81bb 32bd 11e5 42be 617a fdbe
00000190: cadf aa3e f86c 7f3d 40a8 4cbe 2189 02be
000001a0: 7db6 7dbe 8f53 133e 6d78 bdbe c997 9fbe
000001b0: 65e9 9cbe 88e8 cb3d d44f c7be 2199 1d3e
000001c0: bf8c 39be cb65 8e3e 6b99 aa3e a260 62be
000001d0: bd31 9bbd 349f 743e 8f76 003e 8d95 aa3e
000001e0: ec5c 9c3d 1343 b33c 67a6 56be 02ec b53c
000001f0: 6626 1bbf 4525 e5bd f578 b13b abd8 f0bd
00000200: 9bca 3c3e 590b 52be fe72 b4bc 4f6a 373d
00000210: 1d4a 0fbf 86c6 d2be b557 853e 8620 d3bc
00000220: d2b0 b7bd a99e 5bbe fc35 ed3d 81c7 5b3e
00000230: 91f0 a43e b357 393e b096 e23e 8f22 3abd
00000240: e5ba 46be fe62 1dbe 1988 023f f826 363d
00000250: 9420 53be 433a a9be d8a6 94be 8908 c6bd
00000260: 78b2 c73c 04a4 6b3e ab00 a03e ff46 c9be
00000270: 8d32 9d3e 2ef5 19be 74a5 03be 26d0 e5bd
00000280: ca84 7c3d b017 c9bc 0bc8 7bbe 7937 3bbe
00000290: 9c98 8cbd 54bc 69bd d4bc 07be a8a8 803d
000002a0: 2dac 42bf 9185 e3bd d1b2 b93e 1748 90be
000002b0: e323 983e 1312 86bd 1542 a2be e743 273e
000002c0: 5e0a 7d3b 2973 98be 1ccf 133f 51bb 8dbe
000002d0: cb81 123d d6ed 8ebd 1ec0 733e 0b90 be3d
000002e0: 3303 243e 0017 f13d 002a a4bd 8b91 8fbd
000002f0: aba4 8cbe a9f1 db3e 77ba 493e 0a31 083f
00000300: 758a 09be 87bb 23bc d27f 5bbe 9380 debe
00000310: 09b7 d1be cfd1 283e b5f3 fbbe e83e c73d
00000320: cc3b 833d 89c0 a33d 4dfa 68be 9110 86be
00000330: 0a1f 73bd 675b 0e3f 9828 5fbd 45ff 263f
00000340: 6130 cf3d dd7d e13e f2cf d93c 2b3f a3ba
00000350: bb75 023d 9573 9bbe b894 6abe 1298 803d
00000360: d0f6 37be f5d9 b0be 536e ff3e c9d3 08be
00000370: 5b41 50bc 9315 ae3e afa6 a5bd d496 513e
00000380: 96e1 84be 5a3a 373e 3d9b 96be c4f3 11bf
00000390: 64c4 97bd 2a78 3fbd d953 0cbd fbf3 1e3f
000003a0: f56c 653e f3d5 8b3e f348 063f 24da 8fbe
000003b0: 4a5d c63e 7d43 58be f9ee 40bd 23f2 943c
000003c0: 0291 1fbe 6639 833d f676 09be 62c9 e4bd
000003d0: 9ff4 633e 042d 76be 928d 5c3e 5a9f 80be
000003e0: 423b 033d 7f9f 9f3c ef35 bcbe f984 a13d
000003f0: 6eac b13e 11be 23be ae48 a63c eb16 93bd
-0.188649 0.2254477 -0.5397426 -0.32352635 -0.11979227 0.026349427 -0.10175932 0.440828
-0.06342261 0.22652486 -0.14263251 -0.17518349 -0.27628607 -0.21229573 -0.19513509 -0.07816785
-0.075293474 0.12646434 -0.05321144 -0.3115276 0.14359285 0.37058276 0.028411672 0.2378767
-0.035581082 0.12121724 0.3524455 -0.38818872 -0.36961946 -0.38743603 -0.109822236 0.23608953
-0.24774224 -0.22898796 -0.15170403 -0.25941473 -0.53355885 0.3687193 -0.226781 0.06137665
0.05183376 -0.18702069 0.43334052 -0.17669037 -0.14862643 -0.5424905 0.26003698 0.11284501
-0.14755991 0.030406328 0.16038387 0.510651 0.23274022 -0.00031276548 0.5727314 -0.26006076
0.5351441 -0.28308678 -0.1330748 -0.17256777 0.05704893 0.2568276 -0.13775876 0.36782324
0.1651393 0.38365194 -0.04364942 0.18917695 0.16671924 0.3042758 -0.31155112 -0.0637506
0.4311096 0.24064668 0.62112033 0.3244495 0.14613265 -0.27522528 -0.2589728 -0.20231505
-0.26571462 0.43490115 0.37159413 -0.6729905 0.027207872 0.036920633 -0.04604795 -0.3446359
0.1651838 -0.13470924 0.23467006 0.112559766 0.5321495 0.18647699 -0.34342515 -0.22787204
0.36222354 -0.04363585 -0.19032694 -0.4950743 0.33373863 0.06235978 -0.19986057 -0.12747623
-0.24776645 0.14387344 -0.3700594 -0.3117049 -0.30646816 0.09956461 -0.38928092 0.15390445
-0.18120097 0.27812037 0.33320174 -0.22107175 -0.07577846 0.23888856 0.12545227 0.33317223
0.07634911 0.02188257 -0.20961915 0.022207264 -0.60605466 -0.11188749 0.0054160305 -0.11760076
0.18436663 -0.20512141 -0.022027489 0.04477912 -0.5597246 -0.41167086 0.26043478 -0.025772344
-0.08969273 -0.21447243 0.11582562 0.21462823 0.32214788 0.18099861 0.4425559 -0.045443114
-0.19407232 -0.15369794 0.5098892 0.044470757 -0.20617896 -0.33052263 -0.29033542 -0.09669597
0.024377093 0.23011786 0.3125051 -0.39311978 0.3070263 -0.15034935 -0.12856084 -0.11221342
0.061650075 -0.024547428 -0.24588029 -0.1828288 -0.068650454 -0.05706437 -0.13255626 0.062821686
-0.7604397 -0.1110946 0.3626924 -0.2818 0.2971488 -0.06546416 -0.31691042 0.16334496
0.0038610916 -0.2977536 0.577379 -0.27681974 0.03576831 -0.06978957 0.23803756 0.09304818
0.16016845 0.11771965 -0.08015823 -0.07010182 -0.27469382 0.4295781 0.19700037 0.5319983
-0.13431723 -0.0099934405 -0.21435478 -0.4345747 -0.40959957 0.16486286 -0.4920937 0.09728795
0.0640789 0.079957075 -0.22751732 -0.26184514 -0.059355773 0.5560822 -0.054482073 0.6523326
0.101166494 0.4404134 0.026588414 -0.0012454739 0.031850558 -0.3036162 -0.22908294 0.06279005
-0.17965245 -0.34541288 0.49888858 -0.1336204 -0.012710894 0.34000835 -0.08088433 0.20467693
-0.25953358 0.17893353 -0.29415312 -0.5701258 -0.074105054 -0.046745457 -0.03425965 0.62091035
0.22404845 0.27311668 0.5245506 -0.28096116 0.3874305 -0.21119495 -0.047102902 0.018181866
-0.1558266 0.06407432 -0.13424286 -0.11171223 0.22261284 -0.2404061 0.2153838 -0.25121576
0.032038935 0.019485233 -0.36759898 0.07886691 0.34701866 -0.15990473 0.020298328 -0.07182106

fc1.bias f4 [32]
00000000: c76b e1bd 39fb b4bd b70e 1cbe 0e78 293e
00000010: 2d5c 4a3e c5e4 55bd 3f49 7abc d999 16be
00000020: 9807 8d3e 21de 3dbe ce33 533e 37ad 2abe
00000030: 6c53 1dbe a30e 153e 62f7 1abe 552d 633d
00000040: b838 213e 768d 53be 6e0f 003e 2dc0 093e
00000050: 3e1c 073e e539 133c ceea 54be a1fb febc
00000060: 6897 143e 559c 16be 37f6 cb3d 637a 833e
00000070: 6b18 46be 786d 953d 0847 283e d5f0 5cbd
-0.11006885 -0.088369794 -0.15239988 0.16549703 0.19761725 -0.052220125 -0.015276252 -0.14707126
0.27544856 -0.18541767 0.2062523 -0.16667639 -0.15363854 0.14556365 -0.15133432 0.055463154
0.15744293 -0.20659432 0.12505886 0.13452215 0.13194367 0.008985971 -0.20792696 -0.031125845
0.14510882 -0.14708073 0.09959071 0.2567931 -0.19345252 0.0729627 0.16433346 -0.053940613

fc2.weight f4 [64, 32]
00000000: 68b6 e93c cf5a 6ebc f072 34be 3a3e cdbd
00000010: 8bc0 623d 195a cf3d 007b ae3d 99d6 02be
00000020: 798c 27bd c25d 2bbe 3ea0 30be 0d95 85be
00000030: 51fc 163e 00cd 623c 35fd 7abe 31c4 dbbc
00000040: 5124 2e3e 61d7 633e 3a61 e13d 5c41 823d
00000050: 5e00 26bd 2b18 17be cbe2 073e 76c8 36bd
00000060: 9165 7cbe c2e6 123e 7511 713d 80d4 f63d
00000070: 1e01 81be 99f5 af3c 8e9e 09be 3a5f 6e3c
00000080: ca53 2d3c 9f7a 783d 6c51 6cbb 239e 0a3a
00000090: 4d33 e53d 9ff8 ee3d 7437 27be 5f51 bb3d
000000a0: 1e17 8abe 8820 6abe 216d cebd f2b2 113e
000000b0: 5ba6 bb3d 750a 263e 66a0 973d 2638 7dbe
000000c0: c25a b7bd 2e08 4fbc 2891 4bbe 8973 1a3d
000000d0: 1eda 08be 2998 2abe 534a 4dbd 7218 8dbe
000000e0: 6fbe 863d d181 163e 8bd3 5b3d 8f8f 1d3e
000000f0: 0979 0c3d 5bca d2bd 8fc1 883e e4ea 543e
00000100: 7cb0 e33d 2712 403e b3f8 283e 53ae d53c
00000110: f8bc 0b3d d5b8 ed3d 72ba c23c 0237 69be
00000120: 0b68 ffbd c230 e9bd e62b 69be de0f 433e
00000130: 760d 093e a6b3 d93a cd4e f5bd 9c08 393e
00000140: 97e4 783e dab4 a4bc b1ef 1bbd 0bff 863e
00000150: 660d 943d 86de 0bbe 1b0b 613e 4c2a d2bb
00000160: a3c0 9bbd 419d bb3d dae1 2bbe 5f2d c5bd
00000170: a154 a03d 383e 153c 9860 1dbe d6ac b2bd
00000180: af60 35be 22be 30bd f608 223d 0924 e63d
00000190: f9e4 2f3e 7436 45be 29e6 f23c 1a68 2bbd
000001a0: dda7 983d 7f73 57be 7863 eb3d a66d 77bd
000001b0: e660 d2bd 889c e33d 46b4 86be 8a93 053e
000001c0: a763 7e3e 2337 b13d cd4b 0dbc 8532 48be
000001d0: cd1c 1e3d 21be 24be 9aac 2c3e 8e52 9fbe
000001e0: c2f8 5cbe b32a 0dbe 3af4 63bd 4121 793e
000001f0: ba5a 89be 1f42 1a3e bf52 a93d 78a7 643d
00000200: d92d 81bd 2b4e 57be 43f7 113e 185b 133e
00000210: 65ed d93d 5bde 1c3e 4c0f 2fbe 3e6b 5e3e
00000220: 1c03 dabb a53d 0fbd 9897 91bc 75f6 e0bd
00000230: 2dfb 51be 0a41 cebd 6d1c 953d e681 e2bd
00000240: 7366 8d3d cbf7 c63d 07d1 31bc a9d5 3dbe
00000250: 0d59 0cbe ad16 e2bc bc2d 0d3e d7ab 963e
00000260: 603c 523c 6d73 b83b 09de 3e3d cdd0 25be
00000270: 4966 81be 1436 753e d3b7 19be 7611 c53d
00000280: ad25 51be 4324 4bbe 6ae1 c2bd a082 313e
00000290: b888 0dbe 3851 363e 1ce4 8abd e6c6 ed3d
000002a0: ec38 9b3d 1a84 51be 3bcd e2bd 585e e3bc
000002b0: de36 1f3e 1503 1bbe 3af0 083e b212 353c
000002c0: bb69 9abd d4fd 5dbe 830a 3e3e 20d0 2e3e
000002d0: aeac 27be 5296 f13d 71e8 383d cde1 163e
000002e0: d2a1 703e e4ae 35be e289 f7bb 65de c73b
000002f0: 726a a9bd b94f bf3d 06e6 8fbe 0fbe ba3d
00000300: 3157 dabd ddcd f4bd feea bc3d 647b 033e
00000310: 3c71 3fbe 76e5 0abd 0ebe 2f3d 577a 40bc
00000320: d1c7 213e c852 d7bd 879c 5d3e b24b 80be
00000330: 8dfc 7ebd 0381 4fbb 1dac 4b3e 8309 8ebd
00000340: ddef fa3d 7907 18bd f5cb 683e 2b49 403e
00000350: b985 08be 6281 45bd ec5c 44bc 261a 323e
00000360: 67b2 c0bd fddd 39be 516a 853c cfb4 633d
00000370: 9ca9 75bd 30cc 3a3e 9344 b8be c830 b2bd
00000380: c901 343d 1b81 f53d 1db6 4ebe 7aed aebd
00000390: 75d0 58be 746e 243e 5149 95be 3025 86be
000003a0: feca 0d3e 3c33 05be df78 4abd 66ef 0cbe
000003b0: af2e 1cbd f580 d7bd bbb4 d33d 9c56 a6bd
000003c0: e07d 47bd fa05 10be c36d 843c 4a7a 3a3d
000003d0: 9549 eabd 25fb 043e a58c 86bc 355d a9bd
000003e0: 6e6b cb3d 4ac6 393d 320c d0bc 2c71 983d
000003f0: ec5e ebbd 03c6 03be 56ee 9dbd 0519 ed3d
0.02852936 -0.014548018 -0.1762197 -0.100216344 0.055359405 0.10124607 0.08519554 -0.12777175
-0.04090545 -0.16734985 -0.17248628 -0.2609028 0.14744689 0.013842821 -0.24510653 -0.02682695
0.17006041 0.2225013 0.110048726 0.063601226 -0.040527694 -0.14755313 0.13270108 -0.04462477
-0.2464812 0.1434584 0.05885454 0.1205225 -0.25196165 0.021479415 -0.1343939 0.014549071
0.010579059 0.060663816 -0.0036059273 0.00052878464 0.111914255 0.116685145 -0.16329747 0.0914638
-0.26970762 -0.22863972 -0.100794084 0.14228418 0.09162589 0.16214927 0.074036404 -0.2472845
-0.089528576 -0.0126362275 -0.19879591 0.03770784 -0.13364455 -0.16659607 -0.05011971 -0.27557713
0.06579291 0.14697959 0.05366854 0.15386795 0.034295116 -0.102925025 0.26710173 0.20792729
0.11117646 0.18756925 0.16501121 0.0260841 0.03411576 0.116075195 0.023770545 -0.2277489
-0.124710165 -0.11386253 -0.22770652 0.19049022 0.13384041 0.0016609326 -0.11977921 0.1806969
0.2430595 -0.020105768 -0.038070384 0.26366457 0.07229118 -0.13659105 0.21976893 -0.0064137336
-0.07605102 0.09160853 -0.16785374 -0.096277945 0.07828642 0.009109072 -0.15368879 -0.08724372
-0.17712663 -0.043150075 0.039559327 0.11237342 0.1717719 -0.19259053 0.029650765 -0.041847326
0.074538924 -0.21040152 0.114935815 -0.060407303 -0.10272388 0.1111384 -0.26309413 0.13044563
0.24842702 0.086530946 -0.008624029 -0.19550522 0.038601685 -0.16088153 0.16862717 -0.31117672
-0.21579269 -0.1378582 -0.055652834 0.24329092 -0.2682703 0.15064286 0.08267736 0.055823773
-0.06307573 -0.21025912 0.14254479 0.14390218 0.106409825 0.15319197 -0.17095679 0.21720597
-0.0066532027 -0.0349709 -0.01777248 -0.10984508 -0.20505972 -0.10070999 0.072808124 -0.110599324
0.06904306 0.097152315 -0.010853059 -0.18538536 -0.13705845 -0.027598703 0.13786978 0.29427978
0.012831777 0.005628994 0.046598468 -0.16192932 -0.2527335 0.2394641 -0.1501153 0.09622471
-0.20424528 -0.19838051 -0.095156506 0.17334986 -0.13821685 0.1780442 -0.0678179 0.116102025
0.07579216 -0.20460549 -0.11074301 -0.027754948 0.15548274 -0.15137894 0.13372889 0.011051821
-0.07539698 -0.21678859 0.18558697 0.17071581 -0.16374466 0.117962494 0.04514355 0.14734574
0.2349923 -0.17742497 -0.0075542787 0.0060995095 -0.08272256 0.09341378 -0.2810518 0.09118282
-0.10661162 -0.11953328 0.09224509 0.12840039 -0.18695539 -0.033910237 0.04290586 -0.011747918
0.1579888 -0.10513836 0.21641742 -0.2505775 -0.06225257 -0.003166259 0.19889875 -0.06935408
0.122527815 -0.0371165 0.22734053 0.18777911 -0.13332261 -0.048219092 -0.011985045 0.17392787
-0.094090275 -0.18151088 0.016286047 0.055592354 -0.059976205 0.18241954 -0.35989818 -0.087007105
0.043947015 0.119875155 -0.20186658 -0.08541389 -0.2117327 0.1605776 -0.29157498 -0.26200247
0.13846967 -0.13007826 -0.049431678 -0.13763198 -0.03813046 -0.105226435 0.10337206 -0.08121988
-0.048704028 -0.1406478 0.01616562 0.04552678 -0.11439816 0.12986429 -0.016424486 -0.08269731
0.099326 0.04535512 -0.02539644 0.07443461 -0.11492714 -0.12868504 -0.077114746 0.11577038

fc2.bias f4 [64]
00000000: 071f a43d 6a9c 33bd c5cc 2dbe e878 04bd
00000010: 6042 8a3e 23e1 1cbc fd6e 45bd bd19 a63d
00000020: 33d9 093e 329b 02be 3323 5f3e e277 313e
00000030: 1c9b 603e d23b 8e3d af9d 83bd dfba 45bd
00000040: dd4b c43d 7d4f a3bd 8c3a 893d a543 40be
00000050: 2f3d 03be 7832 313e bc39 7cba 8012 05be
00000060: b4e5 1dbe e618 e63d 45c1 4bbc 3e0f bfbd
00000070: 4206 493e 2fae a43d 3661 d1bc 0bc3 ddbd
00000080: a056 0f3e d103 313d 4f45 22be 4fa6 f43d
00000090: 898d 08be 25c0 7f3c 52b8 61bd 6e29 14be
000000a0: 85ba 8ebd 8b94 03bd c473 18be 519d 4f3e
000000b0: 9bfa 00bd a756 bcbc fa23 853d 4acb b4bd
000000c0: b273 09be 1cbf 243e 624e f3bd e77c 773d
000000d0: bde5 65bc fdea f4bd 7e45 34be 5c9a 91b8
000000e0: cba7 a83d 08f6 8fbc 9006 2fbe 2652 9abd
000000f0: 6b90 3b3c 5beb b8ba 79a4 b13d 2b2e 3a3d
0.080137305 -0.04385034 -0.16972645 -0.032341868 0.27003765 -0.009575161 -0.04820155 0.08110378
0.13461761 -0.12754515 0.21790771 0.17330888 0.2193417 0.069450036 -0.0642656 -0.048273917
0.09584782 -0.079741456 0.0670062 -0.18775804 -0.12816308 0.17304409 -0.000962164 -0.12995338
-0.15419656 0.11235218 -0.012436216 -0.09329079 0.19631293 0.080410354 -0.02555905 -0.10828217
0.13997889 0.04321653 -0.15846752 0.11945783 -0.13335241 0.015609776 -0.055107422 -0.14468929
-0.069691695 -0.032124083 -0.14887911 0.20274855 -0.031488996 -0.022990538 0.065010026 -0.08827837
-0.1342304 0.16088527 -0.11880185 0.06042185 -0.014031825 -0.11958883 -0.17604634 -6.9428905e-05
0.08235129 -0.017573372 -0.17092347 -0.075352 0.011448006 -0.0014108227 0.08673949 0.045454185

fc3.weight f4 [128, 64]
00000000: 2ff5 4d3c 3e5c a4bc cce2 8f3d 5dee 053e
00000010: 2c66 5e3e 64b3 d0bd e1dd a13d 7f1f 38be
00000020: 8b76 89bc 1709 7a3b 144e dc3d 129a 43bd
00000030: 80d8 5ebc 6ffe f03d cc2d fdbb 2e82 923d
00000040: 9ccc 6fbe 1002 d9bd c59e 573d 538e a13d
00000050: 22d1 833d 0fc7 d13d c1ac 363e 6d47 cdbd
00000060: 6aff bebd 90c2 9fbc 6bb9 cb3d 1b6b 583e
00000070: b14f f23c f70c 39be e082 5d3e 2a33 6abd
00000080: 2005 bf3d 15f4 28ba 1d30 adbd c665 04be
00000090: 3a7c 5ebe f355 ae3d f2bb 773e ac14 eebd
000000a0: 0042 aabc 5c59 c5bd 5614 3b3e a0d8 35be
000000b0: eb21 f53d 66b5 96bd f10d 7bbe 7af2 5f3e
000000c0: 03de b4bd 703a e23b ff45 97bd ed9f 4fbc
000000d0: 58c2 48bd c48f 25bd 9530 793d 9a1a 103c
000000e0: 94cb 16be 4613 f53d 6893 43be 1e84 013e
000000f0: 600e 41be a103 193e 3deb 91bd 686f 9cbd
00000100: 000c c63d de06 613e 5e90 9fbb 8b68 753e
00000110: ffaf c4bd 9779 383d 1951 c5be 8420 223e
00000120: 7d9d 38be 7b73 8cbe ee21 933d f754 09bd
00000130: 5e64 02bd 0eaa 333e cca7 403d acf2 4dbd
00000140: aff8 413e e76f d53d 4f0d e0bd 4024 45bd
00000150: 35bc 27be c06a 64be fce3 31be 1b86 01be
00000160: 408c cbbc d429 373d c67e a2bd 6bb9 213b
00000170: bcce 3d3e bfa0 35be 2a73 be3c 6936 55be
00000180: c4ac 373d e69b 233d 14ab 9b3d 92bd 993d
00000190: 7a45 6fbb 229b dabd 0a6b 4d3d f691 abbe
000001a0: bb34 a5bd 81f1 bc3c 8c5f c33d 4e8a 47bd
000001b0: ea9c 73be 39b2 92be a763 13be ff2f 09be
000001c0: a3e1 3cbc 4f83 c6bd ccba 9b3c b20a 373e
000001d0: e009 3d3d 990a 403d 6ea7 14be eb83 e93d
000001e0: 3b3e aebe 7f85 e13c 8173 323e 929d 15bc
000001f0: 1855 2d3d d997 493d 64ce 2cbe 0140 34be
00000200: 9ad2 bfbd 2d12 f0bd 793c 9f3d 0d92 04be
00000210: 515c 27be 5262 a23d 155c 2ebe f053 cb3d
00000220: b2c1 3c3e 6aff 20bc 61a7 84bd 1053 f0bc
00000230: f095 17bd 6f86 bc3d c7e0 3ebd 2dbd bbbd
00000240: cdb7 11be 8078 da3c c323 ad3d c9be 87be
00000250: 949d 53be 9761 06be 9cbb a6bd 538b 9b3c
00000260: 70ed 0fbd 3842 a33d 8c40 063e ff04 b9bd
00000270: 09bd 4c3d 3c75 0e3e de02 223e e1d3 c23d
00000280: bf6f 03be a5f9 fbbc ae05 acbe 7809 643d
00000290: 6764 4f3e ae78 e6bb 99b0 b93c d631 da3b
000002a0: 3b2a 963d 6450 95bd cde3 09be 4920 66bd
000002b0: 0635 22bc 3896 033d 4eb7 903d b92a f7be
000002c0: d320 abbc f21e 16be 6552 86bd 0732 bebe
000002d0: 87c2 23be 028e 4bbd a0e6 10be 226b 14bd
000002e0: 5cab 613c 4811 4abe 0de8 993d c7ef 1cbd
000002f0: 6187 71be fe6f d33c df4e 303e d59d a33d
00000300: 3138 d1bc 98c2 babd 88f4 013e b363 9a3d
00000310: 6181 80bd 460d 2dbd 862b 26be 51a7 edbc
00000320: 168e 45bd 013c 0cbd e019 723c 4c9e a53d
00000330: b409 6cbd 2c18 203e b895 a6bd 3795 97bd
00000340: 4041 bcbd 4d32 19bd 9537 f13c a953 06be
00000350: 7875 cdbd 92db 603e 7f93 bfbd dd9f ae3c
00000360: d015 9e3d a0b9 dc3c 52a7 143e 0759 513e
00000370: de68 a53e f046 8dbe 867f 103d 5542 32bd
00000380: c112 023e 2f85 f8bc 7574 343d 0ff8 813e
00000390: 637e 9dbd 5674 5ebd 94e5 933d 347c 85bd
000003a0: e508 423d 307b a03d fa2d 18bc 15ec 86bd
000003b0: 750d 6bbe 4a77 943d d25a 18be e9e0 8d3c
000003c0: 784a c1bd d555 97bb 3197 06bc 2502 5fbb
000003d0: 4953 1f3e 339d 853d a192 063a e98c 0c3e
000003e0: 7e0d 3cbe 56d4 ec3c 1afa cbbd 04a0 333e
000003f0: 89b7 08bf 90fc ff3d 324e 023e ce2c 083e
0.012570663 -0.020063516 0.0702568 0.1307921 0.21718663 -0.10190466 0.07903648 -0.17980765
-0.016780159 0.003815239 0.1075708 -0.047754355 -0.013601422 0.11767279 -0.0077264067 0.07153736
-0.23417896 -0.105960965 0.05264165 0.07888474 0.06436373 0.102430455 0.17839338 -0.10023389
-0.0932606 -0.019501954 0.09947475 0.21134607 0.029579015 -0.18071352 0.21631956 -0.0571777
0.093271494 -0.00064450625 -0.084564425 -0.12929448 -0.21727076 0.08512487 0.24192789 -0.116250366
-0.020783424 -0.096361846 0.18269476 -0.17758417 0.1196936 -0.07358818 -0.24517037 0.21869841
-0.08831408 0.006903939 -0.073863976 -0.012672407 -0.049013466 -0.04042031 0.060837347 0.008795405
-0.14726096 0.11966567 -0.190992 0.12648055 -0.1885314 0.1494279 -0.07124946 -0.076384366
0.096702576 0.21975276 -0.004869505 0.23965661 -0.09603881 0.045037832 -0.38538435 0.15832716
-0.18028827 -0.27431855 0.07184206 -0.033528294 -0.031834 0.1754534 0.047035024 -0.050280258
0.18942522 0.10421734 -0.109400384 -0.048130274 -0.16380389 -0.22306347 -0.17372125 -0.12648813
-0.02484715 0.044717625 -0.07934336 0.0024677168 0.18535894 -0.17737101 0.023248274 -0.20821537
0.044842497 0.0399436 0.0760099 0.07506861 -0.0036509917 -0.106741205 0.05015091 -0.33509797
-0.08066698 0.023064377 0.095397085 -0.048715882 -0.23790327 -0.28651598 -0.14393483 -0.13397215
-0.011528405 -0.09693014 0.01900997 0.17875174 0.046151996 0.046885107 -0.14516994 0.114021145
-0.34031853 0.027529476 0.17426874 -0.009131806 0.04231748 0.04921708 -0.16875607 -0.1760254
-0.09366341 -0.11722217 0.07775206 -0.12946339 -0.1634381 0.07928909 -0.17027314 0.09928119
0.18433264 -0.00982652 -0.064772375 -0.029336482 -0.037008226 0.09205329 -0.046601083 -0.09166942
-0.1423027 0.026668787 0.08454087 -0.26512745 -0.2066558 -0.13123165 -0.081412524 0.018987333
-0.035138547 0.079716146 0.1311056 -0.09034156 0.049984965 0.13911909 0.15821406 0.09513069
-0.12835597 -0.030758688 -0.33598083 0.055673093 0.20253144 -0.007033429 0.022667216 0.006658773
0.073322736 -0.07290724 -0.13465805 -0.056183133 -0.009900337 0.03212568 0.070662126 -0.48274782
-0.020889675 -0.14660242 -0.06558684 -0.37147543 -0.15992175 -0.049695976 -0.14150476 -0.036234982
0.013773765 -0.19733155 0.07514963 -0.038314607 -0.23586799 0.025810238 0.17217587 0.079890884
-0.02553949 -0.09119147 0.12690938 0.07538547 -0.06274677 -0.042248987 -0.1622754 -0.029010447
-0.048231207 -0.03423691 0.014776677 0.08086833 -0.05762644 0.15634221 -0.08134025 -0.07401507
-0.09192133 -0.037401486 0.029445449 -0.13117851 -0.10032171 0.2195876 -0.093543045 0.021316463
0.07719004 0.026943982 0.14516953 0.20444117 0.3230657 -0.27593184 0.035277866 -0.04352029
0.12702467 -0.030336944 0.044056375 0.25384566 -0.07690122 -0.054310165 0.07221523 -0.065178305
0.047371764 0.07835996 -0.009288305 -0.06587998 -0.22954352 0.07249315 -0.14878395 0.01731916
-0.09438032 -0.0046183863 -0.008214758 -0.0034028378 0.15559115 0.06524124 0.0005133544 0.13725628
-0.18364522 0.028909843 -0.099598125 0.1754151 -0.5340505 0.12499344 0.12725142 0.13298342

fc3.bias f4 [128]
00000000: 3945 013d 2a8a 21bc d74d e93d 6e81 44bd
00000010: 4a2a 013d ecf8 e93d 674f f73b d1e8 82bd
00000020: 42f9 b3bd 304b 0b3e fd68 0fbd 6181 0dba
00000030: b1d1 563a b9a8 16be a7b7 efbb fb83 b5bd
00000040: 6233 a63c 060d c63d f416 9f3d 2285 94bd
00000050: a4a2 02bc 1af6 22bc e9e1 98bc 36c7 543d
00000060: 293e 1ebd 3f18 c7bd 9d3b c13d cb2e df3d
00000070: 05de 8f3d 6a78 323e b75f f6bc 396b efbb
00000080: a862 adbd 492a 0c3d 802c d93d ce68 a53d
00000090: 91e1 08be 9795 b1bc 1124 dfbd 442f e5bd
000000a0: a929 a73d d000 d43c ddd4 fe3d 87c0 b93d
000000b0: 736a 8fbd f9da 393e 01e5 a0bc 33cf a3bd
000000c0: 0170 f53a c340 6abd 36d0 093e c1b7 2fbe
000000d0: f757 cc3d eb49 e6bc a2ef 833d 7d50 823d
000000e0: 313e 5fbc 7b46 80bc 3a82 6b3d 1ec4 d5bd
000000f0: 3f9f 36bd 25d2 203e d24e a4bc 2c4a 0d3e
00000100: 35ab cfbd 821e bf3d 52db 12bc 65a1 d1bd
00000110: c939 5dbd f3f0 073e 82f9 aabd 2109 ad3d
00000120: ab43 3ebd 26d7 be3c ef78 1f3d 9955 58bd
00000130: bbcd 003e 29d6 acbd ed97 babc 9787 b2bd
00000140: 299e 64bd 5118 9a3d df11 363d d574 a33d
00000150: d3fb f83d 2025 8c3d fdd7 f03c f0b2 593d
00000160: ccba 863b ad8e 2f3d 34e3 53bd 9f74 233d
00000170: ba9c 18bc 86f7 d03d 8d36 20be aeea 1fbe
00000180: 05fc 07be 35e6 fd3d 98a1 cc3d 457b 20be
00000190: 6d43 ebbd 4c57 cc3d 16f1 743d d7e2 91bd
000001a0: 04af 76bd 2647 fc3d f0fd 303d ae17 693d
000001b0: 3770 9639 3f36 1fbb 10c0 1dbe 299b a5bd
000001c0: ffd5 14be edd7 543d c4c1 b53d 0288 c9bc
000001d0: cccc f5bd 729f 8abc 8e4e 813d 8d28 6a3d
000001e0: 40d0 bf3d fb17 a3bc 690b 183e 25e2 57bc
000001f0: ee77 20bd 7ef1 9c3d adb0 90bd 83f6 953d
0.031560156 -0.009859601 0.113918 -0.047974996 0.03153447 0.11424431 0.0075473073 -0.063920625
-0.087877765 0.136029 -0.035012234 -0.0005398002 0.00081946986 -0.147128 -0.0073155942 -0.08863064
0.020288173 0.09670453 0.0776805 -0.072519556 -0.007973347 -0.0099463705 -0.01866241 0.051947795
-0.0386335 -0.097214215 0.094351985 0.10897597 0.07024769 0.17428747 -0.030074937 -0.007306483
-0.08466083 0.034220014 0.10604191 0.080766305 -0.13367297 -0.021677775 -0.10895551 -0.11190656
0.08162243 0.025879294 0.12442944 0.09069925 -0.070027255 0.18149938 -0.019640448 -0.079985045
0.0018725396 -0.057190668 0.13458332 -0.1715994 0.099777155 -0.028111419 0.06442191 0.06363008
-0.013625667 -0.015658608 0.05749724 -0.10437797 -0.044585463 0.15705164 -0.020057116 0.13797826
-0.10140077 0.09331991 -0.008963423 -0.10235862 -0.054010186 0.13275509 -0.08348371 0.08449007
-0.046451252 0.02329595 0.03893369 -0.052816007 0.1257848 -0.08439285 -0.022777522 -0.08717268
-0.055814896 0.07524169 0.044450637 0.07981268 0.12157407 0.068430185 0.029399866 0.053149164
0.0041116234 0.042860676 -0.05173035 0.03990614 -0.00931471 0.10203461 -0.1564581 -0.15616867
-0.13279732 0.12397424 0.09991759 -0.15672024 -0.1148747 0.09977588 0.05980023 -0.071233444
-0.0602255 0.12318258 0.043210924 0.05690735 0.00028693836 -0.0024293808 -0.15405297 -0.08086235
-0.14534758 0.051963735 0.088748485 -0.024600986 -0.120019525 -0.016921733 0.06313811 0.05716758
0.093658924 -0.019908896 0.14848103 -0.013176476 -0.039176874 0.076632485 -0.07064948 0.07322409

fc4.weight f4 [256, 128]
00000000: 04fa e3bc ff6e 03be ee8c 49bd 0b83 b1bd
00000010: 568f 26be 5fda 043e cade 583c 7a30 96bd
00000020: d64b 9abd 6d91 323c fb1b 083d f9f0 443d
00000030: 2721 0abc 9a63 c53c a080 e2bd 8703 1fbd
00000040: dd8f dd3a 7cbb f8bd eccb 703e afed 78bc
00000050: aa97 05be 0305 e43d 13ec a4be cd3c 12be
00000060: 9572 04bd 3ed5 633d 8b48 8dbb a8f0 38be
00000070: f508 c13c 14c8 063e a6b7 dcbe a4de bebc
00000080: 3fd8 42be 5dcc 403c eb25 1a3e f0ec 3f3c
00000090: 273c 41be 71f6 cabd caf3 5bbe bc4b ee3d
000000a0: 993c 09be a50c f9bd 97a4 eb3d 662d 20bd
000000b0: 1e40 743c 71da 883d 90a6 c8bc 14eb 13bd
000000c0: 331b b9bc c9e7 3b3e a49b febd 527b 8e3d
000000d0: a24a 213e 8239 2cbd a370 02be dcd8 0abe
000000e0: d4f8 093e ad7b 13be 40ae 873d bb43 e4bc
000000f0: afbd 81be 93f9 933d efe5 ae3d cff8 b5bd
00000100: 1dce 5a3d 4c72 55bd 6806 56bd e043 b33d
00000110: 73c6 92bb dedb e8bd d3e4 6dbe 3d44 713d
00000120: f316 ab3d c156 b5be 883d 663d ddc0 9dbd
00000130: 939d 63bd bb31 de3d 0fd4 a9ba 2fb4 bc3d
00000140: c69c a2bd 848d 5bbc ad3b 99bc a3eb f13c
00000150: e1dd 943d 8bcb 25be 5074 ba3c c55f c7bd
00000160: 5d5b bebd 6a68 093d e918 ffbc ecbd 543e
00000170: 24d6 e13c 3702 f7ba 1027 4cbd 4334 d53c
00000180: a9ce 5d3d 09a0 a2bc 2c17 a4bd 2399 93bc
00000190: 8dfb d83c 26dc 813d 91a3 cfbd d674 19bd
000001a0: bf8e b23d 05ac 84bb 1d2f 78be f301 24be
000001b0: b98f 12be db74 9d3b 5bc6 813d dc2f 273e
000001c0: a1f4 ea3d a1c2 95be 5e15 68bd e3bb ff3d
000001d0: 9054 0f3e 8b62 873c 5131 6dbd caa5 abbd
000001e0: c0ba 71bb bd02 fe3c 64ce 0cbe 065b 20bd
000001f0: 88ad 82bd 40f1 b23c 0cba 4fbe 1f03 c0bc
00000200: 47e4 053e 8107 bbbd e8e9 563d 58ea 803e
00000210: c2e6 44be 99a0 3e3d 26d2 9fbc c4f0 4a3a
00000220: 504b babe 76be f53d 09d0 913d 5146 96bc
00000230: de34 c63d cba4 523b 74cf e43c c18c 26bd
00000240: 85d0 3fbd d4c7 04bd f6e5 773e 8a91 883c
00000250: f77d 8f3d 2bf0 313c f86e c1bd 8501 33be
00000260: e7ed 20be ddfb 943e 4f41 a1bb 0c3b fcbc
00000270: e866 933d f9a0 da3c c31c a9be 14bb a03c
00000280: 9080 233e 5aef f63c c756 cf3d 97ae ef3c
00000290: 47a0 363e 5264 2cbe a54e 03be a148 06be
000002a0: 6155 6abe 96da a7bc 78fa 1dbd 2f6b 143d
000002b0: b739 83bd 9015 403d 9173 2dbe 8ae1 2dbe
000002c0: 2f1d 433e b49b 383e 8573 e5bd 994d 4b3d
000002d0: c8a6 a13c 6208 0d3e 86d7 bc3d 24b6 40bd
000002e0: e78e ca3d 1033 d9bd 9113 bd3d f6d8 813d
000002f0: bb2c bd3b 183d 71b9 afdc 23be f149 993d
00000300: de3a 7abe ad9f 133d 5a75 f43d 9a4e 863d
00000310: 3154 7abe 2074 efbd 6c80 cdbd ca8f 523d
00000320: 1cee 87bd fa2d f73c c923 03bd 44ce a5bd
00000330: 8b14 8d3d ea62 90bc 19ca 0abe 32d5 1abd
00000340: d479 40be 4ef3 b8bc b684 a3bc 7bb0 5bbc
00000350: ba05 0abd 9c38 17bd a754 96bc 8816 de3c
00000360: efa7 c03d a022 2f3c 0822 a7bd 22e4 a7bd
00000370: c8cf 8bbd ca1f e4bc 356f 403d da81 92bd
00000380: 2657 fcbd c32f 123e 5ed7 013e a80f 743c
00000390: e7d1 bcbc 5c8a 0fbe a216 3fbd 1288 863d
000003a0: a27f cbbc df93 013e 595a a5bd 93b5 1ebc
000003b0: 3792 f43c 1eb5 433d e31d e5bd 7cbc 5fbb
000003c0: 5d5c 493d 673e c13d 4e62 9e3c d7fe c6bd
000003d0: 5607 533d 241a 0abe 55a1 19be 71e3 9a3d
000003e0: 59e6 a83c abbe 713a 9a37 6bbd ae74 8d3c
000003f0: aa93 113c eb50 d83d 6181 c2bd cf57 e63d
-0.027829178 -0.1283531 -0.049206667 -0.086675726 -0.16265616 0.12973927 0.013236711 -0.07333465
-0.07533996 0.01089893 0.03322981 0.048081372 -0.008430756 0.024095345 -0.110596895 -0.038821723
0.0016903837 -0.12145135 0.2351529 -0.015193387 -0.13046136 0.111337684 -0.3221136 -0.14281006
-0.032335836 0.055623285 -0.0043116263 -0.18060553 0.023563841 0.13162261 -0.43108863 -0.023299523
-0.19027804 0.011767474 0.15053527 0.011714205 -0.18870603 -0.09910286 -0.21479717 0.11635539
-0.13402022 -0.12160615 0.115060024 -0.039105795 0.014907865 0.066822894 -0.024493486 -0.03611286
-0.022595977 0.18350138 -0.1243203 0.06957115 0.15751126 -0.04204703 -0.1273828 -0.13559288
0.13473827 -0.14402647 0.066250324 -0.027864328 -0.2534003 0.07225337 0.0853995 -0.08885347
0.05341922 -0.052110955 -0.052252203 0.087531805 -0.0044792234 -0.11370061 -0.23231821 0.058902968
0.083539866 -0.3541775 0.056211025 -0.077028014 -0.055570196 0.10849329 -0.0012956875 0.09214055
-0.079400584 -0.013400439 -0.018705213 0.029531306 0.072688825 -0.16190927 0.02276054 -0.097350635
-0.0929477 0.033546843 -0.031139808 0.20775574 0.02756793 -0.0018845265 -0.04984194 0.026025897
0.054152165 -0.019851701 -0.08012232 -0.018017357 0.026487136 0.06340818 -0.1013862 -0.03746494
0.08718633 -0.0040488266 -0.24236722 -0.16016369 -0.14312638 0.00480519 0.063366614 0.1632685
0.114724405 -0.29250053 -0.056661002 0.124870084 0.13997102 0.016526481 -0.05790836 -0.08381231
-0.0036884993 0.031007165 -0.13750607 -0.039149307 -0.06380755 0.021843553 -0.20285815 -0.023438988
0.13075362 -0.09132291 0.052469164 0.2517879 -0.19228652 0.046539877 -0.019509386 0.00077415654
-0.36385584 0.11999218 0.07119758 -0.018344076 0.09678052 0.0032141681 0.027930953 -0.040661577
-0.04682972 -0.032417133 0.24208817 0.016670961 0.07006448 0.010860483 -0.09444994 -0.17481048
-0.15715753 0.29098406 -0.0049211155 -0.030789874 0.07197362 0.026688086 -0.33029756 0.019620456
0.15967011 0.030143429 0.10123973 0.029258056 0.17834578 -0.16835144 -0.1282297 -0.13113643
-0.22884132 -0.020489972 -0.038568944 0.03623503 -0.064074926 0.046895564 -0.16938616 -0.16980568
0.19054101 0.18028146 -0.11203674 0.04963455 0.019732848 0.13772729 0.09220795 -0.047048703
0.09890538 -0.106054425 0.092322476 0.0634021 0.0057731546 -0.0002300631 -0.16002153 0.07484806
-0.24436519 0.03604095 0.119364455 0.06557961 -0.24446179 -0.11692071 -0.1003426 0.05140666
-0.06637213 0.03017329 -0.03201655 -0.08095983 0.06888684 -0.01762529 -0.13553657 -0.037800975
-0.18796474 -0.022576954 -0.019960742 -0.013408775 -0.033696868 -0.03691922 -0.018350912 0.027110353
0.09407031 0.010689408 -0.08160788 -0.0819781 -0.068267405 -0.02784719 0.046981055 -0.071536735
-0.1232131 0.14276032 0.12679812 0.014896311 -0.023049308 -0.14017624 -0.046652444 0.06568922
-0.024841134 0.12654065 -0.08073873 -0.009686845 0.029854877 0.04778015 -0.11187341 -0.0034139445
0.04916035 0.094357304 0.019333985 -0.097165756 0.051520668 -0.13486534 -0.1500295 0.07562912
0.02061765 0.0009221832 -0.057426073 0.017267551 0.0088853035 0.10562309 -0.09497333 0.11247217

fc4.bias f4 [256]
00000000: c8e4 09bc 3aa3 38bd 0154 aabd 0e31 993d
00000010: 46a0 05bd a9b6 093b b215 95bd dfba 5cbd
00000020: 3f8e 763c c164 c53d d79a e1bd 3e03 a43d
00000030: 1adc 73ba 9d9e 383d 480e 203c 0e33 bcbd
00000040: a16e 0c3e 5bcd 483e eaf6 9abd 8830 74bb
00000050: cdb5 bfbd f763 bcbd d755 863d 81d5 e53c
00000060: f3ef 953d c9b5 30bd 3e63 3ebd d0d8 01be
00000070: 1d48 64bd e15f 68bc 3a4d 733d 1893 38be
00000080: bb8a ddbc a9c6 303c bdcc a33c a966 183d
00000090: 07fb 0cbd 72ee 12bd c1d5 053e 8e38 b5bd
000000a0: a40b 0ebc 9581 973d 1ed9 af3d 7447 e03d
000000b0: c7a5 64bd 72d8 febd f7e2 b7bc 1642 afbd
000000c0: 6ce5 0c3d 5443 be3d f2f1 a13c 9b3c 03bb
000000d0: 13f0 a1bd 281c 873d 5f6f eabc 4ad2 ea3b
000000e0: 5b02 a03c 5535 fabd 8e71 2cbe a152 9c3d
000000f0: 0f6d b1bc 0daf f03c ecf3 afbd 570c 85bd
00000100: dc73 53bd e464 a7bd 0ec3 8c3d ad97 a93d
00000110: 843c 81bd 6c62 7d3c e1b7 8b3c 195f 7e3c
00000120: a5ca 57bd 71aa 26bc 28bf 9e3c 7630 2d3e
00000130: 97fe 5f3d 0beb e2bc f553 66bc c2bd ef39
00000140: 667b 7f3d de7d f03d 9fc5 99bd a8d7 7bbd
00000150: 8021 fabc f824 513d 6395 1c3e 18d7 2bbb
00000160: 4ffd 013e 5210 22bd c6b4 95bd 2daf 8ebd
00000170: 9fba 573d ac08 3a3d 12af 583c eb05 8dbd
00000180: db2a 4fbd e8fa 63bc a166 023e 98b2 6ebd
00000190: b3fc a8bd 0421 b83d 8a0c 623d 9fb2 f9ba
000001a0: c866 9a3b cf9a ce3d 5545 76bd e02c 3b3d
000001b0: bb48 a1bc 8c27 c1bd 2131 aabd a8d4 023e
000001c0: a0f9 d53d 9951 46bd 35f8 63bd a68e f5bd
000001d0: 4fe2 febc 0864 0c3d 1751 e6bd 9fd8 433d
000001e0: 5238 cbbc 3fc8 4e3c 6499 f9bd b6ec 92bd
000001f0: 3421 7638 06aa 863d 3301 b23d 1c81 753c
00000200: 3f82 bb3d 2b2a 053d 1fbd a6bc f997 43bc
00000210: 5307 84bd c263 08bd 7899 bbbd 0edb 173d
00000220: 3fe9 e4bb c575 5a3d 080f 073d 25d2 dc3d
00000230: 3993 c5bc b60c 01bd ca1e 3a3c df64 31be
00000240: 4229 273e ed3b 993b 7e75 d73d 3528 3fbd
00000250: cd3c 1bbd 193d 48bb 6120 29bc 01dc bd3d
00000260: c4d5 373d 3c8c 8cbd b782 abbd df1b 053e
00000270: baeb 94bd 9139 a63d c4c4 8dbd 86e1 173c
00000280: dba6 c13b 8efb be3d 4c9e c4bc dc59 8ebd
00000290: 4c69 693c 517b 81bd d3eb 55bc 605c 9d3d
000002a0: 645b 6d3c 7530 803d fa8d 8bbd fb89 603c
000002b0: 6f06 53bd e9c9 57bd 2e91 0fbe 5878 353d
000002c0: 242a 5b3d a476 413d 9e5e 89bb d638 88bc
000002d0: 3dbf 99bd 52e4 6abd a89b ccbd fd86 1b3d
000002e0: ac10 edbb f2fb caba cd9f dbbc b3e7 933d
000002f0: 2692 cabc 394f 91bd 9786 d23d eca7 0fbe
00000300: 63b1 963a 7c8b 9fbd ce54 aabd 1d28 12be
00000310: a6ac 7d3d 5127 e83c a100 9bbd 5052 d1bd
00000320: 82da fabd d4ee 393d 7ebf e1bc 63d6 05be
00000330: 214e 23bd 944e a0bd 25dd 473d 78f5 863d
00000340: 60d3 0cbd 4f68 d33d d207 743d 9222 91bc
00000350: fceb 91bd a112 123d c162 133d 113a c4bd
00000360: 0637 4cbe af12 863b 4f6f f8ba 301b 953b
00000370: 46cf 583c 082f acbc 04a2 4ebc db15 b63a
00000380: f9e4 763c 7770 4d3c e0bc 12bd fc2c 20bc
00000390: 95be 233d e67a d4bd d6e9 a13d 0f04 52bc
000003a0: b89e 083d 6b88 d6bd dcd5 193c 2541 363c
000003b0: f305 923d 201c fabc cb1f 2c3d 7a4a b2bd
000003c0: 3c24 0ebe 7e69 0dbd d06f b5bd bf95 8d3c
000003d0: d653 113d 216e b8bd 8335 dcbd 5b9e efbd
000003e0: 0ebe 23bd f5f4 1c3d 5114 643d 433b cfbd
000003f0: 1cd6 80bd 0d94 a73b 4c02 37bc 5264 c5bd
-0.008416362 -0.04507754 -0.08316804 0.074800596 -0.03262355 0.0021013415 -0.07279529 -0.05388915
0.015048563 0.09638358 -0.110158615 0.08008431 -0.0009302512 0.04507314 0.00976903 -0.091894254
0.13714077 0.19609587 -0.07566626 -0.0037260372 -0.093608476 -0.09198754 0.065593414 0.028055908
0.07321157 -0.043142114 -0.046481363 -0.12680364 -0.055732835 -0.014183016 0.05939982 -0.18024862
-0.02704369 0.010789552 0.019995088 0.03720728 -0.034419086 -0.03587193 0.13069822 -0.088486776
-0.0086697675 0.07397763 0.08586334 0.109511286 -0.05582216 -0.124436274 -0.022447092 -0.08557527
0.03439848 0.092901856 0.019768689 -0.0020025137 -0.07907119 0.06597167 -0.028617559 0.0071661817
0.019532373 -0.122172035 -0.16840193 0.07632948 -0.021658449 0.029380346 -0.08591446 -0.06496494
-0.051624164 -0.0817354 0.06873141 0.08280883 -0.063103706 0.01546536 0.017055454 0.015525603
-0.05268349 -0.010172472 0.01937826 0.16913018 0.054686155 -0.027699968 -0.014058103 0.00045727013
0.06237354 0.11742757 -0.07508396 -0.061484963 -0.030533552 0.051060647 0.15291362 -0.0026220735
0.12694286 -0.039566346 -0.073098704 -0.06967006 0.05266821 0.045418426 0.013225334 -0.068858944
-0.05057798 -0.013914801 0.12734462 -0.05827579 -0.082513236 0.08990672 0.05518774 -0.0019050426
0.0047119595 0.10088121 -0.060124714 0.045697093 -0.019688 -0.09431371 -0.08310152 0.12776434
0.10448003 -0.04841766 -0.05565663 -0.11990099 -0.031113772 0.034275085 -0.112459354 0.047814008
-0.024807129 0.012620985 -0.1218746 -0.07174055 5.8681893e-05 0.06575398 0.08691635 0.014984395
0.09155702 0.032510918 -0.020353852 -0.011938089 -0.064467095 -0.03329826 -0.09160131 0.03707414
-0.006985813 0.05333497 0.03297332 0.107822694 -0.024118053 -0.031506263 0.01135988 -0.17323636
0.16324332 0.004676333 0.10520457 -0.046669204 -0.03789978 -0.0030553995 -0.010322661 0.09270478
0.044881597 -0.06862685 -0.08374541 0.12998913 -0.07271524 0.08116449 -0.06922296 0.009270078
0.0059097833 0.09325324 -0.024001263 -0.06950733 0.014246296 -0.06322349 -0.013056713 0.07683635
0.014487121 0.062592424 -0.06814189 0.013704772 -0.051519807 -0.05268279 -0.14020225 0.044304222
0.053506985 0.047232285 -0.0041921875 -0.016628664 -0.07507179 -0.05734665 -0.099906266 0.03797053
-0.0072346535 -0.0015486463 -0.026809597 0.072219275 -0.024727892 -0.07095189 0.10279577 -0.14028901
0.0011496957 -0.077902764 -0.083169565 -0.14273115 0.06193223 0.02833906 -0.07568479 -0.10220778
-0.12248708 0.04539378 -0.02755713 -0.13070063 -0.03986943 -0.078274876 0.048794884 0.06589788
-0.03438127 0.1032263 0.05957777 -0.01771668 -0.071250886 0.035662297 0.03598285 -0.09581388
-0.19942865 0.0040915827 -0.0018954071 0.00455036 0.013233012 -0.02101852 -0.01261187 0.0013892011
0.01506924 0.012539021 -0.035824656 -0.00977635 0.039976675 -0.103750035 0.07905929 -0.01281835
0.03335449 -0.104752384 0.009389367 0.01112393 0.07130041 -0.03053099 0.042022508 -0.087056115
-0.1388101 -0.034524433 -0.08859217 0.017283319 0.035480343 -0.090053804 -0.10752394 -0.11700126
-0.039976172 0.038319547 0.055683438 -0.10118725 -0.06290838 0.0051140846 -0.011169981 -0.09638275

fc5.weight f4 [256, 256]
00000000: 9d82 7f3d aa8d 19be 6524 523e 575a b33d
00000010: b56d 91be 9e4c 123d 8601 03bb 8617 3fbd
00000020: fc3c 10be ed7c b5bc 5d13 d93a d5cc 1c3d
00000030: 662f 4ebd 94ce a23d e0d2 9ebd 1336 2cbe
00000040: d39f c9bd 168a 98bd 3a87 04be f27b 81bd
00000050: 6991 01bb 0b73 5d3d ff99 7cbd dfbb e7bd
00000060: 878a c2bc cd2f c93d a333 9fbc 929a 1a3e
00000070: 5a94 e5be 1407 fdbc d96e afbd 8d27 c63c
00000080: 565c debe 3b0b 17bd fecc 71bd cad3 81bd
00000090: b7a8 afbd 62e9 3fbb 3cf9 0fbc 63fb 853d
000000a0: ec36 513c 4bf1 81be 1acc 35bc a702 d7bd
000000b0: 537f ebbd 3dfb ad3d 21cd 1d3d dcfd b33d
000000c0: f8e7 21bd 8b42 1dbe 1718 78bd 2cb1 4ebd
000000d0: ba27 1fbd 5627 24bd 5029 323e c2c1 10be
000000e0: b244 d0bd 04ca 2d3e 3980 ebbd 1be3 c7bd
000000f0: 5412 c2bd 4669 4bbe 3c6d d6bd 322e 113d
00000100: fd74 2abe 5725 7e3d eb40 ab3d c123 e9bc
00000110: 76d9 c8bd 6272 bf3d 5fe8 0abd bfd1 523d
00000120: a812 bf3c a48c f63d 7471 98bd 2af7 0b3d
00000130: 51b1 413d ffa6 0c3a 98da 313e 8f3d 923c
00000140: 36e6 883d c6ab f0bd 2d62 cfbc f997 fdbd
00000150: 7b0f c03d 238d 853d 4dc2 cbbd 5048 02be
00000160: 6e84 833d 7b3b 033d 4c59 b4bd a3e8 fa3c
00000170: 94ff c53d b05d 043b d1d9 e9bb 6b47 cb3d
00000180: 4b65 5e3d 78f4 b0bd f03c f23d 8413 40be
00000190: 2f63 383e 1282 023d 5e22 fcbd 1731 c53c
000001a0: dd7f 263e 560a 7c3d 137c f53d c727 20be
000001b0: 6503 db3d f09e 593c ef28 27bd eb2d aebd
000001c0: 788d 19be 7113 a3bd 6fe9 59bc feb1 a73d
000001d0: fa1a f83d 4fe4 2fbd 56e3 15be 9b0a bfbc
000001e0: a790 bc3d ae76 53bd 0ce7 febb 0ea0 e7bd
000001f0: 47f0 c53b b55f e9bd 4a50 743d fc84 c8be
00000200: 73ab 4dbc 8b56 4b3e 2e98 953d ca60 993c
00000210: 8501 8c3d 20c1 b8bd d506 e73d 5eeb f9bd
00000220: 0f14 55be 3e9a 18be 071f 3a3b f723 d3bd
00000230: 5401 4ebe 6de5 483c fdaf 81bd 679f 563d
00000240: 0683 5a3b dc7e f4bb 98bc 1bbe efb0 86bd
00000250: 2462 0e3e 3d5e e03c b29c 47bb a2b2 8ebd
00000260: 8957 12bd 8320 88be 1926 a03d 0f3c 4c3d
00000270: c74b 0fbe 6c36 d63c 2403 c63d 0ff7 d9bd
00000280: b9c4 76be 4d63 c2be decd 7cbc 042b 95be
00000290: b83c eeba 74ae b33d d880 f2bc ad3b 23be
000002a0: 0021 b83d a044 9ebd 242f 473d c548 c03c
000002b0: 8d3a f7bd 6d0d 2b3d de92 bdbd 3c4b 92bd
000002c0: 2702 8c3d bbe2 d73c 1540 85bd bd8a a8bd
000002d0: cb3b 823d 8b38 cc3d 9029 273d fba4 a1bd
000002e0: 1258 633d f204 a53d 95af aabc 741d 99be
000002f0: 220f 2a3d 612a 91bb be8a bcbd fbe3 76bd
00000300: 4a14 e5bd 2f87 eebd edc6 b2be c753 1a3d
00000310: 4052 9e3d 21c5 1bbd cff6 603b 1ec4 e8bd
00000320: 6090 423e 4498 073d 81bf cdbb c734 c9bd
00000330: 4b7b 07be 2984 64be 07b1 38be 3d6e 5c3d
00000340: 6b3e 32be a5e5 5a3b 4084 95be 39ab 9fbd
00000350: a09e b4be b9f0 af3c 3625 29be 4a37 0abc
00000360: 4054 913d f003 66bd 0e91 9e3d 4a18 5b3d
00000370: 5d0a e9bc 4e77 18be 5b63 20bc 3749 413d
00000380: 66c0 08be aacd 813c a1a9 6abd 0a42 f5bc
00000390: aaa0 203d cab5 32be 987c 8cbd 0706 86be
000003a0: b122 643c 2579 5bbe 36c6 a3bc e48d 37be
000003b0: 58ce be3c 78e3 21bd e750 20be a05f f0bd
000003c0: 97f2 a73d 96eb a0bd 0dfb 9abe a807 5f3d
000003d0: 7363 343e 6795 dabd 61e4 2dbd 508e 093d
000003e0: 51fa f23d 71d4 1bbd e955 dcbd d392 5f3e
000003f0: 2298 fabd ad22 82be c030 693c 819a dcbd
0.062380422 -0.14995447 0.20521696 0.08757465 -0.28404012 0.0357176 -0.0019989922 -0.046653293
-0.14085764 -0.022154296 0.0016561557 0.03828128 -0.05033817 0.07949558 -0.07755065 -0.16817503
-0.09844937 -0.07448213 -0.1294221 -0.06322469 -0.001977051 0.05406479 -0.0616703 -0.113151304
-0.023747696 0.098235704 -0.019433802 0.15098026 -0.44839746 -0.030887164 -0.085660644 0.024188781
-0.43429822 -0.036875945 -0.059033386 -0.06339224 -0.08577102 -0.0029283394 -0.008787449 0.06542089
0.012769442 -0.25379404 -0.011096025 -0.10498553 -0.114988945 0.084951855 0.038525704 0.08788654
-0.039527863 -0.15357415 -0.06056985 -0.050461933 -0.038856246 -0.040076576 0.17398572 -0.14136413
-0.101693526 0.16971594 -0.11499066 -0.09760114 -0.09476152 -0.19864377 -0.104700536 0.035444446
-0.1664619 0.06204733 0.083619915 -0.028459432 -0.098071024 0.09347989 -0.033913013 0.05146956
0.023324326 0.12038544 -0.074435145 0.03417126 0.047288243 0.00053654605 0.17368543 0.017851619
0.06684534 -0.11751513 -0.025315369 -0.12382502 0.09377953 0.0652106 -0.09949169 -0.12722898
0.06421743 0.032039147 -0.088060945 0.030628508 0.09667888 0.0020197444 -0.0071365614 0.09925731
0.05429582 -0.08640379 0.11828029 -0.18757445 0.18006586 0.031862326 -0.123112425 0.02407126
0.16259713 0.061533295 0.11986556 -0.15640174 0.10694007 0.013282523 -0.04081052 -0.08504852
-0.14995372 -0.079626925 -0.013300284 0.08188246 0.1211452 -0.04294234 -0.14637503 -0.023320487
0.09207278 -0.051626854 -0.007779008 -0.11309825 0.006040606 -0.11395208 0.059646882 -0.3916396
-0.012553084 0.19857232 0.073044166 0.01872291 0.06836227 -0.09021211 0.112806 -0.12203096
-0.20808433 -0.14902589 0.0028399841 -0.10309594 -0.20117694 0.012261731 -0.06332395 0.05239811
0.0033342256 -0.007461412 -0.15208662 -0.06576716 0.13904625 0.027388686 -0.0030458388 -0.06967665
-0.03572801 -0.26587304 0.078197666 0.049861964 -0.1399375 0.026148997 0.09668568 -0.10642826
-0.24098481 -0.37966385 -0.015429942 -0.2913438 -0.0018176055 0.08773509 -0.029602453 -0.15940733
0.08990669 -0.07727933 0.04862894 0.0234722 -0.120717146 0.04176085 -0.09256528 -0.07143256
0.06836348 0.02635323 -0.06506363 -0.08229587 0.06359061 0.09971722 0.04081112 -0.07892796
0.055503912 0.08057584 -0.020835677 -0.29905283 0.041518338 -0.004430101 -0.092061505 -0.060276013
-0.111855105 -0.11646878 -0.34917393 0.037677553 0.07730532 -0.038029794 0.0034326797 -0.113655314
0.19000387 0.033104196 -0.0062789326 -0.098245196 -0.13230626 -0.2231604 -0.1803628 0.05381607
-0.17406623 0.003340104 -0.2920246 -0.0779633 -0.3527727 0.02147709 -0.16518101 -0.0084360335
0.070961475 -0.0561561 0.07742511 0.05348996 -0.028447324 -0.14889261 -0.009789313 0.047188964
-0.13354644 0.015845139 -0.057290677 -0.029938716 0.03921572 -0.1745216 -0.06859702 -0.26176473
0.013924287 -0.21432932 -0.019991975 -0.1792522 0.023291752 -0.03952357 -0.15655862 -0.11736989
0.08200567 -0.078574345 -0.30269662 0.05445066 0.17616062 -0.106730275 -0.042454127 0.033582985
0.1186415 -0.038044397 -0.107585736 0.21833353 -0.12236048 -0.2541708 0.014232814 -0.10771657

fc5.bias f4 [256]
00000000: 115f 5f3c f3d7 bfbd f0a8 82bd ca70 83bc
00000010: 5efe ae3d 1c70 fb3d b857 eabc cb4b 11bc
00000020: 0e86 213e ed9b 473d 3c80 b1bd f710 cabc
00000030: 80ec 3d3c fd7e 94bd df18 72bc f0e6 99bd
00000040: 5437 c63c 7a72 bebd 3c11 13bd 2321 7cbd
00000050: 72bf 393e 14ce 3ebd 89e6 6abc 471a 143c
00000060: da79 89bd 25ee 8f3d 6b8d 803d a1ab 963d
00000070: a200 f0bc 1962 243d f8ca 903d fc1b b53d
00000080: 1f29 76bd dd1a 98bd 8486 0f3e 0020 523d
00000090: 764a 10be 3b5c 3dbd e3e0 643d ef49 613d
000000a0: 8222 b3bd d29a 58bd 406d 86bd 65e1 813d
000000b0: 6b74 82bd 1f29 b9bc 86d5 6abd efec 9abd
000000c0: 0259 b43d d6ae 0dbd dde7 81bc 80ab adbd
000000d0: b616 ebbd 2196 313c c091 f4bc 07d7 30bc
000000e0: 7fe9 1dbe 15db f73b 0065 563d 76c4 98bd
000000f0: 3a2a b5bd 4f80 82bd df97 c33d e9e0 3cbd
00000100: 2bc4 243e f650 4abc e1c3 3fbd d843 133c
00000110: 1136 bdbb 1b4f 0fba 0fbd 1d3d 603e 1fbd
00000120: d2da a7bd 6110 8bbc 6da4 113d eb9b c9bd
00000130: 75cf 4ebd a0c6 e43d b54d 16bd 965d cdbd
00000140: 7e31 9e3d deb9 2c3d 4138 7abd 18a0 63bd
00000150: e858 97bd 9ce2 95bd 4dfb 0e3d 0d62 f9bd
00000160: 7a0a c0bb 64b3 bebd ac88 93bd 340b e0bb
00000170: 9719 b93c 4455 54bd 42f5 cabc f599 ea3d
00000180: 7396 6abd 0eae a1bc 451f 2ebd f1d5 c7bd
00000190: f31c 47bc 0fd9 3e3e b310 43be cfcd edbd
000001a0: c4dd c53c a97f 85bb fb3c 89bd 7563 e73d
000001b0: 76cf ac3d 57f6 35bd 703a c73d a750 83bc
000001c0: cfaa 843d 2b0c 5abd 636a fb3d f751 7bbd
000001d0: 132b 333d 3a03 4f3d 35a3 95bd eea5 d6bc
000001e0: f8bd b53c 2924 abbc c860 3f3c dc18 d53b
000001f0: 95b7 a73d dea6 70bd 2f61 3dbc f026 723d
00000200: 6d19 4d3d 658c 783c fda3 a3bd e84d b4bc
00000210: 4970 da3b b8f3 643d c524 dcbd 77a9 7e3b
00000220: d011 9dbc 9d6d 5cbc 837b 50bd d9a9 4b3d
00000230: f792 7d3d 9baf 71bd a89a 293c 5a28 5e3c
00000240: 71d3 af3d f629 62bd 4c87 283d 2249 c53d
00000250: 6bfc 853d 8efb d1bc 915e c03d 747f b43c
00000260: a73b 71bc b1ec 3a3d 398f 293d 51c3 06bc
00000270: aaba 6fbd fe33 dbbc 383a 88bb 3547 a8bd
00000280: fe2d 613d accf c93c d0bb 5d3d 13e7 1cbc
00000290: c3ed 253d d449 4bbd f5a5 77bd 9e2d d5bd
000002a0: 90aa c83c 390d 7e3b f693 b5bd b94b 48bd
000002b0: c5db 76bd b5b8 e83d af99 83bb 2806 0c3e
000002c0: 6103 fabc 25d9 f03d a7aa 0fbc 8226 2d3d
000002d0: 9994 8cbd 9705 92b8 d26e 803d c873 fa3c
000002e0: 207a 4ebc cdfc fa3c c9d3 b3bb 57ab 0bbe
000002f0: ff90 503d 5ab3 5f3c 4775 253d 80b1 08bd
00000300: 7f33 9a3d 233c cbbd c2bd 083c a309 03be
00000310: cbea d5bb 364b c03c b60b 51bd 04fa 2f3e
00000320: 1556 c53d 594a 343c 2216 2e3c d10e c1bc
00000330: ee97 153e e5ac 8a3d d39f e4bc 1843 7b3d
00000340: ceca 96bd eaea 09bd 0be3 083c 7791 b9bd
00000350: 91f5 e4b9 1b1d f93c b187 2cbd ed27 2dbe
00000360: 6e80 4dbc 32c1 42ba 0b43 f93b bc63 ab3d
00000370: d83d afba 5eb8 313d 09d4 023d 41b2 163d
00000380: 2aed b63c 3d23 9ebd 86b4 eebd 197a 82bd
00000390: dfd0 043d d461 4ebd 5021 8c3d 2e32 acbd
000003a0: dc6e ae3d 9aa2 82bd 901b 6ebd c6c9 c53d
000003b0: 8c78 2fbd 17b5 dfbd 17dd 11bd 4f75 25bd
000003c0: 4efa 47bc 7371 84bd e126 a6bc 1e61 cf3d
000003d0: 7e41 c43c 8374 f93d b3b4 f63d cd9c 9dbd
000003e0: e482 a4bd d7d9 2ebd 160b a13d a94b ce3d
000003f0: 4165 3cbd 1fb6 41bd 5759 04be e0ad ecbc
0.013633505 -0.09367361 -0.063798785 -0.016044993 0.085446104 0.122772425 -0.02860628 -0.008868168
0.15773794 0.048732687 -0.08667037 -0.024666293 0.0115920305 -0.072507836 -0.014776438 -0.07514751
0.024196304 -0.092991784 -0.035905108 -0.06155504 0.18139437 -0.04658325 -0.01433719 0.009039468
-0.067126945 0.07027844 0.06276973 0.07356954 -0.029297177 0.040132616 0.07069963 0.08843228
-0.06009781 -0.07426999 0.14016157 0.05130005 -0.14090905 -0.046230536 0.05587853 0.05500215
-0.08746816 -0.052882023 -0.065638065 0.06341819 -0.06369861 -0.022602616 -0.057332538 -0.07564723
0.088060394 -0.034590565 -0.015857631 -0.08479977 -0.11478941 0.010839016 -0.029854655 -0.010793454
-0.15421103 0.0075639584 0.052342415 -0.07459347 -0.08845945 -0.06372129 0.095504515 -0.04611293
0.16090457 -0.012348404 -0.046817664 0.008988343 -0.0057742675 -0.0005466805 0.03851038 -0.038877845
-0.081960335 -0.016975584 0.0355572 -0.09844192 -0.050490815 0.11170697 -0.0366952 -0.10027616
0.07724284 0.042169444 -0.061088804 -0.0555726 -0.073900044 -0.07318613 0.034907628 -0.12176905
-0.005860624 -0.0931156 -0.072038025 -0.006837273 0.02259521 -0.051839128 -0.024775151 0.11455146
-0.057272386 -0.019736316 -0.04251029 -0.09757603 -0.012152898 0.18637489 -0.19049339 -0.116115205
0.024153598 -0.004074056 -0.06701084 0.11298267 0.084380075 -0.04442438 0.09727943 -0.016029669
0.06477892 -0.05323426 0.12276151 -0.061357465 0.04374225 0.050540186 -0.0730652 -0.026202168
0.02218531 -0.020891266 0.011680789 0.0065032076 0.08189312 -0.058752887 -0.011558815 0.059119165
0.050073076 0.015170191 -0.07990263 -0.022009805 0.0066662175 0.05589649 -0.10749201 0.0038858333
-0.019173533 -0.013453868 -0.05089904 0.049722526 0.061907735 -0.05900536 0.010351814 0.013559425
0.08585251 -0.0552158 0.041144654 0.096330896 0.065422855 -0.025632646 0.09393037 0.02203343
-0.014723695 0.045635883 0.041396353 -0.008225278 -0.058527626 -0.02675819 -0.004157331 -0.08216707
0.054975502 0.024635158 0.05413419 -0.009576577 0.04050995 -0.049630955 -0.060461003 -0.104090914
0.024495393 0.0038765206 -0.08866112 -0.04890034 -0.060268182 0.11363355 -0.0040161232 0.13674223
-0.03051919 0.11760167 -0.008768714 0.042273052 -0.0686428 -6.962864e-05 0.06271137 0.030572787
-0.012602359 0.030638123 -0.0054878932 -0.1363958 0.05091953 0.013653601 0.040395048 -0.033372402
0.07529353 -0.099235795 0.008346023 -0.12796645 -0.0065282336 0.023473363 -0.05103656 0.17185217
0.096355595 0.011004054 0.010625394 -0.023566635 0.14608738 0.06771258 -0.027908241 0.061343282
-0.07362901 -0.033671297 0.0083549125 -0.09060948 -0.0004367051 0.030409386 -0.042121593 -0.16909762
-0.012542827 -0.0007429301 0.007606869 0.08368632 -0.0013369871 0.043388717 0.031940494 0.03679109
0.022329886 -0.07721565 -0.11655526 -0.063709445 0.032425757 -0.050386265 0.06842291 -0.084080085
0.085172385 -0.0637867 -0.058131754 0.09657626 -0.04283957 -0.10923212 -0.03561124 -0.040395077
-0.012205673 -0.06466951 -0.02028221 0.101259455 0.02395701 0.12180426 0.120461844 -0.07695923
-0.08032778 -0.042688217 0.078634426 0.10073025 -0.045995 -0.047292825 -0.12924705 -0.028891504
