SAC/actor_v4.pth (torch, 446267 bytes, 14 tensors)

fc1.weight f4 [32, 9]
0.1048076 0.1505283 -0.54281193 -0.30446583 -0.022406409 -0.0036578195 0.3150611 0.71443367
-0.013295881 0.13572001 -0.13460942 -0.14113416 -0.4644026 -0.08874506 -0.09144084 0.11353978
0.2600132 0.14817601 -0.16545759 0.25832433 0.3827586 0.5259303 0.082205094 0.062724754
-0.34962493 -0.08573077 0.37160504 -0.83808684 -0.16202985 -0.026319344 -0.10493663 0.15854563
-0.18477342 -0.11462085 -0.535929 -0.3438986 0.12435871 0.5794364 0.11297539 0.3575258
-0.03676658 -0.08319093 -0.1096865 -0.2481873 -0.10112966 -0.38469923 0.2772448 0.31097648
0.008950304 0.025343854 0.024749776 0.5833807 0.07989014 0.048623763 0.17216636 -0.1722122
-0.08932031 -0.38680163 -0.10093972 -0.1846683 0.29573694 0.11041951 -0.14897199 -0.034365878
-0.06849586 -0.2630492 -0.20702596 0.059476614 0.08183919 0.47692275 -0.7173203 -0.08351
0.19973533 0.34172547 0.5320533 0.48890063 0.070805684 -0.15889668 -0.14178975 -0.25075403
-0.3845377 0.8594611 0.012449045 -0.06581253 0.1318872 -0.01248691 -0.0130882235 -0.076339655
0.4189063 0.05763931 -0.080281556 0.33812666 0.15513892 0.16651335 -0.27678144 -0.046015788
0.0007959097 -0.04906608 -0.3097121 -0.6526553 0.46795952 0.18962815 -0.16424127 -0.17827885
-0.14890589 0.054518465 -0.434586 -0.23940629 0.08567356 -0.30313283 -0.4353148 0.21448702
0.020684745 0.14988686 0.58431613 -0.23199265 -0.06800991 -0.16674004 -0.056517426 0.006441154
0.05961502 -0.11852151 -0.0104115615 0.2857868 -0.6411003 -0.24826443 -0.32100525 0.11117199
-0.5509512 -0.48132193 0.03289259 0.025946867 -0.50305736 0.12643935 0.29274902 0.52823496
-0.17557612 0.35772806 0.38347855 0.18467359 0.13979408 0.20543434 0.43445623 -0.0038256051
-0.19601423 -0.19151337 0.16243261 0.31911245 -0.04475855 -0.20220119 -0.5638471 -0.7528781
-0.04526837 0.15411054 0.493829 0.13562743 0.2151019 -0.08215812 -0.01051419 -0.37707186
-0.078617185 0.112530544 -0.4830407 -0.36756662 -0.58727777 -0.0026030133 -0.0051886747 0.020534128
-0.42141736 -0.057836905 0.31303647 -0.24866775 0.47099432 0.3371871 -0.27629656 0.0014539625
0.020960512 -0.034762748 0.28850824 -0.2871728 0.37264097 -0.24869196 0.5871266 0.0203299
0.104139306 0.09126376 -0.19074106 -0.022166748 -0.21788475 0.07112547 0.38203582 0.22409953
-0.22666286 0.026870528 -0.1456808 -0.45492467 -0.124976635 0.13938785 -0.11937203 -0.04351338
-0.06667255 0.39669722 -0.10462366 -0.14464459 -0.1981791 0.23551704 -0.15832023 0.38844496
0.42106956 0.373633 -0.08590068 0.020478118 0.01276847 -0.32080695 -0.04374102 0.12657036
-0.23285422 -0.21068867 0.41455406 -0.53184444 0.16696168 0.1492178 -0.046198197 -0.0023156365
-0.30363947 0.3273517 -0.72577643 -0.0137286745 -0.105089255 -0.0064513236 -0.016900111 0.5226134
-0.05945879 0.17621402 0.49211347 -0.28885153 0.31230813 -0.4834404 0.022685608 0.04838003
-0.043883838 0.37622556 -0.087625906 -0.21479002 0.14000523 -0.27180624 0.23281573 -0.10964171
-0.08115466 0.23620266 -0.25612512 0.11808605 0.3431632 -0.40534973 -0.11533032 -0.33534524
00000000: 5ea5 d63d 1724 1a3e b9f5 0abf f2e2 9bbe
00000010: a58d b7bc 07b8 6fbb b04f a13e 20e5 363f
00000020: f8d6 59bc 30fa 0a3e 0dd7 09be 7985 10be
00000030: 2dc6 edbe f8bf b5bd 5645 bbbd 8b87 e83d
00000040: 7320 853e 74bb 173e b76d 29be 1643 843e
00000050: eff8 c33e 5ea3 063f 255b a83d d675 803d
00000060: 0a02 b3be 9d93 afbd 0443 be3e dc8c 56bf
00000070: 27eb 25be aa9b d7bc 04e9 d6bd c959 223e
00000080: 3e35 3dbe 56be eabd a532 09bf 7a13 b0be
00000090: c8af fe3d f255 143f a45f e73d 9f0d b73e
000000a0: 8e98 16bd 0260 aabd 51a3 e0bd d024 7ebe
000000b0: 111d cfbd 4cf7 c4be 08f3 8d3e 4f38 9f3e
000000c0: 4ca4 123c ea9d cf3c 0bc0 ca3c 7058 153f
000000d0: 719d a33d b629 473d 614c 303e 6558 30be
000000e0: 91ed b6bd dd0a c6be 7cb9 cebd b019 3dbe
000000f0: d56a 973e a023 e23d 1d8c 18be 3cc3 0cbd
00000100: 8f47 8cbd 62ae 86be 9dfe 53be c09d 733d
00000110: 4e9b a73d 382f f43e 4ea2 37bf 4a07 abbd
00000120: 6b87 4c3e a4f6 ae3e a534 083f 2f51 fa3e
00000130: 9202 913d d0b5 22be 5531 11be d562 80be
00000140: 20e2 c4be a505 5c3f 14f7 4b3c b8c8 86bd
00000150: 700d 073e e695 4cbc fd6f 56bc f757 9cbd
00000160: e37a d63e 3217 6c3d a86a a4bd f01e ad3e
00000170: bddc 1e3e 7a82 2a3e 4cb6 8dbe 0d7b 3cbd
00000180: 99a4 503a 84f9 48bd 9692 9ebe 6b14 27bf
00000190: 6498 ef3e e22d 423e dd2e 28be bb8e 36be
000001a0: c97a 18be c14e 5f3d 0e82 debe ec26 75be
000001b0: 9f75 af3d 3a34 9bbe 95e1 debe 7ca2 5b3e
000001c0: 0e73 a93c f17b 193e be95 153f 7b8f 6dbe
000001d0: c848 8bbd e7bd 2abe d17e 67bd 5110 d33b
000001e0: e12e 743d 68bb f2bd 4195 2abc a652 923e
000001f0: 261f 24bf 0839 7ebe cd5a a4be 24ae e33d
00000200: 230b 0dbf d46f f6be 61ba 063d 868e d43c
00000210: 5ec8 00bf 5179 013e 33e3 953e 683a 073f
00000220: 3aca 33be 2228 b73e 4d57 c43e 131b 3d3e
00000230: 2e26 0f3e 615d 523e 0c71 de3e 01b7 7abb
00000240: f4b7 48be 151c 44be bc54 263e b562 a33e
00000250: be54 37bd d40d 4fbe 4958 10bf 9fbc 40bf
00000260: 546b 39bd 27cf 1d3e 28d7 fc3e ebe1 0a3e
00000270: ac43 5c3e 8442 a8bd b643 2cbc 900f c1be
00000280: 0c02 a1bd 6a76 e63d 1c51 f7be b131 bcbe
00000290: d657 16bf 5197 2abb c205 aabb 3037 a83c
000002a0: 04c4 d7be 64e6 6cbd 5146 a03e c2a2 7ebe
000002b0: 2b26 f13e caa3 ac3e be76 8dbe e392 be3a
000002c0: 61b5 ab3c 6263 0ebd 5ab7 933e 5008 93be
000002d0: ccca be3e 1ba9 7ebe ee4d 163f e48a a63c
000002e0: fd46 d53d 7fe8 ba3d a051 43be 0a97 b5bc
000002f0: 2e1d 5fbe 3baa 913d 339a c33e 597a 653e
00000300: 4f1a 68be 951f dc3c 592d 15be e3eb e8be
00000310: c0f3 ffbd b0bb 0e3e 5379 f4bd 163b 32bd
00000320: 9e8b 88bd e61b cb3e ee44 d6bd b61d 14be
00000330: 76ef 4abe 612b 713e b31e 22be 42e2 c63e
00000340: 6e96 d73e d34c bf3e b2ec afbd bac1 a73c
00000350: d832 513c cf40 a4be c929 33bd a99b 013e
00000360: 5671 6ebe c5be 57be 6e40 d43e f526 08bf
00000370: 01f8 2a3e 8dcc 183e 523a 3dbd efc1 17bb
00000380: a276 9bbe a49a a73e 7ccc 39bf 3cee 60bc
00000390: 0939 d7bd a065 d3bb 1a72 8abc fec9 053f
000003a0: 0f8b 73bd 7371 343e 4cf6 fb3e 59e4 93be
000003b0: dae6 9f3e 8085 f7be 2bd7 b93c 232a 463d
000003c0: 8abf 33bd a3a0 c03e 3675 b3bd eaf1 5bbe
000003d0: 885d 0f3e 302a 8bbe 3f67 6e3e d58b e0bd
000003e0: 6a34 a6bd 1cdf 713e d522 83be 19d7 f13d
000003f0: 16b3 af3e 008a cfbe 4e32 ecbd 5fb2 abbe

fc1.bias f4 [32]
-0.059940673 -0.06665375 -0.13322493 0.081003524 0.24511334 -0.0032829428 -0.0264838 -0.16682306
0.15663111 0.0069333515 0.08685296 -0.09438317 -0.14587094 0.009219835 -0.11900801 0.09708003
0.087799065 -0.069517866 0.075394966 0.12418214 0.18879063 -0.016489035 -0.3117645 0.032656875
0.10100432 -0.24398251 0.14620961 0.29601893 -0.19027232 0.017150005 0.20042151 -0.011539007
00000000: 5a84 75bd c381 88bd 1e6c 08be 2de5 a53d
00000010: fefe 7a3e a426 57bb 8ef4 d8bc aad3 2abe
00000020: e863 203e 2b31 e33b f7df b13d f74b c1bd
00000030: 315f 15be ca0e 173c 79ba f3bd e5d1 c63d
00000040: ffcf b33d 625f 8ebd ad68 9a3d 3553 fe3d
00000050: 5552 413e 0314 87bc 999f 9fbe 37c3 053d
00000060: 5adb ce3d 8dd6 79be f9b7 153e cb8f 973e
00000070: bfd6 42be 2b7e 8c3c 4c3b 4d3e 1a0e 3dbc

fc2.weight f4 [64, 32]
-0.052827023 -0.00177719 -0.24921803 0.049721763 0.20566894 0.119737536 0.08771988 0.06880094
0.16083655 -0.15188888 -0.09327369 -0.11370768 0.108995035 0.25800937 -0.2778456 -0.0062368684
0.27376902 0.07270763 0.15192394 0.06375608 -0.21259345 -0.1149783 0.028437635 -0.022017734
-0.05180171 0.31244728 0.13707274 0.0278348 -0.19773677 -0.07319345 -0.0152690485 0.19850074
-0.15096723 0.10366101 -0.051674075 0.036322303 -0.18371688 0.06860807 -0.01085299 0.11591273
-0.42696536 -0.30625218 -0.019787772 0.16812676 -0.07567796 0.09209836 0.16739142 -0.261765
-0.13192828 -0.13636276 -0.17298652 0.1803138 -0.26156688 -0.024799345 -0.14901826 -0.19090037
0.15313253 0.1807603 0.08262496 0.0409458 -0.061772604 -0.25873187 0.0022036633 0.3176448
-0.0397592 0.17691337 0.0999473 0.043332104 0.05443643 0.08591418 -0.03985168 0.046810757
-0.07823231 -0.1571655 -0.024311075 0.080016635 -0.007820963 0.116449885 -0.17859931 0.09956434
0.09211475 -0.030786578 -0.26603243 0.060700476 0.21135123 0.03329395 0.06074626 0.35807738
-0.088855885 0.12049222 -0.1636244 -0.10101315 0.1177044 0.19692327 -0.05690575 -0.09340163
-0.009545093 -0.116982564 0.18888189 0.027688209 0.1304642 0.09504939 0.01812698 0.19000696
0.11278272 -0.1168365 0.03591055 -0.10378536 0.14153735 -0.046758704 -0.26604718 0.2320617
0.020667009 0.056913033 -0.20680131 0.07280547 0.15240435 -0.067322455 0.07637788 -0.0011353651
-0.07598265 -0.2456239 -0.09309751 0.27677473 0.11776572 0.43411547 -0.034053754 -0.010331649
-0.07066512 -0.35417852 0.14069137 -0.07965406 0.2809881 0.04591104 -0.2334261 0.10451379
-0.07817395 0.030853074 -0.034515776 -0.015643965 -0.21110947 -0.2910728 0.046035275 -0.26719514
0.028251402 0.18069682 -0.19111563 -0.24639969 -0.14131592 -0.046191305 0.0035200506 0.27134442
-0.034730885 -0.39950252 -0.23203087 -0.13501754 -0.24647944 0.10086135 -0.15703432 -0.14134564
-0.1377419 -0.06199105 -0.1527477 0.1707774 -0.033097584 0.3760272 0.040108148 0.111274265
-0.19482194 -0.21856524 0.04657334 0.086198784 0.009594098 -0.2003848 0.19992489 -0.13326171
-0.024157006 -0.037879523 0.18919706 0.19768295 -0.32332897 0.041801095 0.08198812 0.008240917
0.0819089 -0.18496425 0.021166628 0.1560912 -0.20833898 -0.057967205 -0.011310546 0.1823434
0.031184109 0.028243618 0.054850794 -0.16457713 -0.097966954 -0.002879436 0.119452685 0.0103201065
-0.124469124 0.07603655 0.03459735 -0.14778467 -0.0770598 -0.35586908 0.33533257 0.07953884
-0.17920743 0.04589213 0.22178264 0.10062225 -0.1051951 -0.08134161 -0.15143354 -0.13529143
-0.070100114 -0.22688495 -0.03621286 0.10723816 -0.1388515 -0.045992896 0.05554032 0.09850259
0.034371514 0.16816306 -0.17828862 0.029145617 -0.05730426 0.21132496 -0.20228457 -0.15205324
0.067695 -0.13747919 0.07302177 0.15224558 -0.12142703 0.0315566 0.24524581 -0.118670054
0.0121534215 -0.031150311 0.088015415 0.08068634 -0.27002826 0.09880679 -0.032113682 -0.07316407
0.053813875 -0.015324342 0.097387 0.12093371 -0.2321189 -0.34849852 -0.0069162906 0.23105069
00000000: 2661 58bd 9af0 e8ba 0333 7fbe 0ca9 4b3d
00000010: e19a 523e f438 f53d 7ba6 b33d 82e7 8c3d
00000020: 56b2 243e c288 1bbe 4706 bfbd 92df e8bd
00000030: ca38 df3d ce19 843e c741 8ebe a55e ccbb
00000040: 742b 8c3e bde7 943d f391 1b3e 8c92 823d
00000050: 19b2 59be be79 ebbd 0bf6 e83c 895e b4bc
00000060: 082e 54bd 17f9 9f3e cc5c 0c3e ce05 e43c
00000070: 827b 4abe 73e6 95bd 082b 7abc c743 4b3e
00000080: 2797 1abe 394c d43d 32a8 53bd b2c6 143d
00000090: 4720 3cbe 6382 8c3d bdd0 31bc a763 ed3d
000000a0: 349b dabe 16cd 9cbe f719 a2bc 6c29 2c3e
000000b0: 0cfd 9abd 119e bc3d a868 2b3e 1006 86be
000000c0: 3518 07be aea2 0bbe 6123 31be 2ea4 383e
000000d0: 18ec 85be ff27 cbbc 3e98 18be 637b 43be
000000e0: c6ce 1c3e 3a19 393e 4637 a93d c8b6 273d
000000f0: 4505 7dbd 8178 84be 566b 103b 57a2 a23e
00000100: 8bda 22bd c728 353e 2cb1 cc3d 017d 313d
00000110: bcf8 5e3d c6f3 af3d 843b 23bd a3bc 3f3d
00000120: 4338 a0bd feef 20be 0528 c7bc c3df a33d
00000130: 7f23 00bc 477d ee3d bde2 36be 64e8 cb3d
00000140: a8a6 bc3d 2234 fcbc 6735 88be 10a1 783d
00000150: 756c 583e 3d5f 083d 12d1 783d eb55 b73e
00000160: 13fa b5bd a0c4 f63d 288d 27be fbdf cebd
00000170: 010f f13d 41a6 493e 0116 69bd 5b49 bfbd
00000180: 0663 1cbc 8e94 efbd 416a 413e 62d2 e23c
00000190: 6898 053e 41a9 c23d 087f 943c 2f91 423e
000001a0: a0fa e63d fa47 efbd f116 133d 6b8d d4bd
000001b0: 2bef 103e 0e86 3fbd 5637 88be 95a1 6d3e
000001c0: dc4d a93c a41d 693d b9c3 53be 091b 953d
000001d0: e30f 1c3e 5be0 89bd 026c 9c3d 88d0 94ba
000001e0: cb9c 9bbd d584 7bbe e8a9 bebd 6bb5 8d3e
000001f0: 272f f13d 6244 de3e f37b 0bbd 1446 29bc
00000200: e0b8 90bd e356 b5be 6611 103e ab21 a3bd
00000210: acdd 8f3e 370d 3c3d 4007 6fbe 530b d63d
00000220: aa19 a0bd 96bf fc3c 6a60 0dbd c627 80bc
00000230: 152d 58be 7e07 95be 7c8f 3c3d cdcd 88be
00000240: 7c6f e73c 9608 393e d1b3 43be 3350 7cbe
00000250: 1fb5 10be 1833 3dbd a6b0 663b a8ed 8a3e
00000260: f941 0ebd 988b ccbe 8099 6dbe 0a42 0abe
00000270: 1b65 7cbe 6590 ce3d 9bcd 20be e9bc 10be
00000280: 360c 0dbe 54ea 7dbd e569 1cbe 45e0 2e3e
00000290: 5591 07bd a386 c03e 7148 243d c3e3 e33d
000002a0: 677f 47be 91cf 5fbe b0c3 3e3d fd88 b03d
000002b0: 9030 1d3c ac31 4dbe 1cb9 4c3e c275 08be
000002c0: eae4 c5bc 8f27 1bbd e0bc 413e 666d 4a3e
000002d0: 608b a5be a037 2b3d 63e9 a73d e904 073c
000002e0: dabf a73d 4567 3dbe a365 ad3c 5fd6 1f3e
000002f0: d056 55be 056f 6dbd de4f 39bc 3ab8 3a3e
00000300: d175 ff3c 295f e73c 3aab 603d e886 28be
00000310: e6a2 c8bd ebb4 3cbb 9ca3 f43d aa15 293c
00000320: abe9 febd 0db9 9b3d f3b5 0d3d dd54 17be
00000330: 87d1 9dbd 7934 b6be b6b0 ab3e 42e5 a23d
00000340: 2782 37be 63f9 3b3d fd1a 633e 0a13 ce3d
00000350: 8770 d7bd 6e96 a6bd 6511 1bbe d689 0abe
00000360: a690 8fbd 8754 68be f053 14bd ae9f db3d
00000370: 162f 0ebe 0c63 3cbd 3f7e 633d babb c93d
00000380: 25c9 0c3d f032 2c3e 4b91 36be cac2 ee3c
00000390: dfb7 6abd 9265 583e b023 4fbe d8b3 1bbe
000003a0: ada3 8a3d 58c7 0cbe 708c 953d 44e6 1b3e
000003b0: bcae f8bd 7e41 013d b821 7b3e 4909 f3bd
000003c0: 251f 473c f02e ffbc 6d41 b43d e13e a53d
000003d0: 2541 8abe 375b ca3d a389 03bd 0bd7 95bd
000003e0: f06b 5c3d f312 7bbc d672 c73d 18ac f73d
000003f0: 94b0 6dbe 666e b2be 0da2 e2bb 8d98 6c3e

fc2.bias f4 [64]
0.06609134 -0.048407517 -0.09524074 0.03787829 0.10362082 -0.06806965 0.015168031 0.05958788
0.05373465 -0.2121206 0.08738991 0.02922496 0.1488059 0.049057122 -0.05568563 -0.08304653
0.06046152 -0.14969508 0.11914262 -0.08083564 -0.06376842 0.08439685 -0.03936632 -0.085200116
-0.15419656 0.2291115 0.013034833 -0.098859146 0.117344044 0.07683002 -0.16725768 -0.10390776
0.13873768 0.07987718 -0.18401562 0.13912801 -0.023154216 0.074468315 -0.01136394 -0.07541198
-0.13705358 -0.039239924 -0.20703454 0.18549386 -0.009419137 -0.0787768 0.025299678 -0.17153881
-0.053981576 0.031211423 -0.14781201 0.15500799 -0.041085478 -0.19136506 -0.21038097 -0.0021078286
-0.07523161 -0.05613626 -0.1848019 -0.09240599 0.05631962 -0.01578878 0.032508105 0.03374474
00000000: e55a 873d f646 46bd 940d c3bd 4426 1b3d
00000010: 2737 d43d 1a68 8bbd 5583 783c 6c12 743d
00000020: dd18 5c3d 2436 59be 7bf9 b23d 2f69 ef3c
00000030: 9360 183e 1ff0 483d 9d16 64bd 4d14 aabd
00000040: 80a6 773d ab49 19be 0c01 f43d 288d a5bd
00000050: 0499 82bd 41d8 ac3d 943e 21bd 667d aebd
00000060: b4e5 1dbe 349c 6a3e 0d90 553c aa76 cabd
00000070: 1352 f03d 0f59 9d3d 9945 2bbe 97cd d4bd
00000080: 4011 0e3e a696 a33d 976e 3cbe 9377 0e3e
00000090: e9ad bdbc d882 983d d22f 3abc 9971 9abd
000000a0: c657 0cbe 0bba 20bd dd00 54be 1af2 3d3e
000000b0: b952 1abc bb55 a1bd 4541 cf3c dfa7 2fbe
000000c0: c91b 5dbd 19af ff3c 085c 17be 6aba 1e3e
000000d0: 3f49 28bd 34f5 43be 1c6e 57be 7f23 0abb
000000e0: 0813 9abd 23ef 65bd b63c 3dbe 5a3f bdbd
000000f0: 67af 663d 7957 81bc 3827 053d ed37 0a3d

fc3.weight f4 [128, 64]
-0.12222183 0.22303136 0.2579822 0.015840743 0.026386527 -0.18248944 0.14877509 -0.18885596
0.15893027 0.1527071 -0.033606716 -0.014753872 -0.18907583 0.099779926 0.024117833 0.1334721
-0.036776856 -0.40894818 -0.03757298 0.15437321 -0.18089877 -0.012201108 -0.11394312 -0.025036074
-0.0932606 -0.15556979 -0.09014633 0.22954321 0.3179014 0.00085240416 0.20125595 0.0035237796
-0.054498136 0.03950107 0.21986611 0.043211237 -0.09048654 0.0951303 0.16296752 -0.12210853
-0.2538096 -0.19539326 0.07981111 -0.07480122 -0.0058846325 -0.15602028 -0.16044527 0.11078176
-0.009132624 -0.102364 0.041986622 -0.14042036 -0.19262902 -0.04384101 0.07775644 0.0813653
-0.15994474 0.027007995 -0.40188593 0.3670532 -0.09023355 0.19398569 0.09758484 -0.22177224
0.035103578 0.047092553 -0.26239324 -0.005105847 -0.11722357 -0.07758397 0.05663677 0.07168047
0.11985386 0.029531358 -0.0147245545 0.30542877 -0.010576425 0.17156109 0.01517299 -0.06215059
0.07256414 -0.099407494 -0.1948743 -0.0643601 -0.26038635 -0.17641547 -0.11148019 -0.15732479
-0.02484715 -0.005099102 -0.25399235 -0.10776384 0.13048728 -0.20167539 0.32523212 -0.12287174
0.1210492 0.12040848 0.047983356 -0.035692148 0.06147713 0.0049569104 0.1994091 0.0884385
-0.10744467 -0.171646 -0.09439102 0.12735105 -0.31951803 0.013783554 -0.16888936 0.10011833
-0.16521132 0.026377555 0.050418265 -0.16717915 -0.041434087 0.26560375 0.046121545 0.16048941
0.01491984 0.079313494 0.036000174 0.067802824 -0.2079028 -0.00841942 0.037977774 -0.018302903
-0.18311593 -0.3184729 0.07833284 -0.061737027 0.07011016 0.07804837 -0.04837076 -0.108957596
0.068960644 -0.26069596 0.033109117 -0.42349067 -0.06901374 0.0002948485 0.015064002 -0.068297796
-0.1368859 -0.04966538 0.07378639 -0.0706542 -0.31342235 0.16606908 -0.05676331 0.099615715
-0.035138547 0.19330487 0.07911272 0.078813024 0.05732837 0.15808345 0.24984266 -0.289911
-0.06652054 -0.0009696747 -0.21362643 0.07352723 0.23762003 0.055064365 -0.21796922 0.1125569
-0.0026599336 0.016153917 -0.032626603 0.036347825 -0.039219137 -0.09583134 0.056786485 -0.30359992
-0.0398362 -0.16612935 -0.19270127 0.05740973 -0.28155026 -0.10015932 -0.13028754 -0.1619238
-0.2765122 -0.4411222 -0.08680915 0.2090768 0.12563558 0.0649785 0.090649255 0.052080955
0.0055732056 -0.0769931 0.24437225 -0.03570392 -0.13110702 0.0043212813 -0.192072 -0.06612686
-0.1986716 -0.14253734 0.1196782 0.09337336 -0.14839178 0.18080118 0.060571164 -0.15953328
-0.024465866 -0.028767243 -0.12909086 0.010220039 0.016616812 0.12384195 0.13911073 0.0830202
0.07719004 0.005888853 0.14538512 -0.065675594 0.052381746 -0.022905154 0.008385436 -0.084089555
0.1289128 -0.21848492 0.0052100546 0.06862076 -0.12818642 0.30150035 -0.009987076 -0.058115397
0.12250707 0.04626606 -0.021914039 -0.055564925 0.12633257 0.021323925 0.08312429 0.27231693
-0.016789401 0.05527559 -0.19814159 0.11617069 0.06619611 -0.12411365 -0.03354194 0.109290496
-0.06595618 -0.101505406 -0.12794307 0.09917352 -0.07794919 0.008223666 -0.21707393 -0.02501553
00000000: 704f fabd 5562 643e 3e16 843e 72c4 813c
00000010: 8f28 d83c 83de 3abe 7f58 183e 7563 41be
00000020: 9ebe 223e 405f 1c3e 32a7 09bd 39ba 71bc
00000030: 189d 41be 6b59 cc3d c392 c53c e9ac 083e
00000040: 54a3 16bd a861 d1be 20e6 19bd 0314 1e3e
00000050: 873d 39be 28e7 47bc 035b e9bd 7418 cdbc
00000060: 6aff bebd b04d 1fbe a49e b8bd 600d 6b3e
00000070: f9c3 a23e e073 5f3a 0a16 4e3e 36ef 663b
00000080: 7039 5fbd e0cb 213d 9524 613e 44fe 303d
00000090: 0251 b9bd add3 c23d f5e0 263e 0914 fabd
000000a0: 55f3 81be 2c15 48be 0274 a33d 6231 99bd
000000b0: e0d3 c0bb c8c3 1fbe c44b 24be 8ce1 e23d
000000c0: 00a1 15bc 38a4 d1bd 2afa 2b3d 5bca 0fbe
000000d0: 8b40 45be a292 33bd c53e 9f3d daa2 a63d
000000e0: 8ec8 23be df3f dd3c fec3 cdbe 66ee bb3e
000000f0: 5ecc b8bd 2fa4 463e 90da c73d 4318 63be
00000100: c5c8 0f3d 1fe4 403d 6858 86be f34e a7bb
00000110: e912 f0bd 58e4 9ebd f5fb 673d 36cd 923d
00000120: f175 f53d bfeb f13c 423f 71bc 2961 9c3e
00000130: be48 2dbc b6ad 2f3e 2298 783c 9e91 7ebd
00000140: 829c 943d 2896 cbbd 218d 47be 3acf 83bd
00000150: 5c51 85be 42a6 34be ba4f e4bd c019 21be
00000160: 408c cbbc 5e16 a7bb 490b 82be 4ab3 dcbd
00000170: 759e 053e fe83 4ebe d384 a63e 2ea4 fbbd
00000180: a5e8 f73d b998 f63d 328a 443d ee31 12bd
00000190: 71cf 7b3d 946d a23b e631 4c3e 3f1f b53d
000001a0: f30b dcbd f8c3 2fbe 1450 c1bd 5068 023e
000001b0: de97 a3be 6ad4 613c 55f1 2cbe d70a cd3d
000001c0: 282d 29be be15 d83c 6283 4e3d 0331 2bbe
000001d0: cab6 29bd 37fd 873e f2e9 3c3d 5657 243e
000001e0: 5872 743c 1d6f a23d eb74 133d 35dc 8a3d
000001f0: 79e4 54be 9bf1 09bc 958e 1b3d f8ef 95bc
00000200: be82 3bbe e10e a3be f86c a03d f7df 7cbd
00000210: ea95 8f3d d3d7 9f3d 6b20 46bd 2925 dfbd
00000220: 3d3b 8d3d f179 85be 6d9d 073d c5d3 d8be
00000230: 1357 8dbd e595 9a39 01cf 763c b7df 8bbd
00000240: d12b 0cbe ed6d 4bbd 521d 973d 26b3 90bd
00000250: e578 a0be 030e 2a3e a580 68bd 5303 cc3d
00000260: 70ed 0fbd b6f1 453e da05 a23d b968 a13d
00000270: 27d1 6a3d a1e0 213e c1d6 7f3e 376f 94be
00000280: ec3b 88bd c431 7eba e3c0 5abe 7295 963d
00000290: aa52 733e 2c8b 613d 5333 5fbe 3b84 e63d
000002a0: 4852 2ebb 3855 843c 79a3 05bd 75e1 143d
000002b0: 3fa4 20bd 3943 c4bd f298 683d 7371 9bbe
000002c0: 492b 23bd d01d 2abe 7b53 45be 7726 6b3d
000002d0: 5b27 90be 5420 cdbd 196a 05be 5acf 25be
000002e0: 0293 8dbe c5da e1be ffc8 b1bd 3b18 563e
000002f0: 9da6 003e 7313 853d 51a6 b93d d752 553d
00000300: 709f b63b 8fae 9dbd b83c 7a3e 463e 12bd
00000310: eb40 06be 8999 8d3b 86ae 44be 856d 87bd
00000320: 9170 4bbe 4ff5 11be d819 f53d 883a bf3d
00000330: 04f4 17be f223 393e 7819 783d b15c 23be
00000340: a46c c8bc 48a9 ebbc 6530 04be f371 273c
00000350: fb1f 883c d9a0 fd3d 0b73 0e3e 7f06 aa3d
00000360: d015 9e3d 48f7 c03b d6df 143e ed80 86bd
00000370: 3e8e 563d 97a3 bbbc 1163 093c 2537 acbd
00000380: b801 043e 83ba 5fbe 1bb9 aa3b 0b89 8c3d
00000390: 4d43 03be 415e 9a3e d5a0 23bc 690a 6ebd
000003a0: fde4 fa3d 7b81 3d3d 1285 b3bc 0c98 63bd
000003b0: 535d 013e 83af ae3c 113d aa3d 206d 8b3e
000003c0: ed89 89bc a868 623d a1e5 4abe e6ea ed3d
000003d0: d391 873d 4c2f febd 4663 09bd b2d3 df3d
000003e0: 0914 87bd 11e2 cfbd 8203 03be 7d1b cb3d
000003f0: d3a3 9fbd 8ebc 063c a148 5ebe 5eed ccbc

fc3.bias f4 [128]
-0.028741717 -0.10924838 0.088705845 -0.058971666 -0.03707426 0.12111811 0.0798017 -0.08943719
0.10809445 0.17860682 0.00667918 -0.07363586 -0.009327482 -0.15691842 0.013351639 -0.056805313
0.063046455 0.08179474 0.21343598 -0.13950568 0.005256224 0.0025019995 -0.11225664 -0.12917414
-0.13565691 -0.009698975 -0.05946436 0.053875383 -0.048540253 0.07135563 -0.093822464 0.10362741
-0.15880348 -0.003383569 0.07655612 0.020279225 0.0032837796 -0.038538292 -0.047854494 -0.21790648
-0.011415785 -0.013812015 0.057491086 -0.021053419 -0.107998684 0.021870201 -0.0430132 -0.26321852
0.10901382 -0.2034779 0.03457459 -0.1268219 0.10121728 0.0029745747 0.109132744 0.09447227
-0.13989936 -0.044799034 -0.012258191 -0.068286546 -0.02995837 0.054935142 -0.02540591 -0.024310326
0.00899872 0.001456949 -0.1267639 -0.12737529 -0.08968987 0.06507769 -0.061916586 0.17186414
-0.11954883 0.04808909 0.13133617 0.022729352 0.07118933 -0.0993537 -0.13001671 -0.1606538
-0.12647386 0.061407786 -0.013167448 -0.049402677 -0.037249066 0.035188213 0.010432033 -0.03509971
-0.22216736 -0.031752054 -0.059242155 0.022990689 0.07523033 -0.028906422 -0.11098224 -0.13188015
-0.19321711 0.084838286 -0.03733089 -0.20490089 -0.19416712 0.18406425 -0.056542646 -0.026990233
-0.10129066 0.15035741 0.011750746 -0.04090704 -0.09787024 -0.19711512 -0.093613 -0.1577461
-0.17410086 -0.049475867 0.0947785 0.02835759 -0.05250857 -0.104810305 0.07631264 0.031715687
0.041528266 -0.08627492 0.09742189 -0.11442627 -0.096436605 -0.05092266 -0.067933775 -0.08568915
00000000: c073 ebbc 9dbd dfbd 69ab b53d 468c 71bd
00000010: 2edb 17bd c60c f83d 136f a33d d82a b7bd
00000020: 9f60 dd3d b5e4 363e 06dd da3b 66ce 96bd
00000030: 4cd2 18bc 39af 20be d5c0 5a3c b0ac 68bd
00000040: 801e 813d 0084 a73d f68e 5a3e 94da 0ebe
00000050: 673c ac3b 96f8 233b cfe6 e5bd 3a46 04be
00000060: a5e9 0abe 73e8 1ebc e790 73bd 6fac 5c3d
00000070: 25d2 46bd e722 923d fe25 c0bd 9c3a d43d
00000080: 619d 22be debe 5dbb 74c9 9c3d 9e20 a63c
00000090: ae34 573b 54da 1dbd 1303 44bd e022 5fbe
000000a0: 4609 3bbc ca4b 62bc c67b 6b3d 3878 acbc
000000b0: 6a2e ddbd 2329 b33c 9c2e 30bd 94c4 86be
000000c0: a342 df3d 835c 50be 169e 0d3d 9add 01be
000000d0: 014b cf3d 15f1 423b fd80 df3d ad7a c13d
000000e0: c741 0fbe 317f 37bd 94d6 48bc d1d9 8bbd
000000f0: 416b f5bc ac03 613d 0e20 d0bc 7326 c7bc
00000100: 5e6f 133c 19f7 be3a 65ce 01be ab6e 02be
00000110: 53af b7bd 7447 853d 3f9c 7dbd 27fd 2f3e
00000120: 04d6 f4bd 11f9 443d fd7c 063e e832 ba3c
00000130: b6cb 913d f479 cbbd 1a23 05be 6e82 24be
00000140: 5d82 01be bb86 7b3d 48bc 57bc 765a 4abd
00000150: 7a92 18bd 8421 103d 1eeb 2a3c b7c4 0fbd
00000160: d77f 63be 710e 02bd e7a7 72bd f856 bc3c
00000170: 5c12 9a3d 29cd ecbc a84a e3bd 970b 07be
00000180: b5da 45be b2bf ad3d 46e8 18bd 8ad1 51be
00000190: bfd3 46be 577b 3c3e 4399 67bd 9f1a ddbc
000001a0: 7a71 cfbd 4bf7 193e 3386 403c 248e 27bd
000001b0: 3170 c8bd 8cd8 49be 2cb8 bfbd 3288 21be
000001c0: 7f47 32be 35a7 4abd 3b1b c23d 2d4e e83c
000001d0: 3a13 57bd c9a6 d6bd cd49 9c3d 4fe8 013d
000001e0: 8b19 2a3d e8b0 b0bd 2185 c73d 5258 eabd
000001f0: 8e80 c5bd 4794 50bd dd20 8bbd cb7d afbd

fc4.weight f4 [256, 128]
-0.0546533 0.111223765 -0.023727955 -0.046926856 -0.15327351 0.070898145 -0.16503 0.0111898
0.02974146 -0.0421928 0.050790887 0.024643414 -0.12098211 -0.38516322 0.11354047 -0.056146912
-0.025536612 -0.23027915 0.01083147 -0.040927887 -0.05762963 0.056486167 -0.14905237 0.09852046
0.01849426 0.09286055 -0.25737384 0.032949246 -0.1820819 0.13328357 -0.008415487 -0.18801418
-0.27901068 -0.09266531 -0.11237313 -0.068688676 -0.17533763 0.09603953 -0.12248455 0.12733473
-0.43098256 0.07035706 0.08685203 -0.11210383 0.10348786 0.18980418 -0.13413104 0.2388563
-0.011386042 0.28258848 0.045633588 -0.18319961 -0.038324162 -0.1863846 -0.04679053 -0.22401087
0.027397659 -0.10878725 0.10004375 0.008494501 -0.18585184 0.10964606 -0.1923461 -0.10176304
-0.12909043 0.08348758 -0.14172271 0.08264711 -0.12088919 -0.2305491 -0.1567422 -0.058492314
0.030050125 -0.12113014 -0.008642238 -0.14681788 -0.150959 0.030794453 -0.014377145 0.23017061
0.016635546 0.13754798 0.038559534 0.16953526 -0.14328013 -0.009963972 0.13690999 -0.2559987
0.030813368 -0.039557233 -0.031139808 0.19390126 0.023630382 0.093062975 -0.117120005 -0.07909308
-0.11356277 -0.22917521 0.2041033 -0.09434161 -0.14647523 -0.003324796 0.13681482 -0.09948592
0.08671873 -0.38571396 0.023538075 0.003668041 0.04257632 -0.22751148 0.027300289 -0.052533787
0.2235578 0.09668554 -0.16997202 0.12792785 -0.14698988 -0.060567364 -0.076750286 -0.05151873
0.08898656 0.14262182 -0.13753885 -0.17569478 0.09513179 -0.222888 -0.07660929 0.09541902
-0.069110334 0.067903705 0.050269853 -0.0342904 0.078644566 0.071741946 -0.03847583 -0.1807513
-0.2839115 -0.030798087 0.076694615 0.037504327 0.40424207 0.21134666 -0.25473842 0.021409301
0.08779313 0.026792249 0.13114782 0.0779489 -0.10361886 -0.1267602 0.058757573 -0.04401963
-0.16363022 -0.083923005 -0.119493015 -0.07834077 -0.034099944 0.038687516 -0.27802992 -0.11873227
-0.15364596 -0.25116435 -0.100562714 0.3020968 0.15708199 -0.39984557 -0.07679699 -0.15155938
0.24436748 0.013792536 0.09557047 0.2130473 -0.2621759 -0.10265747 0.20508313 -0.08690205
0.0061214427 -0.063509755 -0.024102148 -0.06768234 0.09746593 -0.1528819 -0.1436637 -0.08996381
0.16051853 -0.17506221 0.20366289 -0.04045426 0.015070211 -0.104598925 -0.17827383 0.08427198
0.008136359 0.14800763 -0.022944711 0.05950918 -0.09001064 -0.106207244 -0.21028152 0.024484081
-0.003014896 0.18395725 -0.099805765 0.1979038 -0.11228403 0.25804627 0.011804431 -0.1932665
-0.1757049 -0.0021207514 -0.0051504797 -0.12767884 0.2747893 -0.014419857 0.013407646 0.14341067
0.2578116 -0.095162645 -0.08035382 -0.07485191 -0.42773882 -0.043470584 0.061276916 -0.21327057
-0.12239871 -0.056649618 -0.025269926 -0.044379465 0.08056369 -0.12256857 -0.15008661 0.15888056
-0.22077882 0.07456814 -0.18256016 0.20518811 0.095804736 -0.19350092 0.1401349 -0.030129954
0.0028787665 -0.0657311 -0.24515834 0.026574494 0.21272536 -0.09037986 0.12357896 -0.008210022
-0.13768426 -0.16549748 0.0037953986 0.11846266 -0.21986926 -0.08233198 0.10535905 -0.01615019
00000000: 24dc 5fbd 49c9 e33d 2161 c2bc 6036 40bd
00000010: bbf3 1cbe 0c33 913d a0fd 28be 6c55 373c
00000020: 5da4 f33c 5cd2 2cbd 1b0a 503d fce0 c93c
00000030: 78c5 f7bd 1d34 c5be e887 e83d 4efa 65bd
00000040: 2832 d1bc 4cce 6bbe 7a76 313c 00a4 27bd
00000050: 0c0d 6cbd 0a5e 673d 2fa1 18be 18c5 c93d
00000060: 4681 973c ac2d be3d 81c6 83be caf5 063d
00000070: ad73 3abe 7d7b 083e 1ce1 09bc ca86 40be
00000080: 7dda 8ebe 4fc7 bdbd e223 e6bd a6ac 8cbd
00000090: b58b 33be 60b0 c43d 2ed9 fabd 0964 023e
000000a0: bfa9 dcbe 5d17 903d 7adf b13d b196 e5bd
000000b0: 71f1 d33d 075c 423e a659 09be bf96 743e
000000c0: 868c 3abc 70af 903e 49ea 3a3d ae98 3bbe
000000d0: ccf9 1cbd 9bdb 3ebe 6da7 3fbd 1b63 65be
000000e0: 0e71 e03c dacb debd bde3 cc3d 852c 0b3c
000000f0: f24f 3ebe 1d8e e03d 60f6 44be 2469 d0bd
00000100: 4830 04be 89fb aa3d c21f 11be e342 a93d
00000110: c094 f7bd 1015 6cbe 0781 20be a395 6fbd
00000120: ae2b f63c 1413 f8bd 2c98 0dbc 6d57 16be
00000130: ff94 1abe a644 fc3c 1e8e 6bbc d8b1 6b3e
00000140: 4547 883c 61d9 0c3e 9af0 1d3d a79a 2d3e
00000150: 07b8 12be ed3f 23bc 2232 0c3e 4312 83be
00000160: 516c fc3c c406 22bd e918 ffbc 0d8e 463e
00000170: 8194 c13c cd97 be3d 9ddc efbd 8dfb a1bd
00000180: 9993 e8bd e8ac 6abe 7500 513e 2d36 c1bd
00000190: 9afd 15be d2e4 59bb 2f19 0c3e 46bf cbbd
000001a0: 9799 b13d 4d7c c5be ecd2 c03c 8463 703b
000001b0: 8264 2e3d c5f8 68be dba4 df3c ab2d 57bd
000001c0: 56ec 643e 1203 c63d 250d 2ebe 85ff 023e
000001d0: 8484 16be 7c15 78bd 412f 9dbd 4e05 53bd
000001e0: 963e b63d 740b 123e fcd6 0cbe 55e9 33be
000001f0: 75d4 c23d c03c 64be 55e5 9cbd 0c6b c33d
00000200: b889 8dbd 1911 8b3d c3e7 4d3d 1774 0cbd
00000210: 6710 a13d 71ed 923d d598 1dbd de16 39be
00000220: d95c 91be 454c fcbc 1112 9d3d 239e 193d
00000230: d1f8 ce3e 426b 583e 136d 82be 8f62 af3c
00000240: e2cc b33d 6b7b db3c 9d4b 063e aca3 9f3d
00000250: 2036 d4bd 6dcd 01be c8ab 703d ed4d 34bd
00000260: ae8e 27be d3df abbd c1b8 f4bd 2071 a0bd
00000270: 62ac 0bbd cd76 1e3d f059 8ebe e829 f3bd
00000280: 5e55 1dbe 9d98 80be d3f3 cdbd 6fac 9a3e
00000290: 1ada 203e 8fb8 ccbe be47 9dbd 6232 1bbe
000002a0: 783b 7a3e 17fa 613c 73ba c33d 1229 5a3e
000002b0: eb3b 86be 143e d2bd 5001 523e b4f9 b1bd
000002c0: 6296 c83b 6711 82bd de71 c5bc 0a9d 8abd
000002d0: 389c c73d 138d 1cbe 941c 13be f23e b8bd
000002e0: f85e 243e 8243 33be 018d 503e 5eb3 25bd
000002f0: 0ce9 763c f637 d6bd 6a8d 36be ca96 ac3d
00000300: 5d4e 053c 508f 173e 8cf6 bbbc e6bf 733d
00000310: 8057 b8bd 2f83 d9bd 0a54 57be d792 c83c
00000320: 9095 45bb 4a5f 3c3e f766 ccbd 4ba7 4a3e
00000330: 2bf5 e5bd a41e 843e 5f67 413c a7e7 45be
00000340: fceb 33be 4efc 0abb 5bc5 a8bb 3ebe 02be
00000350: 2fb1 8c3e 4441 6cbc beab 5b3c 3fda 123e
00000360: e2ff 833e a2e4 c2bd 8b90 a4bd f54b 99bd
00000370: 9500 dbbe 360e 32bd 81fd 7a3d 9a63 5abe
00000380: 2dac fabd 6e09 68bd e002 cfbc 3ec7 35bd
00000390: 93fe a43d 3b05 fbbd 4eb0 19be 96b1 223e
000003a0: d813 62be 2eb7 983d 0df1 3abe d51c 523e
000003b0: 4635 c43d 1b25 46be 867f 0f3e 18d3 f6bc
000003c0: b0a9 3c3b 079e 86bd ca0a 7bbe c1b2 d93c
000003d0: add4 593e 1319 b9bd f716 fd3d 5483 06bc
000003e0: 1afd 0cbe 2c78 29be 39bc 783b 8d9c f23d
000003f0: 6825 61be ab9d a8bd 7cc6 d73d 674d 84bc

fc4.bias f4 [256]
-0.062287148 -0.04797779 -0.1007839 0.16327271 -0.06671952 -0.0595925 -0.12077382 -0.14280303
-0.01111831 -0.06531094 0.012295329 0.1809199 -0.092392705 -0.13695984 0.106323145 -0.06368961
-0.020508742 0.084157795 -0.11283271 -0.06629726 -0.1539025 -0.11093099 -0.017889706 -0.104151525
0.025125893 0.037287448 -0.025349105 -0.049192388 0.06799517 -0.095205404 0.070461296 -0.06415048
-0.14657782 -0.03982598 0.1037763 0.14993666 -0.086897865 -0.15771483 0.11000129 -0.21422407
0.07736034 0.04348454 0.02929279 0.043162413 -0.04672498 -0.021905063 0.00012820061 -0.08911163
-0.055367105 0.12821439 -0.060421538 0.03834118 -0.2295104 -0.1260113 0.03473439 -0.04619791
-0.055364687 -0.20955086 -0.13370815 0.12723035 0.00088584976 0.009278533 -0.12862377 -0.00050266593
-0.023414351 -0.012177138 -0.07820155 0.075412326 -0.122059174 0.09900235 0.18754339 0.024821837
-0.0016791646 -0.07569519 0.16556826 0.2112951 0.12951356 0.09516186 -0.0046307035 -0.08599149
0.009420834 0.013376134 -0.03899294 0.11062812 0.12586443 0.110960744 -0.074269325 0.0066513014
0.04156811 -0.0830282 -0.13294652 -0.048941005 0.11231484 -0.01922714 -0.057596732 -0.0553516
-0.25751224 5.7873636e-05 0.09452856 0.028504774 -0.014217803 0.011616597 0.010920803 -0.28749555
0.06953077 0.18366133 -0.09784707 -0.08096047 -0.12233505 -0.10167198 -0.08907916 0.17862105
0.16089472 -0.12696843 -0.08827089 -0.19552504 -0.07035521 -0.0589028 -0.037073076 0.034527887
-0.048731703 -0.08687669 -0.082193315 -0.14779095 0.00014934203 0.11376376 -0.008658744 -0.021870727
0.115458705 0.048397794 -0.07985244 -0.069714695 -0.02345851 0.08395071 -0.14095445 0.10704004
-0.04028619 -0.1178512 0.031023538 0.033163 -0.13069795 -0.07073096 -0.094367415 -0.20738101
0.09869424 0.024632584 0.028687684 -0.030687913 -0.10384479 -0.105419025 0.09841288 -0.015715359
-0.09314291 -0.11115563 -0.04100935 0.15712838 0.08760199 -0.04055432 -0.27088058 -0.056651864
-0.05218248 0.03526935 -0.06688446 -0.1185765 -0.013432417 -0.07301014 -0.084093966 -0.09746961
-0.059270024 0.04601667 -0.13421595 0.066608205 -0.07627712 -0.13167912 -0.11071016 0.064071216
0.043456733 -0.059347868 0.07657423 -0.046190012 -0.14427489 -0.10772083 -0.03150864 0.17736045
0.0119585795 0.10117944 0.014278474 0.13597915 -0.09370584 -0.16538064 0.089895904 -0.15619859
-0.012436486 -0.18675964 0.06986635 -0.09550081 0.005571142 -0.09941051 0.018717779 -0.18625914
-0.18546186 -0.0694802 0.008127479 -0.15079907 -0.0029257883 -0.12236 0.15563227 0.13013132
-0.18034863 0.14777143 -0.01373275 -0.088077776 -0.03979256 -0.06308191 -0.0032880262 -0.075920284
-0.13118806 -0.03481335 0.02092112 -0.05157343 0.09169985 -0.18453987 0.080734044 0.03757661
0.1513119 0.032719336 -0.11730137 -0.0060298997 0.026254954 -0.1603619 0.19004148 -0.0338554
0.0043902765 -0.041465815 0.15941118 0.030739738 0.16830122 -0.049593132 0.022336608 -0.10349996
-0.14941797 -0.24101327 -0.11859072 -0.04447469 -0.054305214 -0.004277362 -0.0907334 -0.2046568
-0.08666573 0.12218148 0.05987542 -0.09826806 -0.053318925 0.0035233223 0.064799644 -0.03283404
00000000: cf20 7fbd 5c84 44bd ca67 cebd f630 273e
00000010: 3ea4 88bd 4417 74bd 4458 f7bd f53a 12be
00000020: 9229 36bc bec1 85bd 5972 493c 1143 393e
00000030: 6338 bdbd 333f 0cbe f3bf d93d b36f 82bd
00000040: f301 a8bc ec5a ac3d d614 e7bd dcc6 87bd
00000050: 9e98 1dbe c92f e3bd 6f8d 92bc 654d d5bd
00000060: d1d4 cd3c b9ba 183d eda8 cfbc f57d 49bd
00000070: 0d41 8b3d 0dfb c2bd 034e 903d 5461 83bd
00000080: 7f18 16be 9120 23bd ab88 d43d ff88 193e
00000090: 82f7 b1bd ff7f 21be 5b48 e13d 8e5d 5bbe
000000a0: 196f 9e3d d81c 323d 6ff7 ef3c 12cb 303d
000000b0: b162 3fbd 3f72 b3bc 976d 0639 2980 b6bd
000000c0: 9ec8 62bd a24a 033e 937c 77bd a40b 1d3d
000000d0: c604 6bbe 1b09 01be a645 0e3d 053a 3dbd
000000e0: 15c6 62bd 8094 56be caea 08be ac48 023e
000000f0: 5f38 683a fd04 183c f3b5 03be 57c5 03ba
00000100: 74cf bfbc 9e82 47bc 2228 a0bd c771 9a3d
00000110: 29fa f9bd bec1 ca3d 600b 403e 2a57 cb3c
00000120: 6a17 dcba 1406 9bbd ba8a 293e be5d 583e
00000130: 349f 043e 39e4 c23d 28bd 97bb 4e1c b0bd
00000140: d759 1a3c 9327 5b3c 10b7 1fbd ff90 e23d
00000150: 9be2 003e 633f e33d 841a 98bd 29f3 d93b
00000160: 5343 2a3d b00a aabd 2223 08be 5d76 48bd
00000170: 5305 e63d 3c82 9dbc 8dea 6bbd 5cb8 62bd
00000180: a5d8 83be 58bd 7238 3198 c13d d882 e93c
00000190: caf1 68bc 8a53 3e3c 2bed 323c 9e32 93be
000001a0: 2666 8e3d b711 3c3e 0b64 c8bd 9ace a5bd
000001b0: cc8a fabd 6639 d0bd 226f b6bd 70e8 363e
000001c0: 96c1 243e 0304 02be 5ec7 b4bd b737 48be
000001d0: 6416 90bd 1044 71bd f0d9 17bd 1d6d 0d3d
000001e0: e59a 47bd 68ec b1bd f854 a8bd 8356 17be
000001f0: b298 1c39 f9fc e83d 68dd 0dbc 3d2a b3bc
00000200: 9d75 ec3d c43c 463d ad89 a3bd 94c6 8ebd
00000210: 102c c0bc 5aee ab3d 5d56 10be cf37 db3d
00000220: 2203 25bd f85b f1bd 1325 fe3c edd5 073d
00000230: afd5 05be 65db 90bd b443 c1bd b05b 54be
00000240: 3520 ca3d 46ca c93c 6f02 eb3c 3865 fbbc
00000250: 94ac d4bd eee5 d7bd b18c c93d 7fbd 80bc
00000260: b6c1 bebd 90a5 e3bd 6cf9 27bd 43e6 203e
00000270: ac68 b33d 491c 26bd dcb0 8abe c90b 68bd
00000280: 4cbd 55bd 9876 103d b8fa 88bd 3cd8 f2bd
00000290: a413 5cbc 5786 95bd 7539 acbd 269e c7bd
000002a0: 20c5 72bd fa7b 3c3d e86f 09be e269 883d
000002b0: 2e37 9cbd e4d6 06be 02bc e2bd c537 833d
000002c0: b0ff 313d c016 73bd f3d2 9c3d bd31 3dbd
000002d0: ccbc 13be bd9c dcbd 340f 01bd fa9d 353e
000002e0: ebed 433c 2b37 cf3d 43f0 693c 1e3e 0b3e
000002f0: d9e8 bfbd 8b59 29be 581b b83d 86f2 1fbe
00000300: 67c2 4bbc eb3d 3fbe 1716 8f3d ee95 c3bd
00000310: 208e b63b bd97 cbbd 0756 993c b7ba 3ebe
00000320: b7e9 3dbe a34b 8ebd 1e29 053c 126b 1abe
00000330: 95be 3fbb e197 fabd 115e 1f3e 2541 053e
00000340: 50ad 38be 6551 173e 54ff 60bc 1f62 b4bd
00000350: 86fd 22bd 1731 81bd ed7b 57bb 187c 9bbd
00000360: 2a56 06be 7198 0ebd c562 ab3c a93e 53bd
00000370: 22cd bb3d 05f8 3cbe e457 a53d eee9 193d
00000380: 82f1 1a3e b604 063d b33b f0bd 7796 c5bb
00000390: a114 d73c e935 24be 3c9a 423e f6ab 0abd
000003a0: 4fdc 8f3b 0fd8 29bd af3c 233e e7d1 fb3c
000003b0: 2857 2c3e 2b22 4bbd 43fb b63c c9f7 d3bd
000003c0: 0601 19be 2fcc 76be b1df f2bd 182b 36bd
000003d0: 256f 5ebd 1d29 8cbb 6fd2 b9bd 8d91 51be
000003e0: cd7d b1bd 493a fa3d ee3f 753d c440 c9bd
000003f0: f264 5abd 8ae7 663b adb5 843d fc7c 06bd

fc5.weight f4 [256, 256]
-0.2646514 -0.12710564 -0.008241551 -0.12268445 -0.22896758 -0.061074797 -0.04382659 -0.0005608628
-0.11511317 -0.03732469 -0.044723995 0.020213535 0.07000399 -0.046080653 0.029199762 0.07957959
-0.08047234 0.06497202 -0.062002964 -0.057526898 -0.16833243 0.07779752 0.010171456 -0.05920274
-0.027028631 0.016720725 -0.03263016 0.030880315 -0.37307408 -0.2517256 -0.016431026 -0.02486302
0.0054644654 -0.11271534 -0.058448356 -0.029850882 -0.28036168 -0.031725306 -0.038362324 0.016690712
-0.040560707 -0.07718478 -0.04654291 -0.08486448 -0.017214723 -0.064766064 -0.008467178 -0.019153267
0.0009207343 0.03823582 -0.01888694 -0.013977883 -0.14593317 -0.13904174 -0.12415882 0.02491349
-0.10508298 0.03957466 -0.15282857 -0.1033254 -0.13714904 -0.054746177 -0.021776337 -0.26636642
-0.084121995 -0.033523504 -0.042840615 0.077478 -0.052494477 0.066708185 -0.010704688 -0.19210291
-0.0020621978 -0.121339306 0.009299977 -0.030688964 -0.04791747 -0.05626854 -0.12035819 -0.059522226
0.012882285 -0.09642987 -0.0017827196 -0.044272624 -0.15755804 -0.0069797523 -0.1518252 -0.003048774
-0.119622014 -0.09561542 -0.13637117 -0.012269648 0.011533052 0.052686714 0.0050884103 -0.14381722
-0.13881649 -0.119466156 -0.08123988 0.094308734 -0.118582726 -0.04623341 -0.066449665 -0.15702845
0.0010286809 -0.12721811 0.041342683 -0.095714435 -0.036163118 -0.14035794 0.074268274 -0.081429146
-0.0195232 -0.059033226 -0.029259285 0.048940934 0.0090125045 0.12306218 -0.06311047 0.055492837
-0.042345345 0.052978173 -0.07062671 -0.16038433 -0.048602436 0.007644583 0.111103274 0.12354047
-0.010709584 0.03949997 -0.15828693 0.006061127 0.15021406 0.01831497 0.088683195 -0.050416645
-0.013933452 -0.0042635878 -0.07525908 -0.1972619 0.025997566 0.04731548 0.039262526 -0.05262005
0.14100064 -0.013768347 -0.007687745 0.004343657 0.0101776095 -0.0032144769 -0.07722243 -0.09662933
-0.07569259 -0.07260723 0.027066434 -0.047891237 -0.146817 -0.021311624 -0.1958156 -0.08375516
-0.053079255 -0.05836447 -0.14657696 -0.06902412 -0.014303622 -0.20638219 0.009728744 -0.06093359
-0.018038314 0.029975155 -0.09165562 0.021213053 -0.108915456 -0.050593257 -0.010336721 0.058800835
0.0017447704 -0.12906085 -0.03552476 -0.03856761 -0.13282478 -0.057533003 -0.116730586 -0.08591289
0.013143136 0.09132227 -0.014299063 -0.08618636 0.0054035583 -0.05186149 0.029428566 -0.04402807
0.082940064 -0.054325387 -0.040913492 0.043358278 -0.025984408 0.08538484 0.04912 0.020683328
-0.12674382 -0.052562576 -0.03803149 0.065491185 -0.2613562 -0.002863954 -0.091032304 -0.043735985
0.026024139 -0.113113455 -0.0041159946 -0.022903228 -0.105716705 -0.038452648 -0.04546469 -0.19416264
-0.0063461456 -0.01271037 0.015843406 0.10093715 0.009801044 -0.04036807 -0.03663324 -0.10517314
0.004521644 -0.083301015 -0.033798147 -0.08235543 0.047133446 -0.043583244 -0.014374585 0.024901561
-0.04805306 -0.14993745 -0.023019275 -0.009785134 -0.037616264 -0.025516445 -0.04765516 -0.00617234
-0.13896525 -0.066717066 -0.102545306 0.18761022 0.013476526 0.07690536 -0.06108292 -0.09802215
-0.053388648 -0.08540271 -0.108414136 0.03968295 -0.041406497 -0.099573515 0.019742971 -0.03641486
00000000: 6380 87be fb27 02be 9207 07bc fc41 fbbd
00000010: 7a76 6abe 9129 7abd 8383 33bd de06 13ba
00000020: 74c0 ebbd c6e1 18bd 8230 37bd db96 a53c
00000030: 405e 8f3d 11bf 3cbd 5734 ef3c a0fa a23d
00000040: afce a4bd 0d10 853d d2f6 7dbd 53a1 6bbd
00000050: 565f 2cbe 4e54 9f3d 2ea6 263c 937e 72bd
00000060: 266b ddbc e7f9 883c 34a7 05bd b7f8 fc3c
00000070: 9103 bfbe 2ee2 80be 5c9a 86bc 88ad cbbc
00000080: 420f b33b 4dd7 e6bd 8b67 6fbd d689 f4bc
00000090: 918b 8fbe 65f2 01bd d021 1dbd f6ba 883c
000000a0: fc22 26bd 0e13 9ebd c7a3 3ebd 6ecd adbd
000000b0: e405 8dbc 12a4 84bd ebb9 0abc 50e7 9cbc
000000c0: 6f5d 713a 2a9d 1c3d c9b8 9abc 7e03 65bc
000000d0: 816f 15be f560 0ebe fb46 febd 6017 cc3c
000000e0: bf35 d7bd 0a19 223d 187f 1cbe 449c d3bd
000000f0: cc70 0cbe 873d 60bd 4a64 b2bc 2e61 88be
00000100: 2748 acbd f14f 09bd a479 2fbd c9ac 9e3d
00000110: 7304 57bd 4d9e 883d b762 2fbc a0b6 44be
00000120: f025 07bb be80 f8bd ee5e 183c 6c67 fbbc
00000130: 1c45 44bd d779 66bd 5b7e f6bd 94cd 73bd
00000140: 3810 533c 067d c5bd 25aa e9ba 3657 35bd
00000150: e556 21be 68b6 e4bb 1178 1bbe f1cd 47bb
00000160: 63fc f4bd 04d2 c3bd e2a4 0bbe a206 49bc
00000170: 20f5 3c3c 06ce 573d aebc a63b d244 13be
00000180: e925 0ebe acaa f4bd 1861 a6bd f024 c13d
00000190: 80db f2bd 3e5f 3dbd c316 88bd 11cc 20be
000001a0: ced4 863a 7745 02be f256 293d ee05 c4bd
000001b0: c71f 14bd feb9 0fbe f719 983d 53c4 a6bd
000001c0: 1eef 9fbc d3cc 71bd 2bb1 efbc 4a76 483d
000001d0: 2fa9 133c 0608 fc3d 1040 81bd 754c 633d
000001e0: 5072 2dbd a4ff 583d bda4 90bd ca3b 24be
000001f0: 5913 47bd 697f fa3b 1d8a e33d c902 fd3d
00000200: 4077 2fbc b8ca 213d f815 22be 6b9c c63b
00000210: b7d1 193e 4709 963c 899f b53d af81 4ebd
00000220: 2249 64bc 91b5 8bbb 6f21 9abd 06ff 49be
00000230: d9f8 d43c e0cd 413d bed1 203d 1f88 57bd
00000240: 7962 103e a294 61bc 7be9 fbbb 3c55 8e3b
00000250: fdbf 263c f9a9 52bb cb26 9ebd 99e5 c5bd
00000260: b704 9bbd 19b3 94bd 6dba dd3c 9a29 44bd
00000270: 3257 16be b795 aebc e283 48be d387 abbd
00000280: a269 59bd 950f 6fbd 4518 16be 855c 8dbd
00000290: bd59 6abc da55 53be 4f65 1f3c 8095 79bd
000002a0: 16c5 93bc 758e f53c f1b5 bbbd ffc6 ad3c
000002b0: 110f dfbd e03a 4fbd 5a5b 29bc 25d9 703d
000002c0: c8b0 e43a 8728 04be 6982 11bd 12f9 1dbd
000002d0: 3803 08be baa7 6bbd 7210 efbd 19f3 afbd
000002e0: 4f56 573c 2c07 bb3d 9e46 6abc 7982 b0bd
000002f0: 5510 b13b b76c 54bd 2d14 f13c c756 34bd
00000300: 7bdc a93d 4c84 5ebd e894 27bd 7398 313d
00000310: 41dd d4bc 3fde ae3d 0e32 493d 1570 a93c
00000320: 22c9 01be db4b 57bd e8c6 1bbd 3e20 863d
00000330: 7bd0 85be 2db1 3bbb 256f babd 8124 33bd
00000340: 9330 d53c 07a8 e7bd 77df 86bb 8d9f bbbc
00000350: 0082 d8bd 8680 1dbd 2f39 3abd 92d2 46be
00000360: 54f3 cfbb 283f 50bc 08ca 813c 23b8 ce3d
00000370: 8f94 203c fd58 25bd bc0c 16bd 0465 d7bd
00000380: 4d2a 943b b999 aabd ed6f 0abd f7a9 a8bd
00000390: 000f 413d 5884 32bd 6183 6bbc 5cfe cb3c
000003a0: 49d3 44bd 3489 19be eb92 bcbc d451 20bc
000003b0: 8313 1abd dd07 d1bc 0f32 43bd 5741 cabb
000003c0: e84c 0ebe f5a2 88bd 4603 d2bd e51c 403e
000003d0: a6cc 5c3c 8f80 9d3d 1532 7abd d6bf c8bd
000003e0: 0eae 5abd 9ee7 aebd 3b08 debd 978a 223d
000003f0: dc99 29bd 33ed cbbd 03bc a13c c027 15bd

fc5.bias f4 [256]
0.04885183 0.010804208 -0.03859726 -0.008354349 0.012269638 0.19646119 -0.0052652955 0.06586543
0.16661987 -0.08458768 -0.11581123 0.058660384 -0.051771857 0.0794933 -0.11231424 -0.032551035
0.25063208 -0.08047546 -0.05468643 0.05953465 0.22872111 -0.06451544 -0.0559149 0.09181096
-0.2597578 -0.053066544 0.058603268 0.017092915 0.09717831 -0.025546173 -0.02633892 0.08887336
-0.039522137 -0.07694801 0.20342971 -0.015086634 -0.15215011 0.08640648 0.017774995 0.08145238
-0.020241767 -0.073920555 -0.04277562 0.12444536 -0.08535539 -0.008930582 0.0014140161 0.07212582
-0.10153418 -0.02388211 -0.08982394 -0.06628218 -0.045639336 -0.0005333225 -0.004462101 -0.055970497
-0.21349797 0.16199476 0.088625364 -0.12295968 -0.12947378 -0.07452842 0.04041178 -0.040243637
0.27891973 -0.03470122 -0.050822433 -0.1184849 0.15826435 0.02011181 0.022128215 0.12401746
-0.07192624 0.14664534 0.11269794 -0.03596266 -0.043462314 0.04644347 -0.029579604 -0.1392216
0.16697067 -0.05235564 0.044808853 0.044629917 -0.086290225 -0.12070294 -0.004935751 -0.060921334
-0.028145464 -0.0905739 -0.046507128 0.16514157 -0.100392915 -0.055073757 -0.049142487 0.18056127
0.03006252 -0.049870413 -0.05428932 -0.065107085 -0.023105454 0.08047112 -0.22613049 -0.052464377
-0.039090052 -0.005253477 -0.056923825 0.18027397 0.06378741 0.07568403 0.15354308 0.13288411
0.03527302 0.04238679 0.25171745 -0.008937039 -0.006157153 0.03761845 0.20539907 -0.03568731
0.004892057 -0.053625636 0.079116 -0.034254156 -0.01014778 0.17432562 -0.02500224 0.05239708
-0.09392871 -0.07887312 -0.00675321 -0.076457255 0.05642505 0.107428275 -0.10816333 -0.020148562
-0.048738375 -0.02434883 0.04576887 -0.0118466485 0.02737484 -0.088322476 0.09155372 -0.008290241
0.119171984 0.034821637 0.016381864 0.212954 0.15425275 0.0355625 0.20070665 -0.019806447
-0.15812661 0.1750674 0.07515784 -0.080288485 -0.027681539 -0.009030428 0.12822753 0.015009509
-0.0117842555 0.12535702 0.081258364 0.038801074 -0.0026721205 -0.09157906 -0.05548325 -0.093715735
0.04603388 0.010466275 -0.1415617 -0.061493795 -0.06262009 0.29078034 -0.037178673 0.08064672
-0.15599169 0.18702887 -0.021202723 0.084135085 -0.063977815 0.018386085 0.16161719 -0.01484467
-0.069398426 -0.07612617 0.0068690665 0.012656467 -0.054836694 0.10129203 -0.0072999294 -0.14733505
0.14152102 -0.0022470243 0.14943814 -0.0317834 -0.0023402604 -0.011256842 0.035551503 0.22147797
0.090168454 -0.05983852 0.02280107 -0.008932186 0.28482622 0.14159127 0.09209069 0.118389145
-0.05079754 -0.15598832 -0.074919514 0.01014675 -0.0008752427 -0.045084916 -0.058688585 -0.05588147
0.13023724 -0.00044227648 0.0031265074 0.118378185 -0.038038645 0.156088 0.22370356 0.012149411
0.04671557 -0.057914402 -0.07242766 0.03728483 -0.031724554 -0.05279497 0.1487933 -0.0070867497
0.09639372 -0.07226685 -0.12304129 0.0181519 -0.021179643 -0.12125307 -0.028305408 0.079528585
-0.007935914 0.08824774 0.10552411 0.08658719 0.031234266 0.102927834 0.04330473 0.013390717
-0.053939354 -0.062039763 0.16708353 0.16883793 -0.10052389 -0.090783596 -0.08639616 -0.09123716
00000000: db18 483d 2204 313c 2918 1ebd aee0 08bc
00000010: 9706 493c 1f2d 493e 8088 acbb 74e4 863d
00000020: 669e 2a3e 4e3c adbd 702e edbd df45 703d
00000030: ba0e 54bd 62cd a23d 0205 e6bd 3c54 05bd
00000040: d952 803e 51d0 a4bd e1fe 5fbd 9bda 733d
00000050: de35 6a3e ac20 84bd 0607 65bd 6207 bc3d
00000060: f9fe 84be 4e5c 59bd fb09 703d 7106 8c3c
00000070: 6c05 c73d 3546 d1bc b8c4 d7bc 3c03 b63d
00000080: f7e1 21bd eb96 9dbd e14f 503e ee2d 77bc
00000090: 3dcd 1bbe e1f5 b03d de9c 913c 81d0 a63d
000000a0: 10d2 a5bc a963 97bd 7d35 2fbd 35dd fe3d
000000b0: cfce aebd 9351 12bc 8256 b93a b4b6 933d
000000c0: 27f1 cfbd 6aa4 c3bc 9df5 b7bd f4be 87bd
000000d0: 50f0 3abd abce 0bba d136 92bb 5241 65bd
000000e0: 369f 5abe f4e1 253e 3781 b53d 49d2 fbbd
000000f0: c694 04be 5ba2 98bd d386 253d 83d6 24bd
00000100: 91ce 8e3e de22 0ebd 2f2b 50bd 36a8 f2bd
00000110: 0d10 223e 86c1 a43c 3b46 b53c defc fd3d
00000120: 114e 93bd 322a 163e 2dce e63d 954d 13bd
00000130: 8a05 32bd 823b 3e3d ed50 f2bc 1b90 0ebe
00000140: 5cfa 2a3e de72 56bd 7d89 373d dccd 363d
00000150: eeb8 b0bd 1a33 f7bd 15bc a1bb a688 79bd
00000160: 5191 e6bc cf7e b9bd 427e 3ebd df1a 293e
00000170: cd9a cdbd 0595 61bd a249 49bd 0ee5 383e
00000180: ad45 f63c eb44 4cbd 7a5e 5ebd dd56 85bd
00000190: a647 bdbc 0bce a43d c08e 67be e3e4 56bd
000001a0: e41c 20bd 5c25 acbb f528 69bd bd99 383e
000001b0: f9a2 823d 3b00 9b3d 663a 1d3e c612 083e
000001c0: 717a 103d c59d 2d3d 1ce1 803e a96c 12bc
000001d0: f1c1 c9bb ce15 1a3d 2254 523e db2c 12bd
000001e0: 8c4d a03b 8ea6 5bbd 9207 a23d 164e 0cbd
000001f0: e042 26bc 6a82 323e 7fd1 ccbc 529e 563d
00000200: b25d c0bd 3b88 a1bd 084a ddbb 9f95 9cbd
00000210: f41d 673d 5b03 dc3d bc84 ddbd 990e a5bc
00000220: e4a1 47bd 3377 c7bc 2378 3b3d 7218 42bc
00000230: 3341 e03c 6ae2 b4bd 8480 bb3d cad3 07bc
00000240: 7110 f43d 22a1 0e3d 4233 863c 9d10 5a3e
00000250: 6ff4 1d3e fca9 113d 0b86 4d3e 2141 a2bc
00000260: f1eb 21be de44 333e 5bec 993d 4a6e a4bd
00000270: 65c4 e2bc 5cf4 13bc 144e 033e 72ea 753c
00000280: c012 41bc 975d 003e c96a a63d e0ed 1e3d
00000290: be1e 2fbb cd8d bbbd 6842 63bd 09ee bfbd
000002a0: 068e 3c3d bd7a 2b3c 8df5 10be ebe0 7bbd
000002b0: f63e 80bd 29e1 943e aa48 18bd 1c2a a53d
000002c0: 49bc 1fbe 7f84 3f3e 55b1 adbc 044f ac3d
000002d0: cd06 83bd 6a9e 963c fa7e 253e 0f37 73bc
000002e0: c320 8ebd 0ae8 9bbd e815 e13b 125d 4f3c
000002f0: 719c 60bd 3272 cf3d 3f34 efbb 00df 16be
00000300: e3ea 103e d042 13bb 5006 193e 4f2f 02bd
00000310: 0e5f 19bb 9e6e 38bc 749e 113d 1fcb 623e
00000320: 3daa b83d 3c19 75bd 4fc9 ba3c 4e58 12bc
00000330: bed4 913e 4dfd 103e 0b9a bc3d 0276 f23d
00000340: 1511 50bd 67bb 1fbe 676f 99bd 8e3e 263c
00000350: 8b70 65ba f6aa 38bd 7163 70bd f8e3 64bd
00000360: e95c 053e 58e1 e7b9 17e6 4c3b 4370 f23d
00000370: 69ce 1bbd 88d5 1f3e 8c12 653e 530e 473c
00000380: d358 3f3d a737 6dbd f454 94bd fab7 183d
00000390: 9bf1 01bd 8a3f 58bd 455d 183e f737 e8bb
000003a0: 126a c53d a400 94bd 12fd fbbd 4bb3 943c
000003b0: ee80 adbc 8853 f8bd bee0 e7bc e2df a23d
000003c0: a305 02bc 3bbb b43d 061d d83d a054 b13d
000003d0: 01df ff3c d4cb d23d 4d60 313d bd64 5b3c
000003e0: 83ef 5cbd 681d 7ebd f217 2b3e dae3 2c3e
000003f0: 78df cdbd c0ec b9bd 78f0 b0bd 8cda babd
