SAC/actor_v3.pth (torch, 446267 bytes, 14 tensors)

fc1.weight f4 [32, 9]
000000 0b 71 64 3d 00 e5 0a 3e e4 3b ea be 47 70 87 be
       0.05577187 0.13563919 -0.45748818 -0.26452848
000010 01 33 99 bd f4 ed 0d 3d 62 9b 81 be c4 ec 09 3f
       -0.07480431 0.034650758 -0.2531386 0.538769
000020 a8 d7 02 be 95 36 39 3e 1b 44 34 be 73 7b 4e 3e
       -0.12777579 0.18087228 -0.17604105 0.2016428
000030 8e 77 3d be 52 85 07 be 9d 5c 08 be 86 ce a9 3c
       -0.18502638 -0.13234451 -0.13316579 0.02072836
000040 8d 7b d6 bd 92 f2 e2 3d 9d 90 a5 be 3e 9b 98 be
       -0.10472784 0.11081423 -0.32336894 -0.2980594
000050 ea c2 cf 3e 90 94 9e 3e 15 c6 74 bd 6a 64 3a 3e
       0.40578395 0.3097272 -0.05975922 0.18202367
000060 68 84 98 3d 7a d6 03 3d 27 34 90 3e 53 c1 09 bf
       0.074471295 0.032186963 0.2816479 -0.53810614
000070 81 a2 0a be 86 5e 01 3e 09 c6 11 be 9d 04 66 3e
       -0.13538553 0.12633714 -0.142357 0.22462697
000080 70 60 56 be bb 40 3c bd c6 3b 23 bf 78 a1 9c be
       -0.20935225 -0.04596017 -0.6376308 -0.3059194
000090 d5 0f 83 be ab 05 48 3e 87 cd f5 bc 5a 64 b8 3e
       -0.25598016 0.19533412 -0.03000523 0.36014062
0000a0 36 9a 32 3d 2e 20 92 be a4 55 f0 3d 91 fc aa be
       0.0436041 -0.28540176 0.11735085 -0.33395818
0000b0 de da 1c be f9 3f 10 bf 0f 78 86 3e 22 0f 46 be
       -0.15317866 -0.56347615 0.26263472 -0.1934171
0000c0 8b 38 a8 bd fb 12 d0 bb da 62 2a 3e bd 03 d2 3e
       -0.0821391 -0.006349919 0.16639271 0.41018477
0000d0 d0 81 f6 3d a4 35 17 3d 9a 1d 39 3f 54 40 3c be
       0.120364785 0.03691639 0.72310793 -0.18383914
0000e0 da 5f c5 3d 30 08 9f be 2f c4 2a be b9 18 49 be
       0.09637423 -0.31060934 -0.166764 -0.19638337
0000f0 f3 ec f5 bd d4 0b 26 bd a9 17 73 be 22 b0 6b 3c
       -0.12008085 -0.040538624 -0.23739494 0.014385255
000100 52 9e 75 3e 34 80 54 3e c5 83 7f 3d 25 5f 1a 3e
       0.23986176 0.2075203 0.062381525 0.15075357
000110 d7 5e 93 3e 8e 12 84 3e ef 45 a5 be 2d e7 0c be
       0.28783295 0.25795406 -0.32279918 -0.13760062
000120 df b7 c3 3e 55 b8 92 3d 5a dd bd 3e 93 d7 a9 3e
       0.3822622 0.07164065 0.3708294 0.33172283
000130 56 22 b9 3d b2 bf a6 be f8 38 23 3e 8a 7a ee be
       0.09039752 -0.32568127 0.159397 -0.46577865
000140 88 24 89 be ec d8 0a 3f 99 2b 9d 3e e2 69 fe be
       -0.26785684 0.54237247 0.30697325 -0.49690157
000150 d5 82 56 3d c7 13 2c bd ac 94 49 bd fc ec 15 be
       0.052370865 -0.04201105 -0.04921405 -0.14641184
000160 83 51 c0 3d 09 09 7a be 0a 4c 99 3e 96 9c 29 3e
       0.09390547 -0.24417509 0.29940826 0.16563639
000170 58 15 1b 3f 70 e2 50 3e 0b e5 93 be cb 67 6a be
       0.6057944 0.20398879 -0.28885683 -0.22891156
000180 02 3c 79 3e 2d c6 3d be 6a ca 36 be 27 73 3f bf
       0.24339297 -0.1853263 -0.17850652 -0.74785084
000190 91 99 c2 3e 9b fd f1 bc 35 6f fc bd f3 e9 ca bd
       0.38007787 -0.029539874 -0.123258986 -0.099079035
0001a0 49 18 8a be 27 18 8a 3e a1 64 c7 bd 5e ee 7b be
       -0.26971653 0.26971552 -0.0973599 -0.24602649
0001b0 e0 36 60 be c6 82 95 3d a5 f3 3b be 22 94 58 3e
       -0.21895933 0.07300334 -0.18354662 0.21150258
0001c0 32 a8 29 be 80 10 8d 3e 4f af f4 3e 3d b3 00 bf
       -0.16568068 0.2755165 0.4779 -0.50273496
0001d0 d4 7a 92 bd c5 42 0b bc 41 7d d0 bd cb 5a c5 3e
       -0.07152334 -0.008499806 -0.1018014 0.38545832
0001e0 51 33 9e 3d 38 a2 b2 3d 49 48 36 be 21 27 d6 3e
       0.077246316 0.08722347 -0.17801012 0.41826728
0001f0 fc be 96 be 18 bb 39 be fe 01 c8 be e7 65 cf bd
       -0.29442585 -0.18137777 -0.3906402 -0.10126858
000200 a0 98 75 bd e4 22 4f be d6 58 34 3d 77 5a 56 3d
       -0.059960008 -0.20228153 0.044030033 0.052332368
000210 79 f7 09 bf c5 d2 aa be f8 76 8c 3e 25 22 2a be
       -0.5389324 -0.3336393 0.27434516 -0.16614588
000220 0d e2 ce 3d be f5 a5 be cc 24 3f 3d 22 1c 29 3e
       0.101017095 -0.3241405 0.04666595 0.16514638
000230 6e 84 3e 3e 19 b1 b8 3e 71 a5 49 3f b8 51 05 3d
       0.18605205 0.36072615 0.7876807 0.032548636
000240 ee 7e ef be ae 90 6e be 1e aa 1e 3f 23 41 1d be
       -0.46776527 -0.23297378 0.6197833 -0.15356879
000250 77 aa 11 be c3 08 5a be a5 51 1e be 24 8e 2c be
       -0.14225183 -0.21292405 -0.15460832 -0.16851097
000260 47 64 77 3d 78 89 b8 3e 02 61 67 3e bc 32 85 be
       0.060398366 0.3604238 0.225956 -0.2601527
000270 02 37 64 3e 0a 81 53 be e2 0c 35 bd 6f 12 d1 bd
       0.22286609 -0.20654693 -0.04420174 -0.10208594
000280 1a 04 62 be 45 c7 b1 bd 20 5a f9 be a7 f1 8e be
       -0.22071877 -0.08680586 -0.48701572 -0.2791874
000290 12 e4 97 be d8 9c 11 bb e1 5e e9 bd ca f4 dc 3d
       -0.2966619 -0.002221873 -0.1139505 0.10788877
0002a0 46 50 03 bf 9e 5b b0 bd 4d 02 a2 3e e4 5f d1 be
       -0.5129436 -0.086112246 0.3164238 -0.4089347
0002b0 ae 7f a3 3e 34 f1 a8 bc 69 86 69 be ca 3b f0 3d
       0.3193335 -0.020622827 -0.2280518 0.11730154
0002c0 b0 90 f0 bb 90 1f be be 13 14 41 3f 52 80 a1 be
       -0.007341467 -0.37133455 0.75421256 -0.31543213
0002d0 9a a1 11 3e 78 a9 a1 be c0 0c de 3e 24 9f bb 3c
       0.14221802 -0.31574607 0.43369102 0.022903033
0002e0 52 47 85 3d 90 70 47 3e c0 8f b9 be 1d cb d8 3d
       0.06507744 0.19476533 -0.36242485 0.10585616
0002f0 8f 5f 86 be a3 27 08 3f 3d 04 2d 3e a5 ae 0f 3f
       -0.2624478 0.5318548 0.16896148 0.5612586
000300 4c ba 1e be 47 84 02 bc f0 59 cd bd 79 a8 09 bf
       -0.15500754 -0.007966108 -0.1002692 -0.53772694
000310 67 2e 0d bf 37 e8 fd 3d 01 06 41 be d1 8a 86 3d
       -0.5514893 0.12397807 -0.18849947 0.06569446
000320 7e 9b 8c be 28 42 55 3e 9e 6f 82 be e6 3f 85 be
       -0.2746238 0.20826018 -0.25475782 -0.26025313
000330 ed f2 28 bf d7 65 9d 3e 04 84 96 3d 30 fd 50 3f
       -0.65995675 0.3074176 0.07349399 0.81636333
000340 3e 14 ba 3d e4 2b 96 3e 30 07 8b bb c6 18 e0 3c
       0.09085892 0.2933036 -0.0042428 0.027355563
000350 1b 93 3a 3c 01 56 eb be 94 e6 90 be 01 90 6d 3d
       0.011387612 -0.45964053 -0.28300917 0.05799866
000360 a9 1b c5 be b8 e9 99 be 3e 69 1f 3f 04 9b a4 be
       -0.38497666 -0.30061126 0.6226996 -0.32149518
000370 54 81 d8 3d f1 67 70 3e 2d 98 c1 3d 65 06 05 bd
       0.105715424 0.2347715 0.09452853 -0.0324768
000380 77 f5 69 be 55 1e b5 3e 26 91 a3 be b2 4d f1 be
       -0.22847544 0.35374704 -0.31946677 -0.4712959
000390 cc 6e 1b bd 73 51 df bc 23 dc df bc 30 8f d5 3e
       -0.03794746 -0.027260518 -0.027326649 0.41710806
0003a0 a6 c3 a5 3e 8c c6 7d 3e 39 c4 0c 3f 32 18 92 be
       0.3237583 0.24782771 0.5498691 -0.28534085
0003b0 b6 34 11 3f dc df 62 be 9e 33 27 bd 56 94 95 3d
       0.56721056 -0.22155708 -0.04082071 0.073036835
0003c0 e7 1e 92 bc 6d 2e 54 3d 28 49 ce bd 83 2a 96 be
       -0.017837001 0.051802088 -0.10072547 -0.2932931
0003d0 a0 59 a2 3e b5 11 03 bf 97 30 90 3e 01 f0 1e be
       0.31709003 -0.51198894 0.2816207 -0.15521242
0003e0 5f d9 16 be 48 de 92 3e 48 74 b7 bd 6a 2e 39 bc
       -0.14731358 0.28685212 -0.08957726 -0.01130257
0003f0 a0 c3 09 3f 55 88 3c be d9 ba 50 3e 03 5e 2b be
       0.53814125 -0.18411382 0.20383777 -0.16735081

fc1.bias f4 [32]
000000 d6 9b 32 be 1f 06 d5 bd a9 8f 64 be 56 ba f3 3d
       -0.17442259 -0.10401558 -0.22320427 0.11900775
000010 2c b3 45 3e b7 a1 75 bc 69 58 eb bd f7 37 62 be
       0.1930663 -0.014992169 -0.11491472 -0.22091661
000020 ca ee 8b 3e 50 fb 96 be 8b 4e 5f 3e 2a d7 ce bd
       0.2733062 -0.2948861 0.21807306 -0.10099633
000030 88 f8 18 be 6c cb 9b 3d 92 b9 0c be 8b a8 08 3e
       -0.14938557 0.07607159 -0.13742664 0.13345544
000040 b0 1c 46 3e 5e a7 89 be 77 58 a1 3d 03 6d c4 3d
       0.19346881 -0.26885504 0.078782015 0.09591105
000050 e7 ad 13 3e d5 a7 02 bd 2c b8 a3 bd ac 1c 13 bd
       0.14421807 -0.03189834 -0.07994112 -0.035916016
000060 fe 62 34 3e 49 80 30 be 75 4e 08 3e f9 9f 2a 3e
       0.17615888 -0.17236437 0.13311179 0.16662587
000070 2f aa 5a be 57 be ba 3c fa 84 a0 3e 74 1c c7 bd
       -0.21353982 0.02279584 0.31351453 -0.09722224

fc2.weight f4 [64, 32]
000000 a4 00 e8 ba 88 10 85 bc 77 53 30 be bc 18 c1 bd
       -0.0017700386 -0.016243234 -0.1721934 -0.09428546
000010 c9 1d 06 3e d3 29 81 3d cc 94 30 3e d1 ab 15 be
       0.130973 0.063068055 0.17244262 -0.14616324
000020 43 82 53 3d 63 24 a6 bd b4 eb 61 bd a7 61 9d be
       0.0516379 -0.08112409 -0.055156425 -0.30738565
000030 9a 6d a4 3d e7 8d 81 3d 72 7a 6f be b7 40 15 3d
       0.08028717 0.06325894 -0.23386553 0.03643867
000040 c6 8a 4d be 5f cb f5 3d cb 3c 1a 3e c4 9e 2b 3d
       -0.20072469 0.120016806 0.15062253 0.041899458
000050 cc ff 4e bc 2d ec 32 be 73 8f 66 3e ac 2c cb 3d
       -0.012634229 -0.17472906 0.22515659 0.0992063
000060 aa d5 a8 be 11 7f 90 3e 2f ab 9a 3d df d9 0d 3e
       -0.32975513 0.28221944 0.07552182 0.13852642
000070 44 f4 b3 bd 7f c6 30 3e ab f4 98 bd 7a 17 e8 3c
       -0.08786824 0.1726322 -0.07468542 0.028331507
000080 07 fb 86 3d d0 b8 9d 3d d7 28 20 be 58 49 f8 bd
       0.065908484 0.07701266 -0.15640579 -0.12123364
000090 0a f6 87 bd 2d 36 e9 3d 84 be 09 be 9c e4 8b bc
       -0.06638725 0.11387286 -0.13451582 -0.017076783
0000a0 b2 65 86 be 91 aa 1d bd 47 5e 41 be 42 1a 09 3e
       -0.26249462 -0.038492743 -0.1888362 0.13388923
0000b0 b3 cb 82 bd bc 33 10 be 24 5f 7d 3d 69 eb 75 be
       -0.06386509 -0.14082235 0.06185831 -0.24015583
0000c0 ec cb 3e be bc 54 ea bd e4 fa 7a be 1a bc db 3d
       -0.18632478 -0.11441943 -0.2450977 0.10729237
0000d0 35 b3 50 3e a1 78 3c be e8 02 93 bd 85 31 49 be
       0.20380862 -0.18405391 -0.07178289 -0.19647796
0000e0 41 49 08 3d 62 76 21 3e 5a c5 50 3d ce 9b bd 3d
       0.033272985 0.15767816 0.05096946 0.09258233
0000f0 75 5a b0 3d 52 06 ba bd 7a db 2b 3e 49 e1 14 3e
       0.08611003 -0.09083237 0.16782942 0.14539064
000100 61 92 1b 3e 68 8b 2d 3e 4d c8 ef 3d fe 85 4a 3e
       0.15192558 0.1694771 0.11708126 0.19777676
000110 b2 9b fd be e6 4d 71 3d a2 70 31 3c d4 87 10 be
       -0.4953285 0.05891218 0.010830076 -0.14114314
000120 c5 b4 b2 be 14 01 97 bd 56 5d c2 bd 9c a6 5b 3d
       -0.3490354 -0.073732525 -0.09490459 0.053625688
000130 cf 4d 34 3e 39 c3 b8 be 15 e5 be bc 23 8f 1f 3e
       0.17607807 -0.36086443 -0.023302594 0.15581946
000140 53 58 85 3d f9 90 d4 3d de 6e a4 bd e3 15 86 3e
       0.06510987 0.10379214 -0.08028959 0.26188573
000150 e6 8b 32 be d4 2b d5 bd 0e 88 7b bd 61 d2 c8 3d
       -0.1743618 -0.1040875 -0.06140905 0.098057516
000160 5e 43 6d be b1 97 cb 3d c9 65 59 be 21 aa a8 3c
       -0.2317023 0.09941042 -0.21230234 0.020588936
000170 48 6c 99 3d 02 da 79 3d b6 eb 46 be a0 03 d2 bc
       0.07491356 0.060998924 -0.19425854 -0.025636494
000180 dd ed 35 bd 84 ba c3 3c 46 78 a7 3d f1 63 eb 3d
       -0.044416297 0.023892649 0.08177237 0.11493672
000190 96 13 3b be 23 94 22 be 51 8b ff 3d 1c b6 a5 3e
       -0.1826919 -0.15876822 0.12477744 0.323655
0001a0 7d 01 fb bd 5f ce 91 bd 34 a9 68 3c 92 c5 d4 bd
       -0.12256143 -0.0711944 0.014200497 -0.10389246
0001b0 84 88 a2 bd 07 4c 8b 3d 98 bc 66 be 56 c1 46 3e
       -0.079361945 0.068016104 -0.2253288 0.1940969
0001c0 35 50 93 3e 51 fc 13 3e 99 5f 6a 3b 88 bc 81 be
       0.2877213 0.1445172 0.0035762547 -0.2533915
0001d0 b8 1f 2f bc 75 09 7c be 6b 40 b3 3e 7c 26 96 be
       -0.010688715 -0.24612983 0.35010085 -0.29326236
0001e0 58 de f6 bd de ba 96 bd a9 88 f3 3d 90 5d 72 3e
       -0.120541275 -0.07359861 0.118913 0.23668504
0001f0 6a df 79 3d 24 d1 16 3e 84 7c 17 3d 13 d7 89 bd
       0.06100408 0.14728218 0.03698398 -0.06730475
000200 d8 3c be bc 15 2e 7c be 43 d3 02 3e ed 4c b2 3d
       -0.023222372 -0.24626954 0.12775902 0.08706079
000210 36 ec 6e 3e 7e d9 17 bc 17 93 54 be 97 eb 8b 3d
       0.23332295 -0.009268163 -0.20759235 0.068320446
000220 0e d6 cf 3d ca ff 86 3e 47 59 90 be 33 6b 02 be
       0.101482496 0.26367027 -0.28193113 -0.12736206
000230 04 46 60 be be 7f 0f be 9c d9 c9 3d 20 93 30 be
       -0.21901709 -0.14013574 0.09855959 -0.17243624
000240 cc 1e 43 3c 01 31 9a 3d 8a bb c3 3d 97 b6 1b be
       0.011909198 0.07528878 0.095572546 -0.15206371
000250 c7 f0 54 be 2c 99 12 3d f3 ef b5 3e d6 aa d7 3e
       -0.20794974 0.035790607 0.3553463 0.42122525
000260 ab 92 97 3d 47 83 68 bd af 9a 8f bc 65 4b 0e bd
       0.074010216 -0.05676582 -0.017529814 -0.03473987
000270 b1 5b 32 be 2e 8b 22 3e b3 8b 24 bd bc b2 cb 3c
       -0.1741779 0.15873405 -0.04017229 0.0248655
000280 c0 3e 02 be 60 ee e2 bd ff d9 05 be 4b cc 8d 3c
       -0.1271925 -0.11080623 -0.1307144 0.017309329
000290 de 57 c6 bd 98 6f 86 3d d9 c1 0b 3e bb ec c5 3d
       -0.09684728 0.065642536 0.13648166 0.096642934
0002a0 36 4c 0a bd 35 ed 42 3d 68 7d 36 be 64 33 4c 3b
       -0.033764087 0.0475895 -0.17821276 0.003115856
0002b0 77 d0 08 3e da 24 bc be 26 9e 8d 3e 5e 60 cc bd
       0.13360773 -0.36746866 0.2765972 -0.09979318
0002c0 29 7e 20 be 68 1b 53 bd d7 c9 49 3e f6 2f 0f 3e
       -0.15673126 -0.05153981 0.19705902 0.1398314
0002d0 de 6e ce be 7e bb 53 3e e1 3c b6 3e 4d 5f 92 3e
       -0.4031896 0.20676991 0.35593322 0.28588334
0002e0 1f 6c 06 3e 03 25 48 be c7 45 2e bd 33 85 31 3d
       0.13127182 -0.19545369 -0.042547014 0.04333992
0002f0 a4 c1 fa bc 1a 80 1f 3c d3 d0 f4 bd b9 ff a3 3d
       -0.030609913 0.009735132 -0.119538926 0.080077596
000300 e4 22 4d bd 08 8a 9b bd 58 aa 19 3d fd 8b 86 3d
       -0.050082102 -0.07594687 0.037515968 0.065696694
000310 6a 74 9c bd 91 b4 01 3d b9 1d c2 3d d7 af 9b bc
       -0.07639392 0.031666342 0.094783254 -0.019004745
000320 05 d4 ac 3d af 5b b3 bc a6 48 2e 3c 42 fc 3d be
       0.08438877 -0.021894304 0.010637438 -0.1855326
000330 e4 b7 db bd 36 69 d1 bd 04 4d 4b 3e 31 0e 7a bd
       -0.10728434 -0.102251455 0.19853598 -0.06104869
000340 33 fc e9 bc 48 fc b6 bd 74 af 38 3e f0 f8 35 3e
       -0.02856264 -0.089348376 0.1803568 0.17770743
000350 38 7d db bd de ca e4 bd 0a 84 33 be d0 36 1f 3d
       -0.10717243 -0.11171506 -0.17530838 0.038870633
000360 fb 64 af bc 86 dd d7 bd 0e 88 9b bc 75 ad d8 3c
       -0.021410456 -0.10540299 -0.018985774 0.026449898
000370 5f 01 e2 bd 29 f3 22 3d 4c cf e0 bd b2 e9 96 bd
       -0.11035418 0.039782677 -0.10977039 -0.073687926
000380 cf a2 0b 3d c0 7d 16 3e 57 3a 0e be ed 93 3c be
       0.034090813 0.14696407 -0.13889442 -0.18415804
000390 4b 61 26 3b 15 c5 71 3e ef 99 98 be 05 fd 0e be
       0.002538758 0.23610337 -0.29804942 -0.13963707
0003a0 6b e3 54 3e 1a a8 28 be e7 0e 1e bb 40 8a a0 3d
       0.20789878 -0.16470376 -0.002411777 0.07838869
0003b0 09 60 d6 3c 02 ec a5 bd 64 a3 48 3e 74 d0 b0 bd
       0.02616884 -0.081016555 0.19593579 -0.08633509
0003c0 46 77 21 be 1d da 56 bd 62 12 be 3d 6a 58 df bd
       -0.15768155 -0.052454103 0.0928085 -0.109055355
0003d0 2c 8f 9f be 80 6c 5f 3e 1e 18 d2 3c 0e 01 5f 3d
       -0.3116392 0.21818733 0.025646266 0.054444365
0003e0 aa 0d b8 bc d3 04 fe bb 8a 64 9c bd b8 a4 d3 3d
       -0.022467453 -0.00775204 -0.07636364 0.10334152
0003f0 6d 29 7b bc d3 5d 9d be 52 f8 e8 3b b0 0a 07 3e
       -0.015329701 -0.30735645 0.00710968 0.1318767

fc2.bias f4 [64]
000000 53 3d ea 3d 66 a4 f6 bc 13 fc e6 bd cb 3a d4 bd
       0.11437478 -0.030107688 -0.11278548 -0.10362776
000010 53 77 86 3e 2a 7c 2a bd ae 04 9f bd 6d 41 19 3e
       0.26262912 -0.04162232 -0.077645645 0.14966364
000020 41 3d 34 3d 64 9f 22 be 6b 65 46 3e bb 74 f2 3d
       0.04400373 -0.15881115 0.19374625 0.11838671
000030 d8 48 6c 3e 52 2b eb 3b 86 02 39 3d 3e 9e ec bd
       0.23074663 0.007176795 0.045168422 -0.1155362
000040 69 98 02 3e 61 3a 8d bd 9e 88 1e bc 41 65 48 be
       0.12753452 -0.068959005 -0.009676127 -0.19569875
000050 98 b9 13 be 0e ce 0d 3e 90 4a b0 bd fb 64 d0 bd
       -0.14426267 0.13848135 -0.08607972 -0.101755105
000060 43 df b2 bd 60 a2 0b 3e ca 65 41 3d 8f 4c 6e be
       -0.0873399 0.1363616 0.047216214 -0.23271392
000070 cf fc 5b 3e 1b e9 33 bb ae 5d c0 bd 0d ce 49 be
       0.21483158 -0.0027452174 -0.09392868 -0.19707508
000080 4b 25 03 3e d7 5e 27 3c aa 3c c9 bd 56 01 53 3e
       0.12807195 0.010215483 -0.09826024 0.20605978
000090 41 f8 b4 bd b7 4b ac 3c c6 99 c9 bd 7b f4 40 bd
       -0.08836413 0.021032197 -0.09843783 -0.047108155
0000a0 84 07 e0 bd 12 0f 98 bd 2d ac 0b be 83 d6 81 3e
       -0.109389335 -0.074247494 -0.13639899 0.25358972
0000b0 d3 98 3c bd 17 ee e5 bc be 5e 80 3c d9 2f 24 be
       -0.046044182 -0.028067632 0.015670177 -0.16033877
0000c0 c5 92 cf bd c9 78 d9 3d f4 52 17 be 1f 96 cb 3d
       -0.10135416 0.10618741 -0.14777738 0.09940743
0000d0 ad e5 db 3c 2a 9a 35 be 80 19 7d be d4 9a 9d 3d
       0.026842916 -0.1773459 -0.24716759 0.07695547
0000e0 12 3d 4b 3d a4 af 0f bd 71 f7 47 be 89 80 d7 bd
       0.049618788 -0.035079613 -0.19527985 -0.10522563
0000f0 e0 6f 6d 3c 0c 17 01 bd 44 93 80 3b 0f d4 02 3d
       0.014492005 -0.03151612 0.0039238054 0.031940516

fc3.weight f4 [128, 64]
000000 23 ba 01 3d 96 7f 95 3d 9f 61 2d 3d 95 05 97 be
       0.031671654 0.07299726 0.042329427 -0.29496446
000010 82 d3 05 3e 51 20 5f be ea d0 a4 bd 55 d6 5e bd
       0.13068965 -0.21789671 -0.0804766 -0.05440362
000020 ad 76 0c 3d 1c 34 b5 3d 9d 7f 3b be aa f5 07 3d
       0.034292866 0.0884783 -0.183104 0.033193268
000030 79 a4 ab 3d ca 0d 07 bd 22 d6 0c 3e f0 7b 83 bd
       0.0838098 -0.032972135 0.1375356 -0.064201236
000040 69 b7 eb bd a5 ae 56 be ee 84 1a 3b 8b 3f 90 bd
       -0.11509592 -0.20965059 0.0023577767 -0.0704337
000050 46 d8 93 be ae c6 6e bd 21 ea 6c 3d 45 5b 8c bd
       -0.2887594 -0.058294944 0.05784047 -0.06853346
000060 99 02 ae bd 44 1b 73 bd 59 5a 95 3e 08 5b 0b be
       -0.08496589 -0.059352174 0.29170492 -0.13608944
000070 c3 a7 08 3e 29 41 89 bd db c2 f8 3d 79 44 97 3d
       0.13345246 -0.067018814 0.12146541 0.07386107
000080 a5 16 2d 3d 72 e6 20 39 ff 7f aa 3d b2 fb d7 bc
       0.042257924 0.00015344637 0.083251946 -0.026365135
000090 08 cf b4 bd 28 a3 5a 3e d7 9d 89 3d 19 2f 66 bd
       -0.088285506 0.21351302 0.06719559 -0.05619726
0000a0 ac cb 59 bc f6 8e 70 be 45 74 1f bb e5 8a 85 bd
       -0.013293188 -0.23492035 -0.0024330777 -0.06520633
0000b0 06 47 da 3d 7d 00 54 bd b1 5e 90 bd 47 e0 ee 3e
       0.10658078 -0.05175828 -0.07049311 0.46655485
0000c0 47 0c 8e be 27 ed c3 3d 00 f5 7b bc 2e ba d6 3b
       -0.27743742 0.095667176 -0.015378237 0.006552956
0000d0 00 71 17 be 76 98 63 be b5 09 1a 3e 37 19 57 bd
       -0.147892 -0.22226128 0.15042765 -0.05251428
0000e0 10 d4 0f be ae e2 7c 3d b0 3b 0d be f0 1b 53 3d
       -0.14045739 0.061739616 -0.137923 0.051540315
0000f0 ef 10 a5 bc 9e 0b 78 3e f6 07 21 3c f0 35 82 3c
       -0.020149676 0.24223182 0.009828558 0.01589486
000100 e3 54 68 3d fa 1d 05 3e 25 05 00 be 13 92 e6 3d
       0.05672158 0.12999716 -0.12501962 0.1125833
000110 2d 9b bf 3d 89 b3 33 3d 1b ed 47 be f4 5c 0c 3e
       0.09355769 0.04387239 -0.19524042 0.13707334
000120 2a c1 1e be 08 54 c4 3a c7 40 a5 bd e9 bc a5 bc
       -0.15503374 0.0014978657 -0.08068996 -0.020231681
000130 55 99 e5 bd 05 05 8a 3d 26 ab 5d be d5 ee b3 3d
       -0.112108864 0.06739239 -0.21647319 0.08785788
000140 b0 a4 03 3e 86 25 c1 3d 4c 6e db bd 68 46 20 3c
       0.12855792 0.09430985 -0.10714397 0.009782411
000150 17 aa 92 3d cb 4b ec bd 93 d5 07 be 0d 05 8b 3d
       0.07161348 -0.11537894 -0.13265066 0.06788073
000160 52 e2 a7 bd 50 df 9f 3d d6 b4 c8 bb df 8e 0e be
       -0.08197464 0.07806265 -0.006125073 -0.13921688
000170 d6 39 33 3e 64 04 d3 bd af 20 c1 3d 4a 62 58 be
       0.17502531 -0.10303572 0.09430062 -0.21131244
000180 f4 21 c6 3c 9a 87 d3 bc 68 b6 1e 3e b9 82 dd bd
       0.024186112 -0.025821496 0.1549927 -0.10815949
000190 20 8f 88 3d f3 d1 2d bb b8 73 e7 3d 9d b8 2b be
       0.06667924 -0.0026522845 0.113013685 -0.16769643
0001a0 bb 14 85 3b c9 f2 68 3e a2 d6 22 bc 80 af 87 bd
       0.004061309 0.22748865 -0.009938868 -0.06625271
0001b0 c1 92 82 be 69 9c 6a bd 8d 20 0e bd 2a d9 87 3b
       -0.2550259 -0.05727807 -0.03469901 0.004145761
0001c0 00 c6 2e 3c 91 66 0d be 6f 58 52 3d bf b2 70 3e
       0.010667324 -0.13808657 0.051353868 0.23505686
0001d0 e2 ea 12 bc 2f 67 9f bc 6b 75 84 bc 3c 4c 46 3c
       -0.008967133 -0.019458381 -0.01616927 0.012103137
0001e0 4a b6 a3 be 38 27 c3 3c 7d 44 86 3e 90 f7 de 3c
       -0.31975013 0.023822412 0.26224127 0.027217656
0001f0 96 6c 31 bd af 81 a4 bc 96 78 64 bd 5a c1 dc 3b
       -0.043316446 -0.02008137 -0.055779062 0.0067369165
000200 69 b4 ed bd dc 18 13 be 5d 5d b0 3d e3 7e 77 3d
       -0.11606676 -0.14364952 0.08611558 0.060423743
000210 0c 35 9b 3d 0c 88 63 3b 00 5e 9d bd 75 c8 31 bd
       0.07578477 0.0034718541 -0.07683945 -0.04340406
000220 ab 22 74 3e cf 7d e1 bd 0c 84 7f bc 48 b3 2f 3d
       0.2384135 -0.11010324 -0.015595447 0.042895585
000230 b4 ba cc bc 55 31 ff 3d c6 bc b4 bd 92 fa 89 be
       -0.02499137 0.12460581 -0.08825068 -0.26948982
000240 fc d7 0f bf fd a5 c0 bc a9 66 10 3e dd 35 90 bd
       -0.5618894 -0.02351665 0.14101662 -0.070415236
000250 1c 27 8f be d6 f1 8c 3c e3 40 ff bc 63 e8 b9 bb
       -0.27959526 0.01720516 -0.03115887 -0.0056734546
000260 29 24 94 bd 9b 9f d9 3d 9a bd 43 be 2f d7 99 3e
       -0.072334595 0.106261455 -0.19115296 0.30046985
000270 eb 88 b8 bc 90 47 99 3d f9 b3 1c 3e b9 f0 a4 3d
       -0.022526225 0.074843526 0.15303029 0.08053727
000280 ca 94 1e be 16 e6 bf 3c 00 b9 bc be 36 7f ee 3d
       -0.15486446 0.023425143 -0.36859894 0.11645357
000290 1b b6 00 3d 33 a2 ad bc 0c 98 23 3d f8 10 a6 3c
       0.03142367 -0.021195507 0.039939925 0.020271763
0002a0 40 9f aa 3d 7c 3e 3a bd 1b e3 c7 bc b6 12 1e be
       0.08331156 -0.045469746 -0.024400285 -0.15436825
0002b0 50 33 b8 3c fc 29 01 3e e4 78 1b bc b0 f5 cf be
       0.022485405 0.12613672 -0.009489272 -0.40617132
0002c0 e9 5d 0e be a1 6f 04 bd 01 f0 a1 be 92 e7 93 bd
       -0.13903011 -0.03233302 -0.3162842 -0.07221903
0002d0 2e af 8d be 1b e5 52 bd ae d0 03 be f9 e8 33 be
       -0.27672714 -0.051488023 -0.12872574 -0.17569341
0002e0 f6 0a 08 bd 3c ff 38 be d3 2e 3e 3d 1d b3 11 3e
       -0.03321358 -0.18066114 0.046431374 0.14228483
0002f0 69 4a d1 bd b2 5c 24 3d 8d 80 84 3d 9e 6c 4e 3c
       -0.10219271 0.040127464 0.064698316 0.012599139
000300 bb d4 9d 3d 60 16 09 be 42 15 92 3d 02 b1 1f 3e
       0.07706591 -0.13387442 0.07132961 0.15594867
000310 b5 75 28 be 93 35 38 bd 8e c4 ac bd f9 87 87 bd
       -0.16451152 -0.044972967 -0.08435927 -0.066177316
000320 92 4a 96 be c2 98 e7 bc ce 45 73 be 03 a6 24 3e
       -0.29353768 -0.028271083 -0.23757097 0.16078953
000330 22 29 9e 3c 8d d5 ce 3d 7b 40 29 bc fd 02 96 bd
       0.019306723 0.10099325 -0.010330315 -0.07324789
000340 43 6d 19 be 6c 13 2f 3c 9a 99 00 3e 0b a7 ac be
       -0.14983086 0.010685783 0.12558594 -0.33721194
000350 f3 42 d8 bd 63 7d 38 3e 60 a0 1f be e8 09 c2 3d
       -0.105596446 0.18016581 -0.15588522 0.09474546
000360 95 af 8c bd aa ed f5 bb 44 9c 73 3e 31 37 b1 bd
       -0.06869427 -0.0075051384 0.2379008 -0.08653105
000370 4e ee 73 3e 47 8b 31 be 8c 74 10 3e 59 87 93 3b
       0.23821375 -0.17338286 0.14106959 0.0045022187
000380 fa 5f ca 3c 7f 91 bd bb 91 78 67 3e 83 c7 05 3b
       0.024703968 -0.0057851668 0.22604586 0.0020413108
000390 13 15 00 be 97 c5 c6 bd 54 86 b0 3d 57 67 34 3c
       -0.12508039 -0.09705656 0.08619371 0.011010966
0003a0 8c 12 5e 3d f1 ba f6 3d 9a d9 a4 be c3 b9 68 3d
       0.054216906 0.12047375 -0.32197267 0.05681778
0003b0 5b 63 2d be af a5 be bb 8e 40 2c 3e e5 f2 09 3e
       -0.16932432 -0.005818091 0.168215 0.13471563
0003c0 b2 9c b4 3c d4 04 cf bd 13 02 80 be da 02 30 3e
       0.022047374 -0.10108343 -0.25001583 0.17188588
0003d0 2e d8 41 3e 44 e5 c0 3d c5 5a 20 be fd b7 c1 bd
       0.18930122 0.09418729 -0.15659626 -0.09458921
0003e0 1c 3d 93 be ad 7d b2 bc 00 91 82 3c 43 14 29 3e
       -0.2875756 -0.021788443 0.015938282 0.16511635
0003f0 ff 36 77 be 28 0b b5 3d a4 7c 84 be 17 d7 72 3d
       -0.24142073 0.088400185 -0.25876343 0.059287157

fc3.bias f4 [128]
000000 28 df 98 3c 96 e8 58 3c 45 54 1d 3d f6 13 76 bd
       0.018661097 0.013239047 0.038410444 -0.06007763
000010 ad cf de 3d 52 f1 22 3e c8 e5 b3 3c 81 5a 1a bd
       0.10879455 0.15912369 0.021960154 -0.037683968
000020 8b 08 25 bd 7d 31 e4 3d cb 2f 6e 3c ee 99 39 bd
       -0.04029135 0.11142252 0.014537762 -0.045312814
000030 f3 82 90 bd 13 0c 2f be 7b f8 02 bd 17 9d c5 bc
       -0.070562266 -0.1709445 -0.03197525 -0.024122758
000040 f5 60 be 3d 28 5e 01 3e 06 60 bf 3d 9d d5 83 bd
       0.09295837 0.12633574 0.09344487 -0.06437228
000050 12 48 14 bc 2e 80 03 3d 6c 24 f2 bd f3 39 ff 3c
       -0.009050386 0.032104664 -0.11823353 0.031155562
000060 78 97 b4 bd 39 f8 fd bd 6f 97 e2 bb 9b f3 28 3e
       -0.08817953 -0.1240086 -0.006915025 0.16499178
000070 76 04 be bc 5b 2f f0 3d 94 62 97 3b 29 b7 b8 3d
       -0.023195487 0.11727782 0.0046199057 0.0901931
000080 4a 31 38 be 59 f5 b0 3d c5 f6 04 3e 0b 8b fe 3d
       -0.17987552 0.08640546 0.1298476 0.12428864
000090 7b 6d 5f bd fa dd d6 bb 24 d9 f8 bd 96 0d 8f bd
       -0.054547768 -0.0065572234 -0.12150791 -0.06985013
0000a0 60 27 a0 3d f0 1e c4 3d 4c d0 d0 3d 68 18 b1 3d
       0.0782001 0.09576213 0.101959795 0.08647233
0000b0 06 62 e1 bd c5 d1 48 3d aa dc 7d 3d 5e 94 01 be
       -0.110050246 0.049028177 0.06197802 -0.12654254
0000c0 61 6b cc 3c 98 01 da bd ca 26 69 3d 84 34 42 bd
       0.024953546 -0.10644835 0.056921758 -0.047413364
0000d0 b5 0a 1b 3d 55 8a 2e 3d ab ff 98 3c 1c 20 90 3d
       0.037852008 0.042612392 0.0186766 0.070373744
0000e0 09 66 0b be c6 e1 2e bd f5 6b 7b 3c 2c 08 a2 bd
       -0.13613142 -0.042695783 0.015345563 -0.07911715
0000f0 dc 74 58 bd 9b 85 ce 3d 71 b7 9a bd 51 7a 7e bb
       -0.05284582 0.10084077 -0.0755452 -0.003883023
000100 a0 c7 09 bd e3 6c 81 3b b7 4f 4c bb a7 03 05 be
       -0.033637643 0.003949748 -0.0031175443 -0.12989675
000110 29 ff e7 bc 0b ea a1 3d bc d0 91 bd 55 44 1d 3e
       -0.028319912 0.07905968 -0.07119891 0.15358098
000120 d8 bc 0e bd b5 0a 18 3d 7a 29 52 3d e2 ae b9 bc
       -0.034848064 0.037119586 0.051309086 -0.022666398
000130 d8 90 71 3d 45 53 85 bd e7 1b 8f 3d c2 c1 fd bd
       0.058976024 -0.06510023 0.06987744 -0.12390472
000140 af fb b1 bd fd 8b 7e 3d f5 02 a3 bd f9 9e d3 bc
       -0.08690583 0.062145222 -0.079595484 -0.02583264
000150 ac 4c ab 3c c0 f6 d9 3d 58 70 79 3c 2d 43 1e 3d
       0.020910583 0.10642767 0.015224539 0.038638283
000160 16 0e d1 bd 1c 36 66 3d 8e 85 a6 3b c1 4d c7 3d
       -0.10207765 0.056203946 0.005081839 0.09731627
000170 a0 4f 98 3c c6 92 df 3d 7e 42 11 be 16 fc 28 be
       0.018592656 0.10916667 -0.14185521 -0.16502413
000180 25 d1 da bd db 0f 17 3d 33 63 0b 3e 95 c0 31 be
       -0.106844224 0.036880355 0.1361206 -0.1735862
000190 5b 4c a7 bd 2a ee 84 3d 68 a4 e0 3c de 24 04 be
       -0.081688605 0.06490739 0.027422145 -0.12904689
0001a0 ef 27 79 bd 0d 67 4a 3e 62 cf 69 3c 37 ee 99 bc
       -0.0608291 0.19765873 0.014270635 -0.018790348
0001b0 08 e0 dc bd 5c eb 84 bd 4f 88 dc bd 5e 89 17 be
       -0.10784918 -0.06490204 -0.10768186 -0.14798495
0001c0 ae c8 15 be 86 37 cd 3d 8b 9e 42 bd fa ca 5c 3d
       -0.14627334 0.10020356 -0.04751448 0.05390451
0001d0 71 6a de bd 33 6f 75 3d fd f3 53 3e 2b 82 05 3d
       -0.10860146 0.0599205 0.20698543 0.03259484
0001e0 b9 82 41 bd 01 d6 b8 bd 21 ec 07 3d b6 77 15 bd
       -0.047243807 -0.09025193 0.033184174 -0.03649112
0001f0 08 cd dc bd 41 6b 2f bd 9e 53 00 be ad 6b 3f bd
       -0.10781294 -0.042826895 -0.12531897 -0.046733547

fc4.weight f4 [256, 128]
000000 b2 bb a5 3d 0f 65 03 be 94 68 a8 3d 03 c2 81 3d
       0.08092441 -0.1283152 0.08223072 0.06335833
000010 d9 60 3d bd 77 d9 26 be f1 b1 28 bd 81 51 d2 bd
       -0.04623494 -0.16293894 -0.041185323 -0.10269452
000020 70 58 f7 bd c4 fc 2a 3e 3e 65 11 3d 5a 1f fd bd
       -0.12077415 0.16697985 0.035496943 -0.123594955
000030 86 ad d7 bc 84 52 fa 3c 10 d7 8f bc 52 f9 55 3b
       -0.02632786 0.030556925 -0.017558604 0.0032649827
000040 91 64 f3 bd 38 47 37 be cb da 60 3e 59 71 3c 3e
       -0.11884416 -0.17898262 0.21958463 0.18402614
000050 86 dd 2d be 8e 8e 19 bd 02 53 1c be e4 6c 67 be
       -0.16979036 -0.037489466 -0.1526604 -0.22600132
000060 c7 7f 0d be 79 e0 c2 3d ec 32 01 3e d7 db a0 be
       -0.13818274 0.09515471 0.12617081 -0.31417724
000070 07 88 02 3e 64 05 78 3e a3 88 39 3d 68 5a f1 3d
       0.12747203 0.24220806 0.045296323 0.11784822
000080 de 1e 8b bd 45 cd 6d be a8 22 98 bc 51 21 c1 3d
       -0.06792997 -0.23222835 -0.018571213 0.09430183
000090 74 9d 0d be 01 f4 11 3d 1f 94 43 be e8 12 ca 3d
       -0.13829595 0.03563309 -0.19099472 0.09866887
0000a0 0d b4 0e be 2b 17 1d 3d 7e be b0 3d 08 c6 dd bd
       -0.13935871 0.038352173 0.086300835 -0.10828787
0000b0 c3 cd a6 3e 15 56 3b 3e 11 3e 50 be 1d c3 a0 3e
       0.3257886 0.18294556 -0.20336176 0.3139886
0000c0 14 28 1d be d8 26 ea 3d 04 b6 03 bd 2f 8d 0f bd
       -0.1534732 0.1143319 -0.032156006 -0.035046753
0000d0 63 0a 00 3e b4 7d 27 be 85 ca db 3a 2e 31 18 be
       0.12503962 -0.16356546 0.001676873 -0.1486251
0000e0 b9 f7 3c 3e a3 1e 08 be fc 4c a5 3c ec 61 5e be
       0.18453874 -0.13292937 0.02017831 -0.21717042
0000f0 06 22 b7 bb 84 2b ee 3d b2 4a 46 3d c1 8f 8e be
       -0.0055887727 0.11629394 0.04841108 -0.2784405
000100 0d e8 3f be e8 91 e2 3d fe d0 aa 3d f9 31 43 3d
       -0.18740864 0.11062986 0.08340643 0.04765508
000110 ea 34 28 bd 2d 07 c7 bd 0c 53 fb bd f1 ac ad 3b
       -0.041066088 -0.097181655 -0.12271699 0.0053001572
000120 f6 a3 6f bc fb b9 1b be f1 f0 05 3c 68 b1 23 be
       -0.014626494 -0.15207665 0.008175121 -0.15985644
000130 59 ed 01 3e b0 34 6f 3d df 77 f8 bd 5d 2d 1b 3e
       0.12688197 0.058399856 -0.121322386 0.15154023
000140 a4 8d 90 3c 95 ee 00 3e 97 21 9f bd fa e5 e0 bd
       0.017645665 0.12591012 -0.07770079 -0.109813645
000150 93 72 79 3d 7f 0d 29 3c 44 7d 23 3d 77 0a 03 bd
       0.060900282 0.010318159 0.039914384 -0.031992402
000160 9a 7e ae be 51 88 48 be a2 47 75 bd 05 1b 89 3d
       -0.34080964 -0.1958325 -0.059882767 0.06694607
000170 ca cc 18 3e e3 b7 18 bd df d9 c8 bc e7 8b 20 bd
       0.14921871 -0.037284743 -0.024517952 -0.03919592
000180 60 7d b0 bd a4 35 2d 3d ef 91 27 be aa 72 cf bd
       -0.086176634 0.042287484 -0.16364263 -0.10129292
000190 13 12 1c be 76 ba 48 3e dc 9c d7 3d 23 d2 bd 3c
       -0.1524127 0.19602379 0.105279654 0.02317149
0001a0 1e 07 eb bd fb d4 8c be 2e a2 21 bc 56 80 92 bd
       -0.11475967 -0.2750624 -0.009865327 -0.071533844
0001b0 66 a3 b3 bd 95 88 ad bd 8f 01 c6 bd fa e2 99 bc
       -0.087714 -0.084733166 -0.09668266 -0.018784989
0001c0 30 46 bf 3d 62 96 56 be cd b3 82 3d 6d 36 60 3d
       0.09339559 -0.20955804 0.063819505 0.054739404
0001d0 60 c2 0d 3e 9e 74 8a 3d 66 a9 ed bd 24 bb 88 bd
       0.1384368 0.06760524 -0.11604576 -0.06676319
0001e0 86 26 f1 3d 18 bf a4 bd 96 31 31 ba 3b c8 b8 bd
       0.11774926 -0.08044261 -0.0006759403 -0.09022566
0001f0 3c 52 cb bd 84 4c 08 be 5a a4 06 bd 2a be 03 3d
       -0.09927794 -0.13310438 -0.03287158 0.032163776
000200 8d 78 c6 3d 7b 70 aa bd eb cc 51 bb 1c 09 19 3e
       0.09690962 -0.08322235 -0.003201301 0.14944881
000210 1a 00 ee be 21 b9 aa bd 4f b7 c1 3c a3 d2 8b 3c
       -0.46484452 -0.08336092 0.023646979 0.017068213
000220 9d f6 e9 be af c7 35 be ef 3a 89 bd 06 65 35 3e
       -0.45695964 -0.17751954 -0.06700694 0.17714319
000230 8a 58 a2 3c 7b 7e 00 bf 9f ce cd bc ed da f9 3b
       0.01981761 -0.50192994 -0.025122939 0.007624975
000240 57 fd 4f be 14 e1 f3 3c fd ba b9 3d dc 93 1b 3d
       -0.20311485 0.029770412 0.09068868 0.037982807
000250 74 6a 61 be ec 0b 95 bd bd 3f f3 bd 39 2d a7 bd
       -0.22013265 -0.072776645 -0.118773915 -0.081629224
000260 d8 16 db bd 42 43 21 3e 23 cb 90 be d7 37 a7 3d
       -0.106977165 0.15748313 -0.2827998 0.081649475
000270 fc 9c fe bd c0 4a bb 3c b3 03 24 be c8 2d 03 bd
       -0.12432286 0.022862792 -0.16017036 -0.032026082
000280 13 97 b5 bc 3a 21 c1 be 74 36 87 3d 73 7a da bd
       -0.022166764 -0.37720662 0.06602183 -0.106678866
000290 b0 c5 9f 3d 11 5d 67 be 2a a5 10 be 05 ba aa be
       0.07801378 -0.22594096 -0.14125505 -0.33345047
0002a0 c6 77 45 be be 1b bc bd 19 67 06 be da 56 3c 3c
       -0.19283971 -0.09184979 -0.13125266 0.011495316
0002b0 6a 27 5d be 73 83 cf bd 89 66 65 bc 93 ce b9 be
       -0.21597067 -0.10132494 -0.014001497 -0.36290416
0002c0 1a 14 79 bd 07 49 26 be 14 8f 81 b9 34 c4 1a bc
       -0.060810186 -0.16238795 -0.000247114 -0.0094461925
0002d0 50 e2 43 be bf 45 1d 3d 27 86 34 3e 7d 0a 96 3d
       -0.191293 0.038396593 0.176293 0.07326219
0002e0 1b cc 16 3d a8 fa 90 be 98 b1 a6 bd 0c 72 ec 3d
       0.036815744 -0.28316236 -0.08139342 0.1154519
0002f0 c1 ea 4a be fe 96 70 3c ec 47 bb bd 81 61 c6 3d
       -0.19816114 0.014684437 -0.091445774 0.09686566
000300 ec 95 0a bc 4d 60 00 3e b8 c3 41 3e 15 c5 b0 3d
       -0.008458596 0.12536736 0.18922317 0.086313404
000310 03 1d da be b9 a6 36 bd 4a 4c 02 be 76 ed 18 3c
       -0.4260026 -0.044592593 -0.12724414 0.009333959
000320 36 bb 27 bd 41 a0 85 3d 46 a3 0c bd 71 29 15 3e
       -0.040950023 0.06524707 -0.034335397 0.1456659
000330 ee c0 28 be 1b f7 3a 3d 91 d0 4e be 71 a0 de bd
       -0.16479847 0.045645814 -0.2019675 -0.108704455
000340 2e 23 ea bd 7e c0 b3 be a5 e6 2e bd 0c eb d9 bc
       -0.11432491 -0.35107797 -0.04270043 -0.026601337
000350 29 d0 9a 3d c1 cb cf bd fd 32 9d bd da 28 51 be
       0.07559235 -0.10146285 -0.07675741 -0.2042574
000360 24 c1 a4 bd b9 64 b3 3d 44 33 ad b8 78 e4 2c 3a
       -0.08044651 0.08759446 -8.258832e-05 0.0006595324
000370 bf c4 1c be be aa 04 bd bd e2 6a bd 19 1e 4d be
       -0.15309428 -0.032389395 -0.05734514 -0.20031013
000380 02 cf c2 bd 44 16 50 3b 7e b6 27 3e 56 17 89 bd
       -0.0951214 0.0031751553 0.16378209 -0.06693904
000390 e5 8f 70 bd b1 a5 52 bf 13 99 20 be 5b 46 92 3d
       -0.05873098 -0.82284075 -0.15683393 0.071423255
0003a0 9d a3 79 3d b6 88 a8 bd 23 44 b0 bd da d4 12 bf
       0.06094705 -0.082292005 -0.08606746 -0.57356036
0003b0 c9 3f 20 3c 2f aa 84 bd 8e be f3 3d a9 37 9c bc
       0.009780833 -0.064777724 0.1190158 -0.01906951
0003c0 8d d9 3e 3d ed 37 19 be 8d 4c b4 be 97 01 d0 3d
       0.04659419 -0.1496274 -0.35214654 0.10156553
0003d0 85 bd 23 bd dd b0 af 3c dc d3 fa bd 95 3c 55 3d
       -0.03997566 0.02144664 -0.1224744 0.05205973
0003e0 21 d5 a1 bd 7d eb da be 7c 43 3b bd f9 dd 0c 3e
       -0.07901979 -0.42757788 -0.045718655 0.13756551
0003f0 6a ae 2c be 7e 65 85 bd 61 97 51 bc 12 18 b1 3c
       -0.16863409 -0.06513499 -0.012792439 0.021617923

fc4.bias f4 [256]
000000 5e 77 7b 3c 5e b3 a0 bd 72 36 2a be 83 90 02 3e
       0.015348284 -0.078467116 -0.16622332 0.1275044
000010 71 df 35 bd 17 87 35 3d 6b a6 bc bd 94 0e a2 bd
       -0.044402543 0.044318285 -0.09211429 -0.07912937
000020 32 c9 79 bd e0 8f 01 3d f4 a0 18 be b4 63 f2 3d
       -0.06098289 0.03163135 -0.14905149 0.11835423
000030 f9 bb 22 3d 7d f1 7e 3d 00 2e d8 3d 56 c7 25 be
       0.039730046 0.06224202 0.10555649 -0.16189322
000040 a2 80 08 3e 62 0a da 3d d7 ef d6 bd e4 fa 8f bd
       0.1333032 0.106465116 -0.104949646 -0.070302755
000050 22 ee ef bc b4 1a 46 bd ea 54 54 3d 02 51 7d 3c
       -0.029288355 -0.04836531 0.051838793 0.015461208
000060 1e 9e d9 3d 80 ee 11 be 99 c3 4c bd ea ee 9a bd
       0.106258616 -0.14251137 -0.049991224 -0.075651005
000070 37 ac 7e bd 69 a8 99 bd fd c2 93 3d c4 8a 53 be
       -0.062175956 -0.07502825 0.072149254 -0.20658404
000080 34 06 0c be db c9 36 3d 3f 7e aa 3c 80 db 99 b9
       -0.13674241 0.044626098 0.020812152 -0.00029345974
000090 19 40 91 3d b3 19 70 3d 80 af 1b 3d 55 cc ab bd
       0.07092304 0.05861826 0.038009167 -0.083885826
0000a0 7d 2a 9a 3d bd 5b b1 3c ec 15 ce bc 2c ab ee 3d
       0.07527635 0.02165019 -0.025156938 0.11653742
0000b0 9d 2c 78 bc b0 df 6e be 26 16 5f bd 03 98 c6 bd
       -0.015147355 -0.23327518 -0.05446448 -0.09696963
0000c0 fc 82 b4 bc bc bd 4d 3c c8 ae c5 bd 92 9e e6 3c
       -0.022035114 0.012557443 -0.096524775 0.028151784
0000d0 39 a5 9d 3c 5c fb 5b 3d 6e 76 0c bc 43 63 9d bd
       0.019243823 0.05370651 -0.008573158 -0.07684948
0000e0 30 4e e8 3b 3e 8c 12 be f2 0c f7 bd f3 e7 42 bc
       0.007089399 -0.1431131 -0.12063016 -0.011896121
0000f0 6f 09 6e bd c8 b7 e6 3d 82 80 69 bd 30 4a 4f 3c
       -0.058114465 0.11265522 -0.05700732 0.012651965
000100 14 fe 3e bc 62 17 8e bd 08 77 bd 3d 2b 17 e4 3c
       -0.011657257 -0.06938054 0.09251219 0.027843079
000110 4a 5a 2d be 33 38 13 3d 47 8a 9c 3d 8f 3e 0a 3c
       -0.16928974 0.035942268 0.07643562 0.008437767
000120 dd 44 00 be 73 de 0e bd 09 ec 55 3d ee 05 02 bd
       -0.1252627 -0.034880113 0.052227054 -0.031743936
000130 c5 5c 09 3e 8f 6c 51 bc e0 44 e0 3c aa a0 2a bd
       0.13414295 -0.01278223 0.027376592 -0.041657127
000140 0f cb 21 3b 83 bf 8b 3b f7 3a 8b bd 6f 62 01 3c
       0.0024687683 0.0042647733 -0.06798356 0.007897004
000150 0d 74 ad 3d 8c 3b 1f 3e 34 29 8b 3d 82 48 29 3d
       0.084694006 0.15550059 0.06794968 0.041328914
000160 84 b9 28 3c a1 da d3 bc b3 cd 13 be cf 56 81 bd
       0.010298137 -0.025861086 -0.14433937 -0.063153856
000170 ec a0 4a bd 97 80 b9 bb 9e f4 8d bc c4 ee 91 bd
       -0.049469873 -0.005661081 -0.017328557 -0.07125619
000180 9b 0e d9 bd ca 3f c3 bc 4d 19 9e 3d 21 04 98 bd
       -0.10598489 -0.023834128 0.077196695 -0.074226625
000190 c8 16 3f bd 4e 25 a1 3d 78 81 3c 3d d9 13 b0 3c
       -0.046652585 0.078684434 0.04602191 0.02149384
0001a0 f3 e7 a1 bb 2d 29 6f 3c 92 d6 d6 bd b3 67 51 3d
       -0.0049409806 0.014597219 -0.10490145 0.051124286
0001b0 ac 18 e3 bc c1 14 c5 bd 1f 55 fd bc 40 b6 8e bd
       -0.027721725 -0.09623099 -0.030924378 -0.06968355
0001c0 65 7b 5b 3e 1c 38 b0 3b fb 29 32 bd 70 62 ff bd
       0.2143379 0.0053777825 -0.043497067 -0.12469947
0001d0 03 4a be bd bc f7 9d 3d ce cb eb bc 7a 2c d0 3d
       -0.0929146 0.07713267 -0.028783705 0.10164733
0001e0 e4 2b 1c 38 d3 62 c0 3b 04 ae fd 3c de 06 1c be
       3.7234175e-05 0.0058711558 0.030966766 -0.15236995
0001f0 fe 17 63 bc c6 c1 83 3d 1f 11 8a 3d 7e 88 c3 bc
       -0.013860701 0.06433444 0.06741547 -0.023868795
000200 3f 59 01 bd b0 39 56 3d 29 9f d6 bd a1 33 0d 3d
       -0.031579252 0.05230111 -0.10479576 0.034473065
000210 2d 8e b8 bc 37 93 da bc 0d 8e 94 ba 29 8d 2b bc
       -0.022528732 -0.026681526 -0.0011333838 -0.010470667
000220 25 ae a5 3c e4 4a b5 bc be 1f 7e 3d 77 96 82 bd
       0.02022464 -0.022130437 0.06204199 -0.06376355
000230 63 52 ba bd 10 ac 35 be 90 9e 3e bd 06 0b 4f be
       -0.09097745 -0.17741418 -0.046537936 -0.20219049
000240 1d 0b 16 3e e0 ae 87 bd ed 9a 4f bd 23 e2 c3 3b
       0.14652677 -0.06625152 -0.050684858 0.0059778853
000250 58 65 d9 bd f1 61 14 be 09 0b 54 3d 38 38 8b 3d
       -0.10615033 -0.14490487 0.051768336 0.06797832
000260 56 67 ce 3d 2b 5f 78 bd 9a 9c db bd f1 02 58 3e
       0.100783035 -0.060637634 -0.10723229 0.21094872
000270 e5 df 8a 3d 04 8b 80 3c 0b 64 20 be b3 f3 da bd
       0.06780986 0.015691288 -0.15663163 -0.10691013
000280 91 9a 7e bd 6f 51 53 3b 77 ff bb bd 7e 81 10 bb
       -0.062159125 0.0032244583 -0.091795854 -0.002204984
000290 e9 71 29 bd 82 34 32 bd 2b c0 89 bd 3b 32 18 3c
       -0.0413684 -0.043507107 -0.06726106 0.00928932
0002a0 5b 6e 0d bd d8 38 ae 3d 34 50 ae bd c3 43 46 3b
       -0.03452907 0.08506936 -0.08511391 0.0030252791
0002b0 15 ba 19 be a5 1b 9a bd 4a 0e fc bd 59 69 21 bd
       -0.15012391 -0.07524804 -0.12307413 -0.039407108
0002c0 f6 86 84 3d f0 31 c8 bc f4 3c 5c 3b 3c c7 01 3b
       0.06471054 -0.024437875 0.0033605667 0.001980259
0002d0 5b 7f 03 be 71 04 b7 bd 62 56 ac bc 23 da da 3b
       -0.12841551 -0.08936394 -0.021037284 0.006678836
0002e0 38 fd 4e bd 6b 27 ee 3c 82 a6 03 bb a6 20 70 3d
       -0.050534457 0.02907153 -0.002008826 0.058624886
0002f0 90 a0 c9 bd 66 6a 9d bd 73 76 01 3d 26 66 4d bd
       -0.09845078 -0.076863095 0.031607103 -0.050146244
000300 7c b6 84 3d 9e 7c 1b be a5 f9 90 bc b7 7d fe bd
       0.06480119 -0.15184256 -0.017697165 -0.12426322
000310 fa 52 60 3d f3 b2 90 3c 23 ae e7 3d f9 84 24 be
       0.054766633 0.017663455 0.11312511 -0.1606635
000320 ed f3 03 be 72 42 2a bd c8 f9 c8 bc bf af e7 bd
       -0.12886019 -0.041567273 -0.024533167 -0.11312818
000330 93 2b 7b bb 3f a7 9f bd 41 14 c0 3d 7c c2 00 3d
       -0.0038325533 -0.077955715 0.09378863 0.031435475
000340 07 b6 fe 3b 52 3a 51 3d 4f 7a de 3c ae 4d 9a bd
       0.007773164 0.05108101 0.02715793 -0.075343475
000350 f9 70 d3 bd 0f da c5 3d af 47 93 bb fb 4c 9c bd
       -0.10324282 0.09660732 -0.0044946293 -0.0763187
000360 f1 a2 4a be d0 91 d7 bc 76 c6 08 bd 18 c0 9a 3d
       -0.1978872 -0.026314646 -0.033392392 0.0755617
000370 44 95 2d bd e0 e7 e0 ba 53 61 5a bc 9e 96 3f 3d
       -0.04237868 -0.0017158948 -0.013328868 0.0467745
000380 3d b9 8f bb 5a 02 9a 3d 6a c4 88 bd e0 9f af bb
       -0.004386096 0.0751998 -0.06678088 -0.0053596348
000390 ee 38 85 3d 19 34 01 bd 5b ef 75 3d fc 6d 1d be
       0.06504999 -0.031543825 0.06004272 -0.15373987
0003a0 21 12 93 3d 96 2b 34 3c f9 2b d0 bb b2 f9 77 3d
       0.07181192 0.01099672 -0.006352898 0.060540862
0003b0 ec 2a 96 3d f4 22 b8 3c c1 2d 51 bc 83 ce 2a bd
       0.073324054 0.022477604 -0.012767256 -0.04170085
0003c0 a0 61 2a be d9 57 06 3d 46 aa 49 be 1e 3f 1e be
       -0.16638803 0.03279862 -0.1969386 -0.15453765
0003d0 89 0c 1b 3e 0f 42 56 bd ca 09 a1 bd 6f 5a c1 bd
       0.151415 -0.052309092 -0.07863195 -0.09441077
0003e0 02 11 48 bd 2e ee 39 3d 66 88 aa 3d 28 2a 1a be
       -0.048844345 0.04539316 0.08326797 -0.15055144
0003f0 d9 dd 82 bd 26 08 7d 3c bd 7c c4 3b 08 9f 31 bd
       -0.0638997 0.015443837 0.0059963153 -0.043364555

fc5.weight f4 [256, 256]
000000 b3 61 26 3e 11 84 39 be f3 09 a6 bc be 23 e1 bc
       0.16248207 -0.18116786 -0.020268416 -0.027482864
000010 3a 09 ec 3b 67 44 5d 3d 41 98 f4 3b 2e eb 2e 3e
       0.0072032483 0.05402031 0.007464439 0.17081901
000020 7d 8c a7 be f3 55 5a bd ae 94 20 3d e2 30 ed bd
       -0.32724372 -0.053304624 0.039204292 -0.11581589
000030 a3 c1 a6 bc 97 6f 15 b8 3c e5 83 bd 77 7c 09 be
       -0.020356005 -3.5628294e-05 -0.06440207 -0.13426386
000040 63 2e c2 3d 42 03 81 3d df d1 05 be 03 5a 9a bd
       0.09481504 0.062994495 -0.1306834 -0.075366996
000050 73 81 c2 3d 1c fe 9c bd c8 b0 50 be f5 ab 63 be
       0.09497347 -0.07665655 -0.20379937 -0.22233565
000060 85 6f 9e 3d 11 c7 10 3e 06 af af 3d 10 3b 3a bc
       0.077361144 0.14138438 0.08578305 -0.011366621
000070 57 91 a0 be 3a 4b ad be 11 dd 2e be bf e3 63 be
       -0.31360886 -0.33846456 -0.17076518 -0.22254847
000080 f6 97 e6 bd fb a1 24 be a8 9f 9f bc 4f ca 14 be
       -0.11259453 -0.16077416 -0.01948531 -0.145303
000090 d8 0f 0c be dd 62 e3 bd a8 7c a2 bc 07 d8 8d 3c
       -0.13677919 -0.11102841 -0.019834831 0.017314924
0000a0 61 d0 a4 3b b5 16 c0 bd 6c 3f 00 3e b2 c2 48 be
       0.0050297235 -0.09379331 0.12524194 -0.1960552
0000b0 ae 21 02 be 61 84 5e be c4 4d ce bd 2f 58 36 3c
       -0.1270816 -0.21730186 -0.10073426 0.011129423
0000c0 2b 6e 86 bd a9 59 30 bb fc 62 d5 3d 38 b3 a7 bd
       -0.065639816 -0.002690891 0.104192704 -0.0818848
0000d0 69 15 01 be f9 7c 7a 3d ad 70 8c 3d 4d b3 27 bd
       -0.12605824 0.06115434 0.06857429 -0.04094248
0000e0 36 c0 6f 3d dc 23 04 3d 68 2e f3 bd 05 db 8e bb
       0.058532916 0.03226076 -0.11874086 -0.0043596053
0000f0 ae 52 df 3d 2c c4 81 ba 04 ea 93 bd e3 c9 d9 3b
       0.10904442 -0.0009900383 -0.07222369 0.006646381
000100 49 0c aa 3d 85 31 47 bd 67 6d 04 be da 91 0f bd
       0.083031245 -0.04863121 -0.12932359 -0.035051204
000110 38 16 1e 3d 28 45 b6 bd ee 12 49 3d d7 d1 f3 bd
       0.03859541 -0.08899909 0.04909032 -0.11905258
000120 77 cc 41 be 43 3b ba bd f8 53 c2 3d bc 68 00 3e
       -0.18925653 -0.090933345 0.09488672 0.12539953
000130 21 63 a6 3d 42 8b 15 3d 2b 60 b6 3b ad 47 2c 3e
       0.08124376 0.03650976 0.0055656633 0.16824217
000140 c9 30 3e bd 82 fd 29 be a6 da d9 3c 58 83 23 be
       -0.046433244 -0.16600612 0.026593518 -0.15968072
000150 fe 4a 94 bd b6 72 55 be 00 cb 40 3d ed 8d b9 bd
       -0.07240866 -0.2084454 0.047068596 -0.09060273
000160 4f e5 00 be 68 c9 02 be 72 8a e9 3d a2 36 d7 be
       -0.12587474 -0.12772143 0.114033595 -0.4203387
000170 84 cc a9 3c af 33 20 3e 15 53 02 3e c8 99 dc 3c
       0.020727403 0.15644716 0.12727006 0.026928797
000180 33 2f 01 3e 4d 0c 8c be 03 4f 4b 3d 41 51 d7 3c
       0.12615661 -0.27353135 0.0496359 0.026283862
000190 a8 fa 64 be dc c7 ea 3d 28 f8 0c 3d 36 30 5e be
       -0.22361243 0.114639014 0.034416348 -0.21698079
0001a0 74 59 08 be b2 19 76 3d 99 31 ae bd b5 52 06 be
       -0.13315374 0.0600831 -0.08505554 -0.13117488
0001b0 68 1d c2 bc 92 82 bf 3d 27 69 22 3d 86 81 0a 3e
       -0.023695663 0.09351076 0.039651062 0.13525972
0001c0 1e 9b 13 3c 25 a6 58 3d 5f e1 b4 be b3 95 2b 3d
       0.009009151 0.052892823 -0.35328194 0.04189081
0001d0 5f 8d 8e bd 0c 1e a4 bd 0f 65 dd bd 4e 1f ba be
       -0.06960558 -0.080135435 -0.10810291 -0.3635201
0001e0 55 2e 0d 3c 78 43 cc 3d 2a b2 54 be f6 dd 81 be
       0.008617003 0.09973806 -0.20771089 -0.25364655
0001f0 cb dd f0 bc f2 99 db bd a3 2e 32 3d bf be f4 bd
       -0.029402634 -0.10722722 0.043501507 -0.119504444
000200 a6 64 e3 bc 8d 7b e9 3b b5 99 43 bc 04 44 11 be
       -0.027757954 0.007125324 -0.011938502 -0.14186102
000210 2c 42 8a be 2f c1 96 be d0 e3 9f 3c be 16 25 be
       -0.2700361 -0.29444262 0.01951781 -0.16121957
000220 57 ee 38 be c0 d1 60 bd 96 ee 28 be c0 8b 1d be
       -0.1805967 -0.054887533 -0.16497263 -0.15385342
000230 1c 73 8c 3d fa c2 00 3d 1a 63 12 be 92 bc 90 be
       0.06857893 0.031435944 -0.14295617 -0.28268868
000240 e2 47 05 be 3f 46 d6 3d 6d f7 20 3e 87 7f 6f bd
       -0.13015702 0.10462617 0.15719385 -0.05847123
000250 aa bd 5c bd 43 02 aa 3d 9c c0 a8 be 58 0b 95 be
       -0.053891815 0.08301213 -0.3295945 -0.29110217
000260 3b 5d 44 3d c8 c7 2d bd 09 2f 0f be a1 db 95 bd
       0.047940474 -0.042426854 -0.13982786 -0.073172815
000270 38 c2 4b be aa ec c3 bd b3 2d d3 bc bb 9b a7 bc
       -0.19898307 -0.095666245 -0.025778627 -0.02046
000280 89 c9 48 be 05 5b 51 bd 3f e6 b5 bd 2b 75 9a bd
       -0.1960813 -0.051112194 -0.088818066 -0.07541879
000290 1e ea 00 3a a1 75 3a bd 2a a6 e2 bc fc 4e 67 be
       0.00049176987 -0.045522336 -0.027667124 -0.22588724
0002a0 ee d7 95 3d 05 ca 85 3b cf 82 89 3c 0e bc a2 3c
       0.07316576 0.0040829205 0.016786007 0.019865062
0002b0 88 ed ca 3d ec fa e2 bd 9e 6d 2a be 42 9e 17 3e
       0.09908587 -0.11083016 -0.16643378 0.14806464
0002c0 d5 4b 6a be 64 42 05 be 79 4a 48 bd a2 98 3a bd
       -0.2288049 -0.13013607 -0.048899148 -0.04555572
0002d0 fe c1 ed bc 77 5b 2e bc ec 00 f0 3d 7a c8 42 3e
       -0.029023167 -0.010641924 0.11718926 0.19021788
0002e0 33 e2 d7 3d e3 1b 7c 3c cb e6 22 be ec 4d 0d 3d
       0.10541191 0.015387508 -0.15908353 0.03449814
0002f0 4d c1 91 3d b4 cf 5d be ef d3 c2 bb 64 d9 ab bd
       0.07116947 -0.21661264 -0.0059456746 -0.08391073
000300 4f a6 c4 bd 79 9a 6f bd f8 1f 05 bd e6 a6 e3 3d
       -0.09602033 -0.058496926 -0.03250119 0.11115818
000310 82 4f 64 3d d9 56 39 3d 4c 40 50 3b cb ad fc bd
       0.055739887 0.04524884 0.0031776605 -0.12337836
000320 08 9f 02 be 6d 75 9c 3d 93 cf e3 bc 72 83 5c bd
       -0.12755978 0.07639585 -0.02780894 -0.053836294
000330 52 99 a2 be 7e 6d 70 be fa 1c 60 bd 79 fb 0b bd
       -0.317576 -0.23479268 -0.054715134 -0.03417537
000340 e9 cf 23 be 2e c0 1c 3d 9a f8 37 be c2 e9 7d bd
       -0.1599728 0.038269214 -0.17965928 -0.061990507
000350 6b 95 d2 bd 4d 9b bb bc fd b8 0e be 4d 7b 55 bb
       -0.102824055 -0.022901202 -0.13937755 -0.0032574714
000360 d2 0a aa bc 09 81 80 be e3 c8 73 3c e5 70 b3 bc
       -0.020757113 -0.25098446 0.014879438 -0.021904418
000370 70 94 29 bd 3c 1d bc bd ac 5e fc bd ba 15 c8 bd
       -0.041401327 -0.091852635 -0.12322745 -0.09769769
000380 f6 97 25 bd 12 c6 f6 b8 fa 6e 48 bc b0 05 ce 3d
       -0.040428124 -0.000117670876 -0.01223349 0.100596786
000390 40 d6 24 bc 43 93 15 be cf 09 a1 bd ea ce a7 bc
       -0.010060847 -0.14606957 -0.07863199 -0.020484407
0003a0 be 8b bd bc 14 6c 92 3d af db 02 3e 29 42 70 be
       -0.023137923 0.071495205 0.12779115 -0.23462738
0003b0 78 47 52 3b 4b d3 a2 bd 89 d9 6b be 63 5e e3 3b
       0.0032086056 -0.07950457 -0.23032202 0.006938742
0003c0 60 3e 60 bd 06 52 e3 3c 7d a7 57 3b 8d c4 a1 3d
       -0.054746985 0.027749073 0.0032906227 0.07898817
0003d0 1d 06 02 bc 33 63 3a be 08 88 4f 3a a3 ff f1 bd
       -0.007936028 -0.18201904 0.00079166936 -0.11816337
0003e0 f5 59 0c 3e 9c 5a 56 bd 81 ab e9 bc a9 2e 36 3e
       0.13706191 -0.052332506 -0.028524162 0.17791237
0003f0 07 a5 a6 bc 79 e1 0c be 5a a0 c6 bd 06 02 96 be
       -0.020342363 -0.13757886 -0.096985534 -0.2929842
