SAC/actor_v1.pth (torch, 446267 bytes, 14 tensors)

fc1.weight f4 [32, 9]
00000000: e02f 003d e1e4 5e3e a399 0cbf 5309 96be
00000010: 2445 6fbd 7b81 323d 0f48 07be 445a ec3e
00000020: d2cd 98bd c872 633e b919 4bbe b42e 633d
00000030: 1d39 c8be 4363 35be c244 d0bd 6ca7 063e
00000040: 72f6 2f3e 321a 5c3e 41d0 87be d608 a5bc
00000050: e828 713e 170a 0a3f a3ac dd3b b3d7 2c3e
00000060: 111f 0ebe 7bd3 6b3d 0cdb b63e 4cb5 13be
00000070: df99 abbe b24a f63c 2d21 71be 2f70 573e
00000080: 1b7c 69be 6f32 cdbd 1d2f 90be e7a3 89be
00000090: 6c60 08bf 5930 d33e 76fb 40bd d3e3 c43d
000000a0: 12e7 4c3b 4550 39be 64c7 9e3e 630b a2be
000000b0: 3816 03be 6053 6ebf 01e1 a33e 53c7 393e
000000c0: b34b 5fbe 711b 1e3d b285 fb3d 02ef d63e
000000d0: 5bc9 b93c bda1 a63d e5ae 713e 3660 86be
000000e0: d54e 8e3e 9a2d 93be f3b9 1bbe ba63 f2bd
000000f0: ca6b febc 8647 a43e f2fd 88be 1b47 f0be
00000100: 0a6d 7a3e b3dc cc3c ea5c a53c d52a ce3d
00000110: 2f3b 1f3e 3188 0a3f 7719 debe 431e d2bd
00000120: 6188 8d3e c3aa ab3e 9014 d33e a566 0c3f
00000130: b52d 3d3d ed2c 67be 2aec ee3c 1a17 dbbd
00000140: f949 88be fa97 023f d1f8 b33e 38fa dcbe
00000150: 22e8 863d 66dd 00bd a05b ebbd 8a91 9ebe
00000160: f06e 703e f494 d2bd 9668 a83e 79ab 4f3e
00000170: 6352 be3e 9d94 bf3d f19f 8ebe c258 2dbe
00000180: a208 253e 7d95 77bd efea 59be b70e bdbe
00000190: 941a cd3e b372 03be e694 55be 6c6f b0bd
000001a0: 60bb 88be 5614 0abe dedb 85be 8d84 51be
000001b0: db64 17be b5e9 19bd 9181 c1be e76a 213e
000001c0: 2992 20be 019d 523e 3661 d83e f331 66be
000001d0: a9a9 a1bd bbe9 b33d c42b 973c 430d bfbc
000001e0: c0bc d03d df9f 153d dcbb 36be 1ef6 5f3e
000001f0: 87ae 18bf 6d56 33be d922 493d 910a e4bd
00000200: 8e1e 913c 7f96 99be af51 1fbd 0b5a 503d
00000210: 4087 efbe 7202 9abe afaa 953e 2b97 313e
00000220: d15e febd 6c82 733e 73e0 043d 70a9 813e
00000230: 963d 933e 8fe4 0f3d 0c0b ea3e ff84 56bd
00000240: 0d27 9dbe 7ff9 a7bd f1ad d03e 42ea 8bbd
00000250: c44d 67bd 0e31 65be 2ce0 d2be eaa3 04bf
00000260: 1ba6 ab3b 8187 6e3e 82d5 5a3e 256c 70be
00000270: e98f 263e e0f3 29be b8a3 44bd 247b b7be
00000280: 32d8 24be d09b b4bd 96be 98be f8ac 23be
00000290: 2305 09be ce16 adbd bcee 6ebd 5f2d 833d
000002a0: 01f4 23bf 26b4 05be 9122 b13e 5853 08be
000002b0: 5f6b db3e d222 13be 2371 7dbe 1d5d be3d
000002c0: c7a5 3c3c 715d 9cbe d23d f63e d4e7 56be
000002d0: 5272 723e f695 873d 3992 a53e cd11 613e
000002e0: 0f68 873d 0e9d 573e e217 21be 40a3 5b3b
000002f0: b8c7 42be e755 d63e dba7 533e de6a e43e
00000300: 022b 5bbe 2628 3eb9 965f 69be dab0 9fbe
00000310: 736c 86be 6e3f 0f3e ec70 25be 34aa 2d3e
00000320: e6ab 5cbe 16bf ce3d 6599 61be 33e1 86be
00000330: ca00 d8be c66c 013f f51d 423d 93b5 d83e
00000340: 288c 343e 80fa 833e 0c21 8bbc daae 8e3c
00000350: 076a b73d 3c88 a4be cc8a 57be e1db 253d
00000360: 61bf dbbe 860a 36be 5adf f33e b60f 98be
00000370: 287f 803d a4e2 873e 067d dc3e cac7 4a3d
00000380: 74b1 43be 331b b33e 10b0 dabe dcf2 e4be
00000390: b89d 68be 8cd9 05bd ab42 dcbc 0cb7 f33e
000003a0: 6981 473e 2e7b 803e 7bd8 d83e 4eaf 4cbe
000003b0: 65af 013e 2e43 99be 0fc5 e1bc c1fe 8c3d
000003c0: 1391 ce3d e716 b53e 6e5b 7cbd d968 cbbd
000003d0: 8fb7 a13e 741a ebbe 4161 853e 1950 2dbe
000003e0: e939 5dbd a165 a5bd a61f 73be a423 e83d
000003f0: e808 e53e 2fc5 46be 68fb 35be 79d9 75bd
0.031295657 0.21766998 -0.5492193 -0.2930399 -0.058415547 0.043580513 -0.13211082 0.46162617
-0.07461132 0.22211754 -0.19834031 0.05546446 -0.39106074 -0.17713647 -0.101693645 0.13149804
0.17183855 0.21494368 -0.26526073 -0.020145815 0.23550761 0.53921646 0.0067649647 0.16879158
-0.13879038 0.05757473 0.35713995 -0.14424628 -0.33515832 0.030064914 -0.23547812 0.21038888
-0.22801249 -0.10019385 -0.28160945 -0.2688286 -0.5327213 0.41247824 -0.04711481 0.096137665
0.0031265658 -0.18097027 0.31011498 -0.31649312 -0.12801445 -0.9309597 0.32007602 0.18142442
-0.2180622 0.03860039 0.1228136 0.41979223 0.022679022 0.08136318 0.23601873 -0.26245278
0.2779452 -0.2874573 -0.15207653 -0.118354276 -0.031057257 0.32085818 -0.26756245 -0.4692925
0.24455658 0.025007581 0.020185906 0.10066763 0.1554992 0.5411406 -0.43378803 -0.10259678
0.2764311 0.33528718 0.41226625 0.54844123 0.046186168 -0.22575732 0.029165346 -0.10697766
-0.26618937 0.5101315 0.3515077 -0.43159652 0.065872446 -0.031461142 -0.114920855 -0.30970412
0.2347982 -0.10282317 0.32892293 0.20280255 0.3717223 0.093545176 -0.278564 -0.1692839
0.16116574 -0.060445298 -0.21281026 -0.3692529 0.4005934 -0.12836723 -0.20857581 -0.08615002
-0.26705456 -0.1348432 -0.26144308 -0.2046072 -0.14784567 -0.037576396 -0.37794164 0.15763436
-0.15680756 0.20567705 0.42261666 -0.22479992 -0.07893688 0.08784815 0.018453486 -0.023321753
0.10192251 0.036529418 -0.178451 0.2187123 -0.5964131 -0.17513438 0.0491055 -0.11134828
0.017714765 -0.29997632 -0.03889626 0.05086712 -0.46782875 -0.3007999 0.29231784 0.17342822
-0.124204285 0.23780221 0.032440614 0.25324583 0.28757924 0.03513008 0.45711553 -0.05237293
-0.30693856 -0.082018845 0.40757707 -0.068317905 -0.056470647 -0.22381994 -0.41186655 -0.51812613
0.005238307 0.23293878 0.2137051 -0.23478754 0.16265835 -0.16596937 -0.048007697 -0.35836136
-0.16098097 -0.088187814 -0.29832906 -0.15983951 -0.13380866 -0.08451615 -0.058333144 0.06405138
-0.64044195 -0.13057002 0.34596685 -0.13313043 0.42855355 -0.14368752 -0.2475019 0.09295104
0.011514134 -0.3054004 0.4809404 -0.20986873 0.23676422 0.066204 0.32338122 0.21979447
0.066116445 0.21056005 -0.15731767 0.0033514053 -0.19021499 0.41862413 0.206695 0.44612783
-0.21403125 -0.00018134768 -0.2279037 -0.31189615 -0.26254615 0.1398904 -0.16156358 0.16959459
-0.21549949 0.100950405 -0.22031172 -0.26343688 -0.42188102 0.505566 0.04739185 0.4232603
0.1763159 0.25777054 -0.016983531 0.01741736 0.0895577 -0.3213519 -0.2104904 0.040492896
-0.42919448 -0.17777452 0.4763134 -0.29699486 0.06274253 0.265401 0.43064135 0.04950694
-0.19110662 0.3498169 -0.4271245 -0.44716537 -0.22716415 -0.032678172 -0.026887259 0.4760059
0.1948296 0.2509398 0.42352661 -0.19988748 0.12664564 -0.29934067 -0.027559785 0.06884528
0.100862645 0.35369036 -0.06161063 -0.099321075 0.31585357 -0.4591862 0.2605076 -0.16925086
-0.054010306 -0.08076025 -0.23742542 0.11334923 0.44733357 -0.19411157 -0.17771685 -0.06002185

fc1.bias f4 [32]
00000000: 5754 f8bd 3380 e638 233e 17be 93d6 1f3e
00000010: 9c77 5f3e d94e f13c 8f8e 14be 4c61 3ebe
00000020: 51c9 8c3e f536 1dbe f22d 3c3e eb00 74bd
00000030: 2d90 20be ef92 a83d 22a3 f4bd c1c9 463d
00000040: aba0 0d3e 3a5c 8abe ccdd dd3d 9d4f 4e3e
00000050: b59b 5d3e d5ed 82bc 0c31 d9bd f8d1 5abd
00000060: 4ca7 5a3e a44f 2dbe 145b 303e 1124 953e
00000070: ebc4 4cbe a7f2 1d3d 0535 5b3e 8635 633c
-0.121254615 0.000109911336 -0.14769797 0.15609197 0.21822971 0.029456543 -0.14507507 -0.18591803
0.27497342 -0.15352996 0.18376902 -0.059571188 -0.15679999 0.0823115 -0.119451776 0.04853225
0.13830821 -0.27023488 0.1083332 0.20147558 0.21641429 -0.015982548 -0.10605058 -0.053422898
0.21352881 -0.16924912 0.17222244 0.2912908 -0.19996993 0.03856149 0.21406944 0.013867741

fc2.weight f4 [64, 32]
00000000: 4834 ed3d 1bc4 cdbc 4b53 22be 13e7 863c
00000010: aede b93d 5b2e 593d f6ad 2c3e 1615 0abe
00000020: 267f 363d b812 25be 683e 3fbe 6dfd 33be
00000030: b483 3f3e ffc4 87bd e895 1ebe 47b0 8f3d
00000040: 5510 db3d dda4 163e bac4 793e 8882 fe3d
00000050: d151 a4bd 7f61 f0bd d8e2 733e 8590 433d
00000060: b5eb a3be d90d eb3d e45b c83d 8ccf ab3d
00000070: 6b32 82bd dc95 b93d ac85 01be 6176 933d
00000080: 271a 903c 6f0e bf3d 4d20 603c 99d5 763d
00000090: 1a50 8bbd b0ec b93c be53 00be fc89 e33c
000000a0: 7262 2fbe 06e1 82bd 9f2d 00be 988b 163e
000000b0: 45e0 9a3d 6524 943e 4b47 443e 25ad 50be
000000c0: 7c9a d8bd 5fbe 373a 03d0 a3bd 17d6 b23d
000000d0: ee41 8abe 541b dbbd 63ac fdbc b0ff 3cbe
000000e0: ebc9 a33d e4dc 763e eab6 313e d306 ef3d
000000f0: 628c 543e b393 59be 634b 693e 7dd3 533e
00000100: b05e df3d b9eb 233e 06f4 453d 2af5 ff3d
00000110: 2678 b0bd c280 693d e665 a13b 3ec4 f6bd
00000120: 7fbe 0dbe dff2 97bd 0ff6 3dbe 7bb1 da3d
00000130: a285 9a3d 7030 6dbe c764 dfbd 0219 473e
00000140: 898a cd3d a50f dd3d 6e46 06be 1a90 823e
00000150: 604a 213e e02e 03be 7e6b 863e 6d1f 103e
00000160: f448 37bd 9cb0 5e3d 3bd7 a63b c40e acbd
00000170: 7bfc 313e 0e73 cf3b 47f4 57be e360 82bd
00000180: 75f4 1b3c deae 443c c85c db3d aeac 253e
00000190: f435 073e c1d4 523c 274b a2bd 3621 313d
000001a0: 6029 033e f068 1ebe 321c 503d 0e3b 28be
000001b0: 5d4c 75bd b97a f9bc 882f f4bd 1f42 803e
000001c0: 099a a8bd 553a 783d a578 423b 0ee8 32bd
000001d0: 467a 86bd 2cc5 2dbe d03b 8d3e 427e 2abe
000001e0: 44fc d3bd 4a93 afbd 0489 a0bd aa67 5f3e
000001f0: fb50 d5bd f2ec aa3e aa03 df3d 7f96 cd3d
00000200: 2730 2e3d 93fd 53be 5ac4 2a3e b54b 133e
00000210: c2b5 b33d ecf5 793d 788b e8bd 5b2b e53d
00000220: 2e1a c9bc 672d 313e 8ada 46be a9a9 4dbd
00000230: ae12 3ebe 8445 2fbe 3261 6a3d 4c6b c2bd
00000240: a863 4a39 7ecd bc3d 10e4 423c f349 9abd
00000250: dfc0 24be 5b46 b7bb 0684 473e b314 a43e
00000260: b894 993c a2be 05be f4e8 463d 04d5 13be
00000270: cb79 7abe ac24 413e 6d64 29be b69f aa3d
00000280: ed0b 15be acae 51bd 061b 12be 02d5 633d
00000290: fb79 f7bd 3686 b23d 302f 813d b63a 7c3d
000002a0: 4214 4f3c 0bd1 a2bd 299c 00bd 1aa5 783c
000002b0: a21a f23d c6bb e1bd 6756 493e 81d8 7e3c
000002c0: 06c6 c5bd b9d5 9abd 2842 253e 2d0b 083e
000002d0: 6527 6abe e281 3f3e 37e2 113e 2af7 503e
000002e0: ee81 333e fb26 02be aa75 093d 54c4 873d
000002f0: 64cb acbd 9699 173e d65f b4bd 39af 993d
00000300: 2956 cd3b 4f9c 13be d034 b23d 07c0 563d
00000310: e3ba 82bd 2ed4 013d fb49 833c 94eb 0a3c
00000320: 36b7 1abe ec65 b83c 62f8 aa3d ca90 aabe
00000330: a3a8 9ebd 2d13 cb3c be18 793e 7498 54bc
00000340: 15fc 253d 9e31 a73d 492a 663e a1cc 053e
00000350: 0b54 2ebd 5d3b 50be 7535 afbc af49 6a3e
00000360: a2d0 27bd 3595 80be 578e e7bd e32e a23d
00000370: eedc 463d 94ae 963d 5c27 d5bd a353 81bd
00000380: 4e75 76bc 152a 543e 4b68 04be 23da f2bd
00000390: 880e edbd ab7f 1b3e a918 8bbe 78b4 48be
000003a0: 67c0 343e e315 51be e29a 653d 3cc4 78bd
000003b0: 0902 31bc d7d8 b7bc 49df 0f3e 4038 0d3d
000003c0: 99af 48be 916b 6dbd 9690 88bd 7eb8 06bd
000003d0: 6922 8bbd ec79 263e b7a1 bcbd 926e 45bd
000003e0: 7e79 2a3e 5d24 123e 0887 513e dba6 e13c
000003f0: 6b36 96bb dfee 05be 17a4 49bd d6be d83d
0.115822375 -0.025117924 -0.15852086 0.016467607 0.09075676 0.053022724 0.16863236 -0.13484606
0.044554852 -0.16120422 -0.1867615 -0.17577143 0.18702585 -0.06629371 -0.15486872 0.07016044
0.106964745 0.14711328 0.24391451 0.124272406 -0.08023418 -0.11737346 0.23817003 0.047745246
-0.32015768 0.114772506 0.09783152 0.08389196 -0.06357273 0.090617865 -0.12648648 0.07200313
0.017590595 0.09328925 0.013679576 0.060262296 -0.068023875 0.02269587 -0.12531945 0.027775757
-0.17127398 -0.06390576 -0.12517403 0.14701688 0.07562307 0.28934017 0.19167821 -0.2037855
-0.105763406 0.00070092635 -0.079986595 0.08732241 -0.27003425 -0.10698572 -0.03096599 -0.18456912
0.07997497 0.241077 0.17354932 0.116712235 0.20756677 -0.21247749 0.22782664 0.20686145
0.10906732 0.1600789 0.048328422 0.12497933 -0.086166665 0.05700756 0.0049254773 -0.12049149
-0.138422 -0.07419371 -0.18550895 0.10678383 0.0754502 -0.23163009 -0.10907894 0.19443133
0.10036189 0.107939996 -0.13112804 0.25500566 0.15751028 -0.1281085 0.26253885 0.14074488
-0.044747308 0.054367647 0.0050915754 -0.08401254 0.1738147 0.0063308543 -0.21089278 -0.06366136
0.009518732 0.012004582 0.10711056 0.16179153 0.13204175 0.012868107 -0.079244904 0.043244563
0.12808752 -0.15469718 0.05080814 -0.16428778 -0.05988728 -0.030454027 -0.11923128 0.25050446
-0.08232505 0.060602505 0.002967396 -0.043678336 -0.065662906 -0.16969746 0.27584696 -0.16649726
-0.1035085 -0.08573015 -0.07838634 0.21816888 -0.104158364 0.333839 0.10889371 0.100384705
0.04252639 -0.207022 0.16676465 0.14384349 0.08774902 0.061025545 -0.113547266 0.1118991
-0.024548616 0.17302476 -0.19419304 -0.05021063 -0.18561813 -0.17116362 0.0572216 -0.094931215
0.00019301346 0.09218882 0.011895195 -0.07533636 -0.160892 -0.005593104 0.19483957 0.32047042
0.018747672 -0.13061002 0.048562005 -0.14436728 -0.24460523 0.18861645 -0.16542216 0.08331244
-0.1455533 -0.05119197 -0.14268121 0.055623062 -0.12083813 0.08717005 0.063078284 0.06157943
0.012639107 -0.07950028 -0.031398926 0.015176082 0.11821486 -0.11022143 0.19661866 0.015554548
-0.096569106 -0.075602956 0.16138518 0.13285513 -0.2286659 0.1870189 0.1424645 0.20406786
0.17530033 -0.12710182 0.03355948 0.066292435 -0.08437231 0.14804682 -0.08807342 0.07504124
0.0062663746 -0.14415096 0.087014794 0.052429225 -0.06383302 0.03169649 0.016026488 0.008479018
-0.15108952 0.022509538 0.083481565 -0.3331359 -0.07747009 0.024789417 0.24325845 -0.012975801
0.040523607 0.081637606 0.22477068 0.13066341 -0.04256062 -0.20335145 -0.021387795 0.2287967
-0.040970452 -0.25113836 -0.11306446 0.07919099 0.04855054 0.07357517 -0.10407898 -0.063147806
-0.015042616 0.20719178 -0.1293041 -0.118580125 -0.11575037 0.1518542 -0.27167252 -0.19600093
0.1765152 -0.20418505 0.05605591 -0.06073402 -0.010803708 -0.022442264 0.1405002 0.034477472
-0.19598235 -0.05796391 -0.066682026 -0.03289079 -0.067936726 0.16257447 -0.09210532 -0.04820115
0.16647908 0.14271684 0.20461667 0.027545383 -0.004584124 -0.13079403 -0.049228754 0.10583274

fc2.bias f4 [64]
00000000: 5709 f73d 3d23 8bbd d199 5abe 7189 cf3d
00000010: f9b4 443e d8e1 10bc edcb 8cbd fd8e 923d
00000020: 5fdd 663d 302b 11be c4cd 593e 3e74 213e
00000030: a4a1 393e be9c 813d 5437 b03c 69fb 15be
00000040: 83d7 823d 43bc b9bd 9f39 a03d 3cba 25be
00000050: 2009 6ebd a22d d03d 5f73 d3bb af4e 02be
00000060: b4e5 1dbe e618 e63d 3d32 19bd 1b5b a0bd
00000070: 1985 463e 5a8c 263d aa70 6cbd e804 cfbd
00000080: 318e 0a3e 1af2 933c aafa 05bd 6f9e 093e
00000090: 2431 82bd 5cd7 643d 1e99 bcbd cc9c 40be
000000a0: 4cfe 09be 9bb9 febc 79f1 15be 8877 553e
000000b0: 3376 343d b2ff cabc 5808 293d 5992 01be
000000c0: 9456 9bbd 2398 a43d 4493 04be 11a1 bd3d
000000d0: 5525 abbc 0bd5 1ebe b6b9 14be 18d6 293d
000000e0: 9fe0 b83d 92d9 e8bc 4700 50be 9391 cabc
000000f0: a021 4b3d 172d 15bd 5ee8 803d 04dd 0e3c
0.12062328 -0.067938305 -0.21347739 0.10133637 0.1920966 -0.008842908 -0.06874833 0.07156179
0.05636346 -0.14176631 0.212699 0.15766999 0.18128067 0.06328724 0.021510758 -0.14646687
0.06388762 -0.09069111 0.0782349 -0.16184324 -0.05811417 0.10164954 -0.0064529623 -0.12725328
-0.15419656 0.11235218 -0.037401427 -0.07829877 0.1938671 0.040661193 -0.057724632 -0.10108358
0.13530804 0.018059779 -0.032709755 0.13439344 -0.06357029 0.055869445 -0.09208892 -0.18809813
-0.13475913 -0.031094363 -0.14642896 0.20846379 0.044058036 -0.024780128 0.041267723 -0.12653483
-0.07584873 0.0803683 -0.12946802 0.092592366 -0.020891825 -0.15510957 -0.14523968 0.04146394
0.09027218 -0.028424058 -0.20312606 -0.024727618 0.049592614 -0.036419954 0.062943205 0.008719686

fc3.weight f4 [128, 64]
00000000: 6a3e 21bd 4937 173d 785d 493d eb84 0d3e
00000010: 8cc4 1f3e fa14 89bd fef4 863d 516a 39bd
00000020: 61eb 2d3d d663 333e c77f e6bb 215e 00be
00000030: 773f 92bd 3085 6e3e e136 ae3c ad21 a6bd
00000040: cfc5 51be 9e67 03be b252 223e 4825 193e
00000050: eff4 623d 707b cfbd 2811 573e fed3 7abd
00000060: 6aff bebd 90c2 9fbc b7cc 833e a8b1 383e
00000070: 0096 003d 4cb8 e0bb 08b2 1d3e f193 f4bd
00000080: 9400 113e 2f40 003d b2ac c23d 5939 c93d
00000090: 5864 4b3c cc01 793d 0674 863d 948b fcbd
000000a0: d6e1 d9bd a985 15bd 1d33 073e 94b5 9abd
000000b0: 0621 063e 673e c8bd bbce 0abe 2c19 80bc
000000c0: 4136 4fbd 5b4a a0bc 084d e23c 0e11 debc
000000d0: 9302 21be 8231 a0bd 239b f73d a8c3 67bd
000000e0: f087 21be a233 053e 6a7d b7be 179b c5bc
000000f0: 503f 153e ba8b a03d a1a3 26bd 9346 5d3d
00000100: 1582 0e3e 1250 013e 0c6a 373c f315 b83d
00000110: 1460 913d 1b46 413b 6752 6bbe 0535 343d
00000120: 1214 febd b509 87be 0748 873d 2d62 533e
00000130: 5c69 35bd fddc 3d3c e6ed 99bc a911 933d
00000140: f4d1 933e a69f 4c3d 938d eebe 8668 76bd
00000150: 84f0 7e3d ca09 e7bd 8136 5b3c c8d2 0ebd
00000160: 408c cbbc d429 373d 3c9b 31be 31b3 aabd
00000170: 48af d73d 974d 11be 80c3 093e f356 943d
00000180: 74ba d6bd b885 a73d c6b0 77bb 104a 52be
00000190: 15f6 c7bc b0b8 61bd da92 db3d af45 d4bd
000001a0: a763 573c 8bcb 77bd 35ca 983d 6c9c a1bd
000001b0: d9db 72be 59d7 c0bd f671 28be 1960 523d
000001c0: ead7 86be 5840 8ebd b429 3ebc 05ca ad3d
000001d0: 2756 30bd 7830 3d3d 2f9d 89bd 356d 363e
000001e0: 528e 82bd ab36 c33d 93de 213e bc56 033e
000001f0: f8f5 2dbe 14f3 be3d 70d2 873d 61d8 0abc
00000200: 6730 36bd 1445 aabd c987 e43d fdb3 dabc
00000210: 9889 3cbe 6947 223d a114 42bc 6883 043d
00000220: 3c3f a73d b462 963a a64d 413d bec6 3cbd
00000230: 68c4 ec3d c1c0 533d 775c 293d bfad f23c
00000240: 6b2d 40be 3cd9 223d 2e09 b63d 1981 773a
00000250: d0aa 2bbe c4b7 b23d e508 46bc 3d53 253d
00000260: 70ed 0fbd 3842 a33d 289b 97be 1900 193e
00000270: 3263 37be df1b 0e3e eb89 36be db41 53bd
00000280: 5036 3bbe 7f45 76bd 055a b2be 8274 be3d
00000290: 33b1 3a3e a076 153e 0c98 233d e4de 9d3d
000002a0: aec5 fb3d 0ab5 0abe 6caa 2b3c 2a89 97bd
000002b0: 0cfd a6bd 7fbb 42be 6182 393c 2809 15be
000002c0: 0440 a9bc 86ca 32be af65 fdbd 217a 013d
000002d0: 89fc 11be 8e94 063e 74a4 04be a98f 2cbe
000002e0: c064 883b 972e f8bd 8388 1a3e 6ab9 c83d
000002f0: 4cb3 a0be b6f9 1e3d df63 3abc 14db e43d
00000300: 7322 57bc a749 1fbe 7eb8 973d d9a8 fd3b
00000310: 6f86 ea3b 0981 403c 0430 4b3c 48dd 02bc
00000320: 11ae 33be 59a7 423c 9642 523d b5bf 213e
00000330: 3c02 41bd 43e8 213e 661b 9e3d 1988 86bd
00000340: 171c 43bd a2a2 84bb e2d2 973d 9052 c43c
00000350: b78c be3d 59f2 323d c07e 633d 317b 4b3d
00000360: d015 9e3d a0b9 dc3c f05d 923e dbc3 2f3d
00000370: b6cc 8f3d 352e f6bd bd7b cb3d 9110 e03c
00000380: dd17 843d c424 4dbd abc7 143e 06a9 f93d
00000390: 0ce1 f0bd ebda b8bd 5486 b03d b908 783d
000003a0: ca9e 4abd cf4c 053e c6c5 563c 4735 61bd
000003b0: 0f04 a53b d193 a83d a9b2 b03d 111f 85bd
000003c0: 7255 8b3c 82af ba3d 65fe 03be d1de af3d
000003d0: 0ea3 eb3d 3a1a 423d 9d22 233c 7a60 d73d
000003e0: c250 19be 9049 91bc 0e4a 6bbd bfa0 5b3d
000003f0: 3048 fbbd 0e36 563c 2132 14be f026 ec3c
-0.039366163 0.03691796 0.049161404 0.13820235 0.1560232 -0.06693454 0.06589697 -0.045267407
0.042460803 0.17518553 -0.007034275 -0.12535907 -0.07141011 0.23292994 0.021266403 -0.08111892
-0.20485614 -0.12832496 0.15851858 0.14955628 0.055409368 -0.10130966 0.21002638 -0.061237328
-0.0932606 -0.019501954 0.25742123 0.1803652 0.03139305 -0.0068579074 0.15399945 -0.1194228
0.14160377 0.03131121 0.09505595 0.09825391 0.0124140605 0.06079273 0.065650985 -0.1233131
-0.10638778 -0.03650442 0.13203092 -0.075541645 0.13098535 -0.09777527 -0.13555424 -0.015637003
-0.05058885 -0.019566705 0.027624622 -0.027107742 -0.15723638 -0.07821943 0.12090137 -0.056583077
-0.15774512 0.13007978 -0.3583787 -0.024121804 0.14574933 0.07839151 -0.040683392 0.054022383
0.1391681 0.126282 0.011194717 0.089885615 0.070984036 0.002949125 -0.22980653 0.043995876
-0.12406172 -0.26374593 0.06605535 0.2064292 -0.04428993 0.011588332 -0.018790197 0.07181103
0.2887112 0.04995694 -0.46592388 -0.060158275 0.062241092 -0.11281164 0.013379694 -0.034868985
-0.02484715 0.044717625 -0.17344373 -0.08334959 0.10531479 -0.14189754 0.13453484 0.07243147
-0.10484782 0.08179802 -0.0037794574 -0.20536065 -0.024409333 -0.055107772 0.10721369 -0.103648536
0.013146318 -0.060496848 0.07460443 -0.07891163 -0.23716678 -0.09416074 -0.16449723 0.051361177
-0.26336604 -0.06945866 -0.0116066225 0.08485798 -0.04305091 0.0461888 -0.067194335 0.17815097
-0.06374802 0.095319115 0.15807562 0.12826055 -0.16988361 0.09323707 0.06631935 -0.00847444
-0.044479754 -0.08313957 0.111587115 -0.026697153 -0.18411863 0.039618883 -0.011845739 0.03235188
0.08166358 0.0011473508 0.047193192 -0.046087973 0.11560899 0.051697496 0.041347947 0.029623864
-0.18767326 0.039757952 0.0888847 0.00094415393 -0.16764379 0.08726457 -0.012087082 0.040362585
-0.035138547 0.079716146 -0.29610562 0.14941444 -0.17908934 0.1387782 -0.17826049 -0.051576477
-0.18282437 -0.06012487 -0.34834304 0.09299566 0.18231659 0.14596033 0.039939925 0.07708529
0.12293564 -0.13545623 0.010477643 -0.07399209 -0.081537336 -0.19016837 0.011322589 -0.14554274
-0.020660408 -0.17460069 -0.1237291 0.03161061 -0.14256491 0.13142607 -0.12953359 -0.16851677
0.004162401 -0.12118261 0.15091138 0.0980099 -0.31386793 0.03881236 -0.01137635 0.11174598
-0.013130772 -0.1555544 0.07408236 0.0077410755 0.007157139 0.011749514 0.012401585 -0.007987328
-0.1754687 0.011880719 0.051333033 0.15795787 -0.04712127 0.15811257 0.077200696 -0.06568927
-0.04763421 -0.0040477077 0.074132696 0.02396515 0.09304183 0.043688152 0.0555408 0.04967803
0.07719004 0.026943982 0.28587294 0.04291139 0.070214674 -0.12020532 0.099357106 0.02735165
0.06449864 -0.05008389 0.14529292 0.12190442 -0.11761674 -0.0902613 0.08619371 0.060555194
-0.04946784 0.13017581 0.013108676 -0.05498245 0.005035884 0.08231319 0.08627827 -0.06500066
0.017008517 0.09115507 -0.12890013 0.08587421 0.115057096 0.047388293 0.009956983 0.10516448
-0.14972213 -0.017735273 -0.05744367 0.053620096 -0.12269628 0.013074411 -0.14472248 0.02882716

fc3.bias f4 [128]
00000000: 73d4 083d 648c 48bc 2759 b63d 86d2 d5bc
00000010: b5e8 ce3d 9855 0b3e db02 5a3c 89cb b83c
00000020: 9da1 aa3d ca63 f03d 538a b33b 7171 60bd
00000030: 6041 2fbd cad9 fabd 0b82 21bc 7790 1bbe
00000040: 98cc e63c 9c35 6e3d dea5 703d 2c8d 28bc
00000050: c40e b33c ff8a 8a3d c69c 7fbd e58a fe3c
00000060: 3a9f a8bc 7116 c8bd 90c9 633d ee40 b33d
00000070: 3218 963d 36ea ba3c b177 993c 6898 51bc
00000080: 3153 66bd 019d d93d 06c1 ff3d 3230 d83d
00000090: 26ef 03be df5c 1d3d a603 16bd 1b87 f1bd
000000a0: 7699 243e cfe6 f13d 9b33 e43d caf4 013e
000000b0: 251e 83bb 6f67 0e3e 789f a53c 38c2 afbd
000000c0: 4fed 8abd 70d6 85bd f115 f73d a912 fabd
000000d0: 6289 273e e738 ccbc d9db 0e3d a742 ab3c
000000e0: 14e2 bfbd ee5d 423c 03c5 783d c88e f9bb
000000f0: c6aa 523d cb2c 053e a036 373d e028 af3d
00000100: c4be 20bd 28d2 c53c 0b67 ad3c bb19 34be
00000110: ad2c 7bbd 2970 9c3d 9c01 04be ba67 3e3e
00000120: da11 0e3c 085b bd3d ee64 633c d69f d5bd
00000130: eb7c 0d3e da70 63bd d845 f8bc b5d7 a5bc
00000140: 2f95 31be 574d c93d ce3f 43bd e672 f43d
00000150: d94d c1bb 421d 213e db10 a73d 616d 8a3d
00000160: 7bdb 08bd 4749 1abd 34e3 53bd 7dd6 f03d
00000170: 0e90 223d dae4 d93d 56e3 22be c978 f4bd
00000180: 898a 02be 30d3 b63d 2362 c23c 3aa1 63bd
00000190: 7153 e5bd b483 fd3d 03cd df3c b115 a6bd
000001a0: 08ea e73b 5f9b b93d 7246 ba3c 5e63 da3d
000001b0: e3f7 00bd 203e b0bd ecb5 e4bd 7eec 6ebd
000001c0: fd41 17be 0f0b 123d 13ee 7c3d 510a b23d
000001d0: 4dac 42bd b2a5 8e3c 711e 9d3d fc3e d63d
000001e0: fc38 89bd e166 a7bd 180a 473e 0a04 efbd
000001f0: 8544 52bd e4ff 023c 60cd 52bb ce15 1b3d
0.033405732 -0.012240503 0.08903723 -0.026101362 0.10102979 0.1360687 0.013306345 0.02255799
0.083316065 0.11737783 0.005479136 -0.054795686 -0.042786956 -0.12248571 -0.009857665 -0.15191828
0.02817373 0.058156595 0.058751933 -0.010287564 0.021857627 0.06764793 -0.06240537 0.03107209
-0.020583738 -0.09769905 0.055612147 0.08752619 0.07328834 0.022816759 0.018733831 -0.012792684
-0.05623168 0.10625649 0.12487988 0.105560675 -0.12884197 0.038418647 -0.036624573 -0.117933474
0.16074166 0.11811601 0.111426555 0.12691036 -0.0040013962 0.13906644 0.020217642 -0.08581966
-0.06783544 -0.06535041 0.12064732 -0.122105904 0.16361001 -0.024929477 0.03487763 0.020905806
-0.09369293 0.011863215 0.06073476 -0.007615898 0.051432393 0.13005368 0.04472983 0.08552718
-0.03924443 0.024148062 0.021167299 -0.1758794 -0.061321903 0.0763858 -0.12891239 0.18594256
0.008671248 0.092458785 0.013879044 -0.10430877 0.13817184 -0.055527546 -0.030306742 -0.020244459
-0.17342065 0.098292045 -0.04766827 0.11935978 -0.0058991727 0.15733817 0.08157512 0.067591436
-0.033412438 -0.03766754 -0.05173035 0.117596604 0.039688163 0.10639353 -0.15907034 -0.119371004
-0.1274816 0.089269996 0.023728436 -0.05557368 -0.11197556 0.12378636 0.027319437 -0.08109606
0.0070774592 0.09062838 0.022738669 0.10663484 -0.031486403 -0.086055994 -0.11167511 -0.058331005
-0.14771266 0.035655078 0.061750483 0.08693374 -0.0475276 0.017412994 0.07671822 0.10461232
-0.06700322 -0.081739195 0.19437444 -0.11670692 -0.051334877 0.007995579 -0.003216587 0.03786259

fc4.weight f4 [256, 128]
00000000: ada7 b1bb 92b9 143d 7544 05be ef74 0d3d
00000010: 71c1 3ebd 5f9c 7b3d 792a 85be 996f b73d
00000020: 1f4a 073e 8cbb d53d ac56 113e ef5a 073c
00000030: ded6 7a3d ca96 033d 2893 58be 8502 b9be
00000040: c08f dd3a 4528 19bd 8cee 203e 1fdb b73d
00000050: 5d4c 2e3d 995e 9bbc d8e8 743c fe65 f9bc
00000060: 7e8a 09be 40f5 bb3c e85c 463e 60a7 503d
00000070: 0a8b cc3d 1192 013c f5e1 7fbe 12af 28bd
00000080: 76df 5fbb e99c cbbd a185 223d cdc0 0b3e
00000090: 6a98 07bd 07b5 92bd ee2e 9e3c b490 c03d
000000a0: e5bb 3d3d 1099 543c d0d2 d4bd 2d3e 8ebd
000000b0: 7c74 5f3e 6fa1 2f3e 0f0f d8bd 3936 1fbd
000000c0: b307 b7bd 1e95 983d 0746 82bd a864 81bd
000000d0: 87ee fa3d d203 01be bece bc3b 7aa0 8abd
000000e0: b974 a93d b879 04be 30d2 45bd 3efd f6bc
000000f0: c434 5dbc 0486 b63d 559e 02bc 9279 17bd
00000100: a76c ea3b ace5 a23d 8689 12be 036d 78be
00000110: 5e6b 18be baf1 96be 7700 acbc ff85 e33d
00000120: cf8a b3bd f746 51be 5e0c 3f3e 9cb0 5ebc
00000130: a6d9 6ebd 69f1 333d 6a8f 0cbe 2a37 263e
00000140: 656e e0bd 7158 cdbd badb 6abd 4338 14bd
00000150: e794 7ebd 94c5 15ba 8959 7d3d 5010 0dbe
00000160: 62f3 d03c b2a8 f3bd ea18 ffbc 75cc 3abe
00000170: c6f8 8c3d 19fa 433c f0b0 1dbe 07ad a039
00000180: f2ad 27be e8dd 08be 38bb b9bd 895e 693d
00000190: 252a aebd b741 25bd 2262 233d f52e 193e
000001a0: f4c5 f43c 23a2 b7bb 05e5 e13c d256 fcbd
000001b0: 3eff 323c ed16 c83d 1666 23bc 050a 84be
000001c0: ef3b 053d 62d9 97bd 379f 1bbe 4147 203d
000001d0: 48fe 453e 47ed 7f3d 0362 2e3d 07b0 fe3c
000001e0: b0cf 57bc 343d 77be 57ac 4f3c 5e0d 973d
000001f0: 4ef4 6cbd 3420 bebc f579 adbd 1e69 753d
00000200: cd13 c1bd ce4f 9f3d 217b 0d3e 4cca 62bd
00000210: bb37 ba3c 35cf 933d e93c cabd 734d 17be
00000220: 3a87 c9bd 00ea 9c3d bdf7 3fbd c426 dc3d
00000230: 06b2 a2bd 3052 913d e64f febd 40a1 3d3d
00000240: 85d0 3fbd 5e4a 3f3e 027c 343e 79d6 ec3a
00000250: f5e6 fcbd 2af5 36be ba09 bbbd e812 2abe
00000260: 48db b5bd 9e14 123d dd43 29bc ec7f f0bb
00000270: 37fe 9cbd 5f8a b03d f41a 49be b9b3 47bd
00000280: 5a33 303d ac46 813d 2760 4d3d 0298 05bd
00000290: 74df 1f3d eaec 2cbd aeab 4ebe 8eb3 043d
000002a0: 2ae3 f7bd c86a e0bd 1f12 103d cf94 8c3d
000002b0: 026c f6bd e40d 36bd 2310 a43c fff1 49be
000002c0: adda f73d 4ed9 053d 0a07 49bd 76fa 153d
000002d0: 56c6 cc3d ee6c be3d 4c3e c1bc ad11 d83d
000002e0: 96aa 0a3d e99a 3cbe 0b22 e53d 46b8 d03c
000002f0: 73fc 86be f2e5 0c3e dc86 6ebe b6b4 073d
00000300: 9ee7 5c3b 8497 c83d 2358 e13d d0ce c53d
00000310: 9241 3abe 8b8d 3ebd 3684 09be 052f a73d
00000320: 51d0 4ebe 0f9e 3d3d c5db 72be bb6c 543e
00000330: b32a e8bd 3e04 21bd 0e14 b9bc 89b4 adbd
00000340: 1a63 c3bd 437f 033e 6730 8dbd 228e 59bd
00000350: af70 8d3b c457 963d c8bd bebc 3552 333b
00000360: ddf6 923d 259a 6a3d 0822 a7bd 6c7e dd3c
00000370: 484e 6ebe 27f0 2fbd 2de6 ad3d 9c3a dabd
00000380: c8dc 10bd 0e94 ba3d ef5e e83d f0b5 94bd
00000390: 605c 7e3d 13f8 a7be b2d4 10be ee17 e2bc
000003a0: 1c26 47bd 64f8 e73d 3830 cebd ff9f 8a3b
000003b0: 3fe6 67be ccdd ef3d 96bc 83bc 331b 0cbd
000003c0: 6487 353e 2a9b 353e dcf0 adbd b221 7b3d
000003d0: 97ba 80bd 42e2 1fbd b945 b2bc 1f24 09be
000003e0: e19a b2bd de93 90bb ff3b 363e 5316 f63c
000003f0: a0f4 be3d 3374 2abc 09fe e0bd b97d 91bd
-0.0054216 0.036309786 -0.13014396 0.034535345 -0.0465712 0.061428424 -0.26008967 0.089568324
0.13211869 0.10436162 0.14193219 0.008261426 0.06124007 0.032126226 -0.21149886 -0.36134735
0.0016903803 -0.03739192 0.15715998 0.08977341 0.042553294 -0.018966006 0.014948092 -0.030444141
-0.13431737 0.022944093 0.19371378 0.05094087 0.09987457 0.00790836 -0.2498854 -0.041182585
-0.0034160293 -0.099420376 0.03967822 0.13647766 -0.033104338 -0.071634345 0.019309487 0.094026
0.04632177 0.012975946 -0.10391772 -0.06945453 0.21821779 0.17151426 -0.10549747 -0.03887007
-0.089370154 0.07450317 -0.06361013 -0.06318027 0.12252527 -0.12599114 0.0057619503 -0.0676889
0.08274216 -0.12937057 -0.048296154 -0.030150052 -0.01350135 0.0891228 -0.00797232 -0.036981173
0.0071540656 0.07953963 -0.14310274 -0.24260335 -0.14884707 -0.29481298 -0.020996315 0.11109542
-0.0876671 -0.20437227 0.18657061 -0.013591912 -0.058313034 0.0439314 -0.13726583 0.16231981
-0.10958556 -0.100266345 -0.057338454 -0.036186468 -0.062153723 -0.00057133404 0.061852966 -0.13775754
0.025506679 -0.118974105 -0.03113981 -0.18242057 0.06883387 0.011961483 -0.15399528 0.00030646494
-0.16374949 -0.133659 -0.09068912 0.05697492 -0.08504132 -0.040345874 0.03988851 0.14959319
0.029879548 -0.005604045 0.027575025 -0.12321247 0.010925112 0.09769998 -0.00997307 -0.25788894
0.03252786 -0.07414509 -0.15197454 0.039130453 0.19335282 0.062482145 0.04257394 0.031089796
-0.013172075 -0.24144441 0.012675366 0.073755965 -0.057850175 -0.023208715 -0.08470527 0.0599147
-0.09427605 0.077788934 0.13816501 -0.055368707 0.022731652 0.07217256 -0.09874899 -0.14775638
-0.098402455 0.076618195 -0.04686712 0.107495815 -0.079441115 0.07095754 -0.12417583 0.046296358
-0.04682972 0.18680713 0.1762543 0.0018069289 -0.12348739 -0.1786696 -0.091327146 -0.16608775
-0.08879715 0.035664193 -0.010331121 -0.007339468 -0.07665675 0.08620142 -0.19639188 -0.04875538
0.043017723 0.06312308 0.050140526 -0.03261567 0.03903146 -0.042218126 -0.20182678 0.0323978
-0.12103875 -0.10957867 0.03517353 0.068643205 -0.120323196 -0.04444684 0.020027226 -0.1972122
0.12102256 0.03267794 -0.04907898 0.03661581 0.09998767 0.092981204 -0.023589276 0.105502464
0.03385409 -0.18418469 0.11188134 0.025478493 -0.26364478 0.13759592 -0.23293632 0.033131324
0.003370739 0.09794524 0.11003139 0.09658587 -0.18189076 -0.046521705 -0.1342934 0.08163265
-0.20196654 0.046293315 -0.23716648 0.20744602 -0.11336269 -0.039310686 -0.02259257 -0.084817
-0.095403865 0.12841515 -0.06893998 -0.053114064 0.0043164114 0.07340959 -0.023283854 0.0027362232
0.07175992 0.05727591 -0.08160788 0.027037822 -0.2327205 -0.042953636 0.08491168 -0.1065571
-0.035366803 0.091102704 0.11346232 -0.07261264 0.062099814 -0.32806453 -0.14143637 -0.027599301
-0.04862033 0.113266736 -0.10067791 0.004230499 -0.22646426 0.11712226 -0.016081136 -0.034205627
0.17727429 0.17734972 -0.08493206 0.06131143 -0.06285589 -0.039034136 -0.021761762 -0.13392685
-0.08720947 -0.0044121584 0.17796324 0.030039942 0.09324002 -0.010403681 -0.10985953 -0.07104058

fc4.bias f4 [256]
00000000: 0b24 b23c 0b51 c2bd 8081 4fbc 62e5 143e
00000010: d26e 043d 88c1 433d a0de f8bd ab91 febd
00000020: 6c9d 85bc 0498 2d3d 9929 b6bd a498 f63d
00000030: 58f4 c6ba 254d ad3c a9d5 603d f66f 95bd
00000040: 52dd 9f3d cf51 923d 547e 8fbd 2c54 ddbc
00000050: 2ee8 9abd 54fb 07be b981 6c3d d3e8 e8bb
00000060: 1853 ed3d 802f f5bc 7b8b 86bd 8035 abbd
00000070: 9136 19bc 5e65 99bb 2278 be3b a157 8bbd
00000080: b090 dfbd d40e ec3c 2ea9 8d3d f2fb d43d
00000090: 375c 9bbd 23c3 cbbd 1ebd 953d 377f 8ebd
000000a0: f887 d13d ad89 cb3d 7a0b a83d 243a 433d
000000b0: 2f53 8e3c 85c2 88bd a3ea 92bd beb6 26bd
000000c0: 0170 2f3d cc80 c33d 9350 6b3d f0c2 883c
000000d0: 9835 5dbd 228e ca3c 867e 773d b6da 98bc
000000e0: 898e 7abd ca9d 95bd a927 a9bd 1ec9 fbba
000000f0: 5708 62bd 0494 463d 0c70 90bd 41d4 88bd
00000100: 1e91 a2bd 57ac b2bd 9072 fc3d e463 b63d
00000110: 9a95 73bd 8be2 933d 4f9f b23d a001 e2bc
00000120: dc64 80bd 36d3 613c 486c 853d 404a 143e
00000130: d97c ce3d 6e08 92bd 84ca 133d 027f f83c
00000140: be54 93bc 4d47 f63d 899d 92ba 16f1 5b3d
00000150: 1f41 97bd aee5 533d c2ae fe3d 237c c23d
00000160: a81f c33d fa69 06bd 9703 4fba 73c5 c6bc
00000170: 729c eb3b ba84 39bc 685a 22bd 38c0 fdbc
00000180: 23d6 20bd d7f3 b93b f440 713d 0416 bebd
00000190: 89f4 85bd 859d e93d 3e90 b23c 8a91 823d
000001a0: cc98 c5bd 6f08 7f3d 0b23 13bd 4510 e2bc
000001b0: f5c2 f8bd 170a 8cbd 15d2 c5bd 8d86 fb3d
000001c0: c3ea f83d b795 3fbd 2726 44bc 488f a7bd
000001d0: 5f9e 6dbd e180 413d 3825 b5bd 66e0 1e3e
000001e0: 444e adbc 6a1f 923c df96 c0bd 4a57 f0bd
000001f0: 9817 c83d f831 b03d 55b1 a63d e7e6 91bd
00000200: ffb2 f63d 014f d73d 5d2d d0bd 7605 523d
00000210: 66d9 2a3b 2184 133d a7b2 8ebd 64ab 573d
00000220: e2e7 2dbc 28f8 003d b7fc f73d ab30 4c3d
00000230: d051 1ebd c165 b7bd ea3d ec3c 9997 15be
00000240: 6dff a53d 0315 823c be34 e33d 6f27 9e3a
00000250: 3fde 42bc ca5e 493a b83e 3dbc 4229 d43d
00000260: 7996 54bd dfd9 5d3b 763a d1bc 68c8 163e
00000270: 43a1 083d 7365 a93d 9671 c5bd 4034 4eb9
00000280: 5b7f 84b8 61cc a73d 3a91 7d3d a000 6bbc
00000290: a08b 953d b8b2 a4bd 24a0 a2b8 4bc7 9d3d
000002a0: a060 46bc aa18 15bc f74b 0bbd 6570 1b3d
000002b0: 2ac1 b0bd 2d6d 96bc e08f f5bd ffd3 963c
000002c0: 1ece 77bd 3309 b93d c629 1ebd 6314 8cbd
000002d0: f227 9fbd c126 d5bd 73e9 bbbd abe5 bc3d
000002e0: f847 d7bb 8171 c73c c5aa f0bc c322 623d
000002f0: 10a2 92bd 5f76 98bd 6137 eb3d f1ff c1bd
00000300: 145d b9bc 354c 25bd 3b23 ebbd d253 bcbd
00000310: ba38 1c3e a87c e53c d046 edbc d982 a1bd
00000320: 1cbe 08be bce5 cdbc 028b b0bd 64a4 4dbd
00000330: 2ac1 81bc 5b31 adbd c72a f83d b03e c33d
00000340: fa45 d53c ed3a 1c3d 3582 66bc 134e f6bc
00000350: f068 3f3d 26fa bbbc 131a 7339 1979 f2bb
00000360: 3496 94bd 35fd 163d e14e 64bd 49b4 8e3d
00000370: e3d4 af3c 888d 07be a46b d6bb 808f 50bb
00000380: 1141 533d 2f2c 053d 9d62 71bd ca59 5d3d
00000390: 3445 a13d a96d fbbd 301e 1c3e 07ca 8fbd
000003a0: 0088 f53d 5603 4b3d 87af cc3b 5382 983d
000003b0: 4a80 e53d 4181 dabc 4163 463d 548b 96bc
000003c0: 7a12 5cbd 0713 4abd 4503 dfbd 9927 243b
000003d0: 5153 373d b6a8 53bd 813c b1bd 62cd 85bd
000003e0: 9919 cfbc 1034 b83d 3431 fc3c 476b 90bd
000003f0: e142 abbd fe43 bc3c cc5b 0e3d 932e b6bd
0.021745702 -0.09488114 -0.012665153 0.14540628 0.03233225 0.047791988 -0.12151837 -0.12430128
-0.016310416 0.0423813 -0.08894653 0.12040833 -0.0015179021 0.02115495 0.054891262 -0.072967455
0.078058854 0.0714451 -0.07006517 -0.027017675 -0.07563816 -0.13279468 0.0577409 -0.007107833
0.115881145 -0.029929876 -0.065695725 -0.08359814 -0.009351389 -0.0046812734 0.005812661 -0.06803823
-0.10916269 0.028815664 0.06917034 0.10399617 -0.07585948 -0.09949329 0.07311462 -0.06957858
0.10231012 0.09938369 0.08205314 0.04766287 0.01737365 -0.06677727 -0.0717366 -0.04070162
0.042831425 0.095460504 0.05744989 0.016694516 -0.05400619 0.024725977 0.060423397 -0.018658977
-0.06117109 -0.073054865 -0.08259518 -0.0019209718 -0.055183735 0.048481002 -0.07052621 -0.06681109
-0.07937835 -0.087242775 0.123265386 0.089057714 -0.059468843 0.07220944 0.08721792 -0.027588665
-0.062692374 0.013783267 0.06514794 0.14481449 0.100824066 -0.07130514 0.036081806 0.030334
-0.017984744 0.12025318 -0.0011185865 0.053696714 -0.07385468 0.05173271 0.12435676 0.094963335
0.09527522 -0.03281591 -0.0007896958 -0.024264073 0.0071902806 -0.011323148 -0.039637 -0.030975446
-0.039266717 0.00567482 0.058899835 -0.09281543 -0.06540782 0.114069976 0.021797296 0.063754156
-0.09648284 0.062263902 -0.03592209 -0.027595649 -0.1214656 -0.06837862 -0.096592106 0.12281523
0.12154152 -0.04677364 -0.011971987 -0.081816256 -0.058012363 0.04724205 -0.088449895 0.15515289
-0.021155484 0.017837245 -0.094037764 -0.11735399 0.09770125 0.08603281 0.08139292 -0.07124119
0.120458595 0.10513116 -0.10164902 0.05127474 0.002606952 0.03601468 -0.06967669 0.052653685
-0.010614367 0.03148666 0.121087484 0.0498511 -0.03865224 -0.08954955 0.028838117 -0.14608611
0.08105359 0.01587916 0.11094044 0.0012066195 -0.011893808 0.0007681666 -0.011550598 0.10359432
-0.051901314 0.0033851785 -0.025540572 0.14724886 0.033356916 0.08271303 -0.096408054 -0.00019665156
-6.317972e-05 0.08193279 0.061906077 -0.014343411 0.07302022 -0.080419004 -7.7545905e-05 0.07704028
-0.012107998 -0.009100119 -0.034007993 0.037948985 -0.08630593 -0.018362606 -0.119903326 0.018411634
-0.060499303 0.09034958 -0.038614057 -0.06839826 -0.07771291 -0.10407782 -0.09175386 0.09223493
-0.0065698586 0.024346115 -0.029378304 0.055208933 -0.07159817 -0.074444525 0.11485172 -0.09472645
-0.02262739 -0.04035588 -0.11481329 -0.09195675 0.15256014 0.028013542 -0.02896443 -0.07886285
-0.13353771 -0.02513396 -0.08620264 -0.050205603 -0.015839178 -0.084566794 0.12117534 0.09533441
0.026034344 0.038142134 -0.01406913 -0.030066526 0.046730936 -0.022946429 0.00023184 -0.00739969
-0.072552115 0.03686257 -0.055739287 0.069679804 0.021463817 -0.13237584 -0.0065435935 -0.0031823814
0.051575724 0.03251284 -0.058931936 0.054040708 0.078745276 -0.122767754 0.1524589 -0.070209555
0.119888306 0.04956373 0.0062465104 0.07446732 0.1120611 -0.026672961 0.0484345 -0.018376984
-0.053728558 -0.049334552 -0.108892955 0.0025048016 0.04475719 -0.051674567 -0.08654118 -0.06533314
-0.02528076 0.08994305 0.03078518 -0.070517115 -0.083623655 0.02298164 0.034755513 -0.08895602

fc5.weight f4 [256, 256]
00000000: 2636 9d3d 3a0a 173d 6dc9 d7bd d84a e63d
00000010: 51b8 be3b b702 ae3c 9162 2b3d e72d 88bd
00000020: 1d41 03be ddb3 453d 673f 213d 38b5 0b3e
00000030: dd30 d4bd 6143 73be df01 74be 1177 a1bd
00000040: 161c 9bbc 1d5a ac3d ea4e 8e3c 2c58 fbbd
00000050: ea93 dbbd d627 5abe f51a 20bd 97c0 5bbd
00000060: 3b3f 543b f071 eb3c 6650 0cbc e459 26be
00000070: e221 3bbc ce01 373c 9b95 46be a355 a03d
00000080: 200f 1dbb 988c 2e3c 3283 b1bd 6e09 d6bd
00000090: d832 d3be 7b19 1fbd ae02 44bc 618a 11bd
000000a0: 8800 53bd a09b dabc 6713 903d 936c 6f3d
000000b0: a71d dabe 3535 7bbe 07f7 f6bd 9b6b 63bd
000000c0: b317 d5bd e896 353d 6ce9 f93d bb5c f03c
000000d0: a90b 1ebe af64 603e 1c58 a53d 8b62 81be
000000e0: e3f2 33be 61e7 47bd f7e1 21bc 7bfc 41be
000000f0: 2438 943d c385 08be 3f9f 8f3d 2a64 30be
00000100: 2103 ae3d 3ecb eabc d08f 883c 112c 943d
00000110: 27ee 603d d649 473e 9e66 803d 68ed 65be
00000120: 4d25 62be 9b9d 47bd 4727 a33d dc38 ba3d
00000130: 8439 c83d 8e90 12bd 186f 0dbe 6bc1 83be
00000140: 582c 6fbe bf31 c4bc c388 b23d 569d 5dbe
00000150: 0893 53be 0a1a 0a3d c0d7 343d b5ec 223d
00000160: 6dac ae3d d1cb 14bd b2ed 13be 66f0 47bd
00000170: 933c 06bc 6f62 e33d cc12 f9bd 5064 c23d
00000180: f3e4 fbbd 1d69 203d efef e83d b61a 1e3d
00000190: 59da 8bbe 7706 c83d b803 063d d3aa 98bd
000001a0: c179 183e 2d1e 473c 2db5 f23d 5a4a 543d
000001b0: d02e 173e 30e6 5a3e d154 ffbc ee7d 953d
000001c0: 5c7b fe3d 9c76 0cbd 1ae9 11bb 8625 05bc
000001d0: 44b6 b3bd 15d0 c33d c1ec 58bd a0ff 9d3d
000001e0: ce5f b13b b1f3 b6bc 9a57 f5bd 3346 66be
000001f0: 4ab1 823d 1933 28ba 8ee0 bd3c 4392 f2be
00000200: 63e9 da3d 4270 a63c bf85 a9be c67d a3bd
00000210: c830 a03d 1649 30bd d57a 3dbd 0d9c 95be
00000220: fbaf 03bd a912 0c3d 338e 333d ef29 62be
00000230: 1e4a dd3d 38e4 24be 9937 83be cf3f 5fbe
00000240: b244 a13d 2d79 ca3c c019 11be d397 7a3b
00000250: de4f b33c eac2 ce3c dc20 e4bc 33de 87bc
00000260: e476 61bd 4cf3 7cbd 1bd2 8c3c 153f a3bb
00000270: d522 1abe 2e42 513d 512e 78bd 6984 dbbd
00000280: 833c 5fbd 7288 24bd 9bb1 843d 123e 66be
00000290: ff36 133e 9622 9abc d9a3 bcbc f9eb f03c
000002a0: e30e bbbc 61a0 e6bd c9f6 373e 26c1 97bc
000002b0: de90 1a3e fc30 5f3a 9083 eebd cdf4 2f3e
000002c0: 226f 6e3d a8b1 c43d cceb e6bd 1f9e 7dbe
000002d0: 26c3 b3bd 5f8a d23c 3191 a9bd 10b5 243d
000002e0: e6a4 e83b d2fe 92b8 2f56 90bc 0ef9 4ebd
000002f0: ffbf cb3d e93a 763d a8c1 a73d 4434 7dbd
00000300: a375 09bd 3489 ec3d 82bb 30bd 0d4c 453d
00000310: b416 dd3d 05fd 9a3d bcf2 b03c f312 99bc
00000320: c74d 3dbe 414c 703b ebbe 15be 56fc 04bd
00000330: 92c8 b9bd 6459 b5be 6b50 5f3d d88e f73d
00000340: 6392 4bbe 3c8a 8f3d 4f36 27be 8f1d 6ebe
00000350: d595 8fbd ea01 3bbd 35d4 4cbd 958a 2dbc
00000360: 1519 523d 8107 f4ba 3b0f b43d 68c4 463c
00000370: a5ca acbd bf73 ffbd 32d2 ac3d 1e8a 113e
00000380: 6326 e7bd ae00 b7bd 986c a3bd 903e 0c3d
00000390: ec12 31be 9834 b2bd e6cf 55bd e4d8 47bd
000003a0: 5f6b 6f3d 21fd bc3c 279b 06bd 7426 383d
000003b0: 3416 083e 5c23 dbbe 230b b73b 49d4 6cbd
000003c0: 7de4 b4be 8fae aa3c ce6b 3fbd 47e0 b3bc
000003d0: 610b a2bc c949 1fbd 84f0 523d 1328 013d
000003e0: 1c35 85bd 3c37 223d b74e e8bd 6523 2d3d
000003f0: 76a6 d2bd c74a 9bbd fbfc 8d3d 3541 3dbe
0.076763436 0.036874987 -0.10536466 0.11244744 0.005820312 0.021241529 0.041842047 -0.0664938
-0.12817807 0.048267234 0.039367106 0.13643348 -0.103608824 -0.23756172 -0.23828839 -0.07884038
-0.01893429 0.08415625 0.017371614 -0.12272677 -0.10721572 -0.21304259 -0.03908821 -0.053650465
0.003238632 0.028740853 -0.00856409 -0.16245228 -0.0114216525 0.011169864 -0.19393007 0.07828834
-0.0023965314 0.010653637 -0.08667602 -0.10451017 -0.41249728 -0.03884266 -0.0119635295 -0.03553236
-0.05151418 -0.026685536 0.07034951 0.058453154 -0.42600748 -0.24532016 -0.120588355 -0.055522542
-0.10404911 0.04433337 0.12202725 0.029341092 -0.15434135 0.21913408 0.08073446 -0.25270495
-0.17573123 -0.048804644 -0.009880534 -0.1894397 0.072372705 -0.13332276 0.07012796 -0.1722571
0.084966905 -0.028661367 0.016670138 0.072349675 0.05491462 0.1946176 0.06269573 -0.22453845
-0.22084542 -0.04873429 0.07966476 0.09092876 0.09776595 -0.03578239 -0.1381191 -0.25733504
-0.2335676 -0.023949502 0.087174915 -0.2164205 -0.20661557 0.03371624 0.044151068 0.039776523
0.08528981 -0.036327187 -0.14446142 -0.048813246 -0.008193153 0.11102759 -0.12161788 0.09491789
-0.12299528 0.039162744 0.11373889 0.038599692 -0.27315024 0.09766858 0.03271839 -0.07454457
0.14890195 0.012153191 0.11850963 0.05182872 0.14763951 0.21376872 -0.031168373 0.0729941
0.12425873 -0.034292802 -0.0022264183 -0.008126622 -0.08774999 0.09561173 -0.05296016 0.07714772
0.005413032 -0.022332998 -0.11979599 -0.22487716 0.063814715 -0.00064163056 0.023178365 -0.47377214
0.10689046 0.0203172 -0.33109853 -0.07982974 0.07821804 -0.04303845 -0.04625972 -0.2922062
-0.03215025 0.034197483 0.043836784 -0.22086309 0.10805152 -0.16102684 -0.25628355 -0.21801685
0.07874431 0.024715984 -0.14169979 0.0038237467 0.02188867 0.025239427 -0.0278477 -0.016585445
-0.055045024 -0.061755463 0.01719003 -0.004981885 -0.1505235 0.051088504 -0.060591046 -0.107186146
-0.054501068 -0.040169187 0.06479188 -0.22484615 0.14376448 -0.01881532 -0.023027347 0.029409396
-0.022834247 -0.112610586 0.17965235 -0.018524718 0.15094325 0.0008514074 -0.11646187 0.17183228
0.058211453 0.09604198 -0.112754434 -0.2476735 -0.08777456 0.025700746 -0.08279646 0.040211737
0.0070997356 -7.0092865e-05 -0.01761922 -0.050530486 0.0994873 0.060114775 0.08191234 -0.061817423
-0.033559453 0.11549607 -0.04314757 0.04816823 0.10795346 0.07567791 0.02160012 -0.018685794
-0.18486701 0.0036666545 -0.1462361 -0.03246721 -0.09071459 -0.35419762 0.054520052 0.12087792
-0.19880061 0.07008788 -0.16329311 -0.23253463 -0.07011 -0.045656122 -0.050007064 -0.010592123
0.05129345 -0.0018617959 0.087919675 0.012131788 -0.08437089 -0.12473249 0.08438529 0.14212844
-0.112866186 -0.089356765 -0.07979697 0.03423935 -0.17292374 -0.08701438 -0.05220022 -0.048790827
0.058452006 0.02306992 -0.03286281 0.044958547 0.1328972 -0.42800415 0.0055860444 -0.05781964
-0.35330573 0.02083519 -0.04673367 -0.02195753 -0.019780817 -0.038888726 0.051498905 0.03153236
-0.065042704 0.039603457 -0.11343139 0.042270083 -0.10285656 -0.07582622 0.06933018 -0.18481906

fc5.bias f4 [256]
00000000: 3f3a cf3d f351 27bd 2a17 043d 8cc9 eaba
00000010: 19a0 203d be92 133e f938 e3bc d7ee 073d
00000020: e889 5d3e 5427 c73d e823 c4bd c558 533d
00000030: 8e39 a93d fc99 6bbd ecd0 89bc f7a8 97bd
00000040: 132d 8a3d d225 21bd 6cd7 82bd e6ae 523d
00000050: 37d5 3e3e af9c fdbd 8551 d03c 25ba 3dbd
00000060: b225 d3bc 7e9c 883d 07e0 ba3d 1071 b33d
00000070: 480d 85bd 2c59 ba3a b984 e23d 0d1a 48bc
00000080: 84ba 3dbd a1a6 94bd 0f3c 2e3e 0275 213d
00000090: 1ddc 87bd 842e bc3c 8013 433d c194 143d
000000a0: e51f 0d3c d980 12bd 9227 60bd 5b09 533d
000000b0: 84b5 03be 7210 b23c 0b19 ffbc bed3 48bd
000000c0: b0ed a13d f6a5 7fbd 6ddd bbbd 589d 08b9
000000d0: ab84 4ebd d596 d4bc b6cb 023d df70 48bd
000000e0: 6024 e0bd bc3e 9d3c 550d 843d 2c23 02bd
000000f0: 9322 45bd 3a47 9fbd 395b 0e3e db40 6fbb
00000100: 85c4 323e 73ae 25bd 2fa0 15bb 33a5 5238
00000110: 6675 0dbd fb0b 84bc 45cb 69bc 8822 bcbc
00000120: 5a98 04bd 2404 0f3d 16a2 373d e9ed 003c
00000130: ed74 2dbd a2bf a23d 6cb7 f7bb 4288 07be
00000140: 09e3 693e b45e 98bd a65e 1ebd ece7 4abc
00000150: 79f0 e1bd 457a c7bc b4e9 003e 3505 debd
00000160: e431 323d ff69 b4bd b276 843b 3e97 f9bc
00000170: 8fe6 2abd 4398 03bd d3bd 70bd 9c89 0e3e
00000180: 1604 733d 8326 5dbc c710 7bbd fa21 00be
00000190: 0b98 fcbb ff28 4b3e 8a0f c9bd bd9b f1bd
000001a0: 10a2 a638 8e7a 843c 6c22 82bd df07 b3bb
000001b0: 3075 423d 7584 40bd ecda 293e 9235 9d3d
000001c0: 1dc2 a93d 802e d03c 684b bebb 1038 b9bd
000001d0: 4446 9e3d 2897 c93d 912d f13c 8e2d 86bc
000001e0: 7d07 233d d7ff 1bbd dc64 0a3c 648e c73c
000001f0: 9f39 dd3c 050a 10bd d8b2 a63d e125 363c
00000200: ead6 183d dddb ee39 0cf5 c7bb 344c 493c
00000210: 2174 0fbb 4a4b 5a3c 1fce 51bd a953 503a
00000220: e442 4bbc 32af a0bd f955 463d bdef 183d
00000230: adb3 fa3d 3435 99bd c14f 5b3d 7c18 2f3d
00000240: 47fe 943d 8345 21bd 155f 353d 1abb 193e
00000250: 3a45 0a3e 7104 d03d bae0 d93d fc95 1cbc
00000260: a78d a4bd 8e7e d03d ba3c a73d 7e89 d13c
00000270: b36f 653b af9b ccbd 7de4 0e3d 0825 473d
00000280: ed7b bf3d c5f7 d83d fc85 3e3d 04b2 533d
00000290: daaf 6a3d 8e6e 58bd 2de0 d0bc 7612 a1bd
000002a0: 9a90 453d 5ab8 3f3d ed2e 07be 2cc1 5dbd
000002b0: 9491 7fbd ce0a 413e 27a5 96bd 720d f43d
000002c0: 36b9 023c 305f 143e dd1a 8dbd 447a 0a3e
000002d0: 3e39 75bc 837e 953d 10c2 c83d 4e95 3f3d
000002e0: 6d9e 3b3c d5d8 143d b648 e83c 70f0 91bd
000002f0: 2c97 0f3d df07 803c 7c77 493d 4c5d ddbb
00000300: 9d91 b03d b689 4cbd f6ff 1fbd 2c3e d1bd
00000310: 77ca 283d 91af 87bd 7118 b0bd f21f 133e
00000320: a4b9 133e 4a62 04bd 13e5 353d b4b9 0e3c
00000330: bc13 a73d bf98 bb3d 2a60 aabc d8fd 0c3d
00000340: 5e3f aabd 2891 a1bd 6e76 b1bc a231 94bc
00000350: 9077 283c cc7b 55bd d91d c9bd 20d4 05be
00000360: 716f bebc 617e ff3b fd8c 783c 4454 213d
00000370: 5b9a 07bd 715c 9abc 04d2 843d 6053 903d
00000380: 23ba 333e 28c2 00bd cab4 a0bd 9174 b2bd
00000390: de4e 203b 9d96 3bbd 4289 ec3d ff52 98bd
000003a0: e157 bebc 29ce 54bd 064e a4bc bbb7 113d
000003b0: 10b0 79bc cc9d 4dbd dc6e ab3d c627 afbc
000003c0: 7c5a 3fbb 260d e9bb d942 d0bc 3613 263e
000003d0: 4a66 f4ba f458 273e a04f 183e 6fe5 b4bc
000003e0: 04fe b93d 1dff a8bd 4150 fe3d 6c8d de3d
000003f0: 4869 7c3c a949 cbbd cb0a ebbd b3b4 31bd
0.101185314 -0.040849637 0.032248653 -0.0017912849 0.03921518 0.14411446 -0.027737128 0.03318676
0.21634638 0.09724298 -0.09577161 0.05159833 0.08262931 -0.057519898 -0.016823255 -0.07405274
0.067468785 -0.03934271 -0.06388745 0.051436327 0.18636023 -0.12383401 0.025429497 -0.0463201
-0.02577481 0.066704735 0.09124761 0.08761799 -0.06496674 0.0014217249 0.11060471 -0.012213242
-0.046320453 -0.072583444 0.17015098 0.039418228 -0.0663378 0.0229714 0.04762602 0.036274675
0.008613561 -0.03576741 -0.054725237 0.051522594 -0.12862211 0.021736357 -0.031139871 -0.049030058
0.079066634 -0.062414132 -0.09173093 -0.00013028586 -0.05041949 -0.025950829 0.031932555 -0.048935767
-0.10944438 0.019194953 0.064478554 -0.031771824 -0.048128676 -0.07777257 0.13901986 -0.0036507163
0.17457779 -0.04044957 -0.0022831073 5.0221755e-05 -0.034535788 -0.016118994 -0.014269655 -0.022965685
-0.032371856 0.03491606 0.04483231 0.007869222 -0.042347837 0.07946707 -0.0075597074 -0.13235572
0.22840513 -0.07439938 -0.038664483 -0.012384396 -0.11032195 -0.024350295 0.1258915 -0.10840837
0.04350461 -0.0880928 0.00404247 -0.030467626 -0.041723784 -0.03212763 -0.05877478 0.13919681
0.05933007 -0.013497951 -0.061295297 -0.12512961 -0.0077085546 0.19839858 -0.09817417 -0.11797283
7.945683e-05 0.01617172 -0.06354222 -0.005463585 0.04747504 -0.04700132 0.16587418 0.07676233
0.08288977 0.025412798 -0.005807329 -0.09043896 0.07728246 0.09843284 0.029440673 -0.016379144
0.039802063 -0.038085785 0.008446898 0.02435989 0.027005015 -0.035165805 0.081395805 0.0111174295
0.037314333 0.00045558708 -0.00610221 0.012286235 -0.0021889287 0.013323614 -0.051221963 0.00079470366
-0.012406085 -0.07845916 0.048421834 0.037338007 0.12241302 -0.07480851 0.053542856 0.04274796
0.07275062 -0.039372932 0.04428013 0.1501278 0.1350297 0.10157097 0.10638566 -0.009557243
-0.080348305 0.101803884 0.081658795 0.025578257 0.0035009205 -0.09990632 0.034885872 0.0486193
0.09349809 0.10594133 0.046514496 0.05168344 0.05729661 -0.05283981 -0.02549752 -0.07864849
0.048233606 0.04680667 -0.13201495 -0.0541393 -0.062394693 0.18851778 -0.07355719 0.11916627
0.007978728 0.14489436 -0.068898894 0.13523203 -0.014967261 0.07299521 0.098026395 0.046773247
0.011451346 0.0363396 0.028354984 -0.07125938 0.035056278 0.015628753 0.049186215 -0.0067555066
0.086215235 -0.04993602 -0.039062463 -0.102169365 0.04120871 -0.066252835 -0.08598412 0.14367655
0.14426285 -0.0323203 0.044407915 0.008711267 0.08158061 0.091599934 -0.020797808 0.03442177
-0.083128676 -0.078890145 -0.021662917 -0.018090073 0.010282412 -0.052120015 -0.09820146 -0.130692
-0.023246499 0.007797048 0.015170333 0.039387003 -0.03310619 -0.018842908 0.0648537 0.070471525
0.17551474 -0.03143516 -0.07846983 -0.087136395 0.002446107 -0.045797933 0.11549617 -0.07437705
-0.023235263 -0.051954422 -0.020056736 0.03557561 -0.0152397305 -0.050199315 0.08370754 -0.02138127
-0.002919822 -0.007112163 -0.0254225 0.16218266 -0.0018646207 0.16342527 0.14874125 -0.022082059
0.09081653 -0.08251784 0.12417651 0.10866818 0.01540596 -0.09926159 -0.11476668 -0.04338522
