SAC/actor_v3.pth (torch, 446139 bytes, 14 tensors)

fc1.weight f4 [32, 9]
00000000: 627c 393d 600b d53e c8f8 d9be 1707 58bd
00000010: 8034 8ebd 5236 b03d 6b40 f43d d22a 233f
00000020: 5f81 ad3c a6c3 8cbb 39fc 933e c089 aabe
00000030: 36df 36be dac5 01be 3870 22be a1bb 223c
00000040: 233d c83e 2be7 0c3e 0ec7 fdbe 2d4d 283e
00000050: c3ef 113d 36f5 a63e a73d 95bd 7696 1f3e
00000060: 9f69 853e 5df3 cc3c 30cf 9d3e cdde 44be
00000070: 372f d5be 0043 8ebd 64a2 c1bd 45cc 543e
00000080: e91d 79be 7e58 9bbe 11cf adbe ca7f 8cbe
00000090: ce5f adbe ca3a e33e eb73 1b3e f665 df3d
000000a0: 71d0 76b9 8c0a 8ebe 5f1a b13e 995b aabe
000000b0: f0a8 c3bd 946c a7be ce20 113f 991a 103e
000000c0: 852f 99bd f34a 083b 3b79 0c3e b6a9 073f
000000d0: 7e42 893e de20 763d 2553 9a3e 1651 91be
000000e0: 0d31 ac3e 57a3 88be fe62 0bbe 8433 45be
000000f0: f84f 76bd 1b53 283b def2 56be d513 0abd
00000100: f200 823d fddb 30bc c58d 18bd e8b8 3e3d
00000110: 7960 493e b6df 043f 49f9 0bbf ce6e d8bd
00000120: 95a0 de3c 8ea4 f53e e4fe f13e 6ea5 a13e
00000130: 6b3f 7bbc 1f58 94be ac3f 253e b595 d0bd
00000140: 1825 93be 0887 e03e 08d5 fe3d eff2 423e
00000150: f055 0b3e 9319 e7bd 04da d1bd 7348 9dbe
00000160: 21d1 153e 9de6 2bbe 4430 7bbd 860d d13e
00000170: cd5c 993e c412 e73d 78cf b6be c820 e6bd
00000180: 23f4 d13e e05f 963d e711 7abe d059 95be
00000190: afb5 1c3f 4bf1 01bd f694 0bbe 7f2e 7bbd
000001a0: 33e2 b6be d402 883e 6f78 98bc 1151 21be
000001b0: dd06 3ebe d1c0 243d 0d5c d0bd f4c5 133e
000001c0: 48a9 41be 9b0d 753e 9e8a 0d3f 204e dabe
000001d0: 02d6 1ebd 97b1 0dbe 9987 9a3e 1e13 debd
000001e0: 60e9 963d 7970 b63c 9ab6 53be 7899 df3e
000001f0: e8dc 5fbe 6708 f6bd e89b 643d 8bc4 6cbe
00000200: f0a9 7ebe 661b 96be 3043 493b 0af5 173d
00000210: 2cf8 1ebf 00a6 95bd 703b 533e 7f34 c53d
00000220: db55 843d 1f8a 94bc 4886 0e3e 1e35 5c3e
00000230: 57fc 8e3e e643 433d 9b45 083f 2a69 37bd
00000240: 8ee2 84be 9a6f 73be 5868 933e f7fa 5cbd
00000250: 5194 b4bd 3846 9cbe 8966 0abf 4b12 c7be
00000260: 136c 3dbd cf94 b13e b92d 453c 2a24 f73d
00000270: 9b6a 6a3e 23e9 60be f280 f3bc c9fe b7be
00000280: e172 e0bd 7a5d 42bd 18e7 7ebe e80b 10bf
00000290: 5d29 4dbe 294a c63d c241 efbd 1725 e83d
000002a0: 968e eabe e068 91be 2cf0 833e 5ac9 3dbd
000002b0: 2789 ce3e ea7a b2bc 0816 26be e8a2 0e3e
000002c0: cdce 8bbd b865 ed3c e9ac 0e3f cff7 21be
000002d0: da30 8fbb db5e b3bc fc4c 9c3e e20c ca3d
000002e0: e369 f63d 9bfd 2a3e 8b9c 3cbe d28f 17be
000002f0: e26f 87be 1c8a a83e 73fd 413e 4005 af3e
00000300: 654a 04bd e878 b03c e164 24be 58a7 00bf
00000310: 799a 24be b461 833d 34e1 053e 88bd 5fbe
00000320: 9fe5 5abe 1db5 3b3e acc5 12be 7692 7abe
00000330: 392e c8be 4c12 f63e c201 1fbd a415 a13e
00000340: 76b5 633e c573 8b3e 6c72 233e 9986 53bd
00000350: ae1f 4d3d 4cc4 96be eafe bf3d 3553 243b
00000360: 5997 b9be 1cc6 81be 35a5 943e ea33 98be
00000370: fb36 9a3d 8c6c 863e d156 dd3d d3c7 8fbe
00000380: eb32 aebe 4ed7 0a3d 1a0b bdbe e612 32be
00000390: 23a6 5dbd d699 6abd cdd8 09bd 4849 0e3f
000003a0: ccea e1bd e9e7 803e ede1 d13e 983b 86be
000003b0: 46bc 7c3e e464 babd fcc8 f8bc e813 eb3d
000003c0: 9df1 acbe 9640 a63e eeb4 28be 74b7 3bbe
000003d0: 9f15 813e 5afb d5be f56d d53d bf43 6dbe
000003e0: cd6f d2bc 9a5b 393e 44a3 59be 01ff 683c
000003f0: 3e12 833e 4f16 6fbe cd11 32be 5316 f9bd
0.045284636 0.4161024 -0.42572618 -0.052741136 -0.06943607 0.08604111 0.11926349 0.63737214
0.021179853 -0.004295784 0.28903368 -0.3330822 -0.17858586 -0.1267313 -0.1586312 0.0099324295
0.39109144 0.13760059 -0.4956593 0.1643569 0.035629045 0.32608956 -0.0728715 0.1558474
0.26057145 0.025018388 0.30822134 -0.19225617 -0.41637585 -0.06946373 -0.09454802 0.20781048
-0.24327816 -0.30340952 -0.33947042 -0.27441245 -0.33862156 0.4438079 0.15180938 0.109081194
-0.00023538039 -0.27742422 0.34590432 -0.33273008 -0.09553707 -0.32700026 0.5669068 0.14072646
-0.07479767 0.0020796626 0.13718121 0.52993333 0.26808542 0.06008994 0.3014156 -0.28382176
0.33631173 -0.26687118 -0.13611981 -0.19257933 -0.060134858 0.00256843 -0.20991084 -0.03371032
0.063478366 -0.010794637 -0.037244577 0.04656306 0.19665708 0.51903856 -0.54677254 -0.10568009
0.02717618 0.47977108 0.4726478 0.31571525 -0.015334944 -0.2897348 0.1613757 -0.10184804
-0.28739238 0.4385302 0.12442976 0.19037984 0.13607001 -0.11284175 -0.10246661 -0.30719337
0.14630558 -0.1678719 -0.061325327 0.4083063 0.29953614 0.11282876 -0.3570516 -0.11236721
0.41006574 0.073425055 -0.24420892 -0.29170084 0.6121473 -0.031724256 -0.13631043 -0.06132364
-0.3571945 0.26564658 -0.018612115 -0.1575358 -0.18557306 0.040222947 -0.10173807 0.14430982
-0.18912232 0.23930971 0.5528964 -0.4263773 -0.038778313 -0.13837276 0.30181578 -0.1084349
0.073687315 0.022270428 -0.20675126 0.43671775 -0.21861613 -0.12013321 0.055812746 -0.2312185
-0.24869514 -0.29317778 0.0030710213 0.03709892 -0.6209743 -0.073070526 0.20628142 0.096291535
0.06461688 -0.018132268 0.13918412 0.21504638 0.27926895 0.047672175 0.5323121 -0.044778027
-0.25954098 -0.23773041 0.28790545 -0.053950276 -0.088173516 -0.30522323 -0.54062706 -0.38881144
-0.046245646 0.34683844 0.012034827 0.120674446 0.2289223 -0.21963935 -0.029724572 -0.35936573
-0.109594114 -0.047452427 -0.24892843 -0.5626817 -0.2003531 0.09682114 -0.11682464 0.11335199
-0.4581191 -0.28400326 0.25769174 -0.046334602 0.40339014 -0.021787126 -0.16219342 0.13929331
-0.068265535 0.028979167 0.5573259 -0.15817188 -0.004369837 -0.021895817 0.30527484 0.098657385
0.12031915 0.16698305 -0.18419091 -0.14800957 -0.26452547 0.3291787 0.1894434 0.34183693
-0.03229751 0.021542028 -0.16054107 -0.50255346 -0.16074552 0.0641512 0.1307419 -0.21849644
-0.21376656 0.18330808 -0.14333218 -0.24469933 -0.39097765 0.48060834 -0.038820036 0.31461823
0.2223719 0.27236763 0.15961617 -0.051642034 0.05007904 -0.29446638 0.09374793 0.002507401
-0.36248282 -0.25346458 0.29032293 -0.29727107 0.07530018 0.2625469 0.108075745 -0.2808214
-0.34023222 0.033896737 -0.36922532 -0.17390022 -0.05411352 -0.057275616 -0.033654023 0.5558057
-0.11031112 0.25176933 0.4099268 -0.2621734 0.24681196 -0.091012746 -0.030369274 0.11478406
-0.33778086 0.3247115 -0.16475269 -0.183317 0.25211808 -0.4179333 0.10421363 -0.23170374
-0.025688076 0.1810135 -0.21253687 0.014220954 0.25599855 -0.23348354 -0.17389603 -0.12162461

fc1.bias f4 [32]
00000000: 209c d0bc 4429 9ebd 8159 49be 991e 1a3e
00000010: aa5b 803e 6e0e 063c d90e b3bd 8e88 41be
00000020: 3dee 813e c7d1 5fbe 5e08 1c3e eac8 4cbc
00000030: 71e0 eebd b09d 0c3e 926b 52be cde7 653d
00000040: 46d0 b13d 6503 6bbe 7142 a43c 539e 813e
00000050: 1482 113e e1d9 bbbd 61e1 44be f933 bbbd
00000060: ceea 833d f470 2cbe 987a 8d3d f6c1 443e
00000070: d715 37be 38d5 fcbb 535c 503e 0db6 363d
-0.025465071 -0.077227145 -0.1966305 0.15050735 0.25069934 0.008182151 -0.08743066 -0.18899748
0.25377074 -0.21857367 0.15237567 -0.0124990735 -0.116639026 0.13732028 -0.20548847 0.056129266
0.08682303 -0.22950514 0.020051213 0.25316104 0.14209777 -0.091724165 -0.192266 -0.09140772
0.0644127 -0.16839963 0.069081485 0.19214615 -0.17879425 -0.0077158473 0.20347719 0.04460721

fc2.weight f4 [64, 32]
00000000: c827 0bbe 23c2 9ebd 865d 4cbe a56b 0b3d
00000010: b3c4 093e 8211 76bc e133 9c3d ecdb a23d
00000020: 50b2 ed3d 9d2e 163e a6a6 1ebe 35ac 6fbe
00000030: 4f6a 173e 4716 113e be54 82be c2f7 123c
00000040: 443d 703e 88d5 013e 165b 193e 7e43 1e3d
00000050: dc8a d8bc c7a5 c3bd 31ab 153e 4388 953c
00000060: 4741 3bbe aac3 333e 8cb8 1e3d 365f f13b
00000070: d809 37be 5cbb d7bc 6e75 babc 7d36 d13d
00000080: 1eb6 bfbd f96f 1c3d 1f11 b73c f050 993d
00000090: 4e47 9abd fa15 083d 0ff4 c3bd e2c7 583e
000000a0: d122 3abe b46a 96be 0c8c a7bd cd83 103e
000000b0: b56d 153e 39f4 613e 5711 8e3d 8d59 2abe
000000c0: 691d 8cbd 6bed 9ebd 4c01 debd d8db cb3c
000000d0: 3a51 4cbe 42c0 17be b8fe 4abe 20e3 57be
000000e0: 9a5e 2a3e dad9 323e 40ea 4a3d 5b20 083e
000000f0: fd41 fc3d 0269 5fbe 9d64 6d3e 792d 4a3e
00000100: ac3b 2c3e 502d 6f3e 92ca fd3d 9a5d 213e
00000110: dc6d 52be b00e 503e 1254 63bc 0d4d 67bd
00000120: 3fa1 4bbe 7b7a 4bbe 0b9f 17be 7670 2b3e
00000130: 3592 1b3e f2f2 0bbc 8245 4cbe 0377 1c3e
00000140: ee8a 53bd 3a95 0abd 7c86 2ebe 3434 653e
00000150: 94c6 2d3d ad7e 21be e586 f23d 7798 c33d
00000160: b14d b5bd a620 b13d 3086 43be 3528 9e39
00000170: bb3b ed3d 6a58 04bc 6810 ebbd a177 dbbb
00000180: e978 aa3d cf4b d1bd dc28 eb3d 2dd0 183e
00000190: aac1 c83d 6f97 a3bd d660 ddbc af63 e33d
000001a0: 16d0 a73d 20e9 90be 98a0 f8b8 04d2 9cbd
000001b0: 96f9 4ebd 5258 4c3e 15a2 08be eda5 2c3e
000001c0: 6833 a33d 3d0e 263b 645e 54be 8195 4d3d
000001d0: 4e9b 6e3c 4644 20be 7ae4 193e d05b fabd
000001e0: 3efd abbe a5b8 89be f272 a5bd 3542 523d
000001f0: bc54 2bbe 4dde f83d 8310 0bbe 5e72 713d
00000200: e8b3 c1bd 014c 2ebe c39c 693d 04fb b43d
00000210: 9c41 de3d 6de9 b83b 07a6 2ebc c735 c03c
00000220: ec47 8fba 86be 313e ee6c 18be 92fb 8fbd
00000230: 80be 80be bf6e 89be 39c1 093e 2d09 49be
00000240: a88f 7f3e bb3a 2e3e e927 073d 0028 36be
00000250: 3518 73be 2dbd 093c 877c 363e 465d 9b3e
00000260: f2f8 193e 1dd1 1cbd 0ed5 103e 99ff 64be
00000270: c8ae 28be c39a 013e 448d d6bd c03a 823c
00000280: c7c4 8cbe 3e85 babd ecf6 80be 0a8c 32bd
00000290: 3e0b 16be 7c26 163d 1e66 303e 07ab 1fbd
000002a0: 4a78 983d 3437 1bbf dc90 3a3d c47c 5f3d
000002b0: f7cc 273d 2c54 2cbe 5cb8 da3d fae8 37bd
000002c0: 4e8a 7dbe 9745 1ebe 535a f13d 0eb3 2c3e
000002d0: 80e8 dcbd 028f fb3d 5229 cc3d 5f2c 903d
000002e0: 756a 573e ae11 08be 938d 0f3e 21da b1bc
000002f0: 16a5 b4bc bd52 1c3e 257d 40bd 9f53 413d
00000300: 1fa5 95bd fcae e7bd 2016 9c3d f61e 9a3d
00000310: 95fd 9fbd 17fa e3bd 114e fd3d b7c7 3bbd
00000320: 2272 f83d a328 c03d 45fc 48be 5d03 44bd
00000330: 128d 92bd 0b82 d5bd 9830 7c3e 8dab 483d
00000340: 866a 7c3d 5a45 9cbd b122 873e a2ce 483e
00000350: fbb8 abbc bea6 5ebc 6bb3 9fbe c052 9d3d
00000360: e003 84bd 1b73 d0bd d811 ee3a 9050 3ebd
00000370: a930 81bd 1876 a33d 33dd 13be 8861 9fbd
00000380: 906f d23d b36b 633e 7c61 20be e0b5 953c
00000390: 3d34 88be 9897 5b3e dda9 65be d050 8abe
000003a0: dec1 663d 76dc 9ebe 720a 8a3d 02cd 21bd
000003b0: 172a 48bd 2a3a b0bd 3389 903d a6e4 8c3c
000003c0: 27d8 89be 801e dfbd f9e2 1cbe a899 a73d
000003d0: 3f35 10be b307 1c3e 7b92 9b3c 06a9 ffbd
000003e0: 20a7 a33d fd02 943d 227d 833d 119b 143e
000003f0: 4fc0 96bd ec5d fcbd 57b6 533d df80 2e3e
-0.13589394 -0.077518724 -0.19957551 0.034038205 0.13453941 -0.015018823 0.076270826 0.07952103
0.11606276 0.14666219 -0.15493259 -0.23405536 0.14786647 0.14168654 -0.25455278 0.008970203
0.23460871 0.12679112 0.14976153 0.038638584 -0.0264334 -0.09553104 0.14616086 0.018253451
-0.1828662 0.17555109 0.038750216 0.0073660864 -0.17874849 -0.026334457 -0.022761073 0.10215471
-0.09360908 0.038192723 0.022347031 0.07486141 -0.075331315 0.033224083 -0.09568035 0.21169999
-0.18177344 -0.29378283 -0.08181009 0.14112778 0.14592631 0.2206582 0.06936901 -0.16635723
-0.06841547 -0.07760128 -0.10840091 0.024885103 -0.1995286 -0.14819434 -0.1982373 -0.21082735
0.1663765 0.17465916 0.049539804 0.13293593 0.12317274 -0.21817401 0.23182912 0.19743909
0.16819638 0.23357129 0.12392153 0.15758362 -0.2054972 0.20318103 -0.013875024 -0.056469966
-0.19885729 -0.19870941 -0.14806764 0.16742119 0.15192492 -0.008541809 -0.1994839 0.15279774
-0.051646166 -0.03383372 -0.17043489 0.22383195 0.042425707 -0.15770979 0.11842135 0.09550565
-0.08852709 0.08648805 -0.19094157 0.00030166065 0.11583658 -0.00807772 -0.114777386 -0.0066976105
0.08323843 -0.102195375 0.11482403 0.14923163 0.098025635 -0.07987868 -0.027023714 0.111029975
0.08193986 -0.2830286 -0.000118554744 -0.07657245 -0.050530992 0.19955567 -0.1334308 0.1686017
0.07968789 0.0025338077 -0.20739132 0.050191406 0.014563395 -0.15651044 0.15028563 -0.12224543
-0.33591646 -0.26898685 -0.08078565 0.05133267 -0.16731542 0.121517755 -0.13580517 0.05894696
-0.094581425 -0.1702118 0.057034265 0.0883694 0.10852358 0.005643061 -0.010659701 0.023463143
-0.0010931469 0.17357835 -0.14885303 -0.07030405 -0.2514534 -0.26842305 0.13452615 -0.19632407
0.24957144 0.17014591 0.032997046 -0.17788696 -0.23739703 0.008406919 0.17820941 0.303446
0.15036371 -0.038285363 0.14143774 -0.22363128 -0.16472924 0.12656693 -0.10476163 0.015897155
-0.2749388 -0.09107445 -0.25188386 -0.043590583 -0.14652726 0.036657795 0.17226455 -0.038981464
0.07444818 -0.6063111 0.045548305 0.054562345 0.040966954 -0.16828984 0.10679695 -0.04489992
-0.2475979 -0.15456234 0.11784806 0.16865179 -0.10786533 0.12283136 0.09968819 0.07039713
0.21036704 -0.13287994 0.1401885 -0.021710457 -0.022051375 0.15265937 -0.046994347 0.047198888
-0.07306885 -0.113126725 0.076214075 0.075254366 -0.07812039 -0.11131685 0.123684056 -0.04584476
0.12131144 0.09382751 -0.19627483 -0.04785477 -0.07155813 -0.10425194 0.24627912 0.04899173
0.061625026 -0.07630415 0.26393655 0.19610074 -0.020962229 -0.013589559 -0.31191573 0.07681799
-0.064460516 -0.101782046 0.0018163277 -0.04646355 -0.06308109 0.07981509 -0.1443985 -0.077822745
0.10275185 0.22209053 -0.15662187 0.018275201 -0.26602355 0.21444547 -0.22428079 -0.2701478
0.05633723 -0.31027573 0.067402735 -0.03950215 -0.048868265 -0.08604844 0.07057419 0.017198872
-0.26922724 -0.10894489 -0.15320958 0.081836045 -0.14082812 0.15237312 0.018990746 -0.124834105
0.07990861 0.072271325 0.064203516 0.14512278 -0.07360899 -0.12322602 0.051687565 0.17041348

fc2.bias f4 [64]
00000000: 68eb dd3d 976b 5abd 693a 17be 1912 88bd
00000010: 8698 0f3e 6a7a aebd 7c4c 02bd f9a9 343d
00000020: 7e47 fc3c a0ce c9bd 6f53 233e 5346 aa3d
00000030: 52e4 c53d ba74 b73d 1a35 58bd 5a13 8ebd
00000040: a530 4f3d dfe7 26bd a227 4a3d 8868 f7bd
00000050: 6e68 6ebd d3db 8f3d 531e 583c 6beb f6bd
00000060: 5e31 e2bd 1cd1 ce3d f9dd e93c 813e 0ebe
00000070: 6340 003e 1d4f 793d d2ff e9bd e6c7 bebd
00000080: f37f 263e 1082 a2bc 1796 dabd 9b85 fe3d
00000090: 5dc0 e6bc 3745 bb3c b198 c0bd 4ed0 21be
000000a0: 3365 19be 2925 c6bc e993 17be 1ed2 1a3e
000000b0: ba14 d2bc 98d7 8ebd 8f94 d23d a81a 14be
000000c0: 9f04 aabd cf29 a63d 518c 0dbe a6a4 0f3e
000000d0: c970 143d b219 d3bd fd82 37be f302 883c
000000e0: 0053 b33d ddde 52bd 34fa 08be 246c bbbd
000000f0: f558 593d fc89 16bd 3a6c 7d3d c25c f23c
0.10835916 -0.053325262 -0.14768375 -0.06644077 0.14023027 -0.085194424 -0.031811222 0.04410741
0.030795809 -0.09853864 0.15949796 0.083141945 0.09662689 0.08957811 -0.052785017 -0.06937285
0.0505835 -0.040748473 0.049354203 -0.12080485 -0.05820506 0.0702435 0.013190824 -0.12056621
-0.11044572 0.10098478 0.028548228 -0.13891031 0.12524562 0.060866464 -0.11425747 -0.09315471
0.16259746 -0.01983741 -0.106731586 0.12427827 -0.028167898 0.022860153 -0.094041236 -0.15802118
-0.1498001 -0.024187641 -0.14802517 0.15119216 -0.025644649 -0.06974715 0.102822416 -0.14463294
-0.08301663 0.08113443 -0.13823058 0.14027652 0.036240373 -0.10307635 -0.17921062 0.016602969
0.08756065 -0.05148207 -0.13376695 -0.091514856 0.05306335 -0.036752686 0.06187079 0.029585246

fc3.weight f4 [128, 64]
00000000: 8a31 4b3c e672 0b3e de73 213e 6dac 083e
00000010: 409b 943d 9526 1a3b 659a 8a3c bd35 4bbd
00000020: d398 013e 02ee 4abd 6893 eab9 8c97 8abc
00000030: 36a0 11be e1d6 323e 0667 3c3c 1e58 d1ba
00000040: b7bb 0fbe c6ba aebc 6c42 073e b489 10bd
00000050: 4038 f4bd 2173 163c 658e 08bd f3db dfbc
00000060: c5a9 22be 5ac4 a0bc f588 733e 838e 5d3e
00000070: 0ac8 1e3b 9326 dfbc 7eaf 3bbd a7a1 fabd
00000080: 932b a73d d058 943d 5faf 533d 5348 b0bc
00000090: 5c13 09be e220 d5bd 470d 8a3d a67b 5abe
000000a0: d74e 60be 7c4c be3c fbd0 113e 4ed3 2fbe
000000b0: 358d 6b3e 6b49 21be 8060 77be 19e9 2e3d
000000c0: deec 1b3d 5024 be3b a704 d4bd 25a3 84bc
000000d0: d063 9cbd 8a75 b9be ec49 943b 394d 483d
000000e0: 3148 99be d3ec 8c3e 4442 fdbd 3690 713e
000000f0: 4099 d53b f937 143e 53b0 c0bc 141a 95be
00000100: 598a aa3d 3daf 2a3e 3214 febd 3bc1 34be
00000110: 3439 fe3d bfc6 1d3e 4299 d1bd 0f4e fb3d
00000120: 7d16 32be d077 2cbe 2770 ddbc 8259 3b3e
00000130: 638c 90bd a270 ea3d 6b90 d3bc 349d 3dbd
00000140: b587 d73d de7f c23c 2363 d8be 7081 1ebe
00000150: 85ba 983d 371b 123c af5c 62bc 3295 d0bd
00000160: 0b29 fdbc f25f 1c3d 2ba5 46be d459 6fbe
00000170: 7d58 dd3d 1414 a8bd 147e 273e 2c8b 6abb
00000180: e67c ea3c 3898 1cbd 5f13 7d3d e377 98bd
00000190: 0b04 1a3d 5e70 963d da92 db3d 2fd4 833c
000001a0: 1d2a 98be e2a1 653d 88f5 903c ee1a 0ebd
000001b0: 93ba f1bd 4c13 c3bd 4611 ccbd eafd 52bd
000001c0: 16c0 b9bd 4ea2 c0bd 4961 9d3d fa30 993d
000001d0: 9285 bebd 8805 4b3c fefd 69bd 914c f33d
000001e0: c6c3 fcbd 953e f23c 9a98 223c 194f 553e
000001f0: 8881 afbd 32fe 42bd 328c ba3d 91c4 5f3d
00000200: be74 94bd 3b8b c53c a3e7 113e eaef 6dbd
00000210: d4bb 1dbe ae04 d13b f4b2 98bd 51f7 e33d
00000220: 88aa c53d a3f9 3bbd 5739 f03d b9d7 88bd
00000230: 452f a7bc c9ec 043e b781 36be b5c7 053d
00000240: 27e0 23be b305 063e 03c9 5dbd 93d3 d7bd
00000250: 34de a6be 3117 333d 8ba5 4dbd 90dc 793d
00000260: f2a7 babd 1356 983d 742e 323e 030c d83d
00000270: 50db 1bbe 7e58 a93d 423a 02bd 8ff7 b53d
00000280: 761d f1bd 9f3f efbd 02b1 89bd 747d 273e
00000290: 0ede 353e f867 b8bc 0c98 233d b36b 88bd
000002a0: 8f86 d33d a267 46bc 17e1 2a3d 085a 43be
000002b0: 586e bbbe 30f2 2d3d 6ad1 813c dfa2 8dbd
000002c0: ba3c 403d 7927 4f3d 3437 9fbe 6bdd f53b
000002d0: 0103 bdbc 473c 4e3c 46d0 47be 4737 46be
000002e0: c341 2abe e4f8 32be 28b9 693e 318d ba3d
000002f0: 826d c6bd 0f3f a3bd 0baf 0f3b 0548 e8bb
00000300: 88de 3ebd d56c febd 0b66 373e fd56 0e3d
00000310: cb94 78bd ed52 cabc c780 6dbe 955c e93d
00000320: f2e6 d5bc 9d85 933c e0b7 c03c 48a7 62bb
00000330: d31c 843e e17c 8f3d 7e99 66be 642b 15bd
00000340: 31bb dbbd 7769 4e3d 1e79 20bd 705d 163e
00000350: a80a 4ebc 2eec b33d 28c6 bebb 678e 353e
00000360: d058 5d3e a0b9 dc3c cf35 6e3d c328 57be
00000370: 1bca 333e ca04 d3bd 6817 2a3d 3d26 2b3e
00000380: 667e 44bc d7da 5dbd 30d4 d83d 9a69 853d
00000390: 7db3 9dbd f2b8 9f3d 5486 b03d d2db c43a
000003a0: 1fe1 18be cd58 5b3e c444 fb3c acbe 003e
000003b0: 60d4 07be 2218 bebc cb44 a13c 513e a2bd
000003c0: ecb3 c33d 63be d7bd f1f2 94be 87f8 4abe
000003d0: b4ce fb3c 54a3 9a3c 50ef 3abc 107d d53d
000003e0: 8bfd e1bc a378 89bd 665f 12be 27e4 3c3d
000003f0: 1b2b b1be b7f2 afbd bf87 eabe 81b1 833b
0.012401948 0.13618049 0.15766856 0.13347025 0.07256174 0.0023521532 0.016919324 -0.049611796
0.12655954 -0.04954339 -0.00044741784 -0.016917966 -0.14221272 0.17464782 0.011499172 -0.0015971696
-0.14036451 -0.021329295 0.13208932 -0.035287574 -0.11924791 0.009182722 -0.033338923 -0.02732656
-0.15885074 -0.019624878 0.23782714 0.21636395 0.002422812 -0.027240073 -0.04582166 -0.12237864
0.08162608 0.07243502 0.05168092 -0.021518862 -0.13386291 -0.104066625 0.06740814 -0.2133623
-0.21905075 0.02322983 0.14239876 -0.1717045 0.23003085 -0.15750663 -0.24157906 0.042702768
0.03806769 0.0058026686 -0.1035245 -0.016191075 -0.07636225 -0.36222488 0.0045254137 0.04890177
-0.2993789 0.27524433 -0.12366155 0.23590168 0.006518513 0.14474477 -0.023521578 -0.2912146
0.08327169 0.1666841 -0.12406196 -0.17651837 0.124132544 0.15407847 -0.1023431 0.12270748
-0.17391391 -0.1684258 -0.027031017 0.18295863 -0.07058027 0.11447264 -0.0258257 -0.0462925
0.10523931 0.023742612 -0.42263135 -0.15479064 0.07457451 0.008917621 -0.013816043 -0.10184707
-0.03090336 0.038177438 -0.19398944 -0.2337411 0.108078934 -0.082069546 0.16356689 -0.003578852
0.02862401 -0.038231105 0.06178605 -0.074447416 0.037601512 0.07345651 0.10721369 0.016092388
-0.2971963 0.056062587 0.017695203 -0.03469365 -0.11803164 -0.09525165 -0.09964232 -0.051511683
-0.090698406 -0.09405957 0.07684571 0.07480045 -0.0930282 0.0123914555 -0.05712699 0.11879838
-0.12342028 0.029570857 0.009924078 0.20830955 -0.08569628 -0.0476057 0.091087714 0.05463082
-0.07248829 0.024114242 0.14248519 -0.058090128 -0.15403682 0.0063787317 -0.074560076 0.11131156
0.09651667 -0.04589237 0.11729687 -0.06681771 -0.020408282 0.12980951 -0.1782292 0.03266116
-0.16003476 0.13088112 -0.054146778 -0.105384015 -0.32591403 0.04372329 -0.050206702 0.06100136
-0.09114064 0.07438292 0.17400533 0.10549166 -0.1522038 0.08268832 -0.03179384 0.08885109
-0.11773197 -0.11682057 -0.06723215 0.1635645 0.17760488 -0.022510514 0.039939925 -0.06661167
0.103283994 -0.012109669 0.04171857 -0.19077313 -0.36607623 0.042467296 0.015846927 -0.06915831
0.046932913 0.050574753 -0.31096804 0.0075032017 -0.023072721 0.012587613 -0.19513044 -0.19357024
-0.16626649 -0.17477757 0.22824538 0.091089614 -0.09688856 -0.07971012 0.0021924402 -0.0070886635
-0.04659894 -0.12423102 0.1791002 0.034750927 -0.060688775 -0.024697745 -0.23193656 0.11394612
-0.0261111 0.018008048 0.023525178 -0.003458457 0.2580324 0.07006241 -0.2251949 -0.036418334
-0.10729063 0.050393548 -0.039178006 0.14684081 -0.012575783 0.08785282 -0.005821962 0.17730103
0.2161591 0.026943982 0.058156785 -0.21011643 0.17557566 -0.10303648 0.04152623 0.16713805
-0.011993026 -0.05416378 0.105873466 0.065142825 -0.0770025 0.077989474 0.08619371 0.0015019125
-0.14929627 0.21420594 0.030672438 0.12572736 -0.13264608 -0.023204867 0.019686123 -0.07922042
0.09555802 -0.1053436 -0.290916 -0.19821368 0.030738212 0.018876709 -0.011409596 0.104242444
-0.027586719 -0.06712463 -0.14294204 0.04611602 -0.346032 -0.08591216 -0.4580669 0.004018963

fc3.bias f4 [128]
00000000: 0f64 493d 68f4 5dbb 6b28 d03d fb0c e7bd
00000010: a8f6 a63d 6112 d93d 406b 853c bb73 d23c
00000020: bb30 1eb9 3a75 663d 5782 703d d369 db3c
00000030: 0f41 67bd 2be4 29be b251 dbbc b742 fbbd
00000040: d3cc d03c 0c6e 073d 5661 8a3d 84ce 6fbc
00000050: 6e6b 2fbc 8805 0b3d 8a6f 05bd e37d 38bd
00000060: 611b a5bd 01ad 08bd 22cb 8f3b 0222 7b3d
00000070: e2eb 723d b43e da3d 90fa 8fbb edc6 233d
00000080: 25b0 f7bd 4699 063e daac e33d 7e6b b33d
00000090: d24b bdbd c1fd 243c 7903 c0bd 5c6c dbbd
000000a0: 2a94 043e dfb5 543c 2af1 b33d e353 aa3d
000000b0: 5ff5 6bbd aca8 893d 9917 81bd 483d 00be
000000c0: 4491 14bd 0dba 11bd 18f9 0b3e 7e39 0cbe
000000d0: f4e9 c43d e495 1fbd 71ea 753d d17f 113e
000000e0: db97 8ebd 8c79 8dbd 072d a63d 3e66 e4bc
000000f0: 782a 983c 4253 dd3d e217 b63b ec5d 9b3d
00000100: c2bb 84bd f538 293d 23de 833d 3355 a4bd
00000110: dffb 45bd 6dde 733d 4a58 dabd 1851 d43d
00000120: c8d3 a7bd cb65 1a3d 730c d33c 8041 a4bd
00000130: bff6 923d 7e09 dabc a4bf a9bc d473 99bd
00000140: 57d0 b4bd 0583 413d c07c 65bd 2f84 463d
00000150: 1e23 3d3d d5ff ce3c 928e ea3c 4696 393d
00000160: 8d34 ebbc 0919 4cbd b29f 6dbd 61e7 c53d
00000170: 4b17 bf3c 5ff2 293d 4ad2 abbd e42f 1abe
00000180: f128 ddbd b938 8f3d 1f51 213d ca61 15be
00000190: 7838 02be d9ed cc3d e403 ed3c f597 8dbd
000001a0: 020b 22bd 4f84 a63d fb28 b73d 3c0a 9f3c
000001b0: 54ea bcbd 8b18 d9bc 470a a2bd e0e6 e0bd
000001c0: 6be2 2ebd 6067 7b3d 0e88 063d aa0e dd3d
000001d0: e06d 37bd 1ef9 003d e58e f83d 078e 993d
000001e0: 6414 29bc 1ad4 83bb 1143 e03d b866 0cbd
000001f0: 0770 15bc 0587 8abc 1ac4 8ebd 29f1 ad3c
0.04916769 -0.0033867601 0.10163959 -0.11281773 0.08152515 0.105992086 0.016286492 0.02568995
-0.00015086208 0.05626414 0.05871805 0.02678386 -0.05645853 -0.16590945 -0.026772354 -0.12268584
0.025488293 0.033063933 0.067568466 -0.0146366395 -0.010706766 0.033940822 -0.032577075 -0.04504193
-0.08061863 -0.033368114 0.004388229 0.06131173 0.059306987 0.10656491 -0.004393883 0.039984632
-0.12094144 0.13144407 0.11116953 0.08760737 -0.09242977 0.010070265 -0.09375662 -0.10714027
0.12947145 0.012982815 0.08786233 0.08316781 -0.05760705 0.06721625 -0.06303329 -0.12523377
-0.03627135 -0.035577822 0.1366924 -0.13693807 0.096149355 -0.038961306 0.060038034 0.14208914
-0.06962558 -0.06907949 0.08114057 -0.027880784 0.018574938 0.10806896 0.0055570463 0.075862736
-0.064811245 0.041314084 0.064388536 -0.08024063 -0.048335906 0.059538294 -0.10661371 0.1036703
-0.08194691 0.037694734 0.025762772 -0.08020306 0.07175969 -0.026615854 -0.020721264 -0.074927956
-0.088288 0.04724409 -0.056027174 0.048465904 0.04617607 0.025268475 0.028632436 0.045309328
-0.028711582 -0.049828563 -0.058013625 0.09663273 0.023326537 0.04149091 -0.08389719 -0.15057331
-0.107988246 0.06993241 0.039384004 -0.14588085 -0.12716854 0.10006303 0.02893252 -0.06913749
-0.03956128 0.081307046 0.08943363 0.01941406 -0.09224382 -0.02650096 -0.079121165 -0.10981536
-0.042696398 0.061377883 0.032844596 0.107938126 -0.04478252 0.031487577 0.1213663 0.07497793
-0.010319803 -0.004023087 0.10950292 -0.034277648 -0.009120948 -0.016910085 -0.06970997 0.021233158

fc4.weight f4 [256, 128]
00000000: 4806 39bb 9e38 fb3b 4669 8d3d 6692 3c3e
00000010: ed83 fb3c 8995 0b3c f0fb 513c 63b9 8cbe
00000020: 0abe 5f3d bf7d 863d 679c cabc 8064 9cbc
00000030: 1a4c 90bb f18b 1e3d 25ee d4bd 5219 b4bd
00000040: 4375 cc3a f3bc 60bc 42fb be3c 8142 993d
00000050: fe14 c8bd 2357 8abd a61f 903a 4702 8dbd
00000060: 7dab dfbe 3a26 823d 50f4 6cbd 301f 643b
00000070: ce3d 1b3e f078 8a3c 438e 06bd 401e 41bd
00000080: 7380 d9bd 4f77 f3be 0357 3f3e a67f 013d
00000090: f37f 70be 2ddd 123c bec0 8d3b c3ae 1d3d
000000a0: c05b 613d df7b 6dbe d2e0 0abd 8617 26be
000000b0: 9ce5 12be 3925 b93d 3d87 e6bd 7802 453d
000000c0: 6c3b efbd 9e0f 953d a8ee b83e 01c6 2f3e
000000d0: 66a4 9dbc 74ec f7bd 8dad 933d 2e12 ac3b
000000e0: 53a2 af3d 8c7e f9bd 9865 4c3d c97b 8dbd
000000f0: 6396 bcbd db2b 783d 28d4 13ba a2a5 dbbd
00000100: faae 7a3d 7cdc 693d f9e4 c33c b64b 0cbd
00000110: 1a30 ad3d 059d 29be d5b4 cd3d f636 b93d
00000120: 4051 253e 0157 65be 3c81 5d3b d860 13bc
00000130: 0a35 83be e595 a5bc 161a b2bd 5ac5 113e
00000140: f590 0fbd a4bd bf3d 2187 38be 9f43 96bc
00000150: 42ca d2bc e764 9ebc e58d 86bd 2760 9ebd
00000160: 43d8 10bf d35c 1abe e918 ffbc 79ef f23d
00000170: 7579 c9bc 8375 233e a1a8 4cbd 9d25 9ebd
00000180: 1596 86bd 7c27 31be 2a90 0bbe 03e7 f63c
00000190: 7eb3 c3bd 6cdf d0bc 8929 66bc d1ed 563d
000001a0: a8f6 dc39 b34b 133e f04b 12be 1d9a 803d
000001b0: 46e2 09bd 056c 9cbc 7371 053d 0f2b 093b
000001c0: 5754 ca3d 641e e9bd 0918 c63c 88fe 243e
000001d0: 5c30 b63d 3f6a e1bd cab6 d3bc f801 cdbe
000001e0: 37bf ca3d b1bb 233d 6b54 7ebd 7fcb 883d
000001f0: 9998 653d e6f3 693e a238 88bd 5a32 ebba
00000200: fd72 113e 4dc4 e4bc b736 a53d db59 34bd
00000210: d018 1a3d c410 86bd 0368 f0bb 3508 3fbe
00000220: 6ad7 bf3c 4744 933d ed97 0c3c 28bb 3d3d
00000230: a022 63bd 5b84 26bd 2cb4 963d cc30 67bb
00000240: 7d41 41bd 492b dd3d 944a cc3d 8fb0 0f3e
00000250: f688 26bd 86a7 f2bc 0a77 ec3c 13df 56be
00000260: 5e6e 1ebe a246 8d3c 3ae7 fdbd 423c 86bc
00000270: 2625 b6bd 0e2e b3bd cb5e 003d 620c 263b
00000280: e9a5 8ebd de34 e8bc 487f 643d 1aff e63c
00000290: 3544 1c3e 2d18 07bd 643c 78bc 103c a3bd
000002a0: 6f0d 50bd 6112 02be 3c00 eb3d f2c1 e439
000002b0: 0688 1cbd 9169 31bd 8702 34bd ad12 c5bd
000002c0: 400c ed37 b77e 3cbe 44d4 0c3e 13bd 3b3e
000002d0: 3d48 14be 7703 b4ba 6ffb 25bd 2af4 aa3d
000002e0: 7dde 9f3d d376 1f3e 65f1 81bc 6c46 4c3d
000002f0: abb7 89be 7142 1d3d b75e 95be 0bc7 dcba
00000300: ad4a fa3c f24a 113e c385 c73c 0386 9c3c
00000310: 7eeb 7fbd f976 d5bc 0fbe dbbd c5b1 093e
00000320: 3712 8bbd acd3 82be 245c 8b3c df8f c13b
00000330: f1db 8cbd 02b4 b9bd 2018 28be f817 29bd
00000340: 566f 2bbd c1bf 0bbe 5343 2ebd 6a9a 053d
00000350: a5c8 68bc 44c5 18bd f0fa 43be 764e 03be
00000360: 534f 293e e4b0 e8bd 0822 a7bd b250 73ba
00000370: c217 19be 6a30 08bd 0f5c 393d 662a d2bd
00000380: a0b7 e7bd 83dd 44bd 80da 923d 967f b8bd
00000390: 87fb 963d 9799 afbd deb9 1cbe a324 823d
000003a0: 39be 03be d2aa bc3d 827d f3bd 30b2 063e
000003b0: 3825 b2bd d061 48be edf1 a6bc ef17 40be
000003c0: 8c0f 4e3e a5f9 0ebe e6d5 e5bc a347 ec3d
000003d0: 9731 42bd 1104 71be 7309 cdbd ac5e 43be
000003e0: bee7 2c3e e724 6abd 66e8 ec3c da33 773d
000003f0: 1a38 283d 0fb7 00be 18e0 193d b6ce 84bd
-0.0028232504 0.0076666614 0.06904845 0.18415222 0.030702556 0.008519539 0.012816414 -0.2748519
0.054624595 0.06566953 -0.024732782 -0.01909089 -0.0044036033 0.038707677 -0.10396985 -0.08793892
0.0015598912 -0.013716924 0.023313168 0.07483388 -0.09769629 -0.06754901 0.001099576 -0.068852
-0.43685523 0.063549474 -0.057850182 0.0034808628 0.15160295 0.01690337 -0.032850515 -0.04714799
-0.10620203 -0.47551963 0.18685536 0.031615876 -0.23486309 0.008963865 0.004325955 0.038496744
0.05501914 -0.23191784 -0.03390581 -0.16219911 -0.14345402 0.09040303 -0.112562634 0.048098058
-0.11681256 0.07278369 0.3611958 0.17165376 -0.01924343 -0.12105647 0.072108366 0.0052511906
0.08575883 -0.1218234 0.049901575 -0.06908376 -0.092083715 0.0605887 -0.0005639219 -0.10724951
0.061202027 0.057095036 0.023912894 -0.03425189 0.0845644 -0.16563804 0.100442566 0.09043686
0.16144276 -0.2239647 0.0033798954 -0.008995257 -0.25626403 -0.020213077 -0.08696382 0.1423544
-0.03505035 0.09362343 -0.18020298 -0.018342791 -0.02573121 -0.019335223 -0.06570033 -0.07733183
-0.5657999 -0.15074472 -0.031139808 0.11862082 -0.024594048 0.15962796 -0.049965505 -0.07722018
-0.065715946 -0.17300218 -0.13629213 0.030139452 -0.0955572 -0.02549716 -0.014047989 0.052472893
0.00042145443 0.14384346 -0.1428678 0.06279395 -0.033663057 -0.019094476 0.032578897 0.0020930206
0.09879368 -0.1138275 0.024181383 0.16112721 0.088959426 -0.11006593 -0.025843997 -0.40040565
0.098997526 0.03997392 -0.062092226 0.06679439 0.05605373 0.22846946 -0.06651427 -0.0017944083
0.14204021 -0.027925635 0.08067077 -0.044031005 0.03762132 -0.065461665 -0.007336618 -0.18655474
0.023418147 0.07190757 0.008581144 0.046321064 -0.055452943 -0.040653568 0.07358584 -0.0035276888
-0.047181595 0.107992716 0.09975162 0.14032196 -0.04065796 -0.029620897 0.028865356 -0.20983534
-0.15471789 0.017245594 -0.123976186 -0.016386155 -0.08893804 -0.087490186 0.0313404 0.002533697
-0.069652386 -0.028345522 0.055785447 0.028197814 0.15260394 -0.03298204 -0.015151117 -0.079704404
-0.05079406 -0.12702323 0.11474654 0.0004363205 -0.03821566 -0.043313567 -0.043947723 -0.09622703
2.8258306e-05 -0.18407713 0.13752848 0.18333845 -0.14480682 -0.0013733943 -0.04052299 0.08347352
0.07806108 0.15572672 -0.015862176 0.049871847 -0.2689794 0.03839344 -0.29173824 -0.0016843987
0.030553186 0.14188746 0.024355775 0.01910687 -0.062480442 -0.026057707 -0.1072961 0.1344672
-0.067905836 -0.25552118 0.01701171 0.0059070433 -0.06877888 -0.09067537 -0.16415453 -0.041282624
-0.041854225 -0.13647367 -0.042544674 0.032617964 -0.014207994 -0.037297502 -0.19138694 -0.12822899
0.16534166 -0.11361864 -0.08160788 -0.0009281739 -0.14950469 -0.033249296 0.04525381 -0.10261993
-0.113143206 -0.048062813 0.07170582 -0.0900871 0.07372194 -0.08574217 -0.15305278 0.06354644
-0.12865533 0.09212269 -0.11889173 0.1315391 -0.08698505 -0.19568563 -0.020379031 -0.1875913
0.20123118 -0.1396242 -0.028056096 0.11537101 -0.047410574 -0.23536707 -0.10011568 -0.19079083
0.16885278 -0.0571641 0.02891941 0.060352184 0.041069128 -0.12569831 0.037567228 -0.064847395

fc4.bias f4 [256]
00000000: f614 01bd eed9 febd 2ae5 98bd 5a26 623e
00000010: c9a5 603d 4371 c43d 8848 63bd cca1 34be
00000020: 846e b43d 54e7 2e3e 1811 9bbd 08dd 0a3e
00000030: 7464 c83c ee82 8c3d aebf 403e 2083 71bd
00000040: ac25 183d 80dd a23d d977 9ebd 9685 8bbd
00000050: 5102 a6bd 27c6 93bd 21cc a33c 3f7a 39bc
00000060: 0099 f83d cc98 3fbd 3e18 8dbd a432 45bd
00000070: 882c 15bd 4094 2fbd cc2b cf3c bde5 04bd
00000080: 619e d0bd 5806 4dbc 1eb3 883c 9b1d 4f3e
00000090: 1f82 94bb ddce a0bd ae10 013e 119b 27bd
000000a0: ec55 983d 6b36 2e3d 871f 8e3d c1ea c63d
000000b0: 9135 6d3d eb3b 29be a9e3 afbc 64e3 173c
000000c0: 3f2d b9bc 01c8 973d a390 d6bb f6a5 903c
000000d0: 08f9 cf3d 6e30 d33c 8adc 3d38 1880 3f3c
000000e0: 97af eb3c 35de efbd 4bc3 07bd 0556 8b3d
000000f0: 2603 0d3c 27a7 bd3c 849f c4bd 055b bfbc
00000100: cc50 3ebd 25ad 05be bae2 b23d 6d18 963d
00000110: e9fe 78bd a24a 983d c31b b63d 148d fabd
00000120: 6d7a 623b 5378 f6bd 9c17 e3ba 11e0 903d
00000130: 705e 903d 08a8 743c b1f6 6c3d dca7 9cbc
00000140: 1c08 c03d 4dff 9e3d a56d b0ba 5e5c be3d
00000150: 5b6e d2bd 98b0 db3d 7f53 9a3d 9c9f c4bc
00000160: 9ad4 363e 5aa0 70bd c534 08bd 213c a3bd
00000170: 2af7 afbd 96dc db3d dd0e 983d 36f9 0bbd
00000180: 9ba3 0abe c869 d1bc 8a57 823d 432e a9bd
00000190: e2fd a2bd 0237 b03d 4240 723d cddc c3bc
000001a0: b184 21bc 81d0 0e3e 9645 74bc cb75 ebbc
000001b0: 1cda bbbd 6ef7 dfbd 146c 4f3b a9ba f43d
000001c0: f33b 973d 1abb 1dbd efb2 9f3b 29d1 ffbc
000001d0: 4031 a5bc 62ed a63d 3152 a7bd 0dc6 ad3d
000001e0: 40c8 483d 7374 b43d 4449 0ebd 967c 3ebd
000001f0: e1e1 e23b 9d7c 313d e460 803d 838f 2bbd
00000200: 2c0b df3d b23b 003d 267d 25bd 5e46 d4ba
00000210: 8690 843c 3571 31bc a4cd 91bd 6cd7 943d
00000220: 031f 9cb9 c73d 7f3d e4e1 203d f286 643d
00000230: da11 53bd dad8 06be 882e 28bd f509 30be
00000240: b935 4c3b e43f 6bbc cc9d 083e 5dae 84bc
00000250: 8618 45bd 754f 98bd ab93 12bc 94c5 1b3d
00000260: 58e9 7bbc 256b a7bd 0b78 68bb 851a 283e
00000270: 5017 063d 35e4 f43d 8d46 a9bd 2255 96bd
00000280: c6f0 fabc d1f5 5c3c fc06 2f3b 549a adbd
00000290: 826c b93d d76f cfbd 11db 7d3c 033f 8ebc
000002a0: 46da f03b f5b8 f33a 199e c8bd 4f85 e33c
000002b0: 64c4 8d3b 88ff 60bd d078 07be 672e 0fbd
000002c0: ec80 f83d 363e ab3d 10ab 0bbc c580 2cbc
000002d0: c17f 14be 0c0f 43bc dab8 c0bd fe36 ddbc
000002e0: f9b7 ca3d b61d b53c 1963 3b3d 8361 203e
000002f0: 5804 b5bd 2876 a53d fd6d 263e c78e aabc
00000300: 1644 df3c cfd0 9bbd 13f3 bdbd ce19 93bd
00000310: 48e9 d23d 9e2a 2eba 86ad bbbc 9b74 fcbd
00000320: 926a ccbd 796f dfbc 328a cdbd ac67 d7bd
00000330: c91b 6dbd 4454 91bd 4c92 b73d 136a 0f3e
00000340: ec61 74bd f7a2 083e 11c0 c23d e7d4 2abd
00000350: 8ec0 63bd 5359 873d c2ac 51bc 946c fdbd
00000360: 8dd2 b5bd 477a 49bd e02e 74bc 75bc 093e
00000370: 632e c4bb 8955 6dbd 44b9 9d3d ff97 fbbd
00000380: 4ba0 9b3b d02b 653c 2fe2 00be 97be 1d3e
00000390: 0158 f53d 0256 013d b24c 693d edfd d1bd
000003a0: e502 b4bb 1c59 5e3c ae25 c1bb 096c fa3c
000003b0: 066c 913c e980 c8bd 2d7f 943d 5dc8 92bc
000003c0: 6d8d b9bd f781 793a 5afc a9bd 363e e9bc
000003d0: 97c6 8dbb 0a7b b2bd 02fa 15bd afb6 d43a
000003e0: 4473 a2bd b5ca 283d f0e6 9a3c 316e 82bd
000003f0: 3513 b03c a72b fa3a 7cd3 023d b094 6ebd
-0.03151413 -0.124439105 -0.074655846 0.22084942 0.054845605 0.095919155 -0.055489093 -0.17639846
0.08810142 0.17080432 -0.0757162 0.13560879 0.024461962 0.0686091 0.1882312 -0.05896294
0.0371453 0.07952404 -0.07737703 -0.06812589 -0.081059106 -0.07215529 0.019994797 -0.01132065
0.121385574 -0.046776578 -0.068893895 -0.048143998 -0.03641942 -0.04286599 0.025289439 -0.032445658
-0.101864584 -0.0125137195 0.016686972 0.20226137 -0.004532113 -0.07851956 0.12604019 -0.040919367
0.07438263 0.042532366 0.06939607 0.097127445 0.057912413 -0.16526763 -0.021470862 0.009270523
-0.022604583 0.074111946 -0.0065480038 0.017657261 0.10154921 0.025779929 4.5266504e-05 0.011688255
0.028770251 -0.117123045 -0.03314523 0.06803516 0.008606708 0.023150994 -0.09600738 -0.023358831
-0.046463773 -0.1305433 0.08734651 0.073288776 -0.060789976 0.0743611 0.08892014 -0.1223394
0.0034557835 -0.12034669 -0.0017325762 0.07073987 0.070492625 0.01493264 0.05785245 -0.01912301
0.09376547 0.077635385 -0.0013460411 0.092949614 -0.10274955 0.10727042 0.07535457 -0.024001889
0.17854539 -0.058746673 -0.03325345 -0.07970453 -0.08592065 0.10735433 0.0742471 -0.034173213
-0.13538973 -0.025563136 0.06364353 -0.08260777 -0.079585806 0.08604242 0.059143312 -0.023908997
-0.009858296 0.13946725 -0.014909169 -0.028742692 -0.091724604 -0.10935865 0.0031650113 0.11949665
0.07384481 -0.038508512 0.0048736255 -0.031227665 -0.020165086 0.08150746 -0.08169974 0.08485041
0.0490191 0.088112734 -0.03473784 -0.046505533 0.0069238995 0.04333173 0.062684804 -0.04188491
0.10890803 0.03130693 -0.040402554 -0.0016195287 0.016182195 -0.010830213 -0.07119301 0.07267651
-0.00029777744 0.062314775 0.039277926 0.055792756 -0.051530696 -0.1316866 -0.04106 -0.17191298
0.003115995 -0.014358494 0.13341445 -0.016196424 -0.04811909 -0.0743703 -0.00894634 0.038030222
-0.015375458 -0.08174733 -0.0035471942 0.16416366 0.032737076 0.119575895 -0.082654096 -0.073404565
-0.030632388 0.013486342 0.0026707044 -0.084767014 0.09053899 -0.10128754 0.015494124 -0.01736403
0.007350239 0.001859455 -0.0979578 0.027773527 0.00432639 -0.054931194 -0.1322968 -0.034956362
0.12133965 0.08361475 -0.008524671 -0.010528748 -0.14501859 -0.011905443 -0.09410258 -0.027003761
0.09898371 0.022108894 0.045748804 0.15662198 -0.08838719 0.08079177 0.16252895 -0.020820035
0.027254146 -0.076081865 -0.09274878 -0.07182656 0.10298401 -0.00066439237 -0.02290989 -0.12326928
-0.09981264 -0.027274834 -0.10036124 -0.10517821 -0.057887826 -0.070961505 0.08963451 0.14005308
-0.059663698 0.13343416 0.0950929 -0.041706946 -0.055603556 0.06608834 -0.012797536 -0.12374225
-0.0887805 -0.04918888 -0.014903754 0.13450797 -0.005986975 -0.0579429 0.07701352 -0.1228485
0.004749333 0.0139874965 -0.12586282 0.15404736 0.11979676 0.031576164 0.056957908 -0.102535106
-0.005493509 0.01357105 -0.0058943843 0.030569093 0.017751705 -0.09790213 0.07250819 -0.017917806
-0.09060178 0.00095179625 -0.08300085 -0.028472047 -0.0043266523 -0.08714874 -0.03661538 0.001622876
-0.079321414 0.04120894 0.018908948 -0.063686736 0.021493534 0.0019086496 0.03193997 -0.05824727

fc5.weight f4 [256, 256]
00000000: 6120 cc3a 5ae1 8abd 0270 89bc da2b f13d
00000010: 49d9 3abd 8035 acbd 455e cfbc 42d0 05be
00000020: 3bd0 ffbd 0e34 0f3d 8413 a3bd 2ad9 07bd
00000030: 9798 fc3c 169e b33d 2e95 20bb 92a0 40bc
00000040: 8a60 1dbd 8111 ef3c c3b3 47bd ced0 f3bd
00000050: 4634 a13d fafa 313d ce27 8fbd fd94 99bd
00000060: d77d d9bc 189c 863d b2b7 3fbc b2e5 09bc
00000070: 1673 3ebd 3701 32bc 44f0 8bbd dc1c e43c
00000080: feb6 0dbc 4aac 80be b913 b1b9 c73b da3b
00000090: 73ca 8a3b 5c1f b03c 593d 47bd 81f6 b03d
000000a0: a9cb c93b c6a3 26bc ac43 20bd 4bb6 d6bd
000000b0: d644 a6bc 15dd 9dbd 0948 c73d acf4 c3bc
000000c0: 84f1 c93b fde5 283e aa14 213c 21c6 2ebe
000000d0: ba32 08bc 6137 df3c 771f 55bd 9d9a 1dbd
000000e0: 6282 583c b2bc ba3d 7b6b 0b3d bffd b4bd
000000f0: e78a 6bbd 4b0f ecbd d15a 3ebe 9bff 6abd
00000100: 6118 49bd e339 66be d8e3 fabd 805c ea3d
00000110: e277 653d d781 183e dbb4 a83d 5e0b baba
00000120: 3f4d 75bc 9a84 10bd 94a5 323d 6895 053d
00000130: cc52 373d cd0b 5cbd 98cf 543e 9f75 6bbd
00000140: ba1a 44bd 883c 5fbd 771b 73bc 1d1d a4bd
00000150: 8812 06be 56e7 593d a79d 9dbd 6c81 a4bd
00000160: a872 2c3d 519c 313d 6f40 e2bc a940 24bc
00000170: 418c 9a3d ddd4 663d 65d7 a43c cf31 123d
00000180: 1b63 013e d003 a33d b5e3 f23d 8396 81bd
00000190: 0673 23be c67f 88bd 9b82 fe3d e695 22bd
000001a0: edd7 b53d 6386 733c db2c 04bd 5c67 3ebd
000001b0: 4c6d 17bd 2cc3 003e deb9 ed3b 5360 133c
000001c0: 0ad8 ae3c 0797 a13c 08a3 1dbd 2984 aabc
000001d0: 39db 4b3d 01cc a5bd e0f2 4e3d 9fad ae3d
000001e0: f34e 05bb d7d0 323d c49c 5abe 3265 4b3a
000001f0: 2f9a f5bc 89e1 60bd 9802 9abc 3ef1 1f3d
00000200: b27b 0fbd 6e58 cd3b bc20 2abd f7c5 74bd
00000210: a760 353d f749 28bb 8392 643d 6fd3 93bd
00000220: 596d 78bc fbd4 6dbc e339 8b3c e0db 5dbd
00000230: a378 1f3d d907 933b 9a96 a1bc ee13 933d
00000240: 4917 7dbc 466f 213e e928 8ebc 0076 7a39
00000250: d675 a93c 1da3 883c dbd7 5cbd 75bd eabc
00000260: 659e a0bb 1dd3 e9bc 9b37 573d f66d 57bd
00000270: 789a 1ebe 51b1 693c 3115 1dbd e746 5a3d
00000280: 39d1 14be 0112 5bbd 1940 db3c 66bc 97be
00000290: 67bd 073d c4f1 40bd 5754 753d 7b7d a5bb
000002a0: 8273 e4bd e91a 4cbc 20f5 61bd f0b4 c83d
000002b0: daff 7f39 4789 463d d103 ecbd fdf2 743d
000002c0: 1ef0 c0bd 2d8e 823c 82d4 73be 54a5 1dbd
000002d0: ad9d 69bc 2068 c63d c7c0 f9bd 8cf4 96bd
000002e0: dbd6 ad3d 356b 1d3d 2ee2 d63d 5edd bdbb
000002f0: 92e0 38be d633 a6bc d17b 0bbd 6570 593d
00000300: 5103 0a3c 0fd0 3cbd 0252 a6bd ee17 063d
00000310: b59b 233e 13d1 aa3b 0126 e23c 0495 21be
00000320: 8514 26be 1840 c2bc c765 8f3b 64f1 7b3d
00000330: ae8f 79bd 8c4b c4bc f505 713d cf76 a4bc
00000340: 6f61 67bd 3901 3abb 0206 02be 1df6 2bbe
00000350: 10c8 50be 74ac 82bc 3423 39bd c08f 5abd
00000360: d484 9cbd a699 b8bc da73 45bd cdec 67ba
00000370: 7ff4 2abb 6ec8 bbbb 8a86 3e3d 7e90 0fbd
00000380: 7f3a 8ebd 0aad 0ebc 4688 b83d e2dd 703d
00000390: af19 adbd f498 02bd 77c7 b23d 19b2 4f3c
000003a0: b3c4 863d 7999 a43d cfe6 1abc 066a 133c
000003b0: a3ca 623c 34ed fb3c 4f3e a6bd bd87 20bb
000003c0: ecb8 233e f0e4 1abd 9800 8ebd b239 3fbe
000003d0: 3cad de3c a4ff 1e3d 1dec 2fbe c358 44bb
000003e0: 7b68 5e3d 0b6e 863d eb4d 4bbd 6ee1 873d
000003f0: 2c5b 81bd 0420 debd b053 2f3b f5aa 30bd
0.0015573615 -0.06781264 -0.016777042 0.11775942 -0.045617376 -0.08408642 -0.025313506 -0.13067725
-0.12490889 0.034961753 -0.07962707 -0.03316609 0.03083448 0.08770387 -0.002450298 -0.011757033
-0.038422145 0.029183151 -0.04875542 -0.11905061 0.078712985 0.04345224 -0.06990014 -0.074991204
-0.026549263 0.06572741 -0.011701511 -0.00841658 -0.046496473 -0.010864547 -0.068329364 0.027845792
-0.008649586 -0.25131446 -0.00033774765 0.006659958 0.0042355596 0.021499328 -0.04864249 0.08640767
0.0061583114 -0.010170883 -0.039127037 -0.104839884 -0.020296495 -0.07708184 0.097305365 -0.02392038
0.006162824 0.16493984 0.009831587 -0.17067768 -0.008312875 0.027248086 -0.05203196 -0.03847753
0.013214679 0.09118022 0.03403805 -0.08837461 -0.057505514 -0.115263544 -0.18589331 -0.05737267
-0.049095515 -0.2248302 -0.12250489 0.11443424 0.056022532 0.1489328 0.082376204 -0.0014194062
-0.01497203 -0.03528271 0.04361494 0.032613188 0.044756696 -0.05372219 0.20782316 -0.05748522
-0.04787705 -0.054501086 -0.014838091 -0.080133654 -0.13093007 0.053199135 -0.076960854 -0.08032498
0.042101532 0.043361966 -0.027618615 -0.010025182 0.075462826 0.056355346 0.02012224 0.035692032
0.12635462 0.079597116 0.11859838 -0.06327536 -0.15961847 -0.06664996 0.12427255 -0.039693736
0.08879075 0.014863583 -0.03226934 -0.04648529 -0.036969468 0.12574452 0.007254823 0.008995133
0.02134325 0.019725336 -0.038485557 -0.020814972 0.049769614 -0.08095551 0.050524592 0.08529209
-0.0020341247 0.043656196 -0.21348864 0.0007758915 -0.029980747 -0.054902587 -0.018800065 0.039048426
-0.035030074 0.006266645 -0.041535124 -0.059759106 0.044281628 -0.0025678852 0.055803787 -0.07218062
-0.015162789 -0.0145161105 0.016995376 -0.054164767 0.038933408 0.0044870195 -0.019725133 0.07181536
-0.015447446 0.15765104 -0.017353492 0.00023885816 0.020686071 0.016679341 -0.053916793 -0.028654793
-0.0049016946 -0.02854305 0.052543264 -0.0525951 -0.15488613 0.014263467 -0.038350288 0.053290274
-0.14532937 -0.053483967 0.026763963 -0.29635924 0.033139613 -0.047105566 0.059894886 -0.005050359
-0.11154844 -0.012457588 -0.05516541 0.09800136 0.00024414007 0.04847076 -0.115241654 0.059802044
-0.09420799 0.015936935 -0.23811534 -0.038487747 -0.014258784 0.09687829 -0.121949725 -0.07370862
0.08488246 0.03843232 0.10492359 -0.0057942113 -0.18054417 -0.02028839 -0.034053627 0.053085703
0.008423642 -0.046096858 -0.081211105 0.032737665 0.15977366 0.005212912 0.027606012 -0.15779501
-0.16218765 -0.023712203 0.0043761465 0.061509505 -0.06092804 -0.023961805 0.05884357 -0.020076184
-0.056489404 -0.0028382076 -0.12697604 -0.16793104 -0.20388818 -0.015951373 -0.045199588 -0.053359747
-0.076425225 -0.022534203 -0.048206188 -0.0008847237 -0.0026085672 -0.00573068 0.046515025 -0.035049908
-0.06944751 -0.008708248 0.09010367 0.058805354 -0.084521644 -0.03188415 0.08729451 0.012676739
0.06580486 0.08037085 -0.009454443 0.008997446 0.013842258 0.030752756 -0.08117353 -0.0024494969
0.15988511 -0.037815988 -0.06933707 -0.18674353 0.027182214 0.038818017 -0.17179914 -0.0029960133
0.05429886 0.06563958 -0.049634855 0.06634794 -0.06316218 -0.1084595 0.0026752762 -0.043131787

fc5.bias f4 [256]
00000000: 9c74 473e c820 43bd 6f43 ea3c 68e6 a2bc
00000010: bb0f c63c 642c 413e 6698 a93c 3328 993c
00000020: 83cd 3a3e 10c0 52bc 7a27 31be 00f0 af3c
00000030: 31f0 9abd 34cf 6ebd ea6e 6dbd 6871 d0bd
00000040: 64c4 ee3d fcfb 99bd f8fb 3bbd 8f8d f43d
00000050: 05b2 7a3e d999 0fbe 01ab 75bd 511b 44bc
00000060: 27cb e3bc 9d2e d83c f509 8d3d fbdb 0a3e
00000070: 0ee6 87bc cc5d da3d a157 1e3e 4410 1a3e
00000080: 95f7 d1bd f23c 2dbc d3a9 533e c9b9 8e3d
00000090: c8c0 34bd 723c da3d d524 07bb 91ef 533e
000000a0: d3d1 eebc 1eba e8bd fe9d 8bbd d0a6 bf3d
000000b0: 1a10 babd 557c 853a 2fc2 59bd 0f2b b0bd
000000c0: cef0 463e 9fe0 bebd ec94 a6bd 8814 fdbc
000000d0: 57a8 20bc 9198 913d e1a7 0e3e 3e38 efbd
000000e0: 16ee 05bd f1ca 503e abdb 8ebc fc1b 973d
000000f0: 16df 44bd 7ce9 36bd 89b7 493e 39f5 473d
00000100: 6513 853e dda4 afbd 424b 2ebd f4b5 62bd
00000110: 90d0 18ba 5ccd f03d 6de4 963d 6bb8 7d3d
00000120: 3a32 58bd 2985 923b b806 c13d 7518 3ebc
00000130: 9b91 e4bc ed8f 413e 109b ea3c 9ffe a4bd
00000140: ac06 c63d cc97 b23d e568 893d b8fe 50bd
00000150: 7981 5ebb e08d 12be a4f3 ac3d b662 0fbe
00000160: dcf7 8f3c fef7 a1bd eb67 d73b 4244 4bbb
00000170: 5381 9e3d 3638 943c b896 05bd e170 623e
00000180: 26e0 8b3d 88f2 52bd 5ad7 21be 4900 5ebd
00000190: 7d85 5abd d525 873e 8d54 67be 9c79 ebbd
000001a0: 3d6e 4a3b 5c79 5fbc 7434 8bbd c99f 7e3e
000001b0: 824f 2e3d bd99 bbbd e44b 443e a9cd 293d
000001c0: e4e0 9f3d 0840 09bc d4d6 443e edcd c0bd
000001d0: fca9 243e c10d 993c c861 203c 0454 1dbe
000001e0: d803 8ebc cc31 2abd ce51 8d3d 8d92 04bd
000001f0: fa81 b5bd fe0d 893b 1cb8 d23a b18e 703d
00000200: 052e 223e 088a bfbd ccc7 1abc ff67 ba3d
00000210: f070 d43d 0b72 073e 81ae 87bd 69ae 8b3b
00000220: 0a28 b63d 99d1 b13d fe81 d63c f76d 093e
00000230: 6092 483e d8d9 d4bd 801a 843d ba1d 163e
00000240: 14d1 723d 364a 52bd e2fe 133c 0aa9 343e
00000250: 56fe 313d 73bd df3a 33b9 9c3c b02b f23c
00000260: 7b1d 22bc d39b 49bc 801c 443e 7f94 233c
00000270: 8756 b4bd 0e00 b6bd 9a01 ccbc f5c8 7d3a
00000280: 3f0c bc3d 9963 69bd aba0 423d 17fc 13bd
00000290: 4236 813d 4ea4 bfbd c306 813c e3f2 19bc
000002a0: 3478 373e 4c25 643d c33f 13be 40e6 d9bd
000002b0: 7276 79bd 27e2 363e fb3e 1fbd bd0f ab3d
000002c0: d3c2 1dbd a3d5 0a3e 4051 2d3e cf5d ceb9
000002d0: 5c1b febc 571e 25bd d9b2 013e e73e 9e3d
000002e0: 249f 8a3c ed49 3dbd 6a60 473e a2de c0bd
000002f0: 4aee ce3d 353d 973d f764 fe3d 9e26 72bd
00000300: 644c 2a3e 3eea 9ebc c364 8abd f583 eabc
00000310: c27b 8abd b36c 223d d959 dabc 2ad4 823e
00000320: bc70 b03d 0da2 b7bd e02d 413c 5fcb 0fbe
00000330: 99c2 743e e34c 963c de40 4bbd dbb7 2e3d
00000340: 9e52 94bc 9a92 eabc a471 4e3d d2e1 2d3d
00000350: f1c8 2e3e 1bcd 373d ae07 cf3a b18f 11be
00000360: ce01 7bbc c264 1a3e 96a3 3b3b 340c 453d
00000370: 0ac4 063d 972b 693d 7f20 15bd c55a 1e3e
00000380: efa3 023e e08d 52bd 87ce b53c aba2 3d3c
00000390: 026b c7bc d9dd ee3c 2130 c43d d3e9 deba
000003a0: 0a93 2f3e 0e06 6abd fa49 0bbc b992 903c
000003b0: d914 1abd 213a bdbd a47c 3c3e e37d 3e3d
000003c0: ec78 0a3c fda3 b9bb 74dc 113d 9fba 5b3d
000003d0: e3bb 53bc a079 713e 4370 203e 612f 6dbc
000003e0: 824b 4e3c 48fc 1bbd d82e 473e e1ac 5e3e
000003f0: 6f6c 833d 754a 003c d297 b8bd 9230 18bd
0.19478077 -0.047638685 0.028596608 -0.019885257 0.024177423 0.1886459 0.020702552 0.018695926
0.18242459 -0.012863174 -0.17300215 0.021476746 -0.07565344 -0.058303073 -0.057967104 -0.101778805
0.11658552 -0.07518765 -0.045894593 0.11941063 0.24481972 -0.14023532 -0.059977535 -0.011969403
-0.027806832 0.026389414 0.06886665 0.13560478 -0.01658919 0.106624216 0.15463115 0.15045267
-0.10252301 -0.0105736125 0.20670252 0.069690295 -0.044129163 0.1065606 -0.0020621319 0.20696856
-0.029152786 -0.11363624 -0.06817244 0.09357989 -0.090851024 0.0010184149 -0.053163704 -0.08601963
0.19427797 -0.09320187 -0.08133873 -0.03089358 -0.00980576 0.07109178 0.13931228 -0.11680649
-0.03269776 0.20389916 -0.01743873 0.073783845 -0.048064314 -0.04465626 0.1969892 0.048817847
0.2599136 -0.08576367 -0.04255224 -0.055349305 -0.0005829418 0.11757919 0.073677875 0.061943453
-0.052782275 0.0044714403 0.094251096 -0.011602511 -0.027901461 0.1890256 0.028638393 -0.080563776
0.09669241 0.08720359 0.0670946 -0.05102417 -0.0033951683 -0.14311934 0.08444908 -0.14002499
0.017574243 -0.07908629 0.0065736673 -0.0031016027 0.077395104 0.01809321 -0.03261444 0.22113372
0.06829862 -0.051500827 -0.15804806 -0.05419949 -0.05334996 0.2639605 -0.22590847 -0.114978045
0.003088846 -0.013639774 -0.06797114 0.2486564 0.042556293 -0.091601826 0.19169575 0.0414559
0.07806566 -0.008377083 0.19222575 -0.09414277 0.16080469 0.018683316 0.009788938 -0.1536408
-0.017335817 -0.041551396 0.06900369 -0.032366324 -0.08862682 0.004182576 0.0016076597 0.05872983
0.15837868 -0.09352499 -0.009447049 0.09101867 0.103731036 0.13227098 -0.06625081 0.0042627347
0.088943556 0.08682556 0.026185032 0.13420855 0.19587088 -0.10393113 0.06450367 0.14659777
0.059281424 -0.051340304 0.009032937 0.17642608 0.043455444 0.001707001 0.019131279 0.029561847
-0.009894724 -0.012305218 0.19151497 0.009984135 -0.08805566 -0.08886729 -0.024903107 0.0009681129
0.09182023 -0.05697975 0.047516506 -0.036129083 0.06309177 -0.093575105 0.015750295 -0.009396288
0.17916948 0.05569963 -0.14379792 -0.1063962 -0.060903974 0.17859708 -0.038878422 0.08352611
-0.038515877 0.13558058 0.16925526 -0.00039361275 -0.031018905 -0.040312137 0.12665881 0.077268414
0.016921587 -0.04621308 0.19470373 -0.09417464 0.10104044 0.07384721 0.12421601 -0.05911886
0.16630703 -0.019398805 -0.067575 -0.028627375 -0.06761886 0.039654445 -0.02665417 0.25552493
0.086152524 -0.089664556 0.011790723 -0.14042424 0.23902358 0.01834721 -0.04962241 0.042655807
-0.018105801 -0.028634358 0.050401345 0.042451687 0.1706884 0.04487334 0.0015795135 -0.1421497
-0.0153202545 0.15077499 0.002863144 0.04810734 0.0329018 0.056926336 -0.036407944 0.15464313
0.12757848 -0.051404834 0.022193206 0.011574428 -0.024343017 0.02915852 0.09579492 -0.0017006941
0.17145935 -0.05713468 -0.008501524 0.017648088 -0.037617538 -0.09239603 0.18406922 0.046506774
0.008451682 -0.005665301 0.03561063 0.053644773 -0.012923214 0.23581553 0.15667824 -0.014476628
0.012591245 -0.03808239 0.19451463 0.21745636 0.064171664 0.007830252 -0.090133324 -0.037155695
