SAC/critic2_v1.pth (torch, 46563 bytes, 7 tensors)

fc1.weight f4 [32, 11]
0.019433746 0.3597504 0.7524856 0.27843413 0.0005254974 0.0014163539 -0.3852407 0.4351818
-0.0738154 0.012087834 -0.019702377 -0.3077189 0.4283336 -0.34974048 0.19470464 -0.002316239
-0.11066253 0.006155476 0.2923976 0.47155994 -0.037194163 0.017413326 0.46565834 0.43987063
-0.35904938 0.049961198 -0.03795422 0.0057609254 -0.14622587 -0.9145258 -0.3338529 -0.035524078
-0.10857672 -0.29758048 0.094379745 0.096083954 0.14373584 -0.07343138 -0.072677664 -0.36212295
-0.07070011 0.4641015 -0.006870039 0.020006113 0.33199665 -0.017284343 0.66569316 -0.04605936
-0.05340462 -0.052562475 -0.17159876 0.3652812 -0.12908491 -0.36343727 -0.006774902 0.4404715
0.12886512 0.48986965 -0.40222266 0.0012239369 0.013779737 0.1676247 -0.49350688 -0.00904198
0.03836475 -0.029337775 -0.21878363 -0.07327531 0.8026132 -0.31207216 -0.024996445 -0.08051239
0.17668362 -0.3313786 0.23348537 0.013428405 -0.10828594 0.5049847 0.05652 0.5614532
0.10653902 -0.019274034 -0.053705133 -0.77960205 0.5684859 -0.30188563 0.0011292762 0.011392797
0.08732383 0.78168434 0.34156898 0.41463843 -0.00031008292 0.0005765765 -0.83623755 0.037015554
-0.051726345 0.013910405 0.022920141 -0.59813124 -0.32389233 -0.6129098 -0.20016468 0.28354964
-0.110215075 0.03962644 -0.40468997 -0.29974687 -0.017655116 0.0512269 0.043904312 -0.20576675
-0.28553694 -0.27323407 0.22315416 0.2103681 0.21185596 0.17045344 0.34326988 0.008175401
-0.016207293 0.45624515 -0.14569728 0.031136265 -0.32294896 -0.12666015 -0.11950173 0.23099038
-0.41176006 0.4015553 0.0029431223 -0.08033985 0.41774482 -0.37146965 1.248053 0.3806625
-0.04405044 -0.071580544 0.56331724 0.50638056 0.13649909 0.047958583 -0.054506894 -0.1141797
0.21949223 0.3823791 0.13655716 -0.013386886 0.032942247 0.11588415 -0.3618406 0.4886016
0.06336424 -0.09600952 0.34288794 0.20928405 0.14892662 -0.03922067 0.12486478 -0.027570121
-0.23916377 -0.018270882 -0.117157 0.10384345 0.049454328 -1.0323598 0.37727967 0.6945286
0.45656893 -0.01072918 -0.012793613 -0.5775437 0.53883827 0.58597064 0.02047485 -0.02013165
0.5227866 0.16878895 0.74972564 -0.1242729 0.124076046 0.041241497 -0.34912914 -0.35305583
-0.15013877 0.050174266 -0.06523571 0.00020488276 -1.2627333 -0.31975952 -0.9098004 0.015357675
0.037892412 0.0193306 -0.5682086 0.13018261 -0.03151714 -0.07442624 -2.5198476 0.06704497
-0.25045168 -0.026869655 5.567041e-05 0.0011890548 0.5839742 -0.27400815 -0.081104405 -0.015142691
0.012664819 0.10158963 -0.5390466 -0.22583476 -0.42932236 -0.053083163 -0.14598884 0.22926752
0.030527813 0.311096 -0.034533005 -0.077928595 0.18438746 -0.14519311 -0.52837145 0.37191558
0.03301827 0.02151699 0.94460005 0.4794051 -0.09081827 -0.0088172555 0.06458382 -0.32813296
0.45443267 0.03950251 -0.051208295 0.057719115 0.09515131 0.3854926 0.62348473 0.030162629
-0.002414959 -0.098919824 -0.35539192 0.41136405 -0.063132375 -0.4889476 -0.053472254 -0.114509344
-0.007582656 0.2770676 0.009359092 -0.030782534 -0.12843107 -0.13818178 0.54901224 -0.66775274
00000000: 8533 9f3c 3431 b83e e5a2 403f eb8e 8e3e
00000010: 89c1 093a f3a4 b93a 453e c5be 26d0 de3e
00000020: 872c 97bd 0d0c 463c e166 a1bc 558d 9dbe
00000030: 8b4e db3e 2f11 b3be a760 473e 0bcc 17bb
00000040: 09a3 e2bd e0b3 c93b 23b5 953e 4e70 f13e
00000050: e858 18bd 64a6 8e3c c56a ee3e b936 e13e
00000060: 52d5 b7be 1da4 4c3d e275 1bbd 25c6 bc3b
00000070: 3cbc 15be 5d1e 6abf c4ee aabe b281 11bd
00000080: 795d debd 785c 98be 2b4a c13d aac7 c43d
00000090: 7d2f 133e 3163 96bd 07d8 94bd 2e68 b9be
000000a0: 38cb 90bd b69e ed3e 101e e1bb dce3 a33c
000000b0: 77fb a93e e597 8dbc de6a 2a3f bda8 3cbd
000000c0: cebe 5abd c04b 57bd 96b7 2fbe 2306 bb3e
000000d0: d62e 04be 7314 babe ffff ddbb 7b85 e13e
000000e0: 38f5 033e 32d0 fa3e 21f0 cdbe 826c a03a
000000f0: 68c4 613c cfa5 2b3e efac fcbe d024 14bc
00000100: 5b24 1d3d c655 f0bc d108 60be 5e11 96bd
00000110: 0f78 4d3f ecc7 9fbe 58c5 ccbc aee3 a4bd
00000120: 8dec 343e 75aa a9be ca16 6f3e d002 5c3c
00000130: 05c5 ddbd ad46 013f 8481 673d 66bb 0f3f
00000140: 2131 da3d 94e4 9dbc eaf9 5bbd 0094 47bf
00000150: 4b88 113f c190 9abe 3904 943a dba8 3a3c
00000160: d6d6 b23d 771c 483f 21e2 ae3e 7d4b d43e
00000170: a092 a2b9 6525 173a aa13 56bf 9f9d 173d
00000180: 01df 53bd 78e8 633c 05c3 bb3c 211f 19bf
00000190: 37d5 a5be a8e7 1cbf f8f7 4cbe 6b2d 913e
000001a0: 71b8 e1bd 554f 223d 8633 cfbe 6c78 99be
000001b0: 76a1 90bc 4cd3 513d 02d5 333d 85b4 52be
000001c0: e631 92be 56e5 8bbe 8682 643e bc6a 573e
000001d0: c5f0 583e 598b 2e3e 12c1 af3e 1ef2 053c
000001e0: 28c5 84bc f798 e93e ab31 15be 7b11 ff3c
000001f0: 9159 a5be 33b3 01be 53bd f4bd be88 6c3e
00000200: 37d2 d2be a898 cd3e 66e1 403b 3889 a4bd
00000210: a6e2 d53e 4531 bebe 33c0 9f3f 32e6 c23e
00000220: 3c6e 34bd d298 92bd 8f35 103f 28a2 013f
00000230: 6bc6 0b3e 3870 443d 9f42 5fbd 0cd7 e9bd
00000240: 92c2 603e 32c7 c33e a4d5 0b3e ab54 5bbc
00000250: 73ee 063d ab54 ed3d 2c43 b9be fd29 fa3e
00000260: 1cc5 813d a4a0 c4bd 028f af3e 8f4e 563e
00000270: 3880 183e daa5 20bd 1bb9 ff3d bcda e1bc
00000280: 59e7 74be d1ac 95bc 02f0 efbd e0ab d43d
00000290: 9f90 4a3d 5e24 84bf cd2a c13e a0cc 313f
000002a0: 67c3 e93e 71c9 2fbc 4d9c 51bc e7d9 13bf
000002b0: 4ef1 093f 2c02 163f dfba a73c 21eb a4bc
000002c0: 58d5 053f 03d7 2c3e 05ee 3f3f ca82 febd
000002d0: 951b fe3d d8ec 283d 0ec1 b2be bcc3 b4be
000002e0: fabd 19be 8883 4d3d 4d9a 85bd ccd5 5639
000002f0: 3fa1 a1bf 85b7 a3be aee8 68bf c29e 7b3c
00000300: 1335 1b3d 355b 9e3c 1e76 11bf 974e 053e
00000310: 1e18 01bd c96c 98bd 2f45 21c0 e04e 893d
00000320: 343b 80be c01d dcbc a67f 6938 0fda 9b3a
00000330: 557f 153f cc4a 8cbe 111a a6bd 0d19 78bc
00000340: 1a80 4f3c 390e d03d f5fe 09bf 3a41 67be
00000350: 24d0 dbbe bb6d 59bd 197e 15be 1bc5 6a3e
00000360: 7715 fa3c fa47 9f3e 7b72 0dbd 0799 9fbd
00000370: 11d0 3c3e 81ad 14be 5a43 07bf b86b be3e
00000380: 2a3e 073d 6644 b03c 4fd1 713f 9674 f53e
00000390: eefe b9bd 4076 10bc 8644 843d 0b01 a8be
000003a0: 66ab e83e 62cd 213d cabf 51bd e16a 6c3d
000003b0: b1de c23d 495f c53e b29c 1f3f 9e17 f73c
000003c0: 4a44 1ebb 7a96 cabd eef5 b5be 4f9e d23e
000003d0: 8c4b 81bd 5757 fabe b905 5bbd e083 eabd
000003e0: ee77 f8bb cedb 8d3e e156 193c a72b fcbc
000003f0: 6f83 03be 867f 0dbe 118c 0c3f d8f1 2abf

fc1.bias f4 [32]
0.04929291 0.43609875 -0.1474749 0.4184715 -0.3077293 0.38523865 -0.21197966 -0.33197868
-0.23209561 0.10484097 0.5443688 -0.11426046 0.13696659 0.33108178 -0.17084464 0.3349285
0.2757036 0.26404732 -0.019583499 0.20160832 0.25715926 -0.13416761 0.029606976 0.11687955
0.5504034 0.46182844 0.006737611 0.17657612 0.42937624 -0.0527865 -0.37001646 0.50083625
00000000: 5de7 493d 5648 df3e a903 17be e541 d63e
00000010: b28e 9dbe 003e c53e 3211 59be 1cf9 a9be
00000020: 79aa 6dbe ddb6 d63d c15b 0b3f 6301 eabd
00000030: f840 0c3e 8d83 a93e e6f1 2ebe c07b ab3e
00000040: 0629 8d3e 3631 873e 936d a0bc 6972 4e3e
00000050: 61aa 833e 3c63 09be 548a f23c 8c5e ef3d
00000060: 3de7 0c3f c774 ec3e 2dc7 dc3b 5fd0 343e
00000070: 34d7 db3e a836 58bd cc72 bdbe ce36 003f

fc2.weight f4 [64, 32]
0.13999605 -0.2962975 -0.29543233 -0.16540106 0.17054997 0.06568637 0.059293196 -0.22523603
0.061554547 -0.04815613 0.12201254 0.37051725 0.40144137 0.11197088 0.033250835 -0.31641647
0.1263323 -0.019285053 0.8773162 0.3453422 0.4446572 -0.10629397 -0.27073407 -0.3882333
-0.104296945 0.09309882 -0.14632736 0.06778391 0.31437767 -0.027040472 0.035595454 0.23135272
-0.28645477 -0.22819854 0.3614645 -0.33863947 -0.20616174 0.14947924 0.20567265 -0.17029499
-0.15331037 -0.06575791 0.13454528 0.077354334 -0.22468609 -0.029874396 0.27821428 -0.43205237
0.21027228 0.15799819 1.9936599 0.03127529 0.90653574 -0.5328279 -0.37172452 0.3616483
-0.24424022 -0.16352068 0.14562386 0.031020222 -0.10669434 0.07942779 0.25462568 -0.003679833
-0.33363777 0.21614675 -0.2023496 0.10469834 -0.11007225 0.26273096 0.25237608 -0.07373933
-0.12687783 0.009629579 0.14994235 0.17537713 0.17407887 0.34998408 -0.08696134 0.1725153
-0.1768079 0.07490428 -0.6055342 0.098997965 0.14479141 -0.21284851 -0.13432805 0.049745623
-0.21170053 -0.013074686 -0.023277624 -0.06891653 -0.022164034 -0.13619414 -0.15332317 0.1618357
0.48794594 -0.028652864 0.20268022 -0.31583238 -0.06046475 -0.031061053 0.01985907 -0.62562984
0.04302736 -0.22742467 -0.09223784 -0.13583794 -0.197739 0.05494018 0.0656874 0.40527868
-0.35715866 -0.055042733 0.27911666 -0.5202189 0.07556052 -0.14618284 0.020426203 0.1624752
0.11351287 -0.4269887 -0.013847677 0.290514 0.16349521 -0.007988555 -0.24794248 -0.23450814
0.12174496 0.16617437 0.1453702 0.0798749 0.0746913 -0.28353465 -0.27191564 -0.29470015
0.3132486 -0.101045735 0.002769565 -0.23797302 -0.37755543 -0.017077586 -0.17234835 -0.041521277
-0.25542533 0.6251372 1.6206651 -0.19578053 0.235333 -0.13450533 0.08181681 0.054326795
0.034256816 0.080579296 -0.24840455 0.16904645 -0.15745838 0.16548909 0.0740936 -0.01490767
0.1680995 0.1279928 -0.11046171 0.057211272 -0.29835352 0.016136164 -0.11148799 0.06614058
1.120621 0.10963863 0.1093868 0.14175287 -0.15775342 -0.07347877 0.08890203 -0.15225434
-0.24423113 0.058903296 0.82618344 0.13391288 0.04104378 0.07781718 0.101149686 -0.22956872
0.13115446 0.21040888 0.098176636 0.01856467 -0.01167623 0.19705822 -0.22476442 0.1422563
-0.05698182 0.06113143 -0.36132994 0.2795765 0.044329815 0.01125647 0.09781101 -0.6366856
-0.08797063 0.11428003 0.20306163 0.016977178 -0.2948895 0.121977285 -0.053363234 -0.20432252
-0.22228357 0.006270074 -0.82995504 0.2153212 -0.203928 -0.12526026 0.10938475 -0.017936904
0.12475351 0.15043724 0.16780645 0.059854396 -0.046695404 0.077503465 -0.10096127 0.16019699
-0.04731188 0.06049292 -0.048296966 -0.25365466 -0.14793943 -0.0062401537 0.09065101 -0.0125885755
0.29488018 -0.050477058 0.07959229 0.2482722 0.28982556 0.2329716 -0.16639997 -0.30493745
-0.057083867 -0.3352642 1.2795578 0.055012405 -0.14423062 -0.06631781 -0.19697383 -0.06191698
-0.29487097 -0.012680469 -0.465964 -0.010427866 0.08158067 0.14008604 0.05794457 0.2209975
00000000: 205b 0f3e 4eb4 97be e842 97be e55e 29be
00000010: a7a4 2e3e 9386 863d 6cdd 723d 46a4 66be
00000020: 9f20 7c3d 5d3f 45bd b6e1 f93d 70b4 bd3e
00000030: b989 cd3e fd50 e53d 0732 083d 5701 a2be
00000040: 415d 013e b0fb 9dbc cb97 603f b1d0 b03e
00000050: 1caa e33e a7b0 d9bd a89d 8abe 84c6 c6be
00000060: a399 d5bd 98aa be3d d7d6 15be 4ad2 8a3d
00000070: 1cf6 a03e fb83 ddbc 8acc 113d bae7 6c3e
00000080: 33aa 92be e1ac 69be e011 b93e 2762 adbe
00000090: 101c 53be 1611 193e da9b 523e cf61 2ebe
000000a0: 65fd 1cbe 15ac 86bd 3dc6 093e f36b 9e3d
000000b0: 1c14 66be 26bb f4bc 1a72 8e3e f835 ddbe
000000c0: 9e51 573e 47ca 213e 3f30 ff3f 851a 003d
000000d0: ba12 683f 6967 08bf ad52 bebe f729 b93e
000000e0: 1c1a 7abe f771 27be 6c1e 153e 1f1e fe3c
000000f0: 9082 dabd 0aab a23d 4c5e 823e 5a29 71bb
00000100: 92d2 aabe 9355 5d3e bc34 4fbe 156c d63d
00000110: 8f6d e1bd ac84 863e 7037 813e a504 97bd
00000120: 43ec 01be 62c5 1d3c 7d8a 193e 1096 333e
00000130: bb41 323e 1d31 b33e c918 b2bd daa7 303e
00000140: 210d 35be 6a67 993d 4a04 1bbf 72bf ca3d
00000150: 3344 143e f6f4 59be 4b8d 09be 11c2 4b3d
00000160: 06c8 58be 3537 56bc b7b0 bebc 1c24 8dbd
00000170: 5991 b5bc 7a76 0bbe c000 1dbe 42b8 253e
00000180: 0dd4 f93e 69b9 eabc 678b 4f3e c8b4 a1be
00000190: e3a9 77bd c073 febc 7daf a23c 4729 20bf
000001a0: 753d 303d 03e2 68be 31e7 bcbd 1a19 0bbe
000001b0: 187c 4abe f408 613d 1e87 863d b080 cf3e
000001c0: 80dd b6be 7d74 61bd 61e8 8e3e 112d 05bf
000001d0: 79bf 9a3d f4b0 15be da54 a73c e65f 263e
000001e0: 7079 e83d 439e dabe 5ee1 62bc 40be 943e
000001f0: 4a6b 273e 6ee2 02bc a2e4 7dbe e722 70be
00000200: 6c55 f93d 9d29 2a3e eddb 143e 7495 a33d
00000210: c1f7 983d 742b 91be 8738 8bbe f0e2 96be
00000220: 1f62 a03e 11f1 cebd 9781 353b 33af 73be
00000230: f24e c1be 4be6 8bbc 167c 30be 3712 2abd
00000240: 1cc7 82be fe08 203f f471 cf3f b17a 48be
00000250: 22fb 703e c4bb 09be 928f a73d c685 5e3d
00000260: e050 0c3d c206 a53d c35d 7ebe 831a 2d3e
00000270: c53c 21be f975 293e 63be 973d 4d3f 74bc
00000280: 4622 2c3e 8b10 033e c039 e2bd 5e56 6a3d
00000290: cbc1 98be fd2f 843c d153 e4bd b674 873d
000002a0: 8270 8f3f 388a e03d 3006 e03d aa27 113e
000002b0: 1d8a 21be 0a7c 96bd 4412 b63d 90e8 1bbe
000002c0: ba17 7abe 9544 713d c280 533f 7520 093e
000002d0: 861d 283d 9d5e 9f3d 9127 cf3d 1014 6bbe
000002e0: 5b4d 063e 6d75 573e d510 c93d ef14 983c
000002f0: a84d 3fbc a1c9 493e a528 66be a3ab 113e
00000300: c565 69bd f364 7a3d 3d00 b9be a724 8f3e
00000310: 2e93 353d 0f6d 383c 2451 c83d d4fd 22bf
00000320: f229 b4bd a60b ea3d 63ef 4f3e b913 8b3c
00000330: c2fb 96be 3acf f93d 6893 5abd ec39 51be
00000340: 4e9e 63be 3175 cd3b ef77 54bf 297d 5c3e
00000350: 80d2 50be 3a44 00be 1d05 e03d 6af0 92bc
00000360: c57e ff3d 380c 1a3e 74d5 2b3e e229 753d
00000370: ae43 3fbd 23ba 9e3d c8c4 cebd ae0a 243e
00000380: 1aca 41bd 6dc7 773d 0ad3 45bd 06df 81be
00000390: 6f7d 17be 347a ccbb 3da7 b93d 5040 4ebc
000003a0: 89fa 963e 08c1 4ebd 4801 a33d 113b 7e3e
000003b0: 0464 943e 1b90 6e3e c164 2abe c320 9cbe
000003c0: c6d0 69bd c0a7 abbe 8dc8 a33f b054 613d
000003d0: 31b1 13be a2d1 87bd 82b3 49be a99c 7dbd
000003e0: 54f9 96be bec1 4fbc d592 eebe a4d9 2abc
000003f0: c413 a73d b772 0f3e 4957 6d3d 2b4d 623e

fc2.bias f4 [64]
0.08447303 -0.19585091 0.15565805 -0.095569305 0.0025509784 0.1561711 0.054074354 0.15179764
0.099528536 0.38069168 0.31453717 -0.0371106 0.041843377 -0.070529304 -0.044145342 0.0713755
0.006703566 -0.012417669 0.20479943 -0.047268376 0.10532494 0.33305684 0.12159336 0.3016146
0.31973878 0.28472954 0.18663982 0.28343505 -0.20430249 0.116549596 0.10344126 0.33011523
-0.124999076 -0.0017393965 0.1542711 -0.113722 0.32903492 0.061284784 0.14096025 0.07334555
0.13278452 0.054339655 0.023546359 0.22641924 0.10050262 0.10773125 0.056330472 0.12311201
0.40258202 0.2149162 0.19749801 0.17833248 0.29667357 -0.006794795 0.020021267 0.0021406945
0.011480617 0.20837279 0.3816802 0.31074998 -0.10520289 0.029867543 0.07979161 -0.09263729
00000000: 3200 ad3d 248d 48be d364 1f3e d7b9 c3bd
00000010: 512e 273b 51eb 1f3e 127d 5d3d d770 1b3e
00000020: 9ed5 cb3d 05ea c23e 040b a13e 4901 18bd
00000030: f663 2b3d ab71 90bd bfd1 34bd 512d 923d
00000040: 96a9 db3b 7b73 4bbc f1b6 513e 7c9c 41bd
00000050: 9ab4 d73d 6d86 aa3e f105 f93d 3b6d 9a3e
00000060: cdb4 a33e 12c8 913e 821e 3f3e 661e 913e
00000070: ac34 51be 8eb1 ee3d 03d9 d33d dd04 a93e
00000080: 84ff ffbd 76fc e3ba 3ef9 1d3e 14e7 e8bd
00000090: 4477 a83e c105 7b3d e257 103e 3136 963d
000000a0: aaf8 073e 4293 5e3d 4be4 c03c 72da 673e
000000b0: 51d4 cd3d 34a2 dc3d c8ba 663d 2622 fc3d
000000c0: 3b1f ce3e fe12 5c3e eb3c 4a3e ca9c 363e
000000d0: 99e5 973e dfa6 debb a403 a43c e54a 0c3b
000000e0: 3319 3c3c ad5f 553e 966b c33e 9f1a 9f3e
000000f0: 9d74 d7bd c7ac f43c c969 a33d 9fb8 bdbd

fc3.weight f4 [128, 64]
-0.078111306 -0.004273124 0.0036604856 -0.10836367 -0.06489378 0.077602774 -0.029565562 0.06589521
-0.019072719 -0.014022787 -0.0036270411 -0.07481847 -0.04419971 0.026819617 0.0627189 0.0615921
0.069264084 0.0030009318 0.05698378 0.08542481 -0.103583865 0.047716625 0.014540468 0.11125157
0.004856404 -0.013931879 -0.110661596 -0.113607354 0.035927728 0.02654388 -0.042590875 0.031368073
0.019071724 -0.11390374 0.107020244 -0.02910283 -0.06345094 -0.12916352 -0.13559991 0.07464051
-0.0866662 -0.09795505 -0.09723394 -0.052840695 0.06985131 -0.0013149463 0.0849343 -0.036178894
0.10629783 -0.070881374 -0.12234427 -0.05217097 0.08398254 -0.05135649 -0.12135462 -0.102476604
0.036329757 0.057305522 -0.051706396 0.07638243 -0.065261744 0.09357341 -0.09735612 0.02285439
-0.48454913 -0.3081954 -0.021593206 -0.62884367 -0.47841012 0.024402816 0.035619766 0.012876627
0.25204405 -0.11957715 -0.5524978 0.4436151 -0.31404388 -0.7002043 0.4828734 0.121844746
-0.0010565817 -0.30077848 -0.10378195 0.95605505 -1.458957 -0.015419609 -0.03776231 -0.072011046
0.12813805 0.1706381 -0.38897228 -0.020313535 0.3117176 0.2416046 0.030434497 0.19969511
0.044796485 -1.1665374 0.05475136 -0.33386096 0.052513335 0.07059332 0.027238976 0.12975174
-0.33922222 0.026851932 -0.10491718 0.03742412 -0.091217145 0.052731264 0.10639159 0.087758586
0.20050643 0.05027244 0.13308471 0.03174985 0.09212177 0.21936071 0.5676984 0.17310596
-0.5836115 -0.22699675 0.18430823 -0.014746892 0.2638195 0.57136554 0.022611605 -0.28315726
0.35694468 -0.0155125195 0.085657105 0.6537732 0.41277424 -0.0010700356 -0.02947835 0.35200197
-0.17598823 0.16368547 0.34009075 -0.33141375 0.5537632 0.45874983 -0.10311818 0.12344936
0.19945513 0.037630755 0.11244313 -0.64933133 0.21834558 0.15401459 0.043050274 0.1951755
0.20778047 0.028729102 0.18523343 0.2070112 -0.28075147 -0.013257286 -0.007500413 0.08541109
-0.20524383 0.31958088 0.19265221 0.33971697 0.0058712447 -0.007929712 0.13972878 0.066713646
0.17502125 0.019505158 0.16969909 0.09123912 0.29372615 0.05622534 0.048098747 0.13920963
0.083420664 0.16637757 0.17480518 0.062778585 0.21135545 -0.22186147 -0.043635733 0.13771954
-0.3323591 0.028571237 0.17114237 0.10195258 -0.17614722 -0.17774321 0.060022995 0.12862949
0.025751127 -0.030604515 -0.10271108 0.061416104 0.093449764 -0.12209593 0.065527216 -0.11644173
0.051999416 -0.11097428 0.019509133 -0.029983327 -0.07136586 -0.11114246 -0.10236552 0.09909928
-0.025777478 -0.04685282 0.11373417 0.075942464 0.017097082 0.04568163 -0.03591428 0.06774781
0.042390015 -0.08262398 -0.028813371 0.0137230335 -0.084991 -0.06382168 -0.019080138 -0.073350646
0.06929509 -0.101268336 0.07515908 -0.033792973 -0.029021999 0.10969626 -0.056596007 -0.075926855
-0.095845595 0.0016369579 -0.049026076 -0.009558084 0.09607236 -0.07009178 0.027246831 -0.110522725
-0.12231105 -0.108666934 0.10713992 -0.08054241 0.03724723 0.014347679 0.03447196 -0.07021118
-0.1390598 -0.10760189 0.023003124 -0.056860603 -0.02204009 -0.054439995 0.12037189 0.06789622
00000000: d2f8 9fbd 9005 8cbb c2e4 6f3b c6ed ddbd
00000010: 08e7 84bd 34ee 9e3d 7a33 f2bc 11f4 863d
00000020: 643e 9cbc d5bf 65bc a7b3 6dbb 6d3a 99bd
00000030: c10a 35bd d0b4 db3c c472 803d ff47 7c3d
00000040: 54da 8d3d 48ab 443b d367 693d 34f3 ae3d
00000050: c723 d4bd 8272 433d 253b 6e3c ddd7 e33d
00000060: 7822 9f3b 8942 64bc 8ca2 e2bd f9aa e8bd
00000070: f428 133d 8d72 d93c c573 2ebd cf7b 003d
00000080: 4e3c 9c3c 5d46 e9bd 6e2d db3d 0f69 eebc
00000090: 91f2 81bd 7143 04be b4da 0abe 20dd 983d
000000a0: 0c7e b1bd a89c c8bd 9722 c7bd 7c6f 58bd
000000b0: 340e 8f3d 475a acba 09f2 ad3d 5230 14bd
000000c0: adb2 d93d 412a 91bd a28f fabd 3ab1 55bd
000000d0: 0aff ab3d 2f5b 52bd c588 f8bd 41df d1bd
000000e0: 83ce 143d 32b9 6a3d 16ca 53bd 646e 9c3d
000000f0: f3a7 85bd 6aa3 bf3d a562 c7bd 2139 bb3c
00000100: d316 f8be cacb 9dbe 3ce4 b0bc e6fb 20bf
00000110: 2cf2 f4be 6ae8 c73c 08e6 113d 7df8 523c
00000120: eb0b 813e dde4 f4bd 7f70 0dbf 8521 e33e
00000130: 5cca a0be 9740 33bf 2f3b f73e bd89 f93d
00000140: 007d 8aba a3ff 99be a28b d4bd 06c0 743f
00000150: 1abf babf 87a2 7cbc a7ac 1abd 877a 93bd
00000160: 9f36 033e c1bb 2e3e 6027 c7be 9268 a6bc
00000170: 7399 9f3e 3267 773e c451 f93c e07c 4c3e
00000180: 857c 373d 1951 95bf f642 603d d3ef aabe
00000190: 3918 573d 3b93 903d 4624 df3c a4dd 043e
000001a0: 89ae adbe 95f8 db3c d2de d6bd 094a 193d
000001b0: 0ed0 babd bdfc 573d d5e3 d93d c6ba b33d
000001c0: 8f51 4d3e 79ea 4d3d 5c47 083e 210c 023d
000001d0: 57aa bc3d 18a0 603e af54 113f b042 313e
000001e0: 9067 15bf d671 68be 4cbb 3c3e f39c 71bc
000001f0: 5913 873e 0345 123f f93b b93c fdf9 90be
00000200: 74c1 b63e 3928 7ebc fe6c af3d ae5d 273f
00000210: 2557 d33e 7040 8cba 957c f1bc 9a39 b43e
00000220: 4236 34be 2a9d 273e 6020 ae3e 10af a9be
00000230: 6dc3 0d3f 42e1 ea3e a02f d3bd 05d3 fc3d
00000240: f73d 4c3e b522 1a3d 9548 e63d 943a 26bf
00000250: fc95 5f3e 00b6 1d3e 7c55 303d 16dc 473e
00000260: 67c4 543e 4b59 eb3c d5ad 3d3e befa 533e
00000270: a8be 8fbe 1635 59bc 06c6 f5bb 02ec ae3d
00000280: 702b 52be 1ba0 a33e 9f46 453e 62ef ad3e
00000290: 9263 c03b 9feb 01bc 1015 0f3e 2aa1 883d
000002a0: c538 333e 48c9 9f3c 99c5 2d3e 93db ba3d
000002b0: 4663 963e 8b4c 663d 3103 453d f88c 0e3e
000002c0: 74d8 aa3d e25e 2a3e 2100 333e 0f92 803d
000002d0: 906d 583e a72f 63be 62bb 32bd 5a06 0d3e
000002e0: f92a aabe 3a0e ea3c f23f 2f3e 84cc d03d
000002f0: f05f 34be 5102 36be acda 753d 73b7 033e
00000300: 07f4 d23c 52b6 fabc 305a d2bd 748f 7b3d
00000310: 9762 bf3d 6e0d fabd 2233 863d 0079 eebd
00000320: 57fd 543d 7c46 e3bd 9ed1 9f3c 989f f5bc
00000330: 4428 92bd a89e e3bd 04a5 d1bd 90f4 ca3d
00000340: 4a2b d3bc bee8 3fbd 76ed e83d b987 9b3d
00000350: 2e0f 8c3c a91c 3b3d da1a 13bd 5dbf 8a3d
00000360: 27a1 2d3d c336 a9bd 050a ecbc 93d6 603c
00000370: c30f aebd f1b4 82bd f34d 9cbc dd38 96bd
00000380: 96ea 8d3d c665 cfbd 01ed 993d 806a 0abd
00000390: 8bbf edbc 6fa8 e03d 37d1 67bd 8a7f 9bbd
000003a0: b24a c4bd 318f d63a 91cf 48bd 8399 1cbc
000003b0: 96c1 c43d 478c 8fbd bf34 df3c bd59 e2bd
000003c0: 377e fabd c58c debd 2d6c db3d 6bf3 a4bd
000003d0: 8d90 183d 8712 6b3c 7832 0d3d e1ca 8fbd
000003e0: b165 0ebe 615e dcbd 0c71 bc3c aae6 68bd
000003f0: 6b8d b4bc 79fc 5ebd 8a85 f63d 2c0d 8b3d

fc3.bias f4 [128]
0.010290686 0.02897428 0.290425 -0.09778321 0.058080375 0.18170354 -0.032927193 -0.13792533
0.020605968 0.100533314 0.26249996 0.13732752 -0.15769017 0.2407386 0.15749758 0.23540458
-0.021542028 0.105578735 0.0556491 0.2652342 0.28022057 0.13885047 -0.13315289 -0.027553337
-0.062354993 0.33575767 -0.1138112 0.14013022 -0.10443179 -0.22445479 -0.16786209 0.24025099
0.11627501 0.11594446 0.14439134 0.30001664 0.124886796 -0.06965227 -0.14982603 -0.18754938
0.031565733 0.14443351 0.042675935 0.093486905 0.13059638 0.26665714 0.1310676 -0.11895256
0.32608265 0.16118936 0.22162274 0.28902292 0.2324308 0.008166104 0.12427299 0.20983884
-0.11689989 0.07213098 0.019252717 0.092949934 0.11568717 0.23417066 0.2161437 0.2220979
0.17303157 0.26052058 0.06823706 0.19368668 -0.14223038 0.19961831 0.024896845 0.056123327
0.32082617 0.17912193 0.0839491 0.086028755 -0.0790605 0.14080596 0.1541418 0.19122821
0.28288344 -1.2161476e-05 0.18899655 0.14118999 0.073147535 0.061467163 0.33681458 -0.09166363
0.09379866 -0.10324696 -0.030553225 0.1674197 0.28137207 -0.012290114 0.11387535 -0.052605487
0.18981099 0.08858926 -0.016284322 -0.013272901 0.04644399 -0.03022939 0.1340736 -0.036898695
-0.027289025 -0.1151243 0.2728925 -0.06642688 -0.070453584 0.16528864 -0.010057155 0.32445964
0.11366015 0.18164988 0.011195636 -0.10013736 0.12888803 0.17839298 0.008374433 -0.20408487
0.24309038 0.060306128 0.14753069 0.18424533 -0.011997752 0.16730787 0.26407194 0.1372071
00000000: 449a 283c 785b ed3c 96b2 943e 9042 c8bd
00000010: b0e5 6d3d 7e10 3a3e aade 06bd 4c3c 0dbe
00000020: d9cd a83c 69e4 cd3d 6566 863e 969f 0c3e
00000030: 8879 21be 2e84 763e 0c47 213e e60d 713e
00000040: e878 b0bc aa39 d83d 50f0 633d c7cc 873e
00000050: 1279 8f3e d12e 0e3e 3b59 08be 89b7 e1bc
00000060: f367 7fbd 6ee8 ab3e d915 e9bd 4c7e 0f3e
00000070: 56e0 d5bd 7ad7 65be 0ae4 2bbe 5b04 763e
00000080: 9821 ee3d 4a74 ed3d 53db 133e c89b 993e
00000090: a6c4 ff3d d9a5 8ebd ff6b 19be f20c 40be
000000a0: 124b 013d 61e6 133e f6cc 2e3d 1076 bf3d
000000b0: 0fbb 053e 4987 883e 9636 063e 669d f3bd
000000c0: 4ef4 a63e d30e 253e 12f1 623e d0fa 933e
000000d0: 5702 6e3e 1fcb 053c d682 fe3d fedf 563e
000000e0: 3669 efbd 68b9 933d e0b7 9d3c 895c be3d
000000f0: 65ed ec3d 6fca 6f3e c654 5d3e a26d 633e
00000100: 302f 313e f462 853e dfbf 8b3d cd55 463e
00000110: d7a4 11be be68 4c3e 78f4 cb3c 93e1 653d
00000120: 5443 a43e bd6b 373e 81ed ab3d d82f b03d
00000130: 79ea a1bd 702f 103e 59d7 1d3e 54d1 433e
00000140: 19d6 903e 2409 4cb7 5088 413e 1c94 103e
00000150: 60ce 953d fec4 7b3d f672 ac3e 24ba bbbd
00000160: 8319 c03d 2473 d3bd c24a fabc 1270 2b3e
00000170: 0010 903e 795c 49bc 7b37 e93d da78 57bd
00000180: d05d 423e 496e b53d b366 85bc 9576 59bc
00000190: 0e3c 3e3d a0a3 f7bc 974a 093e 1623 17bd
000001a0: 3c8d dfbc 4ac6 ebbd 91b8 8b3e d10a 88bd
000001b0: f849 90bd 6d41 293e c4c6 24bc 931f a63e
000001c0: a7c6 e83d 6d02 3a3e e76d 373c d114 cdbd
000001d0: 39fb 033e a6ac 363e eb34 093c a0fb 50be
000001e0: afec 783e 8f03 773d 4912 173e cfaa 3c3e
000001f0: 3892 44bc c152 2b3e 7034 873e 0580 0c3e

v.weight f4 [1, 128]
0.07603878 0.7412367 -0.2692331 0.037700895 0.062089503 -0.19966763 0.30403316 2.060653
0.5049356 0.06735558 -0.20444657 -0.27281162 0.53014064 -0.19872974 1.1898116 -0.22785588
-0.01925587 -0.22711802 0.029002592 -0.2143111 -0.28765744 -0.2765314 1.004952 0.0827629
0.62208974 -0.22175892 1.3823249 1.3606089 0.521939 0.9675805 0.44515383 -0.19984826
-0.21251614 -0.18752985 -0.22045656 -0.18101877 -0.18756361 0.42681214 1.8762454 1.7453636
0.83368593 -0.28247127 0.94006115 -0.24373122 1.0897956 -0.20935024 -0.24463739 0.3928778
-0.21732149 -0.21654803 -0.20062897 -0.20021972 -0.18113127 1.0691544 -0.2599341 1.3432823
0.98692364 1.1661047 0.0038571432 -0.20008278 -0.22884075 -0.22623615 -0.21880016 -0.23751725
-0.20753288 -0.2915308 0.55428433 -0.30544925 2.1986852 -0.22545865 0.06433551 -0.25596148
-0.2582904 -0.34796324 -0.22403817 0.42332488 0.48010325 -0.24736165 -0.22873262 -0.23824666
-0.20101301 0.42402345 -0.21383072 -0.24913752 -0.19362819 0.3567135 -0.38268286 0.029914103
-0.19044286 -0.008885831 1.2767493 -0.30269817 -0.19454674 0.6829805 -0.28701678 0.9437144
-0.2104805 -0.27518138 0.03117943 0.79899037 0.064027704 0.5185492 -0.2899275 1.1897591
0.3547102 0.04841953 -0.28516522 0.6194403 0.68569374 -0.20257342 0.0043888777 -0.18186302
0.663245 -0.19470276 0.3273775 0.37681448 -0.19587363 -0.24237895 0.38014102 0.4572688
2.49725 -0.26873046 -0.2918185 -0.21636698 2.2722135 -0.26451546 -0.21321937 -1.75434
00000000: 38ba 9b3d b0c1 3d3f ecd8 89be 416c 1a3d
00000010: 9051 7e3d ac75 4cbe 3caa 9b3e bde1 0340
00000020: 7643 013f b9f1 893d 715a 51be f7ad 8bbe
00000030: 4cb7 073f cf7f 4bbe bf4b 983f 0d53 69be
00000040: 7cbe 9dbc a091 68be d896 ed3c 5e74 5bbe
00000050: d647 93be 8695 8dbe 44a2 803f 987f a93d
00000060: 4641 1f3f c514 63be 06f0 b03f 6f28 ae3f
00000070: cb9d 053f 5bb3 773f 34eb e33e 06a5 4cbe
00000080: d59d 59be d307 40be 5dbf 61be fc5c 39be
00000090: ad10 40be 1f87 da3e cf28 f03f 1368 df3f
000000a0: 716c 553f 13a0 90be d9a7 703f ad94 79be
000000b0: 6c7e 8b3f e95f 56be 3982 7abe 4727 c93e
000000c0: 8689 5ebe c4be 5dbe ae71 4dbe 6606 4dbe
000000d0: 7a7a 39be 0dda 883f 1516 85be adf0 ab3f
000000e0: 07a7 7c3f eb42 953f 20c8 7c3b 80e2 4cbe
000000f0: 3b55 6abe 73aa 67be 260d 60be b937 73be
00000100: 8083 54be 8643 95be 94e5 0d3f d863 9cbe
00000110: 42b7 0c40 a2de 66be 56c2 833d 620d 83be
00000120: a43e 84be 3d28 b2be 436a 65be 0abe d83e
00000130: 18d0 f53e 5f4c 7dbe e238 6abe eff6 73be
00000140: 5bd6 4dbe 9a19 d93e 71f6 5abe e81d 7fbe
00000150: 7846 46be 27a3 b63e 02ef c3be 6c0e f53c
00000160: 7403 43be e095 11bc 856c a33f 41fb 9abe
00000170: 4337 47be cfd7 2e3f ddf3 92be 4497 713f
00000180: 3388 57be 93e4 8cbe 016c ff3c a28a 4c3f
00000190: f520 833d a4bf 043f 6171 94be 074a 983f
000001a0: 939c b53e 8f53 463d 2d01 92be a493 1e3f
000001b0: a089 2f3f 686f 4fbe 93d0 8f3b 4d3a 3abe
000001c0: 6dca 293f 2960 47be 069e a73e d4ed c03e
000001d0: 1993 48be 3032 78be d8a1 c23e 231f ea3e
000001e0: f2d2 1f40 0a97 89be 3c69 95be 4e8f 5dbe
000001f0: f26b 1140 926e 87be 2e56 5abe 378e e0bf
