SAC/critic1_v4.pth (torch, 46095 bytes, 7 tensors)

fc1.weight f4 [32, 11]
000000 02 8c 4b 3e 14 91 43 bd 34 a9 db bd 2f a9 87 be
       0.19877627 -0.04774578 -0.10725632 -0.26496264
000010 c7 ea 06 bd 23 87 b8 bd e0 9f 0c 3d d2 f0 bd be
       -0.032938745 -0.0901015 0.034332156 -0.37097794
000020 b8 68 a5 3e 35 f0 13 3e af 1c 98 3d 09 25 38 3e
       0.32306457 0.144471 0.07427346 0.17982878
000030 ca 44 5e 3e a9 c5 fe 3e 29 89 92 3d f7 54 9c bd
       0.21705928 0.49760178 0.071550675 -0.07633393
000040 e1 a2 01 be 0e 07 79 be c9 67 00 3f f3 83 28 3f
       -0.1265979 -0.24319097 0.50158364 0.6582634
000050 12 4d 53 be 4a 48 66 bd 2a af f9 be 7e c3 d3 be
       -0.20634869 -0.056221284 -0.48766452 -0.41360086
000060 73 24 3f bf 07 d6 1d bf 5c 71 c3 bc 10 03 a1 bc
       -0.7466499 -0.61654705 -0.023857765 -0.01965478
000070 5d 6e 1c be 00 7b c2 bc c2 44 9e 3e 03 7e 05 3e
       -0.15276475 -0.023740292 0.30911833 0.13036351
000080 dd f8 f8 3b 26 27 ad 3e 83 f2 7d 3e f9 9e 26 bf
       0.007598026 0.3381893 0.24799542 -0.65086323
000090 25 1c 93 3e 10 f7 4b bd 38 f0 48 3d 04 be 75 3d
       0.2873241 -0.049796164 0.049057215 0.059995666
0000a0 8e 5f c1 3d 24 fb 08 3e 49 21 92 bd 71 9b 61 3e
       0.09442054 0.13377053 -0.07135255 0.22031952
0000b0 21 08 9f be df db 29 be a5 4e 8d be 27 da b8 3d
       -0.3106089 -0.1658778 -0.27599064 0.09025984
0000c0 0f 76 b2 bd 02 57 a0 bd b2 02 0b 3f 5a b1 47 3b
       -0.08713924 -0.078290954 0.5430099 0.00304707
0000d0 c2 c0 d0 3e d4 e7 d8 3d 2a e4 ec bd 1f eb 35 3e
       0.40772063 0.10591093 -0.11566956 0.17765473
0000e0 cd eb 24 bd 82 1f 65 be 89 f1 09 bf 4f f9 47 bb
       -0.04026394 -0.223753 -0.5388418 -0.003051359
0000f0 a0 07 10 bc a2 40 22 3e b2 d8 b5 3e e7 b3 87 3e
       -0.00879088 0.15844968 0.35516888 0.26504442
000100 4a 58 b6 3d 28 63 5a bd 83 bd 55 bd d7 15 4c be
       0.089035586 -0.05331722 -0.052182686 -0.19930206
000110 16 8e 41 bf d1 17 c3 3d b9 27 8e bc de 99 78 3c
       -0.7560743 0.09526027 -0.017352926 0.015173404
000120 80 72 a5 bd 45 7a 75 bf 90 ba 6c 3e 7c 35 80 bd
       -0.0807848 -0.95889693 0.23118043 -0.06260201
000130 27 92 35 3e 74 ea 30 be 7b c1 e9 be 97 1e 07 bf
       0.17731534 -0.17276937 -0.45655426 -0.5278105
000140 ee 49 24 bf 1a ad b1 bb 4a 3b a7 3b 7f 78 c7 3e
       -0.6417531 -0.0054222466 0.0051035034 0.3895912
000150 0d a1 9b 3e 6c 8f 81 bc 49 5f 05 bd ce 89 a4 bb
       0.3039631 -0.01581546 -0.032561574 -0.0050213104
000160 f2 a4 b0 be 56 9c 39 bf 41 79 7f bd 2d 58 56 3e
       -0.34500843 -0.72504175 -0.062371496 0.20932074
000170 89 33 cb bb 7b 4c 94 bb e9 4b fc 3d 8a 9b 86 bf
       -0.006201212 -0.0045257187 0.12319166 -1.0516217
000180 82 df 29 be 56 19 1a 3d bb b4 8c bc bf 31 8c be
       -0.16589168 0.03762182 -0.017176023 -0.27381703
000190 00 7f b0 bd 5e 3f 9b be 85 51 f4 bd ed e3 26 3d
       -0.08617973 -0.30321783 -0.11929611 0.04074471
0001a0 66 a4 dc 3d 78 a9 00 3e fd f5 9e be 75 42 16 3f
       0.10773544 0.12564647 -0.3104705 0.58695155
0001b0 12 25 ae 3c fe e3 9e 3d 16 1f a6 3e 48 40 f7 3e
       0.02125791 0.0775833 0.32445592 0.4829123
0001c0 4c 16 76 3d 60 f7 b8 3e bb d8 3b 3c 03 ae 7d 3c
       0.060079858 0.36126232 0.011465247 0.015483382
0001d0 69 e1 55 bd e1 c4 40 be 27 3a 11 3f 14 8e 54 bc
       -0.05221692 -0.18825103 0.5672936 -0.012973327
0001e0 c9 14 17 bd 38 5f 34 be 5e a4 97 3c 2c bf 00 bf
       -0.036885057 -0.17614448 0.018510994 -0.50291705
0001f0 7a bf 04 bf ba 20 94 bb 99 88 9b bc ab 01 8f be
       -0.5185467 -0.004520503 -0.018986033 -0.2793096
000200 b2 2f 3f be 13 53 3e 3e d4 42 78 bc 9e a5 a2 bd
       -0.18670538 0.18586378 -0.015152652 -0.07941745
000210 75 80 5e 3d 11 58 5a 3e 3e cc f6 3d 63 a0 76 3e
       0.054321725 0.21322657 0.12050675 0.2408462
000220 57 4f 68 3d b0 3a fd 3c 2b cf 57 3e e7 ca d0 be
       0.05671629 0.030911773 0.21075122 -0.40779802
000230 b0 26 05 3f 0d 61 b0 3d e0 28 66 bd 98 f2 54 3e
       0.5201216 0.08612261 -0.056191325 0.20795667
000240 af e5 96 3e 21 39 93 3e 7b da da be 61 2e 39 3c
       0.2947211 0.28754523 -0.42744812 0.0113025615
000250 1c 4d 20 bd ab ec 59 3d 49 6b 36 bf 45 96 73 bd
       -0.039136037 0.05320422 -0.71257454 -0.05946948
000260 96 91 f8 3d 5f 03 c3 bd 59 ee 8f be e6 d1 52 bf
       0.12137143 -0.09522127 -0.28111532 -0.8235153
000270 e5 20 a9 3e 2b 92 db be f7 3e 16 3d d1 eb 83 bd
       0.3303291 -0.42884955 0.03668114 -0.06441463
000280 df ef 0b bf 57 c2 81 bf 71 cb 47 3e 32 f8 1f 3e
       -0.5466289 -1.0137433 0.195112 0.15622023
000290 f0 9b b4 bd cd 6c 84 3f 9e fb 96 3e 5d 73 24 3e
       -0.08818805 1.0345703 0.29488844 0.16059633
0002a0 be 50 81 3e 6b 75 d4 3c 40 da b8 3c 7c 4d 33 3e
       0.25256914 0.025934896 0.022565007 0.17510027
0002b0 1a c0 85 3d b9 48 bf 3d ac bd 90 3d bb b5 f3 3b
       0.06530781 0.093400426 0.07067427 0.0074374354
0002c0 f4 31 e5 3d 69 2d ad 3e dc 18 b3 3d 20 5e a7 bd
       0.111911684 0.33823708 0.08744976 -0.0817225
0002d0 8a 01 aa 3d 7a aa 58 3d 04 d2 d3 bd d2 64 a7 3d
       0.08301075 0.052896954 -0.10342792 0.08173527
0002e0 54 10 fe 3e e2 8a 44 be f5 26 21 3e 15 f9 f5 be
       0.49621832 -0.19193605 0.15737517 -0.48041597
0002f0 9d 7f 06 be ec ee 80 3e 6c d4 12 3f 1c b5 e1 bc
       -0.13134618 0.25182283 0.5735538 -0.02755218
000300 12 6d 66 3c dc 15 11 bf 1b 5e 38 bf d6 44 37 3e
       0.01406409 -0.5667398 -0.72018594 0.17897353
000310 f8 ac fa 39 4a fc cc 3d e9 7d 55 bf 33 c6 28 3f
       0.00047812588 0.10009058 -0.8339525 0.6592743
000320 ec ed 67 3e 22 21 8e 3d ef 1c 9e 38 a6 a5 0e bd
       0.22649354 0.06939913 7.5394164e-05 -0.034825943
000330 6d a3 e2 3c e6 92 ff be 8e 52 61 3e 9d 75 0e bd
       0.027665818 -0.49916762 0.22004148 -0.034780134
000340 6e 9a ae 3d ce 9c 99 be 59 a2 47 be ab 4d 1c 3e
       0.08525549 -0.30002445 -0.19495524 0.15264003
000350 a9 6f 2c be c7 02 c1 3d 78 0c d6 3c 98 9b 05 3f
       -0.1683947 0.09424358 0.026128992 0.5219054
000360 59 08 b8 bb 43 9e a5 3e 39 83 2a 3e cd 12 b0 bd
       -0.0056162295 0.32347307 0.1665162 -0.08597336
000370 a9 99 7a 3e e7 ad 15 be cf c8 c0 3b b6 bc 44 3e
       0.24472679 -0.1461712 0.0058833132 0.19212613
000380 19 f1 dc bd 5c 86 d5 bd ea 33 a8 3e c3 f5 3f 3e
       -0.10788173 -0.10426018 0.32852107 0.18746094
000390 d5 88 12 3f 1b 6c 2c be fd 8b c7 bd 95 39 a7 3c
       0.5724004 -0.16838114 -0.097434975 0.0204132
0003a0 ad a7 d3 3d bf f5 8b be 8f ed 25 be f8 20 60 3d
       0.10334716 -0.27335927 -0.16203903 0.05471894
0003b0 92 19 8b 3d 74 5e 4e be e3 d1 0d be 33 4c ea 3e
       0.067919865 -0.20153219 -0.13849597 0.4576126
0003c0 5a 3d 49 3e d1 d4 a3 3d 3a 99 ed 3d 81 6a 7a 3e
       0.1965231 0.07999576 0.11601491 0.2445469
0003d0 c0 80 af 3e 5e 56 58 3e 1a c6 7b bb b2 b4 37 3e
       0.34277916 0.21126696 -0.0038417638 0.17940024
0003e0 98 08 eb be e4 6f 7d 3e ba 6e 81 be 32 a0 56 3c
       -0.45904994 0.24749714 -0.2527979 0.013099717
0003f0 cd 67 95 bd 9e f2 fd 3e 14 b0 12 be da dd 71 bd
       -0.07295189 0.49599165 -0.14324981 -0.059049465

fc1.bias f4 [32]
000000 5d 7c d6 3e b2 9c 7b 3e d0 70 c4 3e 35 04 88 be
       0.41891757 0.24571493 0.3836732 -0.2656571
000010 8f bd e5 3d d6 e2 7a be ee cd 07 3f 69 5f 0d bd
       0.11217796 -0.24500594 0.530486 -0.03451482
000020 83 58 a7 be 65 c2 06 3f 34 c4 11 3e 1b 16 e5 bd
       -0.32684717 0.5264037 0.14235002 -0.11185857
000030 e3 d0 39 3d 60 8c 2f 3e 31 67 10 3f 91 2f 36 3e
       0.045365226 0.17143393 0.5640746 0.17791583
000040 a0 b0 09 3f 34 5f 20 3e 26 4e 8e 3c 64 57 f5 3e
       0.53785133 0.15661317 0.017371248 0.47918236
000050 98 19 95 3e 5f 20 b4 3e 0b bd c5 be a0 3d 87 3d
       0.2912109 0.35180947 -0.3862079 0.06603551
000060 04 2f 27 3e 47 ce 6d 3d 2b 6a 70 be fe 20 ce 3d
       0.16326529 0.05805805 -0.23478 0.100648865
000070 1f 85 52 3e 48 3c 8e 3e 02 e2 24 be 6a 1a 74 3e
       0.20558594 0.27780366 -0.1610184 0.23838201

fc2.weight f4 [64, 32]
000000 1b 8f 89 3e a6 45 57 3e d5 94 b0 bd 37 23 ac 3b
       0.26866993 0.21022663 -0.086221375 0.0052532214
000010 11 9a a8 bc 90 fb 83 3d 9a 87 4a 3d ef 19 06 be
       -0.020581277 0.06444466 0.049445726 -0.1309583
000020 5c 67 f9 3c 25 f2 8b 3e 8f 30 67 3d 05 8a c4 bc
       0.030444793 0.2733318 0.056442793 -0.023991594
000030 3d c2 4a 3e f3 4f 7c 3e 56 96 d1 3d c2 ac 97 3c
       0.19800659 0.24639873 0.102337524 0.018514995
000040 8d e7 42 3e 99 c4 ed 3d 8a a0 42 bd 92 f0 0b 3e
       0.19033642 0.11609764 -0.047516383 0.13665989
000050 5a 12 90 3e 1b 37 66 3e e2 e9 41 3e bd 84 b3 3c
       0.28139 0.22481959 0.18936875 0.02191388
000060 64 1a 11 3e e5 c8 25 bd 1d ee 36 be a3 16 16 be
       0.14170223 -0.04047479 -0.1786427 -0.14657073
000070 90 32 77 bd 34 e1 0d be 1b 30 82 be 93 0d 24 3e
       -0.060350955 -0.1385544 -0.25427327 0.16020803
000080 98 46 4a bd f6 d1 08 3e 00 70 71 bd fb 58 4a be
       -0.04938373 0.13361344 -0.058944702 -0.19760506
000090 e3 ee f5 3d fc 14 83 bc 9e 09 be bd c1 0d cc 3e
       0.12008455 -0.016001217 -0.09279178 0.39854243
0000a0 4d 5b 53 3e a1 e4 ea bb 14 76 a3 3e 9b 14 9e 3b
       0.20640297 -0.007168368 0.31926024 0.0048242337
0000b0 8b e1 64 3c 4e e9 98 be 80 ff a6 3d 11 71 62 3e
       0.013969789 -0.29865497 0.081542015 0.22113444
0000c0 5a eb 96 3d 5c 80 97 be ed a5 15 be 41 b8 73 bc
       0.073691085 -0.29590118 -0.14614077 -0.0148754725
0000d0 bc 9c 94 3e 25 0f 2d 3e df be 58 3e 5e 5e 76 3d
       0.2902583 0.16900308 0.21166562 0.06014859
0000e0 9f 1b 94 3e 22 82 80 3e 37 2d 76 be f1 ce 3b bd
       0.28927323 0.25099283 -0.24040686 -0.04585165
0000f0 c3 fd 6b be dc 7e 27 3e 98 af e5 bb ee 99 70 bc
       -0.23046021 0.16356987 -0.007009458 -0.014685137
000100 a8 6d 2e 3e 0e 7b 0c 3e 36 1b 92 3e 6f 79 45 3e
       0.17034018 0.13718817 0.28536385 0.19284604
000110 88 ea 30 3e 63 46 02 3e 7a 0a f4 bc 7c 78 13 be
       0.17276967 0.12722163 -0.029790152 -0.1440143
000120 5c 37 5a 3e d1 1d 28 3e 7c 3c 35 3e 7a d9 a5 3d
       0.2131018 0.16417624 0.17698854 0.08098121
000130 45 8d ac 3e 81 ce 75 3e 54 0a 9d 3e 1e 08 d0 3d
       0.3370153 0.24004556 0.30671942 0.10157798
000140 77 2d cb 3d a5 70 1f 3e 1e 52 84 3e 6e 5d 6e 3e
       0.09920781 0.15570314 0.258439 0.23277828
000150 bd c9 8c 3d 9f 09 3b 3e 9f 37 cd 3e 1f 0a 43 3e
       0.06874416 0.18265389 0.40081498 0.1904683
000160 41 81 26 3e f0 5f 05 3f 1a f0 d6 3d 54 b1 77 3e
       0.16260244 0.52099514 0.104950145 0.24188739
000170 4b 06 73 3e 01 05 84 3e 79 37 9f 3e a6 57 ef 3c
       0.2373287 0.25785068 0.3109701 0.029216599
000180 c7 23 d4 3d 57 8b 45 3e f8 2e a9 3d 18 0d d3 bd
       0.103583865 0.19291435 0.08260912 -0.10305232
000190 69 f3 8c 3d b1 77 9b bd da 59 ea 3d ab 43 11 bd
       0.06882364 -0.07591189 0.11442919 -0.035464924
0001a0 c0 d5 e4 bd 76 43 09 3e 5d 72 20 3e 54 cf bd 3d
       -0.11173582 0.1340464 0.15668626 0.0926806
0001b0 b1 69 98 3e 1a bf 03 be a3 13 d9 3d ae 44 03 be
       0.29768136 -0.12865868 0.105994485 -0.12819168
0001c0 d0 69 a9 3e 3e 48 74 3e 2d 10 b4 3d 3f 8f 31 3e
       0.3308854 0.23855683 0.08792148 0.173398
0001d0 c6 3f be 3e e8 2f 70 3e 7d c1 d8 3d 1f 94 9d 3d
       0.3715803 0.23455775 0.1058378 0.076942675
0001e0 6c d9 83 3e 42 dc 96 bc d3 0e cc bd 74 4e e7 bd
       0.25751817 -0.018415574 -0.09963765 -0.112942606
0001f0 f6 a3 1c 3e 85 cd 27 3e d2 76 c9 bd 0d 7e aa 3d
       0.15296921 0.16386993 -0.09837116 0.083248235
000200 27 c8 8a 3d f8 02 ac 3d 64 13 4d 3e 83 d1 57 3e
       0.06776457 0.08399004 0.20026928 0.21076016
000210 7d 4a 5a 3e f0 8e 30 bf 69 5f 81 3e c9 7b 1c be
       0.21317478 -0.68968105 0.25268105 -0.15281595
000220 4c 02 2b bd 3a 89 69 3c 6f 4d ad be c7 11 ad bd
       -0.041750237 0.014253909 -0.3384814 -0.084506564
000230 8a 78 14 3e 7b 6c 51 bf 4d c9 44 bf f6 7a a9 3d
       0.14499107 -0.81806153 -0.7686966 0.08275406
000240 de 29 a3 3e c9 7b 40 3e cd f0 c3 3d f6 a8 76 bc
       0.3186788 0.1879722 0.095674135 -0.015054932
000250 42 62 74 bd ad ca d4 bc ff 38 5e 3e 53 51 bd 3d
       -0.05966402 -0.02597555 0.2170143 0.09244027
000260 d0 08 fd 3d 86 e4 6b 3c e8 df a7 be b0 a6 e4 be
       0.123551965 0.014397746 -0.32788014 -0.44658422
000270 ce cf 93 3d 88 62 73 bf ca af 1e 3f 1c 9a 0d be
       0.0721737 -0.9507222 0.6198698 -0.1382832
000280 73 ab d4 bd fc 17 67 3e bc 47 0d bf 9e d3 d9 3e
       -0.10384264 0.22567743 -0.5518758 0.42544264
000290 15 51 b7 3d c5 54 9a 3d 1a be 3f bf 02 55 7d bf
       0.08951012 0.075357 -0.74899447 -0.98957837
0002a0 e5 f2 02 3f b4 22 33 3b ef 66 4f 3e 25 09 02 bf
       0.5115188 0.0027333917 0.2025411 -0.50795203
0002b0 c3 52 da 3d d7 dd bb be ac 2b c1 3e 97 2a 4d bc
       0.10660317 -0.36692688 0.37728631 -0.012522361
0002c0 c2 b6 1f 3e f3 55 40 be f1 83 2b bd f4 aa c2 3c
       0.1559706 -0.18782787 -0.041873876 0.023763157
0002d0 7f 37 09 3e 67 22 1f 3d fd da 8b 3e 2a 5a b6 be
       0.13400076 0.038851168 0.27315512 -0.35615665
0002e0 65 14 1c be c2 02 8b 3e 1d a5 66 be 2b 82 3d be
       -0.15242155 0.27150542 -0.22523923 -0.18506686
0002f0 e4 1b a6 bd a7 ad 39 3e 16 00 11 be cc 07 9f 3e
       -0.081107885 0.1813265 -0.14160189 0.31060636
000300 82 b6 33 bb 52 fb 77 3e 76 10 df 3d 20 22 9a 3b
       -0.0027422016 0.24216965 0.108918115 0.004703775
000310 3f 44 5d 3e c8 18 4e 3d bd 03 cd bd 63 ac c1 bd
       0.21608065 0.050316602 -0.10010479 -0.09456708
000320 9f af ff bd 44 ac be 3e 02 39 22 3e 68 14 21 3e
       -0.12484669 0.37240803 0.15842059 0.1573044
000330 67 1e 98 3d c3 22 bf 3d 0d bd 36 be 23 29 41 be
       0.07427674 0.09332802 -0.17845555 -0.18863349
000340 c4 56 1c 3e 6e ac bf 3d 80 0d 7b bd dc 7d 7c 3e
       0.15267473 0.0935906 -0.06129217 0.24657387
000350 4d 02 70 3e e3 a1 3f 3d e4 20 98 3d 22 0b ce 3c
       0.23438378 0.046785247 0.074281484 0.025151793
000360 fa 87 da 3e 2a 31 0c 3e 9c d6 13 3e c5 4f 0a be
       0.42681867 0.1369063 0.14437336 -0.13506992
000370 22 fd 2a 3d 19 2a 5c be 9c b4 44 be b7 54 cf 3c
       0.041745313 -0.21500434 -0.19209522 0.02530895
000380 c3 73 8c 3e 6a 03 92 3e a2 a3 b6 3d c5 54 bc 3d
       0.2743207 0.2851823 0.08917929 0.09195856
000390 37 de 6f 3e 41 dc a4 bd 0a c0 d1 bd 1a 74 ab 3d
       0.23424612 -0.080498226 -0.10241707 0.08371754
0003a0 82 c1 90 bd 37 e5 8d 3e c1 04 73 3e bf d5 7d 3e
       -0.07068159 0.2771394 0.23732282 0.24788569
0003b0 19 34 3a 3e 7a 46 2e be 14 54 1b 3e e9 74 45 bc
       0.18183936 -0.17019072 0.15168792 -0.012051799
0003c0 6c ef 9f 3e 90 a1 2b 3c 6c 62 da 3d c5 17 97 3c
       0.31237352 0.010475531 0.10663304 0.018443951
0003d0 53 55 b0 3e c4 74 81 3e c1 fb 4a 3d 13 6c d9 bc
       0.34440097 0.25284398 0.049556497 -0.026540792
0003e0 2a 87 96 3e b4 a5 b1 3e 81 1d 31 3e ff ed a4 bc
       0.29399997 0.34696734 0.17296411 -0.020133017
0003f0 af cf 97 3d 46 7c 44 3e d9 90 a9 bd 95 8f 95 bd
       0.074126594 0.19188032 -0.082795806 -0.07302777

fc2.bias f4 [64]
000000 46 0b b9 3e f3 11 61 3e 67 95 d8 3e ac db 08 3f
       0.36141413 0.21979503 0.42301485 0.5346019
000010 62 b8 6a 3e b6 6c be 3d 26 2a 90 3e f6 9b fe 3e
       0.22921899 0.09298079 0.28157157 0.49728364
000020 3a 5c 9a 3d 95 bc cb 3e 63 66 52 bd 3f 1a 93 3e
       0.07537122 0.39792314 -0.051367175 0.28730962
000030 27 1c 60 be cb 59 00 3f 4a ff 6c 3d 66 9b d5 3e
       -0.2188574 0.50137013 0.05786065 0.41720122
000040 d8 ae 08 3e 04 35 eb bc 6e 20 bd 3e 9b 1e c9 3e
       0.13347948 -0.028711803 0.36938804 0.39281163
000050 10 8a c9 3e b0 4b c4 3e ec 5c b1 3e 1d b0 61 3e
       0.39363146 0.38338995 0.34641206 0.22039838
000060 17 18 df 3e 0a c8 03 3f a1 19 1c 3e 12 64 88 3e
       0.43573067 0.5147711 0.15244152 0.26638848
000070 c2 56 fb 3e c4 55 44 3e e6 2d df 3e 20 0c db 3e
       0.49089628 0.19173342 0.43589705 0.42782688
000080 3e eb 79 3e e2 c3 c6 3e a6 f1 98 3d be ef 4b 3e
       0.24406144 0.38821322 0.07467966 0.19915673
000090 77 0f 95 3e f1 71 64 3e 2a 10 fa 3d 4e 77 cf 3e
       0.2911336 0.2230909 0.12210114 0.4052071
0000a0 1a 25 05 3f a6 36 fa 3d 55 0b 65 3e 9a eb a7 3d
       0.5200974 0.122174546 0.22367604 0.08199234
0000b0 98 e6 64 3e 79 a0 f5 3d 83 5f a9 3e c5 8f 62 3e
       0.2235359 0.11993498 0.33080682 0.22125156
0000c0 40 48 e7 bb 96 73 c4 3e 3c 53 5c be 46 b0 db bd
       -0.0070581734 0.38369435 -0.21516126 -0.10726981
0000d0 7d 0a 31 3e a7 d9 c5 3e ac cd f0 3e f6 1d 0a 3e
       0.17289157 0.38642618 0.47031915 0.13487992
0000e0 9c 49 43 3e 60 4e 80 3e f8 bb f4 3e e2 92 d3 3e
       0.19071048 0.25059795 0.4779966 0.41323
0000f0 75 36 ff 3e 96 79 28 3e 62 fb bb bd e8 72 34 3e
       0.49846235 0.16452631 -0.09178807 0.17621958

fc3.weight f4 [128, 64]
000000 6e a3 a6 3a 02 ab 3c 3d 05 2e 73 bc 55 48 41 be
       0.0012713501 0.046061523 -0.014842515 -0.18875249
000010 63 2b ef be 71 c0 f1 3c df b9 24 3c 9e e9 4b be
       -0.4671279 0.029510709 0.010054081 -0.19913337
000020 4c dd c4 bc 37 c4 f2 bc f3 7e d6 be ec 4c 2c 3c
       -0.024031304 -0.029634578 -0.4189373 0.0105163865
000030 55 c7 05 3e b9 32 83 bd f1 1c b9 be 2f 9a eb be
       0.1306432 -0.06406159 -0.36154893 -0.4601607
000040 fd b7 0d 3e a4 a2 63 3d f1 ff 00 3e c2 6b b9 be
       0.13839717 0.055575028 0.12597634 -0.36215025
000050 c3 57 92 3c dd 24 12 3d f8 6e 31 bd 22 c7 f6 3d
       0.017864114 0.035679687 -0.04331872 0.120497
000060 ed 70 7b be e4 b3 0e bc 58 01 92 bc 9e 9c 0f bf
       -0.24554797 -0.008709881 -0.017822906 -0.56098354
000070 01 9e 78 3d 93 6d df 3c 2e 11 44 bd 4d aa da bd
       0.06069756 0.027273929 -0.047867946 -0.106770135
000080 b7 94 c0 be 7d 9d 10 be af 79 79 3e f0 49 e2 3b
       -0.3761346 -0.14122577 0.24362825 0.0069057867
000090 3a f7 96 bd 7b 5c 0d bf dd 3b bf 3c 9f af 97 be
       -0.073713735 -0.5521924 0.023343975 -0.29626176
0000a0 37 e4 21 be d4 89 f2 bc 8c 5e d3 bd eb f8 4f 3e
       -0.15809713 -0.029606737 -0.10320768 0.20309798
0000b0 62 4d 11 be 2e a5 c4 bb f4 3e 00 bf 0c 81 96 3d
       -0.14189675 -0.0060011363 -0.5009606 0.073488325
0000c0 cc 25 dd 3c b7 24 77 3d 15 4c ae 3e c9 89 81 3f
       0.026995562 0.06033775 0.3404242 1.0120174
0000d0 83 2a c6 be be 4b d8 bd 32 0a 02 bb 16 ea 58 3d
       -0.3870431 -0.10561322 -0.0019842503 0.052957617
0000e0 2b ee db 3d a5 d0 99 bd 2b 4d cc bd 10 4c 07 bf
       0.10738786 -0.07510499 -0.09975656 -0.5285044
0000f0 d7 a8 45 3d 38 36 b6 bd d3 ec c3 be c1 d9 54 3d
       0.04825672 -0.0889706 -0.3826662 0.05196548
000100 32 ed 76 3d b7 07 31 3e 30 71 29 3e e0 05 84 3e
       0.0602848 0.17288099 0.16547084 0.25785732
000110 bc 93 9f be 27 da 1f 3e 62 0b d1 3d 32 e1 9a 3e
       -0.311674 0.15610562 0.10207249 0.30249935
000120 16 ac 1c 3f c2 ee 4a 3e f1 41 23 3e a6 b7 73 3e
       0.6120008 0.19817641 0.15943123 0.23800525
000130 96 a4 84 be 35 80 5c 3e 5b c2 85 3e 61 c2 2c 3e
       -0.2590682 0.21533282 0.26124844 0.16871025
000140 fa 10 5b 3d b0 bf 20 3d c7 a8 e4 3d a5 fe 68 3e
       0.053482987 0.039245307 0.11165004 0.22753389
000150 65 25 25 3e 3e e1 81 3e 62 ea 9e 3e 3c ea 98 3e
       0.16127546 0.2536716 0.31038195 0.29866207
000160 eb a0 b5 3d 4d 89 85 3e 5a 38 94 3e 68 e4 e5 3e
       0.08868583 0.26081315 0.28949243 0.44900823
000170 69 ec 82 3e 61 5e 20 3e 5c c8 ae 3e 86 fe 90 3e
       0.25570992 0.15661003 0.34137237 0.28319186
000180 54 18 54 3e ce cc 88 3e 46 56 f6 3e e7 db 50 3e
       0.20712405 0.26718754 0.48112696 0.20396386
000190 4a 6a 78 3e 96 cb a0 3e dd 33 56 3e 52 bf dd 3e
       0.24259296 0.31405324 0.20918222 0.43310028
0001a0 ba d2 9e 3e 60 d2 27 3e b6 ef 98 3e 18 b4 56 3e
       0.31020147 0.16388845 0.29870385 0.20967138
0001b0 77 6e 05 3e 7b 69 7f 3e b0 12 8c 3e 8a 77 c9 3d
       0.1303042 0.24942581 0.27358007 0.098372534
0001c0 cc b6 b2 3e 8e 17 e6 3d a7 7d 66 be 2f dc 30 3f
       0.34905088 0.112349615 -0.2250887 0.69085974
0001d0 dd 86 6b be 45 94 cd 3d 04 c7 a2 3e 15 d6 4f 3e
       -0.23000665 0.10038046 0.31792462 0.2029651
0001e0 ba cd a3 bc 73 fc 0a 3e 5c 14 66 3e f9 38 50 3e
       -0.019995559 0.13572864 0.22468704 0.20334233
0001f0 e5 74 bb 3e e4 38 a8 3d b9 56 6b 3f e6 7e 2b 3e
       0.3661262 0.08213976 0.91929203 0.16747627
000200 00 44 f7 bc 6b 2c 09 bd 18 dc e0 3d 52 23 b6 3d
       -0.030183792 -0.033489626 0.109794796 0.088934556
000210 f9 61 2c 3e b7 21 0f 3e 65 c4 e1 3d 55 cb 72 3d
       0.16834249 0.13977705 0.110237874 0.059275944
000220 76 44 75 bd fe dd 99 bd 77 36 74 bd 80 ed eb be
       -0.059879743 -0.07513045 -0.059622254 -0.46079636
000230 a5 ed cd bc 5d 67 0f bb 18 b0 96 3c 58 e8 ed be
       -0.025137732 -0.0021881678 0.018394515 -0.46466327
000240 05 17 6e 3c b0 71 7e 3c 3f e0 ee bd 47 88 41 bd
       0.0145318555 0.015530035 -0.11663865 -0.047249105
000250 b0 6e ea bd 3f 9d 52 3d 74 af 08 bd a8 2e 70 3d
       -0.11446893 0.051419493 -0.03337045 0.058638245
000260 d7 f5 61 3c 34 f6 c0 bc 47 28 15 bf 2c 81 dc bd
       0.013791523 -0.023554899 -0.58264583 -0.10766825
000270 50 eb 82 3c 39 18 5c be ab 98 da bd 20 51 73 bd
       0.015981346 -0.21493615 -0.1067365 -0.05940354
000280 43 d0 b1 3d 51 1f 99 be c7 db b0 3e f2 ef 74 bd
       0.08682301 -0.29906705 0.34542677 -0.059799142
000290 8c 8b 47 be 3a 04 f6 bd 41 bf 49 be 24 b6 75 3d
       -0.19486827 -0.12012525 -0.19701864 0.059988156
0002a0 d6 f8 77 bd 94 3e 13 be be 53 9a 3d 9a 99 45 3e
       -0.060540043 -0.1437934 0.07535504 0.19296876
0002b0 6e c9 04 3e ac 0a 30 be b2 4a 1f 3e 4c 1c e4 3d
       0.12967464 -0.17191571 0.15555838 0.1113821
0002c0 71 d5 1d be c9 7b 99 be 32 3d 81 3e 52 6f e3 bc
       -0.15413453 -0.29977253 0.25242 -0.027763043
0002d0 1d 76 3e 3e 88 bb bc bc b6 2b 27 3e 8b f6 ee bd
       0.18599744 -0.02303864 0.16325268 -0.11668118
0002e0 1b 05 03 bd a6 da 23 be 62 a9 05 bd b1 f3 25 bd
       -0.03198729 -0.16001377 -0.03263224 -0.040515605
0002f0 e0 1f 82 3d 91 d0 6a 3d 77 d8 b5 bd 87 42 23 3d
       0.06353736 0.05732781 -0.08879178 0.039858367
000300 49 99 16 bc b4 80 31 3c c1 81 b3 bd 40 25 8a 3c
       -0.0091918195 0.010833908 -0.08764983 0.016863465
000310 b0 df 94 bb 09 0a 90 3d 20 4d 1a bc 63 93 94 bd
       -0.004543267 0.07033164 -0.009417802 -0.07254674
000320 39 95 b9 bb f1 e0 32 3d bb e1 ca bc 42 d9 e9 3c
       -0.0056635407 0.043671552 -0.02476584 0.02854598
000330 b7 e7 f0 3d 38 ad ad 3c e7 10 c4 bd 22 bb d1 bd
       0.11762946 0.021200761 -0.09573536 -0.10240771
000340 ac 7d 27 3c 9c 25 9f 3d 5e 9c bf 3d 9c 37 82 3d
       0.010222834 0.07770845 0.093559965 0.06358263
000350 15 a6 ba bd 85 3c b7 3d b8 df 0c 3d 3f aa 50 3d
       -0.09113709 0.0894709 0.034393042 0.05094361
000360 f8 7f 4c bd 17 44 e3 bd ce 35 e3 bd 60 19 cb 3d
       -0.049926728 -0.110969715 -0.11094247 0.09916949
000370 aa 5a 90 bb 9f 6f e5 bd 80 94 3c 3d ba 45 9a bd
       -0.0044053392 -0.11202931 0.046040058 -0.075328305
000380 ac 99 b8 3d e7 b4 36 bd 35 cf 7b bc fa fb bc 3a
       0.090136856 -0.044606116 -0.015369226 0.0014418357
000390 f7 8c 75 bd ce 44 b8 3c 1b 99 8d ba 42 10 f1 bd
       -0.059948888 0.022493746 -0.0010803075 -0.11770679
0003a0 f2 06 e1 bd fa 1f f9 bd ff ab e4 bd 1c 5e 04 3c
       -0.10987653 -0.12164302 -0.11165618 0.008079078
0003b0 ab ca 5a 3d 9a c4 66 bd 7a ce e9 bd 82 d0 cc bd
       0.053415935 -0.056339838 -0.114163354 -0.10000707
0003c0 be 0e ee 3c 08 fa a5 3d 60 40 44 bc 6c 2b 25 3d
       0.029059764 0.0810433 -0.011978239 0.040324613
0003d0 08 3e 8c 3c e7 ae 88 3d 78 36 bd 3c 05 27 62 3d
       0.017119423 0.06673985 0.023097262 0.055212993
0003e0 98 db 8f bc b2 4e 9f 3c 7b da 8b 3d 00 81 be 3d
       -0.017560765 0.019446705 0.06828781 0.093019485
0003f0 b5 e2 70 bd ef c5 4b 3d b0 91 5e 3d 44 92 c9 3c
       -0.058809955 0.04974931 0.054338157 0.024605878

fc3.bias f4 [128]
000000 c1 b1 ec bd 2a 5c a8 3e c6 5b 89 3d fa b5 ce bd
       -0.11557341 0.32882816 0.067069575 -0.10093303
000010 40 d7 88 bd bd d6 53 be 75 fe 08 3c 4e 3a 74 3d
       -0.06681681 -0.20687385 0.0083614485 0.059625916
000020 13 71 0c be b3 52 88 3e 6c 64 81 bc 2e 0f a7 bb
       -0.1371501 0.26625594 -0.015794955 -0.005098245
000030 25 8a ec bd 60 06 d4 3e f5 0f 9f bd d5 9d 07 3f
       -0.115497865 0.41411114 -0.077667154 0.5297521
000040 1c 35 c8 bd 28 40 14 bd 90 2e da 3e 59 4c 9b be
       -0.09775755 -0.036193997 0.4261365 -0.30331686
000050 04 cf 70 bd 96 75 45 be 05 c9 8c bd 6e 24 45 3c
       -0.058791175 -0.19283137 -0.06874279 0.012032611
000060 16 3c 56 3d c6 0c 61 3d c6 5a bc bd e4 c4 f5 3e
       0.052303396 0.054943822 -0.09197001 0.48001778
000070 75 5a 86 be c9 2f 85 be a3 5f fa 3e 24 00 f5 3c
       -0.26240888 -0.2601302 0.4890109 0.029907294
000080 58 28 60 3c 4b 13 87 be ad 10 8b bd a1 7b e8 bd
       0.013681494 -0.26381907 -0.0679029 -0.11351705
000090 94 89 c8 bd a7 c8 d1 bd c0 46 e3 3e 70 c9 5b bc
       -0.09791866 -0.102433495 0.44389915 -0.013414726
0000a0 d7 ca 08 be 4e c9 9a 3e 05 de 02 3f 59 92 4e 3d
       -0.13358627 0.30231708 0.51120025 0.050432537
0000b0 a0 25 13 be 84 e4 90 3e 9a 2c bf 3e 9f f8 e6 bc
       -0.14369822 0.28299344 0.37338716 -0.028194724
0000c0 f3 62 93 bd a5 ed b0 bd 3d 7c ad 3e 7b fb 88 3d
       -0.071966074 -0.08639077 0.3388385 0.06688591
0000d0 81 83 a7 bc 79 b9 f3 3e ab 1e e2 3e 13 b2 09 3f
       -0.020448448 0.47602442 0.44164023 0.53787345
0000e0 1e 06 e6 3e dc 1b 15 be 8a a5 de bd 51 d4 e5 3e
       0.44926542 -0.14561409 -0.10871418 0.44888547
0000f0 2e 3b 94 3e ce 51 a7 bd 07 c1 b3 3e 93 84 5b 3d
       0.289514 -0.081699 0.35108206 0.05359323
000100 6d 37 fe bd f9 2e f1 3e 3a 32 34 bd a7 05 66 bd
       -0.124129154 0.4710615 -0.043993212 -0.056157734
000110 b2 df af 3e 3b 7f 92 be 8c 6b fc 3e 35 ee 8e be
       0.34350353 -0.28612694 0.49300802 -0.27916113
000120 dc 23 c7 3e 83 86 84 3e 83 ab 08 be e2 5e fe 3e
       0.38894546 0.25883874 -0.13346677 0.49681765
000130 d2 3c d8 3e 7c f3 01 3f f3 65 a7 3e 48 67 ba 3e
       0.42233902 0.5076215 0.3269497 0.36406922
000140 a4 78 06 3f 49 fb 96 be 82 89 01 3f 1f 0a 37 be
       0.52527833 -0.2948859 0.50600445 -0.17874955
000150 1b b7 de 3e 02 71 e4 3e 1e 69 ab bd 20 a7 ab 3e
       0.43499073 0.44617468 -0.08369659 0.33525944
000160 91 bd af 3e 1a b2 ef 3e 4e 1b 84 be e0 fe cd bc
       0.34324315 0.46815568 -0.25802082 -0.025145948
000170 5f e7 d6 3e 26 18 a3 3e 95 6d 9b 3e e9 5e 67 bd
       0.41973397 0.3185436 0.30357042 -0.056486998
000180 dc ab b0 3e 0a 75 9f 3e 40 9c b3 3e 0b 1c b0 3e
       0.34506118 0.3114398 0.35080147 0.34396395
000190 31 23 98 3e 9f 10 5a be 71 ce cc 3d 60 27 4f 3c
       0.2971435 -0.21295403 0.10000313 0.012643665
0001a0 1a 10 b8 bd 08 d6 99 3e f1 b5 0b be 7c b4 56 be
       -0.08987446 0.30046105 -0.13643624 -0.20967287
0001b0 af 51 ba 3e 42 cc e0 3e 4c 05 b8 bc ac db 99 bc
       0.36390445 0.43905836 -0.022463463 -0.018781506
0001c0 e5 d6 a5 3e f8 ce fd bd 52 6f 00 3f 26 c9 dd 3e
       0.32390514 -0.12392992 0.5016986 0.43317527
0001d0 e1 0a 22 be 2e 6d 54 be d7 00 65 3d 8c 08 3b 3d
       -0.15824462 -0.20744774 0.055909004 0.045662448
0001e0 f1 36 46 be e7 e7 ac 3e 44 f1 dd 3e 32 e9 ac bd
       -0.19356896 0.33770677 0.43348134 -0.08442916
0001f0 6a 08 f2 bd a9 4b 98 3e d0 5c b7 3e 0f 9d 9b 3e
       -0.11818011 0.29745224 0.35812998 0.30393264

v.weight f4 [1, 128]
000000 c7 99 21 3f f8 b2 84 be f8 8d 93 3e b1 cb 2e 3d
       0.6312527 -0.25917792 0.2881925 0.042674724
000010 3c ee 55 3f 3a e3 45 3e c3 bf bc 3c bc 85 2c bf
       0.8356664 0.19324961 0.023040658 -0.6739156
000020 ea de 10 3d 97 a0 98 be 74 fb 80 3d 7a 5d 54 bf
       0.035368837 -0.2981002 0.06297961 -0.82955134
000030 18 d4 45 3d e4 6b 9e be e2 6e b0 3e 8a 84 87 be
       0.04829797 -0.3094169 0.34459597 -0.26468307
000040 5b 94 39 3f a5 1e 9e 3b 6c d3 9e be d1 db 40 3e
       0.72492 0.0048254305 -0.31020677 0.18833853
000050 7a 63 12 3f fa 51 4d 3f 68 45 6b 3c fc 21 86 3d
       0.5718304 0.8020321 0.014359809 0.06549451
000060 7a d2 3b 3d 34 98 97 bf f1 64 27 3d fd 06 93 be
       0.045855023 -1.1843324 0.04086775 -0.2871627
000070 8f a0 44 3d 6c b5 dd be 39 be 8d be 60 f6 55 3d
       0.048004683 -0.43302476 -0.2768419 0.052236915
000080 58 5d 35 3f 19 44 05 3f 92 7a cf 3e 24 7f 9e bb
       0.70845556 0.52057034 0.405232 -0.0048369337
000090 bf 90 8a 3d ee 98 60 3f 85 e5 96 be 50 d6 e9 3c
       0.067658894 0.8773335 -0.29471985 0.028544575
0000a0 47 a9 0f 3f 11 03 92 be d2 93 95 be f3 9c 1f 3d
       0.5611767 -0.28517964 -0.2921434 0.038968038
0000b0 25 02 a9 3e 3f 1a 8a be 5c 41 31 bf 08 ac 60 3d
       0.3300945 -0.2697315 -0.69240355 0.05485156
0000c0 a9 3b bc 3d ae b3 d3 3e 9b e6 a6 be 61 f9 04 3d
       0.09191067 0.41348022 -0.32597813 0.03246439
0000d0 7c 58 2e 3f c3 1f 64 be f5 ec ad be e5 cb 85 be
       0.68103766 -0.22277741 -0.33969846 -0.26132122
0000e0 85 e5 a5 be 6f 65 87 3e a2 2c d6 3e e6 9e cf be
       -0.32401672 0.26444575 0.41830927 -0.40550917
0000f0 78 ba 87 be b7 8c 72 3e c2 d5 91 be 96 dc 83 3d
       -0.26509452 0.23686491 -0.28483397 0.06438558
000100 f3 0c 31 3f 5a 68 98 be bb 3f 48 3f 8d 20 17 3f
       0.69160384 -0.29767114 0.78222245 0.59034044
000110 9c 50 74 be 60 b6 34 3f de eb a5 be 2b 28 21 be
       -0.23858875 0.7059078 -0.32406515 -0.15737979
000120 65 75 a0 be 1c b0 7b be e0 ec a7 3f 06 ae 66 be
       -0.31339565 -0.24578899 1.3119164 -0.22527322
000130 b1 6f 8b be bd fc 8b be 69 c6 8d be b7 01 74 be
       -0.2723365 -0.27341262 -0.27690437 -0.23828779
000140 d2 40 82 be 5d da 17 3d d3 6f 80 be 23 4f b0 3e
       -0.2544008 0.03707348 -0.25085315 0.34435377
000150 56 31 8a be f0 f9 72 be bb e2 24 3f 6d 6e 97 be
       -0.26990765 -0.23728156 0.64408463 -0.29576436
000160 4d 63 b6 be a8 ac 84 be fe 48 60 3f 12 50 a7 bd
       -0.35622635 -0.25912976 0.8761138 -0.08169569
000170 8a c9 8e be b4 05 8d be 3e 08 a5 be 15 55 79 3e
       -0.27888137 -0.27543414 -0.3223285 0.24348862
000180 48 1a bd be 52 84 8a be 76 81 99 be c1 94 7a be
       -0.36934114 -0.27054077 -0.29981583 -0.24470808
000190 88 eb 9c be df 51 03 3f ff 78 39 3d 7a 61 81 bc
       -0.30648446 0.512968 0.045281406 -0.01579355
0001a0 5a 8e 8a 3d dc 0b 8f be 2e 8c 97 3d 57 a3 0d 3f
       0.06765433 -0.27938735 0.07399784 0.5532736
0001b0 00 4f 8f be eb cf ad be 0c 63 51 3d 53 dd 77 3f
       -0.2798996 -0.3394769 0.05111985 0.9682209
0001c0 e8 e0 6b be c7 fb 60 3f d3 1a 6b be 8f e4 8e be
       -0.23035014 0.8788418 -0.22959451 -0.2790875
0001d0 66 3f 4d 3f 67 c2 f6 3e ee 1f 80 3d 5e 4f cf 3c
       0.80174863 0.48195192 0.0625609 0.0253064
0001e0 5f a2 b8 3e d2 67 9a be 08 58 9a be f3 01 d8 3d
       0.3606138 -0.30157334 -0.30145288 0.10547247
0001f0 0d a9 bb 3f 09 73 84 be 6d 59 9d be 9c 3b 72 be
       1.4660965 -0.25869015 -0.3073229 -0.23655552
