SAC/critic1_v3.pth (torch, 46031 bytes, 7 tensors)

fc1.weight f4 [32, 11]
0.31767195 -0.15051432 -0.1820741 -0.23866288 0.018236062 -0.08850082 -0.0015285503 -0.6007643
0.027078947 0.014488437 0.028970568 0.72956514 -0.218547 0.53521335 -0.04876391 -0.020043293
-0.12807056 -1.021724 0.5831685 0.20794782 0.013442747 -0.31982526 -0.23359436 -0.38310537
-0.5665106 -0.16974334 -0.07449317 0.10938885 -0.123215795 -0.5475358 0.07844635 0.06683916
0.018015552 0.41974312 0.15964402 0.20492415 0.00036533878 0.064291425 -0.069046095 -0.89641637
-0.096778795 0.15095998 0.042444065 -0.063356325 -0.6640844 0.30516064 0.16863519 0.08468919
-0.057799403 -0.06960907 1.2120924 0.28091133 0.33573556 0.048169974 -0.040402614 -0.25244138
-0.2851438 -0.5430302 -0.19572607 0.15571447 -0.13856633 0.17756379 -0.48187405 0.110830754
-0.0057053207 -0.07110417 -0.15998608 -0.6830739 -0.13041246 -0.2901378 0.015721021 0.08282888
-0.10512477 -0.6685777 -0.1054775 0.008968088 -0.10385704 -0.45287025 -0.08636071 0.06279628
0.03640697 -0.23073156 0.0763727 -0.14262211 -0.052873053 -0.26201868 0.37853882 -0.021945452
0.22327371 0.5936613 0.8492441 0.23846155 0.06397389 -0.10782435 0.03854728 0.39450628
-0.04399478 0.001886829 -0.019009884 -0.20529382 -0.37566876 -0.54603213 0.062412385 0.00356649
-8.374534e-05 0.16090453 -0.55006516 0.3417416 -0.025740003 0.010771412 0.6083003 0.69952613
0.1875948 0.14569452 -0.022363337 -0.015919039 -0.7290928 0.46233013 0.2908524 0.026194429
-0.06843895 -0.40416512 0.36424357 -0.65203786 0.3530775 0.017751796 -0.104004286 -0.5302144
-0.32100132 0.3228549 -0.009706459 0.037869003 -0.33004165 0.5538844 -0.47088885 -0.30915532
0.07926297 0.016093308 0.86763835 0.11699824 0.28268176 0.032160886 -0.09693238 0.0600459
0.059720445 -0.34128675 0.004733744 0.03557268 0.18275246 0.54395837 -0.53425986 -0.05823267
0.015821895 0.07105491 -0.15110092 0.36858824 0.056326486 0.042350415 -0.00084131607 -0.0037067342
-0.17307016 -0.054433458 -0.01779421 0.027404234 -0.45947468 -0.12540641 -0.35821852 -0.0017332601
-0.25185576 0.1810344 0.0076028425 0.036762435 -0.7454688 -0.34527543 -0.055266444 0.14156692
0.3668661 0.51049715 0.26379225 0.14188309 -0.03758459 0.16909365 -0.17527014 0.77271634
0.17031866 -0.07970014 0.049598 0.35771224 0.5511046 0.6772206 0.73270833 0.037689764
0.028074976 -0.20406085 0.74115926 0.0690322 0.010663869 0.1001675 0.010337556 0.21981877
0.084278904 0.023300553 0.095219664 0.13621332 0.32506323 0.34790424 -0.054856602 0.1507492
0.015251053 -0.28112176 -0.44142726 0.14506295 0.6207117 0.036675148 -0.036299378 1.3273029
-0.24173725 0.22163063 0.0041965554 0.044009794 -0.14359333 0.18367712 -0.40696993 0.1807378
-0.05525744 -0.09796277 0.574592 0.3044923 0.20966691 0.02442058 0.22842763 0.29191744
-0.3752458 0.054742783 0.020937549 0.024873968 0.13699593 -1.067721 -0.47755915 0.09590172
-0.01424971 0.009128702 -0.16335022 0.78661865 0.23278154 0.21612819 -0.09826549 0.29679546
-0.12979408 0.4969746 0.0081184525 0.0475121 0.014001743 -0.3617165 -0.32374904 -0.08073513
00000000: e6a5 a23e 6d20 1abe a271 3abe 0b64 74be
00000010: cb63 953c eb3f b5bd a359 c8ba b0cb 19bf
00000020: abd4 dd3c e960 6d3c af53 ed3c c8c4 3a3f
00000030: c9ca 5fbe be03 093f aabc 47bd d531 a4bc
00000040: ee24 03be dac7 82bf 884a 153f 46f0 543e
00000050: f83e 5c3c 23c0 a3be 5c33 6fbe 6326 c4be
00000060: d706 11bf 33d1 2dbe e08f 98bd 4307 e03d
00000070: 9058 fcbd 4e2b 0cbf 7ba8 a03d f8e2 883d
00000080: 5a95 933c 92e8 d63e b979 233e a3d7 513e
00000090: f18a bf39 39ab 833d 0a68 8dbd 8b7b 65bf
000000a0: f633 c6bd 4195 1a3e d4d9 2d3d f6c0 81bd
000000b0: 6f01 2abf 043e 9c3e b4ae 2c3e 8771 ad3d
000000c0: 11bf 6cbd 338f 8ebd d825 9b3f 9cd3 8f3e
000000d0: 88e5 ab3e e14d 453d 367d 25bd ff3f 81be
000000e0: 5efe 91be 0704 0bbf 6a6c 48be 9d73 1f3e
000000f0: 55e4 0dbe 48d3 353e 32b8 f6be 3cfb e23d
00000100: b3f3 babb 109f 91bd 64d3 23be eedd 2ebf
00000110: d88a 05be f18c 94be 5fc9 803c 30a2 a93d
00000120: a84b d7bd e827 2bbf 9604 d8bd e3ee 123c
00000130: 00b3 d4bd 9cde e7be e2dd b0bd 569b 803d
00000140: 7a1f 153d e544 6cbe 4a69 9c3d 880b 12be
00000150: 6a91 58bd 5027 86be d7cf c13e f3c6 b3bc
00000160: dda1 643e 30fa 173f 1068 593f 442f 743e
00000170: be04 833d 03d3 dcbd c1e3 1d3d bafc c93e
00000180: df33 34bd 7a4f f73a 9eba 9bbc 8b38 52be
00000190: a857 c0be c3c8 0bbf 21a4 7f3d c6bb 693b
000001a0: 70a0 afb8 28c4 243e 12d1 0cbf c1f8 ae3e
000001b0: b3dc d2bc 947a 303c 92b9 1b3f 2514 333f
000001c0: da18 403e f230 153e 5133 b7bc a568 82bc
000001d0: d3a5 3abf 89b6 ec3e 9bea 943e b395 d63c
000001e0: b829 8cbd bbee cebe 227e ba3e f4eb 26bf
000001f0: 93c6 b43e 376c 913c 3300 d5bd 22bc 07bf
00000200: 495a a4be 3d4d a53e d707 1fbc 871c 1b3d
00000210: 38fb a8be 5ecb 0d3f 5818 f1be 9b49 9ebe
00000220: a054 a23d 1dd6 833c 8c1d 5e3f c69c ef3d
00000230: aabb 903e 22bb 033d 7c84 c6bd b1f2 753d
00000240: 6d9d 743d 23bd aebe 861d 9b3b a9b4 113d
00000250: 7623 3b3e db40 0b3f 41c5 08bf 6185 6ebd
00000260: eb9c 813c 3d85 913d 33ba 1abe 99b7 bc3e
00000270: 9ab6 663d a177 2d3d c48b 5cba aeec 72bb
00000280: 4e39 31be 9ef5 5ebd 2ac5 91bc d87e e03c
00000290: 4440 ebbe 8a6a 00be 6b68 b7be 8f2e e3ba
000002a0: 3df3 80be 1561 393e 4421 f93b 3594 163d
000002b0: 0bd7 3ebf f1c7 b0be 115f 62bd ebf6 103e
000002c0: e0d5 bb3e f1af 023f c70f 873e cd49 113e
000002d0: 4df2 19bd e326 2d3e 047a 33be bdd0 453f
000002e0: 0468 2e3e d439 a3bd 4627 4b3d 0f26 b73e
000002f0: 3115 0d3f 545e 2d3f c692 3b3f 9560 1a3d
00000300: 7efd e53c 54f5 50be 9dbc 3d3f c160 8d3d
00000310: 82b7 2e3c 9e24 cd3d da5e 293c 2c18 613e
00000320: 6b9a ac3d cde0 be3c 8702 c33d 817b 0b3e
00000330: b06e a63e 8120 b23e 51b1 60bd 005e 1a3e
00000340: 8ddf 793c 31ef 8fbe c102 e2be 628b 143e
00000350: f6e6 1e3f ae38 163d a8ae 14bd 10e5 a93f
00000360: f889 77be 24f3 623e 4283 893b 9d43 343d
00000370: 210a 13be db15 3c3e 5d5e d0be 5413 393e
00000380: a055 62bd b4a0 c8bd 7618 133f 6ae6 9b3e
00000390: ecb2 563e ab0d c83c efe8 693e 3476 953e
000003a0: 3820 c0be f839 603d 3985 ab3c 7ec4 cb3c
000003b0: a948 0c3e 15ab 88bf a282 f4be 1f68 c43d
000003c0: 9e77 69bc 8d90 153c 4845 27be d75f 493f
000003d0: 495e 6e3e b550 5d3e 6b3f c9bd 93f5 973e
000003e0: bde8 04be 7473 fe3e 4203 053c 0c9c 423d
000003f0: 9167 653c e832 b9be 6fc2 a5be 7658 a5bd

fc1.bias f4 [32]
0.12293056 -0.20461208 0.15301119 -0.24845998 0.04020642 -0.3992082 0.19382556 -0.28070873
-0.20495683 0.28118834 -0.1341146 0.025128504 -0.1920459 0.1726788 0.35116872 -0.26075608
0.21196365 0.04667384 -0.25751993 0.3773299 -0.0715202 -0.009904575 -0.12514503 0.08034615
-0.18892053 -0.090659894 -0.09513665 0.0050826506 0.11923734 0.42463094 -0.21572332 0.2865492
00000000: 04c3 fb3d d485 51be f7ae 1c3e 4b6c 7ebe
00000010: 7daf 243d 0465 ccbe 357a 463e 0eb9 8fbe
00000020: 34e0 51be ebf7 8f3e 5655 09be 4bda cd3c
00000030: aea7 44be b6d2 303e 63cc b33e d281 85be
00000040: 000d 593e 122d 3f3d a7d9 83be 6231 c13e
00000050: 2f79 92bd cc46 22bc 0526 00be 868c a43d
00000060: 6274 41be e5ab b9bd 01d7 c2bd 5d8c a63b
00000070: b532 f43d 3a69 d93e 93e6 5cbe 94b6 923e

fc2.weight f4 [64, 32]
0.40582928 0.066180766 0.03047581 0.0010521356 0.031195838 0.18093385 0.3272967 -0.18398815
0.02423223 0.088712506 -0.14357728 0.28006017 0.09426146 0.21013135 -0.022614049 1.9666529
0.13918126 -0.2410361 0.18031916 0.15280625 0.34114382 -0.18880229 -0.29235795 0.13470975
0.044451747 -1.0043362 -0.07931116 -0.36618003 0.090356715 -0.027040442 0.066257894 -0.035227727
-0.17689116 0.23217228 -0.040333297 0.0066780117 -0.079069294 -0.039854594 -0.047116198 -0.2938761
0.04495484 -0.17436318 0.3858555 0.30062473 -0.13663688 -0.19028436 0.0016047463 -0.5762746
0.06372204 0.010204581 0.09972765 -0.1373372 0.12518327 0.32069618 0.19381261 -0.051135734
0.28516003 0.04250995 -0.16889942 0.011799539 -0.2186465 0.6901085 -0.22438772 -0.11054596
0.3530437 0.26320344 0.07014938 0.24636285 0.09311937 0.091131166 0.2603702 -0.09323128
-0.086835034 -0.25739163 -0.16467217 -0.25201413 0.10469932 0.03414387 0.23788641 0.7815045
0.09175816 0.10835019 0.030068493 0.111819364 -0.1499798 -0.019970158 0.012973258 0.16683492
0.08762956 -0.3139503 0.030931631 0.1895413 0.094473794 0.10506733 0.046701796 -0.30518857
0.24136598 0.036082897 -1.0241802 0.033526458 -0.13524318 -0.11610211 -1.786852 2.3650742
-0.13753666 -0.47842827 -0.0702275 0.021784093 -0.17639859 0.0001813312 0.3363681 -0.07851321
0.069507286 0.31405392 0.040927902 0.15445867 0.18997993 -0.027099308 -0.31812423 0.15141094
0.098682866 0.2521293 -0.12692505 0.14501853 0.12551765 0.16169123 -0.35617223 -0.108208805
0.17012535 -0.079886615 0.11989262 -0.02941491 0.20263395 0.1699882 0.16217414 0.0815204
-0.13735847 -0.04016878 -0.42435908 -0.60456747 -0.03589385 -0.12259473 -1.2786257 0.9258559
0.2649021 -1.5813184 -0.1807473 -0.27228335 0.010634419 -0.30795097 0.07347632 0.2157199
0.1435344 -0.042961426 -0.33686596 -0.07028138 -0.10577103 -1.3439039 -0.023477817 0.08392371
0.028748002 0.14287852 -0.071751386 0.28885698 0.016394876 0.27664414 -0.15471692 -1.204869
0.20551868 -0.061091274 -0.057969816 0.1187159 0.2136916 -0.2315835 -0.1109605 0.06543644
0.048919268 0.15333463 -0.296563 0.085094154 -0.07897956 0.0063139717 0.33084357 0.04110524
-0.27646747 -0.18535571 -0.12385716 -0.19307306 0.042441048 -0.16851081 -0.10162368 0.15622456
0.27387708 0.03602662 0.037903193 0.11797187 0.06592318 0.09104207 -0.72015774 -0.18651326
-0.17935836 0.46762776 -0.085275784 0.14152806 -0.3737607 0.39391565 -0.05936434 0.040135596
-0.11424743 0.03132644 0.05876489 0.19400534 0.17775638 -0.27250102 -0.029903037 0.2059656
0.29787782 0.19182126 0.22349726 -0.5207773 -0.27567294 -0.12824938 -0.2853056 -0.4363597
0.18607062 0.18585491 -0.1119671 0.021666551 -0.19110192 0.30329466 -0.38695097 0.15640807
-0.20328847 -0.004606654 0.27350095 0.23659445 -0.040041357 -0.23856595 0.20286317 -0.27284476
0.13853858 0.19993263 0.044116274 -0.3757526 0.113184154 0.11985757 -0.029280905 -0.10759816
0.46811992 -0.019626014 0.13310863 -0.078845575 -0.1146799 0.7562276 -0.07811019 -0.3331598
00000000: dbc8 cf3e c889 873d 68a8 f93c d0e7 893a
00000010: 6a8e ff3c b946 393e 6f93 a73e 6467 3cbe
00000020: ab82 c63c e7ae b53d ec05 13be 0c64 8f3e
00000030: 270c c13d ac2c 573e 1941 b9bc 48bb fb3f
00000040: 8885 0e3e 2bd2 76be 96a5 383e 3e79 1c3e
00000050: 67aa ae3e 6355 41be f1af 95be 5af1 093e
00000060: 0913 363d 178e 80bf e46d a2bd f37b bbbe
00000070: f10c b93d eb83 ddbc 38b2 873d f34a 10bd
00000080: f522 35be 92be 6d3e 8734 25bd 39d3 da3b
00000090: 15ef a1bd 923e 23bd eafc 40bd ee76 96be
000000a0: 9122 383d 438c 32be da8e c53e 7ceb 993e
000000b0: 8aea 0bbe e7d9 42be 5a56 d23a bb86 13bf
000000c0: b380 823d 1d31 273c 033e cc3d 1fa2 0cbe
000000d0: 0b30 003e 4a32 a43e d076 463e b473 51bd
000000e0: 7f00 923e ea1e 2e3d f8f3 2cbe db52 413c
000000f0: dee4 5fbe f3aa 303f e5c5 65be ec65 e2bd
00000100: 25c2 b43e 9ac2 863e 7aaa 8f3d 8b46 7c3e
00000110: 5eb5 be3d faa2 ba3d 3e4f 853e 0bf0 bebd
00000120: 91d6 b1bd d6c8 83be d29f 28be ff07 81be
00000130: 996c d63d 71da 0b3d 7f98 733e ae10 483f
00000140: b4eb bb3d b4e6 dd3d 3352 f63c 8d01 e53d
00000150: 4e94 19be 7598 a3bc ca8d 543c c6d6 2a3e
00000160: 2077 b33d 18be a0be 5564 fd3c 1d17 423e
00000170: 7a7b c13d 8a2d d73d 624a 3f3d ad41 9cbe
00000180: a528 773e a9cb 133d 5618 83bf 0a53 093d
00000190: 307d 0abe f1c6 edbd 91b7 e4bf 605d 1740
000001a0: 69d6 0cbe 8df4 f4be 6fd3 8fbd 8e74 b23c
000001b0: d5a1 34be b923 3e39 7138 ac3e 89cb a0bd
000001c0: d659 8e3d adcb a03e 04a4 273d 6a2a 1e3e
000001d0: 198a 423e 5eff ddbc 2ee1 a2be 780b 1b3e
000001e0: 3e1a ca3d 1717 813e a4f8 01be bd7f 143e
000001f0: b387 003e 6392 253e 355c b6be 949c ddbd
00000200: 5735 2e3e 989b a3bd 438a f53d 8af7 f0bc
00000210: 467f 4f3e 6311 2e3e fa10 263e 2bf4 a63d
00000220: b3a7 0cbe 0588 24bd 9845 d9be efc4 1abf
00000230: 6e05 13bd f212 fbbd 02aa a3bf e404 6d3f
00000240: 40a1 873e a468 cabf d215 39be b968 8bbe
00000250: fc3b 2e3c c0ab 9dbe c17a 963d ade5 5c3e
00000260: affa 123e 52f8 2fbd b279 acbe afef 8fbd
00000270: 7b9e d8bd 0b05 acbf 8d54 c0bc 32e0 ab3d
00000280: ee80 eb3c bf4e 123e 64f2 92bd 10e5 933e
00000290: 8c4e 863c 4da4 8d3e 1d6e 1ebe 2639 9abf
000002a0: 7d73 523e d83a 7abd c271 6dbd 5221 f33d
000002b0: f9d1 5a3e 3a24 6dbe 423f e3bd 8a03 863d
000002c0: 925f 483d c103 1d3e 1bd7 97be d845 ae3d
000002d0: 09c0 a1bd 6fe5 ce3b 5464 a93e f85d 283d
000002e0: 258d 8dbe e3cd 3dbe d3a8 fdbd f2b4 45be
000002f0: aad6 2d3d 198e 2cbe 1320 d0bd 55f9 1f3e
00000300: 9e39 8c3e a690 133d 6140 1b3d 3c9b f13d
00000310: bb02 873d 4474 ba3d 425c 38bf 55fd 3ebe
00000320: b8a9 37be e86c ef3e 12a5 aebd bbec 103e
00000330: 905d bfbe 50af c93e 0628 73bd 3965 243d
00000340: 8efa e9bd 2750 003d 74b3 703d 56a9 463e
00000350: c505 363e 4185 8bbe 37f7 f4bc a5e8 523e
00000360: 7183 983e cb6c 443e 77dc 643e a951 05bf
00000370: 0125 8dbe ce53 03be 9313 92be 8a6a dfbe
00000380: 4c89 3e3e c050 3e3e 024f e5bd 0d7e b13c
00000390: 39b0 43be 7049 9b3e 701e c6be 7029 203e
000003a0: da2a 50be 6af3 96bb 5108 8c3e d145 723e
000003b0: 6802 24bd a24a 74be 5dbb 4f3e 4fb2 8bbe
000003c0: 0fdd 0d3e 24bb 4c3e 44b3 343d a562 c0be
000003d0: 18cd e73d e377 f53d 82de efbc 6d5c dcbd
000003e0: 6aad ef3e bcc6 a0bc a14d 083e ca79 a1bd
000003f0: 4cdd eabd 2298 413f 3cf8 9fbd ec93 aabe

fc2.bias f4 [64]
0.11671457 -0.085683085 0.16295518 0.047686987 0.22830088 -0.019030377 -0.15411201 0.020887354
0.023863578 0.0002556514 -0.16180974 0.15389296 -0.10498764 0.3483796 0.18513274 0.01188391
-0.13191144 -0.028711803 0.17913306 0.14762148 0.19547328 0.02749423 0.08653366 -0.1520094
0.14894825 0.1637726 -0.04972631 0.1560677 0.03661288 0.09159614 0.090284236 0.2799202
0.15353109 0.054262355 -0.18213429 -0.09303284 -0.016679557 -0.0936313 -0.033495102 0.1798489
0.16474792 -0.18589823 -0.15260684 -0.12866391 0.09367769 -0.0005550927 -0.0018310907 -0.05899162
0.09622274 0.23180343 -0.1093531 0.008417511 0.101781934 -0.008442933 0.21902092 -0.15828258
-0.0037206765 0.054884672 0.20397873 0.09378418 0.2178926 -0.081088535 0.020012783 -0.17201854
00000000: 0c08 ef3d 9d7a afbd b9dd 263e 6e53 433d
00000010: b5c7 693e 98e5 9bbc 8acf 1dbe f51b ab3c
00000020: 8d7d c33c f308 8639 74b1 25be 1e96 1d3e
00000030: c303 d7bd d05e b23e 7093 3d3e bbb4 423c
00000040: cb13 07be 0435 ebbc a86e 373e 162a 173e
00000050: 262a 483e 943b e13c 8f38 b13d 5aa8 1bbe
00000060: e485 183e 01b4 273e d1ad 4bbd 36d0 1f3e
00000070: 63f7 153d c296 bb3d f1e6 b83d b351 8f3e
00000080: 4137 1d3e 3442 5e3d 6981 3abe 0088 bebd
00000090: 91a3 88bc c4c1 bfbd 2932 09bd 4f2a 383e
000000a0: aeb3 283e 1b5c 3ebe f844 1cbe 79c0 03be
000000b0: 17da bf3d a483 11ba 3501 f0ba 32a1 71bd
000000c0: 6e10 c53d e15d 6d3e 85f4 dfbd 9ae9 093c
000000d0: 0c73 d03d 3a54 0abc 0547 603e d414 22be
000000e0: 98d6 73bb c0ce 603d cddf 503e ec11 c03d
000000f0: 3d1f 5f3e bf11 a6bd d9f1 a33c a125 30be

fc3.weight f4 [128, 64]
0.07494268 0.016739935 -0.013116781 -0.14673221 0.27319446 0.12407348 0.123987876 -0.26198265
-2.0071278 -0.20493361 -2.480073 0.03860111 -0.3475827 0.15603553 0.19357836 -0.4508476
0.07724081 0.055575028 0.27291372 -0.31138417 -0.046882473 0.033298306 -1.9916499 0.17953499
-0.07603853 0.04349332 0.7694103 -0.33831152 0.04295971 -0.93980974 0.02752235 -0.034809783
-0.033867583 -0.859188 -1.3243322 0.5163758 -0.8019709 -1.0587208 0.06558757 -0.042313702
0.016465891 -0.11026974 -1.7094691 -0.56564784 -0.1378255 0.15005995 -0.023676464 -1.3235322
-0.32877 -1.0202118 -2.6786454 0.108688496 -0.16215104 -0.0032339315 0.27115962 0.026354266
0.0013291696 -0.13525154 -0.15164788 0.069153145 0.15245481 -0.43253398 -1.7951853 -0.50941163
0.019433124 0.10789725 0.09462727 0.14189771 -0.20037076 -0.065010995 0.027532935 0.16547263
0.36417472 0.25203195 1.58508 0.19493334 -0.03220659 -0.04849037 0.02124792 0.15401845
0.04347897 0.039245307 -0.22412017 0.2289184 0.01095254 0.21251045 0.0604122 0.20385684
-0.05330105 0.19285364 -0.77411216 0.3560095 0.20153852 2.3505924 -0.11012223 0.102060065
0.42671356 0.15016265 0.94728684 0.32329047 0.3681251 1.7651051 0.14540756 -0.034915186
0.24222098 0.11592785 0.81086016 0.16240959 0.103152715 0.609317 0.2136044 -0.010195091
-0.17699163 0.059198514 0.66543114 -0.33342934 -0.11805681 0.04091852 -0.15660068 0.1399529
0.16959235 0.0656758 0.11799313 0.09064668 0.2420766 0.39925644 0.5874207 -0.2087564
-0.031202585 -0.34387198 0.0032304584 0.13885134 0.50894684 0.06733719 0.08549979 -0.31768304
-1.949356 -0.65867573 -1.8774259 0.2144285 0.25798598 0.060474053 0.4962956 -0.2602622
-0.028719753 0.015530035 0.49013865 0.09153877 -0.012345993 -0.048566252 -0.6269183 -0.18913727
-0.11488221 -0.13683727 0.70268834 -0.82250476 -0.0947947 -1.3756515 -0.15326524 -0.07600077
0.07645284 -0.31311414 -1.0769216 0.08100175 -0.27372214 -1.422441 -0.2318498 -0.116877355
-0.1879574 -0.40030122 -2.6172514 -0.3642292 0.06634344 -1.2431809 0.0098451935 -0.34400037
0.1938422 -1.800567 -2.4332922 0.45324326 -0.08313772 0.00080041843 0.18248188 -0.09825004
-0.1886161 -0.13327855 -0.02526497 -0.21585119 0.13746284 -0.58033526 -1.9702245 1.5333754
-0.014215824 0.005771271 -0.0934599 0.012284141 -0.004769248 0.06492369 -0.012409367 -0.07839199
-0.010605585 0.043851666 -0.02411614 0.021626873 0.11530308 0.01817622 -0.097321995 -0.102373235
0.0071698143 0.07770845 0.0941991 0.05707384 -0.09776441 0.08709884 0.03443256 0.04584022
-0.055933293 -0.11702932 -0.11094247 0.09232702 -0.002824875 -0.108860314 0.03995166 -0.08299512
0.09196012 -0.050731137 -0.017048912 -0.001635985 -0.059791245 0.021713352 -0.004136999 -0.118907735
-0.11352906 -0.12164302 -0.11123271 0.007920274 0.046363182 -0.056373917 -0.11812499 -0.100125775
0.020281857 0.0745669 -0.012664497 0.040324613 0.016779926 0.066080585 0.023097262 0.054674752
-0.019630726 0.012739041 0.058512617 0.08913685 -0.06594132 0.043538768 0.04926538 0.026861768
00000000: 8c7b 993d 3022 893c c4e7 56bc f840 16be
00000010: 25e0 8b3e 3d1a fe3d 5bed fd3d 9722 86be
00000020: c874 00c0 1eda 51be 84b9 1ec0 331c 1e3d
00000030: 5cf6 b1be c7c7 1f3e 6839 463e 7fd5 e6be
00000040: 6e30 9e3d a4a2 633d 59bb 8b3e bf6d 9fbe
00000050: d607 40bd ce63 083d 62ee febf 05d8 373e
00000060: 17ba 9bbd 0d26 323d 13f8 443f 2b37 adbe
00000070: 85f6 2f3d 5f97 70bf 8d76 e13c b494 0ebd
00000080: bcb8 0abd bff3 5bbf b883 a9bf 3431 043f
00000090: f74d 4dbf 2a84 87bf c752 863d 2251 2dbd
000000a0: 7ae3 863c 1ad5 e1bd e2cf dabf 4cce 10bf
000000b0: 2122 0dbe 51a9 193e 25f5 c1bc 8169 a9bf
000000c0: 8b54 a8be 4d96 82bf ed6e 2bc0 1398 de3d
000000d0: ec0a 26be 5ef0 53bb 6fd5 8a3e e7e4 d73c
000000e0: 8837 ae3a 617f 0abe 9549 1bbe 2aa0 8d3d
000000f0: 1d1d 1c3e 1875 ddbe a2c8 e5bf cd68 02bf
00000100: 3732 9f3c 3cf9 dc3d f1cb c13d a24d 113e
00000110: fe2d 4dbe 7c24 85bd c08c e13c a871 293e
00000120: 1c75 ba3e 550a 813e e7e3 ca3f 9b9c 473e
00000130: 0feb 03bd d79d 46bd 1e10 ae3c 03b7 1d3e
00000140: 0117 323d b0bf 203d c27f 65be 9669 6a3e
00000150: 4872 333c 579c 593e c872 773d d9bf 503e
00000160: 3452 5abd 6d7b 453e 372c 46bf e146 b63e
00000170: 1d60 4e3e 1b70 1640 c487 e1bd de04 d13d
00000180: 337a da3e 3dc4 193e 6481 723f 5486 a53e
00000190: e57a bc3e f7ee e13f b8e5 143e 3a03 0fbd
000001a0: c708 783e 956b ed3d 8894 4f3f b34e 263e
000001b0: bb41 d33d 33fc 1b3f 1dbb 5a3e 5009 27bc
000001c0: 4b3d 35be 247a 723d b259 2a3f 40b7 aabe
000001d0: c5c7 f1bd 2e9a 273d ee5b 20be d04f 0f3e
000001e0: 9ea9 2d3e 0981 863d 62a6 f13d f7a4 b93d
000001f0: eee2 773e 576b cc3e 3461 163f 3dc4 55be
00000200: 909c ffbc fd0f b0be 19b6 533b 0c2f 0e3e
00000210: 574a 023f 15e8 893d 841a af3d 5aa7 a2be
00000220: 7f84 f9bf f99e 28bf 7e4f f0bf 2593 5b3e
00000230: bd16 843e a4b3 773d 751a fe3e 1641 85be
00000240: b045 ebbc b071 7e3c 74f3 fa3e ae78 bb3d
00000250: d946 4abc 68ed 46bd b87d 20bf 33ad 41be
00000260: 5d47 ebbd 121f 0cbe 62e3 333f ac8f 52bf
00000270: b923 c2bd 5915 b0bf 90f1 1cbe 4ba6 9bbd
00000280: 4e93 9c3d 7f50 a0be 91d8 89bf 3fe4 a53d
00000290: 4f25 8cbe 8c12 b6bf 096a 6dbe 655d efbd
000002a0: e877 40be 48f4 ccbe 0c81 27c0 407c babe
000002b0: 12df 873d 8d20 9fbf bc4d 213c d120 b0be
000002c0: 927e 463e fb78 e6bf 0fbb 1bc0 800f e83e
000002d0: 1c44 aabd 2cd3 513a 88dc 3a3e 5137 c9bd
000002e0: 9424 41be 2c7a 08be 7bf8 cebc 1808 5dbe
000002f0: 0fc3 0c3e da90 14bf 5130 fcbf a545 c43f
00000300: 7de9 68bc ee1c bd3b e767 bfbd 6c43 493c
00000310: 5a47 9cbb b6f6 843d a850 4bbc fb8b a0bd
00000320: 0cc3 2dbc ce9d 333d 368f c5bc d72a b13c
00000330: 0524 ec3d 4ce6 943c c150 c7bd 0fa9 d1bd
00000340: c3f0 ea3b 9c25 9f3d 75eb c03d 42c6 693d
00000350: b538 c8bd e060 b23d 2809 0d3d f4c2 3b3d
00000360: 4f1a 65bd 11ad efbd ce35 e3bd f315 bd3d
00000370: 8a21 39bb 28f2 debd 5aa4 233d 58f9 a9bd
00000380: 9655 bc3d 74cb 4fbd 29aa 8bbc 8c6e d6ba
00000390: aae7 74bd 33e0 b13c aa8f 87bb e685 f3bd
000003a0: ec81 e8bd fa1f f9bd facd e3bd 09c4 013c
000003b0: 52e7 3d3d 56e8 66bd 84eb f1bd be0e cdbd
000003c0: 2326 a63c 88b6 983d c07e 4fbc 6c2b 253d
000003d0: 0e76 893c 4255 873d 7836 bd3c a2f2 5f3d
000003e0: 9ed0 a0bc 69b7 503c edaa 6f3d 618d b63d
000003f0: 3e0c 87bd b555 323d 7fca 493d 360d dc3c

fc3.bias f4 [128]
0.08026612 -0.09247937 0.11028497 -0.10787543 0.07386285 0.03110269 -0.025990315 0.12716396
-0.1438938 -0.1524714 0.06176056 0.303955 -0.1277841 -0.011574953 -0.025466803 0.10456315
0.045790266 -0.052292272 0.00022024997 -0.10479145 0.038202003 0.021446755 -0.06827383 0.03134413
0.27559853 0.3597063 0.04030628 0.060021065 0.0736161 -0.025108822 0.06712048 0.007696555
0.25051552 -0.0077520646 0.3056271 0.13968316 -0.061254833 0.23811312 0.021061698 -0.017386772
0.03404109 -0.19240944 0.08251761 0.06479511 0.018621573 -0.14047618 -0.0690161 -0.025550276
0.06960888 -0.04415178 -0.08908132 0.28774643 0.28735417 0.06247861 0.015816005 0.11113027
0.027281689 -0.15480565 0.06052654 0.026338542 -0.13409422 -0.04793289 -0.0731506 0.02426825
0.08801024 0.021598777 0.10253453 0.30926016 -0.08002277 -0.073072314 0.07140564 -0.005394316
-0.035957236 -0.106779546 0.11728893 0.07358733 -0.0053440826 0.08879066 -0.09796687 -0.05987643
0.101551026 0.025974134 0.07189201 0.18197641 0.014985899 0.016550796 0.2594047 -0.0843195
-0.089894086 0.039067045 -0.14775607 -0.026355527 -0.00056514237 -0.11224998 -0.14407304 0.19641595
-0.15653145 -0.11336766 -0.06983368 -0.080889925 -0.12588726 0.017399909 0.14293188 0.016043365
-0.13132505 -0.12157596 0.1260825 -0.0925077 -0.08061841 0.011468191 -0.022290234 0.055512313
-0.11535595 0.2844394 0.07675377 0.012150383 -0.022673592 0.029323217 0.06565971 0.04166431
0.04383633 -0.08019935 0.0063814116 0.022332527 0.23525967 -0.14716195 -0.06793966 -0.11701765
00000000: 9062 a43d d365 bdbd 16dd e13d cbed dcbd
00000010: 6845 973d 12cb fe3c a4e9 d4bc 4537 023e
00000020: e558 13be 7621 1cbe a4f8 7c3d fd9f 9b3e
00000030: d6d9 02be dfa4 3dbc c29f d0bc 3425 d63d
00000040: 938e 3b3d 6c30 56bd e7f2 6639 e69c d6bd
00000050: b479 1c3d 1bb1 af3c 26d3 8bbd b462 003d
00000060: 401b 8d3e 6d2b b83e 3318 253d a6d8 753d
00000070: 0ac4 963d 04b1 cdbc 7676 893d 6233 fc3b
00000080: 9243 803e 0805 febb 287b 9c3e 1a09 0f3e
00000090: 59e6 7abd edd3 733e 9589 ac3c b46e 8ebc
000000a0: ac6e 0b3d fb06 45be fefe a83d 4cb3 843d
000000b0: 458c 983c fdd8 0fbe 5058 8dbd d04e d1bc
000000c0: 1a8f 8e3d 7fd8 34bd 4470 b6bd 8053 933e
000000d0: 1620 933e 92e9 7f3d 9190 813c 4498 e33d
000000e0: d97d df3c 5f85 1ebe adea 773d edc3 d73c
000000f0: ff4f 09be 4755 44bd fbcf 95bd 36ce c63c
00000100: b63e b43d ebef b03c a0fd d13d 5957 9e3e
00000110: fae2 a3bd f0a6 95bd 1f3d 923d cdc2 b0bb
00000120: e547 13bd 3caf dabd 2e35 f03d f4b4 963d
00000130: 6a1d afbb e1d7 b53d dba2 c8bd fd40 75bd
00000140: fcf9 cf3d b5c7 d43c 1e3c 933d 0658 3a3e
00000150: 6b87 753c 8995 873c b1d0 843e b4af acbd
00000160: 641a b8bd c404 203d 5e4d 17be 8ce7 d7bc
00000170: 1026 14ba 51e3 e5bd e287 13be 4321 493e
00000180: c849 20be 4e2d e8bd f604 8fbd 9ea9 a5bd
00000190: 97e8 00be 418a 8e3c bc5c 123e 606d 833c
000001a0: 137a 06be d1fc f8bd c51b 013e ad74 bdbd
000001b0: 441b a5bd 14e5 3b3c 029a b6bc e160 633d
000001c0: be3f ecbd 0ba2 913e 1531 9d3d 6612 473c
000001d0: f8bd b9bc 3e37 f03c 9978 863d 32a8 2a3d
000001e0: b98d 333d 8f3f a4bd 291b d13b b4f2 b63c
000001f0: e9e7 703e 9fb1 16be f323 8bbd f3a6 efbd

v.weight f4 [1, 128]
1.3071841 -0.20802712 1.2435945 0.032631844 2.122648 2.285049 0.7621219 0.91845465
2.2754369 -0.2190946 2.6443563 0.8361533 0.04226136 -0.2144658 0.022722626 -0.18888235
0.81810856 1.0798099 -0.23899186 1.9542161 -1.1009209 1.12548 0.014586426 0.8532237
0.67205405 0.99517345 1.7252624 -0.2043465 0.5961162 1.4726864 -0.17454994 2.953547
0.91049814 0.36191645 0.78477955 0.8293414 1.5945535 0.85300815 -0.209458 0.028395599
1.6200659 -0.95592606 -0.1802266 0.8706815 0.053325016 -0.17103338 -0.3650732 0.056947786
0.04329607 3.1717584 -0.2099311 0.963548 0.74911845 -0.14678258 -0.25049955 -0.16669008
-0.20928739 1.2275282 3.101765 -0.30676135 -0.1602311 0.9985169 -0.21151708 0.44784468
1.7656376 -0.09863567 1.9153004 0.822414 -0.164917 1.9801537 -0.25830257 1.0150454
-0.20097952 -0.024732517 1.204863 -0.13662261 -0.17982015 -0.1882628 -0.17357193 -0.14319721
-0.18219052 1.0307584 -0.15493508 0.9547413 -0.8883004 -0.12562326 0.9053641 -0.187133
-0.27921796 -0.17093927 1.8320299 -0.23755996 -0.19350229 -0.19445832 -0.1980203 0.85286516
-0.3128449 -0.17764531 -0.22671993 -0.18996717 -0.21029478 0.75791943 1.6253992 -2.0067239
1.4685884 -0.20516555 2.758716 2.593551 -0.18651927 -0.19576277 0.05097351 2.977758
-0.13019639 0.74881333 -0.13128161 -0.19428147 0.6827512 1.184497 1.1672459 0.02243245
1.0415341 -0.18817176 -0.21504022 2.8236334 1.013716 -0.13455068 -0.2148999 -0.13595095
00000000: cf51 a73f 1005 55be 1b2e 9f3f f8a8 053d
00000010: 77d9 0740 3e3e 1240 6c1a 433f d81f 6b3f
00000020: c2a0 1140 565a 60be 223d 2940 250e 563f
00000030: 3f1a 2d3d ec9c 5bbe cd24 ba3c 606a 41be
00000040: 906f 513f 3637 8a3f 48ba 74be c123 fa3f
00000050: faea 8cbf bb0f 903f e8fb 6e3c de6c 5a3f
00000060: bc0b 2c3f b0c3 7e3f 66d5 dc3f 3540 51be
00000070: 129b 183f fd80 bc3f 38bd 32be ea06 3d40
00000080: 6816 693f 1d4d b93e 50e7 483f b84f 543f
00000090: 541a cc3f be5e 5a3f 287c 56be e39d e83c
000000a0: 525e cf3f 92b7 74bf 528d 38be fce4 5e3f
000000b0: 556b 5a3d 6023 2fbe e0ea babe 1542 693d
000000c0: 3857 313d 17fe 4a40 2ef8 56be 15ab 763f
000000d0: 3ac6 3f3f 2c4e 16be 7a41 80be ceb0 2abe
000000e0: 6f4f 56be a51f 9d3f 5183 4640 d30f 9dbe
000000f0: 9f13 24be ce9e 7f3f ef97 58be e64b e53e
00000100: 6a00 e23f 8001 cabd 9028 f53f b989 523f
00000110: 01e0 28be ad75 fd3f 3c40 84be 02ed 813f
00000120: 93cd 4dbe d99b cabc f338 9a3f cce6 0bbe
00000130: c622 38be f7c7 40be d7bc 31be 4aa2 12be
00000140: 2790 3abe e4ef 833f 4da7 1ebe ed69 743f
00000150: a867 63bf 62a3 00be f1c5 673f cb9f 3fbe
00000160: a8f5 8ebe b40a 2fbe f57f ea3f eb42 73be
00000170: 7725 46be 1520 47be d5c5 4abe 5f55 5a3f
00000180: 352d a0be a7e8 35be 4529 68be c186 42be
00000190: 8457 57be 0207 423f 150d d03f 2a6e 00c0
000001a0: b4fa bb3f eb16 52be ce8e 3040 bdfc 2540
000001b0: e8fe 3ebe 0976 48be 99c9 503d 9693 3e40
000001c0: 3452 05be 3bb2 3f3f b06e 06be b9f1 46be
000001d0: c8c8 2e3f 999d 973f 5068 953f 42c4 b73c
000001e0: fd50 853f 19b0 40be 8133 5cbe 69b6 3440
000001f0: 72c1 813f a7c7 09be b80e 5cbe ba36 0bbe
