SAC/critic1_v1.pth (torch, 46563 bytes, 7 tensors)

fc1.weight f4 [32, 11]
0	0x3eaf30a4	0.34216797
1	0x3dfcfc05	0.123527564
2	0xbf064468	-0.5244813
3	0xbced2173	-0.028946614
4	0xbdf61431	-0.1201557
5	0xbc97f960	-0.018551528
6	0x3e277468	0.16352999
7	0xbeb074b4	-0.34464037
8	0x3e27dc44	0.16392618
9	0x3dc025ae	0.09382187
10	0x3e466fd5	0.19378598
11	0x3dcf53ab	0.1012338
12	0x3b6daea6	0.0036267429
13	0x3efd9000	0.49523926
14	0xbe8f221a	-0.27955705
15	0xbe2fdb08	-0.17173398
16	0xbdaf8c5f	-0.085716955
17	0xbf2388b3	-0.6388046
18	0x3f1dcefc	0.6164396
19	0x3eda53fd	0.42642203
20	0x3d23f0d5	0.040024597
21	0xbe15cb19	-0.14628257
22	0xbed815d0	-0.42204142
23	0xbea54dd1	-0.32285932
24	0x3c0d62ee	0.008629544
25	0xbe0716e5	-0.13192327
26	0xbdbb0599	-0.09131927
27	0x3d7a8091	0.061157767
28	0xbeb47379	-0.3524435
29	0xbf22ef98	-0.6364684
30	0x3e8b2156	0.2717387
31	0x3d1a1b46	0.037623666
32	0xbd9d2681	-0.0767336
33	0x3e05e10e	0.13074133
34	0xbdc3d6eb	-0.09562477
35	0x3dee7773	0.11643877
36	0x3e9cb116	0.30603856
37	0x3d9afc1f	0.075676195
38	0xbd8e3d0e	-0.06945239
39	0x3d485f73	0.048919152
40	0x3ecca9e7	0.39973375
41	0x3ecd6eb9	0.40123537
42	0x3d8fdc23	0.070244096
43	0x3cf2ffbd	0.029662961
44	0xbe9faf8d	-0.31188622
45	0x3e2249c1	0.15848447
46	0x3ea4304b	0.32068095
47	0xbc197853	-0.009367066
48	0xbe0aaac7	-0.13541709
49	0xbd64cf85	-0.05586197
50	0x3d16db5a	0.036830284
51	0x3f3fe460	0.7495785
52	0x3e860a37	0.26179668
53	0x3c40a26a	0.0117574725
54	0x3d9fb9b9	0.07799096
55	0xbe082d66	-0.13298568
56	0xbeb3e2d2	-0.35133988
57	0xbf0b8bfe	-0.54510486
58	0xbea86391	-0.32888463
59	0x3dad1be5	0.08452586
60	0xbe5456dd	-0.2073626
61	0x3ee824c1	0.4534054
62	0xbdba4abd	-0.090962864
63	0x3ef6239e	0.4807405
64	0xbc41e48d	-0.011834276
65	0x3c3f207f	0.0116654625
66	0xbe5a4a06	-0.213173
67	0xbecfdcc3	-0.40598115
68	0x3f1b8382	0.6074754
69	0xbe5e32a1	-0.21699001
70	0x3d090755	0.033454258
71	0x3ce352b0	0.02774939
72	0xbd97dd4e	-0.074152574
73	0xbaebf010	-0.0018000621
74	0x3e820685	0.253956
75	0x3ccc6dd3	0.024954712
76	0xbc330337	-0.010926059
77	0x3be38706	0.0069435863
78	0xbe3a42b0	-0.18189502
79	0xbeceb297	-0.40370628
80	0x3db31aa8	0.08745319
81	0x3bd0ffba	0.006378141
82	0x3bd97405	0.006636145
83	0xbf8e05c7	-1.1095513
84	0x3f36b9c2	0.71377194
85	0x3e19455d	0.14967866
86	0xbc2aa642	-0.0104156155
87	0x3d430018	0.04760751
88	0x3f0b5386	0.5442432
89	0x3e1bd3ab	0.15217464
90	0x3f649362	0.8928739
91	0x3df97bd7	0.12181824
92	0x3e21969c	0.15780109
93	0xbdde7799	-0.10862655
94	0xbea95106	-0.33069628
95	0x3eef40d4	0.46729147
96	0xbe670e96	-0.22564158
97	0xbd207dde	-0.039182536
98	0xbd79ddc8	-0.061002523
99	0xbe400920	-0.18753481
100	0x3e0ac423	0.13551383
101	0xbc25ee1c	-0.0101275705
102	0x3ce4e8b8	0.027943
103	0x3d33acfa	0.043866135
104	0x3dc5af02	0.09652521
105	0x3e0c733d	0.13715835
106	0xbed50e86	-0.41612643
107	0x3f074360	0.5283718
108	0xbd224147	-0.039613035
109	0x3daa68a4	0.0832074
110	0x3ec3719a	0.3817261
111	0x3e83292a	0.25617343
112	0x3f16ddf4	0.58932424
113	0xbe2077f2	-0.15670756
114	0xbcc600cb	-0.0241703
115	0xbd4f542e	-0.05061739
116	0x3d542e15	0.05180176
117	0xbda93a2d	-0.08263049
118	0x3e81da63	0.25361928
119	0xbcd9dc13	-0.026594197
120	0xbd9f85e6	-0.07789211
121	0xbe85f5cd	-0.26164094
122	0x3eb6ff91	0.35741857
123	0xbf0b031a	-0.5430161
124	0x3e44b16c	0.19208306
125	0xbd6cb78c	-0.05779223
126	0xbe450c58	-0.1924299
127	0x3e44caaa	0.19217935
128	0xbf763396	-0.96172464
129	0x3ea81fd7	0.32836792
130	0xbceb9d1f	-0.028761445
131	0x3af42a23	0.001862828
132	0xbe9744ae	-0.29544586
133	0x3b0f1e70	0.002183821
134	0x3f647123	0.8923513
135	0x3e4f8dd8	0.20268953
136	0x3c36531b	0.011128212
137	0x3c795efd	0.015220401
138	0x3f3aeb56	0.73015344
139	0xbf195c71	-0.5990668
140	0x3e629c6a	0.2212998
141	0x3d77b6ee	0.06047719
142	0xbcd65514	-0.026163615
143	0x3e4ff7d3	0.20309381
144	0x3d82da70	0.0638932
145	0xbf36cb41	-0.7140389
146	0x3e50fdaf	0.20409273
147	0x3be4ffd0	0.006988503
148	0x3e792e0b	0.2433397
149	0x3f0485c0	0.51766586
150	0xbea0ec98	-0.31430507
151	0x3d2b6e71	0.041853372
152	0x3d4d4b6b	0.050120752
153	0x3ce10c47	0.027471675
154	0xbd3a750c	-0.04552178
155	0x3ebee540	0.3728428
156	0x3f0ce8a0	0.5504246
157	0x3f3081e5	0.68948203
158	0x3b31e47e	0.0027144249
159	0x3aec37c1	0.0018021987
160	0xbd54bded	-0.05193894
161	0x3e790303	0.24317555
162	0xbd43196a	-0.04763166
163	0x3d8a0ecf	0.06741106
164	0x3d5f2b47	0.054484632
165	0xc0251d88	-2.5799274
166	0x3e5c7356	0.21528372
167	0xbe835ef7	-0.2565839
168	0xbc9f2bbc	-0.019430034
169	0x3a010e93	0.0004923131
170	0x3ad458e6	0.001620081
171	0x3f32470e	0.6963967
172	0xbebf7537	-0.37394115
173	0xbe08698e	-0.13321516
174	0xbc6061a1	-0.013695152
175	0x3c65be7f	0.014022469
176	0x3ed89557	0.42301437
177	0x3dad5219	0.084629245
178	0x3e468460	0.19386435
179	0xbf1dcc94	-0.61640286
180	0xbd3ec9e9	-0.046579275
181	0x3d8cc3d5	0.068732895
182	0xbe18ef32	-0.14934996
183	0x3e01970e	0.12655279
184	0x3ea35f2b	0.31908545
185	0xbc1ff441	-0.0097628245
186	0xbccdee80	-0.02513814
187	0x3dbaada9	0.09115154
188	0xbda06544	-0.07831815
189	0x3ea44561	0.32084182
190	0x3d0f34d0	0.034962475
191	0x3e3d829a	0.18506852
192	0x3deab84b	0.11460932
193	0xbe842d93	-0.2581602
194	0x3f579dad	0.8422497
195	0x3cff4747	0.031161917
196	0xbd13b0ad	-0.036057163
197	0xbd4a9dd6	-0.04946693
198	0x3e4a03f1	0.19728066
199	0x3d21ed00	0.03953266
200	0xbec84fab	-0.39123282
201	0xbf180759	-0.5938621
202	0x3e52a48a	0.20570579
203	0x3e28450a	0.16432586
204	0x3ec2fa8e	0.38081783
205	0x3e7bed9b	0.24602358
206	0x3def335c	0.11679718
207	0xbcb13910	-0.021633655
208	0x3d5f70b3	0.054550838
209	0xbe956664	-0.2917968
210	0x3d08396e	0.033257894
211	0x3f389e55	0.72116596
212	0x3f760fc2	0.96117795
213	0x3d8ec83b	0.06971785
214	0x3cbe50ec	0.023231946
215	0xbd7ad496	-0.061237894
216	0x3f1efd1b	0.6210496
217	0x3ecb5a84	0.39717495
218	0x3d17e61a	0.037084676
219	0x3c86cbf9	0.016454684
220	0xbddab76c	-0.10679516
221	0x3ddfe46a	0.109322384
222	0x3dab6854	0.083695084
223	0x3ed5d56d	0.41764393
224	0xbd18c48b	-0.037296813
225	0xbd1248d1	-0.035713974
226	0x3eec9841	0.4620991
227	0x3f0fd265	0.5618041
228	0x3ef60774	0.4805256
229	0x3ba4ba13	0.0050270646
230	0xbc6d0672	-0.014466869
231	0xbe773f64	-0.24145275
232	0x3eb16222	0.34645182
233	0x3e22d01f	0.15899704
234	0x3dcb78c3	0.09935143
235	0x3bd0b63f	0.0063693817
236	0x3ae47146	0.0017428778
237	0xbf1ddd82	-0.6166612
238	0xbe3bc08c	-0.1833517
239	0x3ed1a2c2	0.40944487
240	0x3b1b714d	0.0023718656
241	0x3d5211af	0.051286396
242	0x3e405ec1	0.18786146
243	0x3d9bffa1	0.07617117
244	0x3eee304d	0.46521226
245	0x3eeff167	0.46863863
246	0xbd19855a	-0.03748069
247	0x3eb8f792	0.3612638
248	0xbf017afc	-0.50578284
249	0x3d1b48da	0.037911274
250	0xbe60b1f3	-0.21942882
251	0x3d71851f	0.058964845
252	0xbd9bd80a	-0.076095656
253	0xbe11db1b	-0.14243738
254	0x3e090863	0.13382106
255	0xbf447097	-0.767343

fc1.bias f4 [32]
0	0x3e850297	0.25978538
1	0x3c632fed	0.013866407
2	0x3eb14e38	0.3462999
3	0x3aede356	0.0018149416
4	0xbd0a32e0	-0.033739924
5	0xbcf00ea5	-0.029303858
6	0x3f0da262	0.553259
7	0x3e06201d	0.13098188
8	0xbec5f1f9	-0.38661173
9	0x3eef861b	0.46782002
10	0xbe2f73fb	-0.17134087
11	0x3cfb03dd	0.03064149
12	0xbe81c2b8	-0.2534387
13	0x3e8ba6a2	0.27275568
14	0x3ea48321	0.32131293
15	0xbd4779a8	-0.048700005
16	0x3eb8b12e	0.36072677
17	0x3c1036b0	0.008802101
18	0xbdafdc31	-0.0858692
19	0x3f0d87dc	0.5528543
20	0x3e4c1ffc	0.19934076
21	0x3e9b76b4	0.30364
22	0xbeb49385	-0.35268798
23	0x3eaba22c	0.33522165
24	0x3d5a58b1	0.05330724
25	0xbea3c8ad	-0.3198904
26	0xbe427053	-0.18988161
27	0x3d80363d	0.06260345
28	0x3dbda06f	0.09259116
29	0x3ef28b3c	0.47371852
30	0xbe99a7b8	-0.30010772
31	0x3eb6e1e3	0.35719213

fc2.weight f4 [64, 32]
0	0x3e65a992	0.22427967
1	0x3da4c56a	0.08045466
2	0xbdb7c7ca	-0.089736536
3	0x3d12b584	0.035817638
4	0x3da513ca	0.08060415
5	0x3e3c7140	0.18402576
6	0x3e694410	0.2277987
7	0x3f01b7da	0.5067116
8	0x3e423fd0	0.18969655
9	0x3eaade19	0.33372572
10	0xbd2b8d31	-0.041882697
11	0xbe5155a1	-0.20442821
12	0x3e652401	0.22377016
13	0x3e3cc960	0.18436193
14	0xbea2c6c4	-0.3179227
15	0xbf8ca8a1	-1.0988961
16	0x3e59ae81	0.21257974
17	0x3d8a1397	0.06742018
18	0x3da3ef03	0.08004572
19	0x3ed3495e	0.41266912
20	0x3ef349aa	0.4751714
21	0x3e8807f4	0.26568568
22	0x3e37cf4b	0.1795017
23	0x3dbdcf34	0.092680365
24	0x3c93aa03	0.018025404
25	0xbea0ad5e	-0.3138227
26	0xbe5bd162	-0.21466592
27	0xbe583ec5	-0.21117695
28	0xbe23351c	-0.15938228
29	0x3e27b8ff	0.16379164
30	0xbecbcb2c	-0.39803445
31	0xbc527c48	-0.012847014
32	0xbe372731	-0.17886044
33	0x3bd6ec39	0.0065589217
34	0x3e02c00a	0.1276857
35	0xbe4796e0	-0.19491148
36	0xbd47b39d	-0.048755277
37	0xbdb020a6	-0.08599977
38	0x3dce0124	0.10058811
39	0xbeea151e	-0.45719236
40	0x3e1814a4	0.14851624
41	0xbecba5b3	-0.39774856
42	0x3e209821	0.15683033
43	0x3ce05ace	0.027387049
44	0xbe63f4d0	-0.22261357
45	0xbca75ba5	-0.020429442
46	0x3f5c7b7a	0.8612591
47	0x3fe81e7b	1.8134302
48	0x3d50835c	0.050906524
49	0x3e004dce	0.1252968
50	0x3e6017da	0.21884099
51	0xbe00fbef	-0.12596105
52	0x3cce7e5f	0.025206743
53	0xbe1570de	-0.14593837
54	0x3d53d1a7	0.051713612
55	0x3e172725	0.14761026
56	0x3e157a84	0.14597517
57	0x3ec70028	0.38867307
58	0x3ac353cc	0.0014902293
59	0xbe5c6ecb	-0.21526639
60	0x3b4cfa11	0.003127698
61	0x3df57581	0.11985303
62	0xbe9fbf6e	-0.31200737
63	0x3e986ba1	0.29769614
64	0x3d37d943	0.04488493
65	0xbe363570	-0.17793822
66	0x3e209b03	0.15684132
67	0x3e388d05	0.18022545
68	0x3d86c8cd	0.065812685
69	0x3e9da174	0.3078724
70	0x3e3e9118	0.18610036
71	0x3cdca2d9	0.02693312
72	0x3e995312	0.2994619
73	0x3e468ea0	0.19390345
74	0x3e045747	0.12923919
75	0xbdcc0f08	-0.099638045
76	0x3f01c623	0.5069296
77	0x3d8680d2	0.06567539
78	0x3e35ed72	0.1776636
79	0x3fc56341	1.5420915
80	0x3e168e9f	0.14702843
81	0xbd95608d	-0.07293806
82	0x3e241765	0.1602455
83	0x3e18a65c	0.14907211
84	0x3cf559f6	0.029950123
85	0xbdd30ec8	-0.10305554
86	0xbe81b24e	-0.25331348
87	0x3dc806ab	0.09766897
88	0x3e1e1901	0.15439226
89	0x3f2c0437	0.6719393
90	0x3e9d2c45	0.30697837
91	0x3f0e8299	0.55668026
92	0xbdf112c1	-0.11771155
93	0x3d463795	0.04839285
94	0xbec0d46d	-0.37662068
95	0x3e1fda81	0.15610696
96	0xbe223639	-0.15840997
97	0x3deb377b	0.114851914
98	0x3bd03a2d	0.0063545913
99	0xbdd302b1	-0.10303248
100	0x3ddebbb8	0.10875648
101	0x3c94e57d	0.018175835
102	0x3ea88c78	0.3291967
103	0xbed19f43	-0.4094182
104	0xbe3e1f86	-0.18566713
105	0x3dcfdfd6	0.10150115
106	0xba586d21	-0.00082560076
107	0x3d21d7ff	0.03951263
108	0x3e4821b9	0.19544114
109	0xbe67a7f8	-0.22622669
110	0x3e700523	0.2343946
111	0xbe5d60b8	-0.21618927
112	0x3e6e761f	0.23287247
113	0x3e222458	0.15834177
114	0x3e3e2631	0.18569256
115	0x3d9ff980	0.0781126
116	0x3e9f55b3	0.3112007
117	0x3df6fef1	0.12060345
118	0xbe345f78	-0.17614543
119	0x3e570d61	0.21001197
120	0x3e1b4ab3	0.15165214
121	0xbedd3950	-0.43207788
122	0xbd48041a	-0.048832037
123	0xbe93c15e	-0.28858465
124	0x3e3d7fd5	0.18505795
125	0x3e312cd2	0.17302254
126	0xba9dfcec	-0.0012053526
127	0xbd4fe9ed	-0.0507602
128	0xbdba7652	-0.09104599
129	0xbdf71b2f	-0.12065732
130	0x3dfe63bd	0.12421367
131	0x3d0b5f95	0.0340267
132	0x3d1323d3	0.035922837
133	0x3e99e1fd	0.30055228
134	0x3e85397f	0.2602043
135	0x3db9d6b2	0.09074153
136	0xbe2f0cba	-0.17094699
137	0xbe0d0741	-0.13772298
138	0xbe524bad	-0.2053668
139	0xbd9bc679	-0.07606215
140	0x3d99fadc	0.07518551
141	0xbc803cfb	-0.015654078
142	0xbf2983ad	-0.66216546
143	0x3f364936	0.7120546
144	0x3e55897d	0.20853229
145	0xbdb57b07	-0.08861356
146	0xbc6fdf12	-0.014640586
147	0xbf87717e	-1.058151
148	0xbe5f6d39	-0.21819009
149	0xbee85eae	-0.45384735
150	0xbddb5d11	-0.107111104
151	0x3be1ae10	0.006887205
152	0x3eaad240	0.33363533
153	0x3f06bd51	0.52632624
154	0xbdfa5cfc	-0.122247666
155	0x3e1b741a	0.15181008
156	0x3d7cb8b3	0.06169958
157	0xbea5b829	-0.32367066
158	0xbe8e737e	-0.2782249
159	0xbeaa71d1	-0.3328996
160	0x3e57e562	0.21083596
161	0x3e805ea8	0.25072217
162	0x3e83986f	0.25702235
163	0x3dd41eaf	0.10357415
164	0xbe4bd22b	-0.19904391
165	0x3e732203	0.23743443
166	0xbdc7f499	-0.0976345
167	0x3f81268b	1.0089887
168	0x3e4916cc	0.19637603
169	0xbe44b9c4	-0.19211489
170	0xbc22b561	-0.009930939
171	0xbe49df1a	-0.19714013
172	0xbee035c9	-0.43791035
173	0x3d05d3b8	0.032672614
174	0xbdc22cb7	-0.09481185
175	0x3fb9545a	1.4478867
176	0x3e8c1126	0.27356833
177	0x3db20daa	0.086940125
178	0x3e4918e9	0.19638409
179	0xbd98edbd	-0.0746722
180	0xbe1c037b	-0.15235703
181	0xbde928bd	-0.11384723
182	0xbce2282f	-0.027607052
183	0xbdd9db3a	-0.10637517
184	0x3e362388	0.17786992
185	0x3ec78cff	0.3897476
186	0x3eb1abe5	0.34701458
187	0x3d490f52	0.049086876
188	0xbe946fbc	-0.28991497
189	0xbd549d9d	-0.051908124
190	0xbdee1ef7	-0.11627
191	0x3e809862	0.2511626
192	0xbe6b5d0b	-0.22984712
193	0x3e381544	0.17976862
194	0xbe2655b5	-0.16243632
195	0xbd776df0	-0.06040758
196	0x3e90670c	0.2820362
197	0x3dde8b65	0.10866431
198	0xbd72ee4e	-0.059309296
199	0x39cf5726	0.00039547047
200	0xbe894605	-0.26811233
201	0x3e948c76	0.29013413
202	0xbc26f9ea	-0.01019142
203	0x3ce79710	0.028270274
204	0x3cde2339	0.027116405
205	0x3ca61b6f	0.020276753
206	0x3e294d59	0.16533412
207	0xbeafa1f5	-0.3430325
208	0x3c6d6bf4	0.01449107
209	0xbdb69123	-0.089144014
210	0x3d797b72	0.060908742
211	0x3de23780	0.11045742
212	0x3e46ca9d	0.19413228
213	0xbe14b56f	-0.14522336
214	0xbe29ee32	-0.1659477
215	0x3e481895	0.19540627
216	0x3e99aec5	0.3001615
217	0xbe55e84d	-0.20889397
218	0x3deaa487	0.11457162
219	0xbec33e83	-0.3813363
220	0xbbb12cf7	-0.0054069716
221	0xbe54ae6e	-0.20769665
222	0xbd4a42ea	-0.04938022
223	0xbdbd09b2	-0.09230365
224	0x3e028739	0.12746896
225	0x3e02f8b1	0.1279018
226	0x3d570236	0.052492343
227	0x3d907a58	0.07054585
228	0x3e389605	0.18025978
229	0xbd485048	-0.048904687
230	0x3c982fea	0.018577535
231	0x3cf41624	0.029795714
232	0xbd3eaae3	-0.04654969
233	0x3e837b0e	0.2567982
234	0x3da6723d	0.08127258
235	0x3e80debc	0.25169933
236	0x3d03d17c	0.0321822
237	0xbe36d1ec	-0.17853516
238	0x3e6c41fd	0.23072048
239	0x3f2448b7	0.64173454
240	0x3e54c5c3	0.20778565
241	0xbdd8aa92	-0.10579409
242	0x3dcf10cc	0.101106256
243	0xbe0cd533	-0.13753204
244	0x3e75e754	0.24014026
245	0x3ddde9ce	0.1083561
246	0xbe289088	-0.16461384
247	0xbc8545a5	-0.01626856
248	0x3df8f88a	0.1215678
249	0x3ec3782e	0.38177627
250	0x3e9ea7ab	0.30987296
251	0x3e9beba5	0.3045322
252	0x3d63f291	0.05565125
253	0x3e1ae9d4	0.15128261
254	0x3c95787c	0.018245928
255	0xbe2bc072	-0.16772631

fc2.bias f4 [64]
0	0x3e9ad638	0.3024156
1	0xbe6abf93	-0.22924642
2	0x3ec0ccdb	0.37656292
3	0x3ec9ea3d	0.39436522
4	0x3e046658	0.12929666
5	0xbd317d05	-0.04333212
6	0x3de65bc9	0.112479754
7	0x3ea7e661	0.32792953
8	0xbc9b9637	-0.018992526
9	0x3e5013a5	0.20319994
10	0xbd09894d	-0.033578206
11	0x3e552313	0.20814161
12	0xbbce943e	-0.006304293
13	0x3ead57d8	0.33856082
14	0x3e0323a4	0.12806565
15	0x3da852fb	0.08218952
16	0x3d15ff39	0.036620352
17	0x3d6a6c60	0.05723226
18	0x3e9d31fc	0.30702198
19	0x3dcbe2d2	0.09955372
20	0x3e2e9b07	0.17051326
21	0x3e544085	0.20727737
22	0x3ea33625	0.31877246
23	0x3dbc2a64	0.09187773
24	0x3eea81b2	0.45802075
25	0x3e85d8af	0.2614188
26	0xbe1677ec	-0.14694184
27	0x3ec89552	0.39176422
28	0x3ea9a809	0.33136013
29	0x3e8d2550	0.2756753
30	0x3e8213e5	0.25405803
31	0x3e8f6e2c	0.28013742
32	0x3ea3502e	0.3189711
33	0x3e8dcde3	0.27696142
34	0x3cf918d8	0.030407354
35	0xbb901e63	-0.0043981536
36	0x3ced5811	0.028972657
37	0x3d95cb43	0.0731416
38	0x3e0a9fc3	0.13537507
39	0x3ecec389	0.40383556
40	0x3edb1e99	0.42796782
41	0x3da4fdfc	0.08056256
42	0x3cf9126f	0.030404298
43	0xbe148813	-0.14505033
44	0x3db630ed	0.088960506
45	0x3e3108e8	0.17288554
46	0x3e92053d	0.28519621
47	0x3e8638b3	0.26215133
48	0x3e18b36b	0.14912193
49	0x3c704a8e	0.014666213
50	0xbe1b264f	-0.15151332
51	0xbb8d8e71	-0.004319959
52	0x3eb69139	0.3565767
53	0x3e8509bc	0.2598399
54	0xbd844975	-0.06459323
55	0x3ddaf156	0.106905624
56	0x3e43d30d	0.19123478
57	0x3dca195b	0.098681174
58	0x3e9e5182	0.3092156
59	0x3eb50d87	0.35361883
60	0x3d9c9254	0.076450974
61	0x3dae9d67	0.08526116
62	0xbdc61bda	-0.09673281
63	0xbdbe3647	-0.09287696

fc3.weight f4 [128, 64]
0	0x3be69d17	0.0070377695
1	0x3e8bc009	0.2729495
2	0x3d3af4c9	0.0456436
3	0xbe011eea	-0.12609449
4	0x3f1c2f0c	0.6100929
5	0x3e2dba47	0.1696559
6	0x3deb28fd	0.11482427
7	0xbdde7fbd	-0.10864208
8	0xbfce0581	-1.609543
9	0x3d4d312a	0.050095715
10	0xbea09b76	-0.31368607
11	0x3e9b7bd1	0.30367902
12	0x3d7de84b	0.06198911
13	0x3e2250fe	0.15851209
14	0xbc9f2826	-0.019428324
15	0xbdf440ce	-0.11926423
16	0x3e729495	0.23689492
17	0xbf15bcf0	-0.5849142
18	0xbd2a66bd	-0.041601885
19	0x3c97c334	0.018525697
20	0x3d0438f1	0.032280866
21	0x3d908dc6	0.07058291
22	0xbda6e40f	-0.081489675
23	0x3e6e4092	0.23266819
24	0xbe435f76	-0.19079384
25	0x3e40a941	0.18814565
26	0x3e94308c	0.28943288
27	0xbf4063c5	-0.75152236
28	0x3dcb2194	0.09918514
29	0x3e3ffa50	0.1874783
30	0x3f260617	0.6485304
31	0x3cc461e1	0.023972454
32	0x3ec26cd8	0.37973666
33	0xbe18a40d	-0.1490633
34	0x3e5416d3	0.20711832
35	0x3e36a652	0.17836884
36	0xbe7be7f0	-0.24600196
37	0x3e96a53c	0.2942294
38	0x3e4f8882	0.20266917
39	0x3e9583dd	0.29202166
40	0xbd86148f	-0.0654689
41	0xbc6b4fba	-0.01436227
42	0xbe655c33	-0.22398452
43	0x3e4e7b18	0.20164144
44	0x3e2d4507	0.16920863
45	0x3e99c7ca	0.3003524
46	0xbdcb6ee6	-0.099332616
47	0xbebb0608	-0.3652804
48	0xbe443eae	-0.19164535
49	0x3f80d67e	1.0065458
50	0x3d4c21e4	0.049837008
51	0x3e7d1878	0.24716365
52	0xbeb1f903	-0.34760293
53	0xbd970c4c	-0.07375392
54	0x3f534890	0.82532597
55	0x3e00b87a	0.12570372
56	0x3e90b0c4	0.2825986
57	0x3e893838	0.26800704
58	0xbc8db262	-0.017296974
59	0xbcdbd6e4	-0.026835866
60	0xbd0b0b4f	-0.03394633
61	0xbd1bf3cd	-0.038074303
62	0x3ddec4e9	0.108774014
63	0x3e837dae	0.25681823
64	0x3c249793	0.010045904
65	0x3d65277b	0.055945855
66	0x3e12c768	0.1433388
67	0x3e801fd2	0.25024277
68	0xbf1b9402	-0.60772717
69	0x3dd6088b	0.10450848
70	0x3da3a243	0.07989933
71	0x3e36d808	0.17855847
72	0x3eee1933	0.465036
73	0x3e4fc9e4	0.20291859
74	0xbde2601f	-0.1105349
75	0x3e40fda5	0.18846758
76	0x3d5f75ae	0.054555587
77	0x3d9fd834	0.07804909
78	0x3e4fad80	0.20281029
79	0xbc3c7671	-0.011502848
80	0x3dedfac3	0.116200946
81	0x3daf7838	0.08567852
82	0x3c48f846	0.012266224
83	0x3d1e327c	0.038622364
84	0x3d6f9856	0.05849489
85	0x3e4e6619	0.20156135
86	0x3e915006	0.28381366
87	0x3e726e86	0.23674974
88	0x3d428465	0.047489543
89	0x3e005a38	0.12534416
90	0xbe4cb220	-0.19989824
91	0x3ec62b33	0.38704833
92	0x3e487e0b	0.19579332
93	0x3f72d193	0.94851035
94	0x3e2f6da5	0.1713167
95	0x3e423885	0.18966873
96	0x3ebdaa0d	0.370438
97	0x3e1c0822	0.15237477
98	0xbd15bb74	-0.036555722
99	0x3e74a171	0.2388971
100	0x3ee11a1e	0.43965238
101	0x3f41bcf8	0.7567897
102	0x3e12c8de	0.14334437
103	0x3e35c7ab	0.17751949
104	0x3e89d6cc	0.2692169
105	0x3de5db2d	0.11223445
106	0x3eb86072	0.36011082
107	0xbe344a06	-0.17606363
108	0x3ed5c977	0.41755268
109	0xbe9610ae	-0.293096
110	0x3e839dd4	0.2570635
111	0xbd1c6426	-0.038181446
112	0xbd6343bd	-0.055484522
113	0xbf55b80f	-0.83483976
114	0x3db2a09a	0.087220386
115	0xbcd9e461	-0.026598157
116	0x3c72b372	0.014813291
117	0x3ccc1347	0.024911536
118	0xbf3bb5b2	-0.7332412
119	0x3e1c6b42	0.1527529
120	0x3e80b364	0.25136864
121	0xbe32f24c	-0.17475241
122	0x3e22d452	0.15901306
123	0x3e09f7a5	0.13473375
124	0xbd637384	-0.055530086
125	0x3e0e05de	0.13869426
126	0x3dbfcf74	0.093657404
127	0xbe82c171	-0.2553821
128	0x3cd83ed1	0.02639714
129	0x3eb529fa	0.35383588
130	0x3e0926ab	0.13393657
131	0x3d4fd39c	0.050738916
132	0x3f136f89	0.57592064
133	0x3e261153	0.16217546
134	0x3dccc158	0.09997815
135	0x3d236332	0.039889522
136	0xbf06e752	-0.52696717
137	0xbe405122	-0.1878095
138	0x3ef1334e	0.47109455
139	0xbeafadf5	-0.34312406
140	0x3e0d355b	0.13789885
141	0x3bc5dfd0	0.0060386434
142	0xbdbf9b2e	-0.0935577
143	0xbdebb35b	-0.11508819
144	0xbd85e1db	-0.06537219
145	0xbdc56186	-0.09637742
146	0xbd03924c	-0.03212194
147	0x3cc6069a	0.02417307
148	0x3d438f54	0.04774411
149	0x3d85f10e	0.06540118
150	0xbd873654	-0.06602159
151	0x3cd347c6	0.02579106
152	0x3d001e74	0.031279042
153	0xbe4caa84	-0.19986922
154	0x3d8e66b8	0.06953186
155	0xbdb34f22	-0.08755328
156	0x3d7c09af	0.061532672
157	0xbfec0cb9	-1.8441383
158	0xbf35967e	-0.7093276
159	0x3c6bae15	0.014384766
160	0xbe92ebb8	-0.28695464
161	0x3b1e8056	0.002418538
162	0xbd2dc867	-0.042427447
163	0xbdb34e1a	-0.08755131
164	0xbec4ef42	-0.3846379
165	0xbebf0cb7	-0.37314388
166	0xbd2cc4b0	-0.042179763
167	0xbe05ee8c	-0.1307928
168	0xbdcd8cfd	-0.10036657
169	0xbd52b90b	-0.051446002
170	0xbf18733d	-0.5955084
171	0x3ed05579	0.4069021
172	0x3c6d22a2	0.014473589
173	0x3eaa4490	0.33255434
174	0x3dc17087	0.09445291
175	0x3e3ba70a	0.18325439
176	0x3ec083d7	0.37600586
177	0x3f7158c7	0.9427609
178	0xbdfb0544	-0.12256864
179	0x3e7ecb0d	0.24882145
180	0x3e0b329a	0.13593522
181	0xbc0e8afd	-0.00870013
182	0x3f8088d7	1.004176
183	0x3db44905	0.0880299
184	0xbbc92e10	-0.0061395243
185	0x3e956cec	0.29184663
186	0x3d64bb84	0.05584289
187	0xbd8665df	-0.06562399
188	0x3ea533b9	0.32266024
189	0xbe084a3b	-0.13309567
190	0xbd70f7e3	-0.058830153
191	0x3e1610af	0.14654802
192	0xbc7c27a8	-0.015390314
193	0x3c450f65	0.012027596
194	0xbdbe0d87	-0.09279924
195	0x3c8a2540	0.016863465
196	0xbb631115	-0.0034647633
197	0x3d8447ce	0.06459008
198	0xbc1a4d20	-0.009417802
199	0xbda12b51	-0.0786959
200	0xbc2321ef	-0.009956821
201	0x3d19eb16	0.03757771
202	0xbcae2bd1	-0.021261128
203	0x3cfd6c65	0.030935476
204	0x3de4945b	0.11161109
205	0x3c99d1cb	0.018776795
206	0xbdca6232	-0.098820105
207	0xbdd1bb22	-0.10240771
208	0x3bc57c4d	0.0060267807
209	0x3d8f7f8e	0.07006751
210	0x3db807e6	0.089858815
211	0x3d7eb97f	0.06218862
212	0xbdc59f76	-0.096495554
213	0x3daeaf86	0.08529572
214	0x3cfd9d49	0.030958788
215	0x3d3ed747	0.046592023
216	0xbd70ac1b	-0.058757883
217	0xbde1bd93	-0.110224865
218	0xbde335ce	-0.11094247
219	0x3dbbfe2b	0.09179338
220	0xbc0efb1b	-0.00872686
221	0xbde7ea4b	-0.11323985
222	0x3d3c9480	0.046040058
223	0xbda2857c	-0.079356164
224	0x3db8a76b	0.090163074
225	0xbd4cffdb	-0.05004869
226	0xbc95732b	-0.018243393
227	0xbb264249	-0.00253691
228	0xbd826a8b	-0.06367978
229	0x3c95aa2f	0.018269626
230	0xbbb088af	-0.0053873877
231	0xbdfa3f8b	-0.12219151
232	0xbded080e	-0.11573802
233	0xbe0487ef	-0.1294248
234	0xbde0a088	-0.10968119
235	0x3c0274e5	0.00796244
236	0x3d4b660d	0.04965787
237	0xbd6f6c34	-0.0584528
238	0xbde6de18	-0.1127283
239	0xbdd1090f	-0.10206806
240	0x3ceba896	0.028766911
241	0x3da08df1	0.07839573
242	0xbc444060	-0.011978239
243	0x3d252b6c	0.040324613
244	0x3c1f77c7	0.009733147
245	0x3d81cd86	0.063380286
246	0x3cbd3678	0.023097262
247	0x3d4d0b55	0.050059635
248	0xbc8fdb98	-0.017560765
249	0x3c845d60	0.016157806
250	0x3d844c0c	0.06459817
251	0x3db457a1	0.088057764
252	0xbd75432e	-0.05987852
253	0x3d3fece2	0.04685677
254	0x3d611574	0.0549521
255	0x3cda02a5	0.02661259

fc3.bias f4 [128]
0	0xbc6a7bfc	-0.014311787
1	0x3e2aab26	0.1666685
2	0x3de2c57b	0.11072823
3	0xbdd1b662	-0.10239865
4	0x3aef5dc5	0.0018262198
5	0xbd45391f	-0.048150178
6	0x3ba0a674	0.0049026553
7	0xbcc0bc60	-0.023527324
8	0xbe078e6a	-0.1323792
9	0x3dc4f7ba	0.096175626
10	0xbc3180a4	-0.010833893
11	0xbd68ca05	-0.056833286
12	0x3d20f9be	0.039300673
13	0x3e80a927	0.25129053
14	0xbc0a5b60	-0.008444637
15	0x3ebb79dd	0.36616412
16	0xbdcc46e5	-0.099744596
17	0xbd087d7d	-0.0333228
18	0x3e7f9560	0.24959326
19	0xbd9ecf1a	-0.07754345
20	0x3dd8a43b	0.105781995
21	0xbd853b4d	-0.06505451
22	0xbd8f607f	-0.07000827
23	0x3cb06da1	0.02153665
24	0x3da92afd	0.082601525
25	0x3dbaced4	0.091214806
26	0x3e01440d	0.12623616
27	0x3e9dffa6	0.30859107
28	0xbde73450	-0.11289275
29	0xbe0257f5	-0.12728865
30	0x3ea4ec82	0.3221169
31	0x3d0c5d82	0.034268863
32	0xbbf659e0	-0.007518038
33	0xbdb3543e	-0.08756302
34	0x3d9e93e8	0.07743055
35	0xbe4343be	-0.1906881
36	0xbdd0c9c6	-0.10194735
37	0xbe28dcbf	-0.16490458
38	0x3e8ad812	0.27117974
39	0xbc7d628e	-0.015465392
40	0xbd82e4b9	-0.06391282
41	0x3e219c88	0.15782368
42	0x3eb22b1c	0.34798515
43	0xbd84a6c2	-0.06477119
44	0x3dd7a2bd	0.10529087
45	0x3de054ce	0.10953675
46	0x3e8a34b6	0.2699334
47	0xbd001711	-0.031271998
48	0x3dbd2df9	0.09237284
49	0xbc9fe75f	-0.019519506
50	0x3e226680	0.15859413
51	0x3e07a44d	0.1324627
52	0x3d68c52d	0.056828666
53	0x3ea3b284	0.31972134
54	0x3e86fcc3	0.26364717
55	0x3ebe6016	0.37182683
56	0x3e9e5924	0.30927384
57	0xbd86db93	-0.06584849
58	0xbd452089	-0.04812673
59	0x3c850e8c	0.016242288
60	0x3e05740d	0.13032551
61	0xbdb3b22a	-0.087742165
62	0x3e4429e2	0.19156602
63	0x3d7bc07a	0.061462857
64	0x3e10bdbc	0.14134878
65	0x3e95fe8a	0.2929576
66	0x3cedc17b	0.029022923
67	0x3d1610c3	0.03663708
68	0x3e3e9f4a	0.18615451
69	0xbe0a79ce	-0.13523027
70	0x3eaf7acf	0.34273383
71	0xbdf755b7	-0.12076896
72	0x3e5a4331	0.21314694
73	0x3d92b0cd	0.07162628
74	0xbca84f2a	-0.02054556
75	0x3eacb202	0.3372956
76	0x3e81a91c	0.25324333
77	0x3eb6aa29	0.35676697
78	0x3e21238b	0.15736215
79	0x3e521bea	0.20518461
80	0x3ebcb923	0.36859998
81	0xbd02563b	-0.031820517
82	0x3eb3223d	0.3498706
83	0xbd5db7d7	-0.0541304
84	0x3eabbc43	0.3354207
85	0x3e9c182b	0.3048719
86	0x3d38cb36	0.045115672
87	0x3e307d45	0.17235287
88	0x3e2c0dfc	0.1680221
89	0x3e9a8996	0.30183095
90	0xbe07e946	-0.1327258
91	0xbccdfee0	-0.025145948
92	0x3e82f529	0.25577667
93	0x3e0e70bc	0.13910192
94	0x3e167ca5	0.14695986
95	0xba2ae019	-0.00065183785
96	0xbda026f8	-0.07819933
97	0x3e1076a3	0.14107756
98	0x3e4db642	0.20089057
99	0x3e3c6ff4	0.18402082
100	0x3df4a479	0.11945433
101	0xbc778afd	-0.015108821
102	0x3daf41d9	0.08557481
103	0x3c4d7b7e	0.01254165
104	0xbdbad676	-0.091229364
105	0x3e0511a1	0.12995006
106	0xbcf11cfc	-0.029432766
107	0xbd6b9cfc	-0.05752276
108	0x3e4f1d98	0.20226133
109	0x3e8bf8e7	0.27338335
110	0xbd2fe33c	-0.042941317
111	0x3d8260b5	0.06366102
112	0x3e2de1a4	0.16980606
113	0x3d6cfabe	0.057856314
114	0x3eaf6096	0.34253377
115	0x3e88360f	0.26603743
116	0xbe16a371	-0.14710785
117	0xbdb17eae	-0.0866674
118	0x3c7a7b5e	0.015288202
119	0x3d3b088c	0.045662448
120	0xbe1a457f	-0.15065573
121	0x3e232aa6	0.15934238
122	0x3e8480b4	0.25879443
123	0xbd018901	-0.031624798
124	0x3cd99b3a	0.026563276
125	0x3dfcd29a	0.123448566
126	0x3e3bba5f	0.18332814
127	0x3e1285b3	0.14308815

v.weight f4 [1, 128]
0	0x3f771028	0.9650903
1	0xbe77bbe9	-0.24192776
2	0x3f20e405	0.6284793
3	0x3d2bf821	0.04198468
4	0x3eebcd59	0.46055105
5	0x3eb7a641	0.3586903
6	0x3ca228f7	0.019794924
7	0x3d05d0bb	0.032669764
8	0x3f306e6c	0.6891849
9	0xbe8bc514	-0.27298796
10	0x3d6bd47d	0.05757569
11	0x3fbe7c06	1.4881599
12	0x400e3c44	2.2224283
13	0xbe857791	-0.26067784
14	0x3d0cdcbe	0.034390204
15	0xbe59a6aa	-0.21254984
16	0x3fa6e6bc	1.3039165
17	0x3c0daa89	0.008646616
18	0xbe840dab	-0.25791678
19	0x3ed61c59	0.41818503
20	0x3feffbc4	1.8748708
21	0x3f4fd3fb	0.8118283
22	0x3c59dd4d	0.013297391
23	0x3f1d863d	0.61532956
24	0x3fb972cf	1.4488162
25	0x3e85af39	0.26110247
26	0x3ffe2043	1.9853595
27	0xbe7fa7c1	-0.24966337
28	0x3ede07de	0.43365377
29	0x3ef896b1	0.48552468
30	0xbe83682f	-0.25665423
31	0x3fda38bd	1.7048565
32	0x3f659311	0.8967753
33	0x3d7651cb	0.060136598
34	0x3f0fc7a3	0.56163996
35	0x3f85262e	1.0402277
36	0x3d7c2016	0.061554037
37	0x3f879fa9	1.05956
38	0xbe76c0d3	-0.24096994
39	0x3cdac936	0.026707273
40	0x3f065e81	0.5248795
41	0xbe935f9c	-0.28783882
42	0xbe933f66	-0.28759307
43	0x3f6d8fc7	0.9279751
44	0x3f56e39d	0.8394106
45	0xbe59340e	-0.21211264
46	0xbeeec667	-0.46635744
47	0x3d5448ab	0.051827114
48	0x3ee4355e	0.44571966
49	0x3c832113	0.016006982
50	0xbe86402b	-0.2622083
51	0x3efe7f99	0.49706724
52	0x3fdf1f2a	1.7431386
53	0xbe4a530b	-0.19758241
54	0xbea2dc97	-0.31808922
55	0xbe534104	-0.2063027
56	0xbe92e03d	-0.28686705
57	0x3f6a008a	0.9140707
58	0x40052ff1	2.081051
59	0xbd8fdbf1	-0.07024372
60	0xbe7b3474	-0.24531728
61	0x3fbd5d3d	1.4794079
62	0xbe84eb35	-0.259607
63	0x3ee149e6	0.44001693
64	0x3fa429aa	1.2825215
65	0xbe65dc1c	-0.22447246
66	0x3fe163ae	1.7608545
67	0x3f1470fb	0.57984895
68	0xbe6938da	-0.22775593
69	0x3fe3a9e7	1.7786225
70	0xbea8c349	-0.3296149
71	0x3ef0f6f2	0.47063404
72	0xbe898d47	-0.268656
73	0xbfd2deb8	-1.6474218
74	0x3fbcab2c	1.4739738
75	0xbe3cd00a	-0.18438736
76	0xbe74ee1a	-0.23918954
77	0xbe8e46e3	-0.27788457
78	0xbe7445bf	-0.23854731
79	0xbe4fa9b1	-0.20279576
80	0xbe7d008a	-0.24707237
81	0x3f34b1b5	0.7058366
82	0xbe68514f	-0.22687267
83	0x3f225b1a	0.6342026
84	0xbe5d8e21	-0.21636249
85	0xbe5e58ff	-0.21713637
86	0x3d56cb39	0.052439902
87	0xbe89f3c5	-0.26943794
88	0xbe97dcfa	-0.2966078
89	0xbe5e713e	-0.21722886
90	0x3edbc3f5	0.4292294
91	0xbda75012	-0.08169569
92	0xbe8898a5	-0.2667896
93	0xbe4b0c37	-0.19828878
94	0xbe99731a	-0.29970628
95	0x3d8ba9ea	0.06819518
96	0xbd84ba53	-0.06480851
97	0xbe5fe8e5	-0.21866186
98	0xbe9f09f2	-0.31062275
99	0xbe5c57a4	-0.21517807
100	0xbea2335a	-0.31679803
101	0x3f138de7	0.576384
102	0x3f98b161	1.1929132
103	0xbc87bf81	-0.016570808
104	0x3d99fccd	0.07518921
105	0xbe6d54d8	-0.23176897
106	0x3ecd165f	0.4005613
107	0x3f26367d	0.6492689
108	0xbe950ffe	-0.29113764
109	0xbea28370	-0.31740904
110	0x3fbb4b0d	1.4632279
111	0x3d542501	0.051793102
112	0xbe5b4cad	-0.21415968
113	0x3ec05219	0.37562636
114	0xbe4f7ca8	-0.20262396
115	0xbe759f20	-0.23986483
116	0x3e937c3a	0.28805715
117	0x3fb1e3f1	1.3897687
118	0x3ea3934e	0.31948322
119	0x3ccf4f60	0.025306404
120	0x3f1d745d	0.6150568
121	0xbeb7efad	-0.35925046
122	0xbe9e02c2	-0.3086148
123	0x3ee179b6	0.4403817
124	0x3ecd5928	0.40107083
125	0xbe5e0bac	-0.2168414
126	0xbe848d16	-0.2588889
127	0xbe538659	-0.20656718
