SAC/critic2_v2.pth (torch, 46095 bytes, 7 tensors)

fc1.weight f4 [32, 11]
0	0xbceed556	-0.02915446
1	0x3e985573	0.29752693
2	0x3f372c86	0.7155231
3	0x3ef1f91f	0.47260377
4	0x3d508baf	0.050914463
5	0x3dc744ae	0.097298965
6	0xbeda3c99	-0.42624357
7	0xbd6bd4cc	-0.057575986
8	0xbdbb009e	-0.09130977
9	0x3da6df92	0.081481114
10	0xbb1fab37	-0.0024363527
11	0xbe4011c5	-0.18756779
12	0x3e810154	0.25196326
13	0xbc6966da	-0.014245713
14	0x3e0e834d	0.13917275
15	0xbd171333	-0.036883544
16	0xbdb96979	-0.090533204
17	0x3e3f6963	0.18692546
18	0x3ea73394	0.32656538
19	0x3ef50f82	0.47863394
20	0xbd3bc79f	-0.04584467
21	0x3d64d00b	0.055862468
22	0x3ecf2cfc	0.40464008
23	0x3e95f978	0.29291892
24	0x3e7b2cb7	0.24528776
25	0x3d3df4a9	0.046375904
26	0xbdb756fd	-0.089521386
27	0xbe279a12	-0.16367367
28	0xbe163366	-0.14668044
29	0xbee5e80c	-0.449036
30	0xbe293fcd	-0.16528244
31	0xbd59cd82	-0.053174503
32	0xbd58a71d	-0.052893747
33	0xbe362442	-0.17787269
34	0x3d975972	0.07390107
35	0xbe08ab23	-0.13346533
36	0x3c46c35e	0.01213154
37	0xbc80955c	-0.01569622
38	0xbd97c804	-0.07411197
39	0xbdee9508	-0.11649519
40	0x3eae6e0d	0.34068337
41	0x3ed8eb05	0.42366806
42	0xbbc1d999	-0.0059158322
43	0xbd3a6452	-0.04550583
44	0xbee7216f	-0.45142695
45	0xbb8841e9	-0.0041582477
46	0x3e31b904	0.17355734
47	0x3db41ddf	0.0879476
48	0xbc2aa905	-0.010416274
49	0xbdd62607	-0.10456472
50	0x3ed459a1	0.4147463
51	0xbf40f66f	-0.7537603
52	0x3e113626	0.14180812
53	0x3c79339e	0.01521006
54	0xbc840239	-0.016114341
55	0x3f17a4cf	0.5923585
56	0x3d333b55	0.043757755
57	0x3ec67cc6	0.3876707
58	0xbe3ab27b	-0.18232147
59	0x3dc4ca52	0.09608902
60	0x3d93cd51	0.07216895
61	0x3e86599a	0.26240236
62	0xbdbf9851	-0.09355224
63	0xbeb50008	-0.35351586
64	0x3d83046d	0.063973285
65	0xbd468e46	-0.048475526
66	0xbedd1534	-0.4318024
67	0xbeba2de5	-0.3636314
68	0x3ef9d9fd	0.48799124
69	0x3b8d2e45	0.0043084943
70	0x3d60f6a9	0.054922733
71	0x3d8a5eba	0.06756349
72	0xbe65dc23	-0.22447257
73	0x3d0168e8	0.031594187
74	0x3f08cc25	0.534365
75	0x3cb5d565	0.022196481
76	0x3d86e9ef	0.06587588
77	0x3f00bcfa	0.50288355
78	0x3e9fa4d8	0.31180453
79	0x3eceb235	0.40370336
80	0x3e60f65d	0.2196898
81	0x3e270e98	0.16314161
82	0x3deddd69	0.11614496
83	0xbebc0d46	-0.36728877
84	0x3e36963f	0.17830752
85	0xbe81754d	-0.25284806
86	0x3c2d16df	0.010564535
87	0xbb8f6683	-0.004376234
88	0x3f3c2311	0.7349101
89	0x3e1ae2f9	0.15125646
90	0x3f1cd492	0.61261857
91	0x3e4254b8	0.1897763
92	0xbb0f7edb	-0.002189568
93	0x3b3e08c2	0.002899692
94	0xbf249e20	-0.6430378
95	0xbe869848	-0.26288056
96	0x3e31651d	0.17323728
97	0x3c9e9298	0.01935701
98	0xba83ed9d	-0.0010065321
99	0xbeb0de09	-0.345444
100	0xbdb1f6c1	-0.08689643
101	0xbed57dd4	-0.41697562
102	0x3d90f97f	0.070788376
103	0xbd58af07	-0.052901294
104	0xbdf03846	-0.11729483
105	0x3d185b88	0.037196666
106	0x3ecff32e	0.4061522
107	0xbe081188	-0.13287938
108	0xbd06edce	-0.032941632
109	0x3d08bf39	0.03338549
110	0xbcb9574e	-0.022624638
111	0xbe15d307	-0.14631282
112	0xbe08914d	-0.13336678
113	0xbe3dcede	-0.18535945
114	0x3e948fdf	0.29016015
115	0x3e6e7485	0.23286636
116	0x3e89fb08	0.26949334
117	0x3e0e9d89	0.13927282
118	0x3eb59c8e	0.35471004
119	0xbbbe40ea	-0.005806078
120	0xbc3172c1	-0.010830582
121	0x3ed4b89e	0.41547102
122	0xbe1cfee2	-0.15331605
123	0xbd8a8b5e	-0.067648634
124	0xbe67b0dd	-0.22626062
125	0xbe1cfdb3	-0.15331154
126	0xbdec6955	-0.11543528
127	0x3e03c793	0.128691
128	0xbe5f1fbe	-0.21789452
129	0x3eef78f8	0.4677198
130	0x3cef6bd6	0.029226225
131	0x3d2ae3ca	0.041721143
132	0x3ee47015	0.44616762
133	0xbe06cc65	-0.13163908
134	0x3f350e3c	0.70724845
135	0x3eaeb017	0.3411872
136	0xbe108add	-0.14115472
137	0xbe11d604	-0.14241797
138	0x3e301beb	0.1719815
139	0xbcae10e8	-0.021248296
140	0x3cb6d85a	0.022319961
141	0xbd25d724	-0.040488377
142	0xbc431ef6	-0.011909237
143	0xbded34b5	-0.11582319
144	0x3e4e7b48	0.20164216
145	0x3e285375	0.16438086
146	0x3e0d96b2	0.13827017
147	0xbd91274b	-0.07087573
148	0x3ce6629d	0.028123194
149	0x3d691c6d	0.056911875
150	0xbeadd8a5	-0.3395435
151	0x3ef85b70	0.4850726
152	0x3d993207	0.07480245
153	0xbd6971a9	-0.05699316
154	0x3efcd375	0.4938008
155	0x3e5f2aa7	0.21793614
156	0x3de29c12	0.11064924
157	0x3bd83f22	0.006599323
158	0x3e161509	0.14656462
159	0x3d7991b6	0.060929976
160	0xbea12230	-0.31471395
161	0xbeb53d4e	-0.35398334
162	0xbd51683c	-0.051124796
163	0xbd8025a2	-0.06257178
164	0x3d4ddb2c	0.050257847
165	0xbf618fbf	-0.88109964
166	0xbdb44ad6	-0.08803336
167	0xbd45868d	-0.04822402
168	0xbd701270	-0.058611333
169	0xbdb17504	-0.08664897
170	0xbd8c4dd2	-0.068507805
171	0xbf07b16f	-0.5300512
172	0x3dd61817	0.104538135
173	0x3ec8062b	0.39067206
174	0xbc14cbee	-0.009081824
175	0x3b87a709	0.004139785
176	0x3edaeed2	0.4276033
177	0xbcb89e85	-0.022536526
178	0x3f4a9bbc	0.7914388
179	0x3e03dfc1	0.12878324
180	0x3df52409	0.11969764
181	0x3d1a9558	0.03774008
182	0xbeee2dd1	-0.4651933
183	0xbda493b9	-0.08035988
184	0xbc858e3f	-0.01630318
185	0x3c84c8e1	0.016209068
186	0xbb5ac2c2	-0.0033380245
187	0xbea55606	-0.32292193
188	0x3e0ac55e	0.13551852
189	0xbf2971e7	-0.66189426
190	0x3d7f3ec9	0.062315736
191	0x3c557323	0.013027939
192	0xbbc2a960	-0.005940601
193	0xbf1618c0	-0.58631516
194	0x3e71710e	0.23578283
195	0xbdfac911	-0.122453816
196	0xbd8a6191	-0.067568906
197	0x3bf635d6	0.007513742
198	0xbeb4e5ae	-0.35331482
199	0xbea8ee86	-0.3299448
200	0x3cbc495f	0.022984205
201	0x3ea11657	0.31462356
202	0xbb2e87e8	-0.00266313
203	0xbc9fae18	-0.019492194
204	0x3ee7a3d5	0.4524218
205	0xbda579a6	-0.08079843
206	0x3e158ae7	0.14603768
207	0x3cd29723	0.025706833
208	0x3df84068	0.121216595
209	0x3e8ae79e	0.27129835
210	0xbe60fdb9	-0.21971788
211	0xbe993e6c	-0.29930437
212	0xbe122f71	-0.1427591
213	0xbde27cfb	-0.110589944
214	0xbe176905	-0.14786156
215	0x3e0db09a	0.138369
216	0x3e0f9377	0.14021097
217	0x3ce838b6	0.028347354
218	0x3d538916	0.051644407
219	0xbcf387b3	-0.029727792
220	0x3ebb5590	0.36588717
221	0x3de2a25f	0.11066126
222	0xbda9f4f2	-0.08298673
223	0x3eafb2cc	0.343161
224	0xbe2cf858	-0.1689161
225	0x3e3fa959	0.18716945
226	0x3f0e664c	0.5562484
227	0x3e699292	0.22809818
228	0xbeb0b179	-0.345104
229	0xbba5cf57	-0.005060117
230	0x3bc1bedc	0.005912645
231	0xbf0db63a	-0.5535618
232	0x3df10725	0.11768941
233	0x3ed50fd5	0.4161364
234	0xbcc664c3	-0.024217969
235	0x3e11817c	0.1420955
236	0x3e1b834a	0.15186802
237	0x3f0b823f	0.54495615
238	0x3f189e66	0.59616697
239	0xbd4356f8	-0.04769036
240	0x3d47254c	0.048619553
241	0xbdbd9d2a	-0.09258492
242	0xbd7275ec	-0.05919449
243	0x3eab2696	0.33427876
244	0x3f110812	0.5665294
245	0xbe8e6de5	-0.27818218
246	0xbd97683b	-0.07392927
247	0xbd9bb077	-0.076020174
248	0xbf2d8d82	-0.6779405
249	0x3d9449d1	0.07240642
250	0x3e0a872c	0.13528126
251	0x3c07731a	0.008267188
252	0x3c6c0d80	0.0144075155
253	0xbee2fb44	-0.44332325
254	0x3ea3a037	0.31958172
255	0xbef4c7d1	-0.47808698

fc1.bias f4 [32]
0	0x3d023975	0.031793077
1	0x3ee2e7af	0.44317386
2	0x3cacd834	0.021099187
3	0x3ec18e52	0.37803894
4	0xbd16e3d9	-0.036838386
5	0x3d26ef1b	0.040755372
6	0x3db618ca	0.08891447
7	0xbe90de4f	-0.28294608
8	0xbbe9c0ce	-0.00713358
9	0x3e8b1d31	0.2717071
10	0x3f0e4a2d	0.55581933
11	0xbd450282	-0.048098095
12	0x3cbaad0e	0.022787597
13	0x3ea7b62a	0.32756168
14	0xbdd6a86b	-0.10481342
15	0x3e0efcb7	0.1396359
16	0x3ed1af01	0.4095383
17	0x3c3ae7c1	0.0114077935
18	0x3e5472fc	0.20746988
19	0xbda6290e	-0.08113299
20	0x3b3c7e7e	0.0028761919
21	0xbe591bc3	-0.21201997
22	0x3e1f4291	0.15552737
23	0x3d68574b	0.056723874
24	0x3eed0149	0.46290043
25	0x3eeeac46	0.4661581
26	0x3e2ea52e	0.17055199
27	0x3c7d7da0	0.015471846
28	0x3eed1a27	0.46309015
29	0xbe00cbbd	-0.1257772
30	0xbe9be619	-0.30448988
31	0x3ee83784	0.45354855

fc2.weight f4 [64, 32]
0	0x3f1997a6	0.5999702
1	0xbebdd37e	-0.37075418
2	0x3ce08f06	0.027411949
3	0xbe87cc95	-0.2652327
4	0x3e95085e	0.29107946
5	0xbc88302b	-0.01662453
6	0x3df63839	0.12022442
7	0xbcad0a00	-0.021122932
8	0x3e35a782	0.1773968
9	0x3e6329f4	0.22183973
10	0x3c081661	0.008306117
11	0x3e4858f4	0.19565183
12	0x3b8f5460	0.004374072
13	0xbdc59820	-0.09648156
14	0x3e1899fa	0.14902487
15	0x3e83c8bb	0.25739083
16	0x3e0d47a0	0.13796854
17	0x3e02f1bd	0.12787528
18	0xbec2c458	-0.38040423
19	0x3eb9db23	0.363
20	0xbe37e01f	-0.17956589
21	0x3d83f19d	0.064425685
22	0xbe7129cf	-0.23551105
23	0xbeae4e75	-0.34044233
24	0x3e762d97	0.24040829
25	0xbd0d277e	-0.03446149
26	0x3ecb545e	0.39712805
27	0x3d7623b7	0.060092654
28	0x3d40d18d	0.047074843
29	0xbd3bb376	-0.045825444
30	0x3e55d75a	0.20882931
31	0x3d9baf57	0.07601803
32	0x3b184113	0.0023232147
33	0xbe66e9b6	-0.22550091
34	0x3e2e5377	0.17024027
35	0xbdbc0e5e	-0.09182428
36	0xbe92cc2c	-0.28671396
37	0x3e763336	0.24042973
38	0xbed62703	-0.4182664
39	0xbec86fa0	-0.39147663
40	0x3e0cd627	0.13753568
41	0xbe9b82d2	-0.30373245
42	0xbd0ab6b4	-0.033865646
43	0x3e685a9a	0.22690812
44	0xbe951b4d	-0.2912239
45	0xbca9fcd6	-0.020750444
46	0x3ea6f29a	0.32606965
47	0xbed98b5e	-0.4248914
48	0xbd53ea85	-0.051737327
49	0xbdf5c700	-0.12000847
50	0x3ecdc56f	0.40189692
51	0x3da850cc	0.08218536
52	0xbebb6c69	-0.36606148
53	0xbe0fa3f1	-0.14027382
54	0xbc210872	-0.009828674
55	0xbe970dec	-0.2950281
56	0x3ea6f7c6	0.3261091
57	0x3d68c6de	0.05683028
58	0x3e9f8ebc	0.31163585
59	0xbd71491c	-0.058907613
60	0xbb5cd553	-0.0033696487
61	0x3d430357	0.047610607
62	0xbe2f3242	-0.17109016
63	0x3e2c9e84	0.16857344
64	0x3e982bf7	0.29721043
65	0x3e282eb5	0.16424067
66	0xbdba9162	-0.09109761
67	0xbdf661e5	-0.12030391
68	0x3e563b98	0.2092117
69	0x3e30be4c	0.17260092
70	0x3e9a34e1	0.30118468
71	0x3e873e0e	0.2641453
72	0x3c7716f8	0.01508116
73	0x3e2138aa	0.15744272
74	0x3e11a19c	0.14221805
75	0x3d1d0466	0.038334273
76	0x3e4ab1ab	0.19794337
77	0x3e39a558	0.1812948
78	0xbe20bca0	-0.15696955
79	0x3de38aac	0.11110434
80	0xbe140700	-0.14455795
81	0x3e8cca4e	0.27498096
82	0x3dba9974	0.091113
83	0x3cd8a77a	0.026447047
84	0xbd3b7664	-0.045767203
85	0xbe189949	-0.14902224
86	0xbee1e29f	-0.4411821
87	0x3e463473	0.19355945
88	0xbdb6f330	-0.08933103
89	0xbe157a39	-0.14597405
90	0x3da7ce71	0.081936724
91	0xbe1117ae	-0.1416919
92	0xbde57395	-0.11203686
93	0xbddd150b	-0.10795029
94	0x3dba102d	0.090851165
95	0x3c4fb966	0.01267848
96	0xbe13fb5a	-0.14451352
97	0xbc53b277	-0.012920967
98	0x3d9e72c4	0.077367336
99	0xbdd4b8cd	-0.103868105
100	0x3e5b886d	0.21438761
101	0xbdaaeaf2	-0.083455935
102	0x3ea27c95	0.31735674
103	0x3d48cc97	0.049023237
104	0x3e13432e	0.14381096
105	0xbd8334cc	-0.064065546
106	0xbe536753	-0.20644884
107	0xbdbde3c5	-0.09271959
108	0xbe3ff6fa	-0.18746558
109	0x3cc71a2b	0.02430447
110	0x3e3d85d6	0.18508086
111	0x3f08d4e2	0.53449833
112	0x3e033e5c	0.12816757
113	0x3e8602d4	0.26174033
114	0xbf997ee0	-1.1991844
115	0xbeb2e7ce	-0.34942478
116	0xbe05d8bd	-0.1307096
117	0x3deec88f	0.11659347
118	0xbd0ded99	-0.03465042
119	0x3ebfedbb	0.3748606
120	0x3dcdfc70	0.10057914
121	0xbdc9e79b	-0.09858628
122	0xbe4f5ddd	-0.2025065
123	0x3ed0c2c7	0.40773603
124	0x3d502d54	0.05082448
125	0x3e2277c7	0.15866004
126	0x3d9a42de	0.07532285
127	0xbe353919	-0.17697562
128	0xbe540d63	-0.20708232
129	0x3e79a9dc	0.24381202
130	0xbe8c9935	-0.27460638
131	0x3e3cf662	0.18453363
132	0x3d3a3ec8	0.04547003
133	0xbf00ce5e	-0.5031489
134	0x3e961fde	0.29321188
135	0xbcf4d624	-0.029887266
136	0xbec7876a	-0.389705
137	0x3e0123ff	0.12611388
138	0x3defde5e	0.11712335
139	0xbe834748	-0.2564032
140	0xbe964900	-0.2935257
141	0x3db75af4	0.08952895
142	0xbea4e1f3	-0.32203636
143	0x3ea277e8	0.31732106
144	0xbe709d88	-0.23497593
145	0x3e964060	0.2934599
146	0x3e807075	0.25085798
147	0xbdd467c1	-0.10371352
148	0x3db072e0	0.08615661
149	0x3d47ca16	0.04877671
150	0xbdd2878c	-0.1027976
151	0x3e771f1f	0.24132966
152	0xbc1e99a9	-0.00968019
153	0x3decf692	0.11570467
154	0xbe038ef6	-0.12847504
155	0x3da875ed	0.082256176
156	0xbe264746	-0.16238126
157	0xbcf5a63b	-0.029986491
158	0x3d4138a0	0.047173142
159	0xbc00e80d	-0.007867825
160	0x3dccf608	0.10007864
161	0x3df1b1e3	0.11801507
162	0x3e4ff463	0.2030807
163	0x3d6d20f6	0.057892762
164	0xbda8b4ac	-0.082375854
165	0x3d0324fa	0.032017685
166	0xbda6e4b5	-0.08149091
167	0xbdd6e88d	-0.10493574
168	0x3e60d469	0.21956028
169	0x3d793314	0.060839728
170	0x3e364bcf	0.17802356
171	0x3e770a94	0.24125129
172	0xbd92c6f8	-0.071668565
173	0x3d935d50	0.07195532
174	0x3e041866	0.12899932
175	0xbdf42231	-0.11920584
176	0xbe0e3676	-0.13887963
177	0xbe0c667e	-0.13710973
178	0xbd4fa0d3	-0.050690483
179	0x3e45daa8	0.19321692
180	0x3d805ab2	0.06267299
181	0x3c8333f7	0.01601599
182	0x3e07fc5a	0.13279858
183	0xbdc7fa9d	-0.097645976
184	0xbc84c7dc	-0.016208582
185	0x3e06b1a7	0.13153706
186	0x3c6bcc1f	0.014391928
187	0xbdc8b6f9	-0.09800524
188	0x39d11e72	0.0003988627
189	0x3e3a9ce2	0.18223909
190	0xbc9c2c2c	-0.019064032
191	0x3e006bb0	0.1254108
192	0xbf53a1bd	-0.8266867
193	0x3d812788	0.06306368
194	0xbe0e4dc9	-0.1389686
195	0x3df9a9a4	0.121905595
196	0xbd0a3148	-0.033738405
197	0xbe336ae4	-0.17521244
198	0xbd3059cb	-0.043054383
199	0x3e62a686	0.22133836
200	0x3eae1178	0.33997703
201	0x3eb053bb	0.3443888
202	0x3daf2dcd	0.08553658
203	0x3cc0a175	0.023514489
204	0xbfb20560	-1.390789
205	0x3da811df	0.08206534
206	0x3e087b2a	0.13328233
207	0xbf05218c	-0.52004313
208	0x3e8a7b4b	0.2704719
209	0x3ca6cb15	0.020360509
210	0x3e548cf0	0.20756888
211	0xbcfb3f5c	-0.03066986
212	0x3e233ad4	0.1594041
213	0x3daf7078	0.085663736
214	0xbe74834c	-0.23878211
215	0xbddc40a0	-0.10754514
216	0xbf5eeefc	-0.8708341
217	0xbca1252b	-0.019671043
218	0x3ddc4cbc	0.107568234
219	0xbe806589	-0.25077465
220	0xbb823d77	-0.0039746123
221	0xbc6dae53	-0.014506894
222	0xbe1fc4ef	-0.15602468
223	0x3de649ce	0.11244546
224	0x3e63b12c	0.22235554
225	0x3e4c7650	0.19967008
226	0xbda5edad	-0.08101974
227	0xbdead9c5	-0.114673175
228	0xbe358e39	-0.17730035
229	0xbe91840f	-0.28421065
230	0xbc1f7e74	-0.009734739
231	0x3ea582d0	0.32326365
232	0x3e8fd69a	0.28093415
233	0xbc5ca160	-0.013466209
234	0x3df3063d	0.11866424
235	0x3deb7174	0.11496249
236	0x3db5893c	0.08864066
237	0x3e998cf0	0.2999034
238	0xbc4f5102	-0.012653591
239	0xbca56c51	-0.02019325
240	0xbe84c54f	-0.25931785
241	0xbd561b23	-0.052271973
242	0xbc5d72a7	-0.013516105
243	0xbe2aa090	-0.16662812
244	0xbe081a6f	-0.13291334
245	0x3e09d765	0.13461073
246	0xbe1e95af	-0.15486787
247	0x3d217307	0.03941634
248	0xbd2dc578	-0.04242465
249	0xbd84a4d0	-0.06476748
250	0xbddf530b	-0.10904511
251	0xbeab9be1	-0.33517364
252	0x3e08fc72	0.1337755
253	0x3e0b8555	0.13625081
254	0xbd6a026d	-0.05713122
255	0x3e2101ce	0.15723345

fc2.bias f4 [64]
0	0xbe2cbab8	-0.16868103
1	0xbdb5d3f9	-0.08878321
2	0x3c84e467	0.016222192
3	0xbda26d03	-0.079309486
4	0x3dd16f26	0.10226278
5	0x3e58cf66	0.21172866
6	0x3cd83d70	0.026396483
7	0x3e5f0cbe	0.21782205
8	0x3d841c89	0.06450755
9	0x3ec8d18e	0.39222378
10	0x3e8a5c64	0.27023613
11	0x3d7563c8	0.059909612
12	0x3d1dd6a4	0.038534775
13	0xbd71cea0	-0.059034944
14	0xbd6d5592	-0.057942934
15	0x3d87bf29	0.06628258
16	0x3d0b73ad	0.034045864
17	0xbdaf8921	-0.08571077
18	0x3e5b615f	0.21423863
19	0xbba78588	-0.0051123537
20	0x3e48a19b	0.19592898
21	0x3eb62654	0.35576117
22	0x3e2b296a	0.16715017
23	0x3e8aff25	0.27147785
24	0x3eb164e9	0.346473
25	0x3dfa3c7d	0.122185685
26	0x3e8f8ead	0.2803854
27	0x3e898b7e	0.26864237
28	0x3d65a2c6	0.056063436
29	0x3d0587db	0.032600265
30	0x3dd1d7a9	0.10246212
31	0x3e0ffc10	0.14060998
32	0xbe3a1b6b	-0.18174522
33	0x3d05f4ea	0.03270427
34	0x3e52bd2c	0.20579976
35	0xbd78201b	-0.060577493
36	0x3eb9605c	0.3620633
37	0x3db0b2b4	0.08627835
38	0x3e48155a	0.19539395
39	0x3d866746	0.065626666
40	0xbbfe63dd	-0.0077633695
41	0x3d2a6f07	0.04160979
42	0x3da5f72e	0.081037864
43	0x3e753d6b	0.2394921
44	0x3d8965bc	0.067088574
45	0x3e3f9de0	0.18712568
46	0x3d778394	0.060428217
47	0x3d953b04	0.07286647
48	0x3e96d726	0.2946102
49	0x3e6a2ca5	0.22868593
50	0x3e4fbc4e	0.20286676
51	0x3e32157a	0.17391005
52	0x3e8aab1d	0.27083674
53	0x3dd45eb4	0.10369626
54	0xbce294a4	-0.027658768
55	0x3c2f3862	0.010694595
56	0x3d182e8f	0.037153777
57	0x3e91c4b7	0.28470394
58	0x3e841ac5	0.25801674
59	0x3ebac82a	0.36480838
60	0xbdd7b183	-0.105319045
61	0xbca047ae	-0.01956543
62	0xbe28cc16	-0.16484103
63	0x3d7ab166	0.061204337

fc3.weight f4 [128, 64]
0	0x3ec775f6	0.38957185
1	0xbd5b14c9	-0.05348662
2	0xbee59167	-0.44837496
3	0x3da3327f	0.07968616
4	0xbeed0865	-0.46295467
5	0x3d85e370	0.06537521
6	0xbda20cec	-0.07912621
7	0x3d8db58c	0.06919393
8	0x3c8cd8a7	0.017193152
9	0xbb0be430	-0.0021345727
10	0x3e23f3d4	0.16010982
11	0xbf5281ee	-0.82229507
12	0xbd3557e4	-0.044273272
13	0xbe5e61e3	-0.21717028
14	0xbe2c659d	-0.16835637
15	0x3d803b29	0.06261284
16	0x3dacc4d5	0.0843598
17	0xbdb24e40	-0.08706331
18	0x39f1bf5d	0.0004610968
19	0x3dae6c2a	0.085167244
20	0xbe4954c1	-0.19661237
21	0x3b34601a	0.0027523101
22	0x3d0748a4	0.03302826
23	0xbd70771f	-0.058707353
24	0xb8a52415	-7.874534e-05
25	0xbe0c2ace	-0.13688204
26	0xbe198aff	-0.14994429
27	0xbe3ded15	-0.18547471
28	0xbd764f4c	-0.060134217
29	0x3e8d9abd	0.27657118
30	0xbe20f2ae	-0.15717575
31	0x3c48844f	0.012238576
32	0x3e649387	0.22321902
33	0xbcf4aa75	-0.029866436
34	0x3d80d85e	0.06291269
35	0xbf1f976e	-0.6234044
36	0xbd9fe872	-0.07808007
37	0xbe1f126b	-0.1553437
38	0xbe0fd8c5	-0.14047535
39	0x3d946878	0.07246488
40	0xbf435c51	-0.7631274
41	0xbdd1ad5d	-0.102381445
42	0xbded297e	-0.1158018
43	0x3d066ace	0.0328167
44	0xbe251e13	-0.16124754
45	0x3d65b294	0.05607851
46	0xbe158044	-0.1459971
47	0xbe8f9d65	-0.2804977
48	0x3e5b7db3	0.21434669
49	0xbd88f812	-0.06687941
50	0xbe45781f	-0.19284104
51	0xbd96952d	-0.07352672
52	0x3dbc64c3	0.09198906
53	0xbb26e982	-0.0025468771
54	0x3dfcb8a8	0.12339908
55	0xbdf1396d	-0.11778531
56	0x3f1096c8	0.56480074
57	0x3e0c82c9	0.13721766
58	0xbdea7cdd	-0.11449597
59	0xbd0c01a7	-0.034181263
60	0xbde46505	-0.111520804
61	0x3f011a43	0.504307
62	0x3eb41bf1	0.35177568
63	0xbe800868	-0.25006413
64	0x3ec11ba7	0.3771641
65	0x3f17d29d	0.59305745
66	0x3cdaa7c0	0.026691318
67	0xbe8ef108	-0.27918267
68	0xc03cacd1	-2.9480479
69	0x3dd322d3	0.103093766
70	0x3ebe9960	0.3722639
71	0x3d3dd042	0.04634119
72	0xbf737784	-0.9510424
73	0xbe8e41fd	-0.2778472
74	0x3f928804	1.1447759
75	0xbfc0a3fc	-1.5050044
76	0x3de7a93c	0.11311576
77	0xbe2fdad8	-0.17173326
78	0x3daa1012	0.083038464
79	0x3d5a6966	0.053323172
80	0x3da44e40	0.080227375
81	0x3d7cea13	0.061746668
82	0xbe6fa808	-0.23403943
83	0xbd6a59e0	-0.057214618
84	0xbe0cd871	-0.13754441
85	0xbcf8b46f	-0.030359475
86	0xbd08f39e	-0.033435456
87	0xbebfeb9c	-0.37484443
88	0xbda8dd81	-0.082453735
89	0xbea825c1	-0.32841304
90	0xbd60906c	-0.05482523
91	0xbb08c1b5	-0.0020867412
92	0xbda78324	-0.0817931
93	0xbf17834e	-0.5918473
94	0xbcd1c0a0	-0.025604546
95	0x3ea395a0	0.31950092
96	0xbfc4da4c	-1.5379119
97	0xbdce92e9	-0.10086615
98	0xbc8532c5	-0.01625956
99	0x3e9eee03	0.31040964
100	0x3e38f7a1	0.18063213
101	0x3dfd26e4	0.123609334
102	0x3d9c495a	0.07631178
103	0xbc77af79	-0.01511752
104	0xbe3c1906	-0.1836892
105	0xbd8a367e	-0.06748675
106	0xbe3264dd	-0.17421289
107	0x3e92e1be	0.28687853
108	0xbf55d77c	-0.8353193
109	0x3e1277ab	0.14303462
110	0x3e06c57d	0.13161273
111	0x3c4bb0d2	0.012432294
112	0xbf2b27d3	-0.6685764
113	0xbb1f936a	-0.002434934
114	0x3d60402a	0.05474869
115	0xbc839b46	-0.016065251
116	0x3d87e9b5	0.06636373
117	0x3e5caa07	0.21549235
118	0x3ede6639	0.43437365
119	0x3db1938e	0.08670722
120	0x3eefd2d6	0.46840543
121	0x3d70507c	0.058670506
122	0x3dcfdee3	0.10149934
123	0xbd9a5448	-0.075356066
124	0xbedd4cd5	-0.4322268
125	0x3ed32e62	0.41246325
126	0xbbe0aac0	-0.0068562925
127	0x3d9dab32	0.076986685
128	0xbe161ef5	-0.14660247
129	0x3e34ca42	0.1765528
130	0x3dba1d18	0.090875804
131	0x3e677663	0.22603755
132	0x3ee32720	0.44365788
133	0x3b103cda	0.0022008927
134	0x3dac6da7	0.08419352
135	0x3e51f21c	0.20502514
136	0xbe2206b1	-0.15822865
137	0x3e11d805	0.14242561
138	0x3ee930b2	0.45544964
139	0x3ecc4ed9	0.39903906
140	0x3d854246	0.06506781
141	0x3e789f96	0.24279627
142	0x3e6510d8	0.22369707
143	0x3df4a940	0.119463444
144	0x3e3b2ff2	0.18280008
145	0xbcb3b1c0	-0.021935344
146	0x3de3e6d9	0.11128015
147	0xbdde59aa	-0.10856946
148	0x3e1564f0	0.14589286
149	0x3e268107	0.16260158
150	0x3d17c276	0.037050687
151	0x3e4527ff	0.19253539
152	0x3e5cd529	0.21565689
153	0x3d7dc3f1	0.061954442
154	0x3e2f16b0	0.17098498
155	0x3e2d8a82	0.16947368
156	0x3d0764e7	0.033055212
157	0x3a5646ab	0.00081739825
158	0xbcfc6119	-0.030808019
159	0x3e010efd	0.12603374
160	0xbe25ef95	-0.16204675
161	0x3e002117	0.12512623
162	0x3ddc2e09	0.10750968
163	0x3e2e3854	0.17013675
164	0xbc357d80	-0.011077285
165	0xbc71acbe	-0.014750658
166	0x3dab0424	0.08350399
167	0x3d9dee43	0.077114604
168	0x3f2b8135	0.6699403
169	0x3b8a98b5	0.00422963
170	0x3e33262a	0.17495027
171	0x3d920c08	0.07131201
172	0x3db549d3	0.088519715
173	0x3c9e9b2d	0.019361103
174	0x3e142184	0.1446591
175	0x3e0321a4	0.12805802
176	0x3d43b26b	0.047777575
177	0x3e1a61e2	0.15076402
178	0x3e2169db	0.15763037
179	0x3d7162c0	0.058932066
180	0x3e475295	0.19465096
181	0x3cc53cdd	0.024076873
182	0xbcbae1bd	-0.022812719
183	0x3e0531c5	0.13007267
184	0xbe5f1c85	-0.21788223
185	0x3d59232c	0.05301206
186	0x3e248bcb	0.16068952
187	0x3de67176	0.1125211
188	0xbe10901f	-0.14117478
189	0xbeb27b88	-0.34859872
190	0xbe277356	-0.16352591
191	0x3e2fe91b	0.17178766
192	0x3c2cdcfd	0.010550735
193	0xbc5da284	-0.013527516
194	0xbdcdcb32	-0.10048522
195	0x3d7b8f74	0.061416104
196	0x3dc794e8	0.097451985
197	0xbdf5d126	-0.120027825
198	0x3daa7ab7	0.08324187
199	0xbdd28a44	-0.10280278
200	0x3d521e58	0.05129847
201	0xbdf8b2d0	-0.12143481
202	0x3ce948b2	0.028477047
203	0xbd029796	-0.031882845
204	0xbd8c8a34	-0.06862298
205	0xbddb0f1f	-0.106962435
206	0xbdf35adb	-0.11882564
207	0x3dca3913	0.09874167
208	0xbcd6c791	-0.026218208
209	0xbd4d6d2a	-0.050152935
210	0x3de53e6b	0.11193546
211	0x3d9d8c04	0.076927215
212	0x3c932fb2	0.017967079
213	0x3d3230cd	0.04350357
214	0xbd13f45e	-0.03612172
215	0x3d84f84f	0.064926736
216	0x3c9a6f97	0.018852038
217	0xbd95c170	-0.07312286
218	0xbd09179f	-0.033469792
219	0x3c5d1efc	0.013496157
220	0xbdc2fe23	-0.09521129
221	0xbd707a18	-0.058710188
222	0xbca7997a	-0.020458926
223	0xbd7c3108	-0.061570197
224	0x3d8f69b2	0.07002582
225	0xbddaa14e	-0.10675298
226	0x3da71087	0.08157449
227	0xbca024a1	-0.019548716
228	0xbcf879eb	-0.030331573
229	0x3de0ff7d	0.109862305
230	0xbd8c5940	-0.068529606
231	0xbda440d2	-0.08020176
232	0xbdd7843e	-0.1052327
233	0x3a89fc89	0.0010527532
234	0xbd5229f7	-0.051309552
235	0xbc218c58	-0.009860121
236	0x3dd15aa7	0.10222369
237	0xbd7eef8e	-0.062240176
238	0x3cee8d9d	0.02912026
239	0xbdcf2f1a	-0.10116406
240	0xbe00e5f9	-0.12587728
241	0xbdd94f8f	-0.10610878
242	0x3dd05cda	0.1017396
243	0xbdad0319	-0.084478565
244	0x3d19e2e7	0.037569907
245	0x3c8de6a2	0.017321888
246	0x3d04961b	0.032369714
247	0xbd963cbe	-0.073358044
248	0xbe040dab	-0.12895839
249	0xbde308c1	-0.11085654
250	0x3cb1667e	0.021655317
251	0xbd5aed91	-0.053449217
252	0xbc8e0c97	-0.017339988
253	0xbd5d3396	-0.054004274
254	0x3df6858a	0.12037189
255	0x3d71ebc5	0.059062738

fc3.bias f4 [128]
0	0xbdc212aa	-0.09476216
1	0xbd89702c	-0.06710848
2	0x3e96bf2d	0.2944273
3	0xbdc4e40a	-0.096138075
4	0xbc268aba	-0.010164911
5	0x3e414a6a	0.18876043
6	0xbcd06320	-0.025437891
7	0xbdfd916f	-0.12381255
8	0x3d803637	0.06260341
9	0x3dcdc13d	0.10046623
10	0x3e8a997a	0.27070218
11	0x3e130688	0.1435796
12	0xbdd4bd20	-0.10387635
13	0x3e7db9dc	0.24777931
14	0x3d59fb22	0.053218015
15	0x3e7ab982	0.24484828
16	0xbcb078e8	-0.021542028
17	0x3deb99c0	0.11503935
18	0x3c87f10a	0.016594429
19	0x3e8a883c	0.27057064
20	0x3e7a63f9	0.24452199
21	0x3e12eb3f	0.14347552
22	0xbe02c86a	-0.12771764
23	0xbce6caca	-0.02817287
24	0xbdd6ce21	-0.10488535
25	0x3eb45830	0.35223532
26	0xbdf5dc93	-0.12004962
27	0x3d1e6a4c	0.03867559
28	0xbe2591d4	-0.1616891
29	0xbe84630e	-0.25856823
30	0xbdc7dd97	-0.09759062
31	0x3e7e5e60	0.24840689
32	0x3dff35bf	0.12461423
33	0x3dfdaf6b	0.12386974
34	0x3e1fc647	0.1560298
35	0x3e9cee0d	0.30650368
36	0x3e0c2165	0.13684614
37	0xbde38ad1	-0.111104615
38	0xbd8cf21c	-0.06882116
39	0xbe38a63e	-0.18032166
40	0xbc7ed20f	-0.015553012
41	0x3e1f257f	0.15541647
42	0x3db2d61f	0.087322466
43	0x3dd6cb7f	0.104880325
44	0x3d0006f4	0.03125663
45	0x3e8bd308	0.27309442
46	0x3e0e13a8	0.13874686
47	0xbdd889b4	-0.1057314
48	0x3eadecf2	0.33969837
49	0x3e31765c	0.17330307
50	0x3e6a8ecf	0.2290604
51	0x3e9a96be	0.30193132
52	0x3e7a6f0d	0.24456425
53	0xbd831774	-0.06400958
54	0x3e097633	0.13423996
55	0x3dd67fb3	0.104735754
56	0xbdddb580	-0.10825634
57	0xbd66f1f4	-0.05638309
58	0x3c8de11b	0.017319253
59	0x3dd2d683	0.10294821
60	0x3e07480e	0.1321108
61	0x3e77d3a9	0.24201836
62	0x3e648c9f	0.22319268
63	0x3e6aacde	0.22917506
64	0x3e41ac68	0.18913424
65	0x3e88cb6a	0.26717693
66	0x3d4b6823	0.04965986
67	0x3e557c99	0.20848311
68	0xbe2a0c88	-0.16606343
69	0x3e551aee	0.20811054
70	0x3d0c940f	0.034320887
71	0x3d81deba	0.0634131
72	0x3ea73539	0.32657793
73	0x3e3816ae	0.17977402
74	0x3db80da8	0.0898698
75	0x3d21d184	0.03950645
76	0xbd2ccd5d	-0.042188037
77	0x3e1e8b9c	0.15482944
78	0x3e22f7ba	0.15914813
79	0x3e4cc6d0	0.19997716
80	0x3e97c84e	0.29645008
81	0x3c0e6363	0.008690688
82	0x3e496610	0.1966784
83	0x3e16b7d3	0.14718561
84	0x3db99ccf	0.09063112
85	0xbcb27703	-0.021785265
86	0x3eb2356d	0.34806386
87	0xbdfe652d	-0.124216415
88	0x3de7edaa	0.11324628
89	0xbdd37324	-0.10324696
90	0xbe38686f	-0.18008588
91	0x3e3815ac	0.17977017
92	0x3e94abe3	0.2903739
93	0xbde13f3a	-0.10998388
94	0x3df96a7e	0.12178515
95	0xbd27d795	-0.04097708
96	0x3e4bf271	0.19916703
97	0x3dd3382a	0.10313447
98	0xbc7283ab	-0.0148019
99	0xbd53b00c	-0.051681563
100	0x3d3e0f3a	0.04640124
101	0xbd9ff425	-0.07810239
102	0x3d1499da	0.036279537
103	0xbd97be1d	-0.07409308
104	0xbd388b9a	-0.04505501
105	0xbde427c8	-0.111404
106	0x3e8df888	0.27728677
107	0xbe1371e5	-0.14398916
108	0xbe14502d	-0.1448371
109	0x3e351ef0	0.17687583
110	0xbc29ba5e	-0.010359375
111	0x3eab98f5	0.33515134
112	0x3cd6cc0e	0.026220348
113	0x3e421f0d	0.18957157
114	0x3d9be0f3	0.07611265
115	0xbe0f6e5f	-0.14006947
116	0x3e1202ba	0.14258853
117	0x3e3e8c79	0.18608274
118	0xbd8abcde	-0.06774305
119	0xbe618cd1	-0.22026373
120	0x3cffdec5	0.031234154
121	0x3d8c3f31	0.0684799
122	0x3e1fd923	0.15610175
123	0x3e512307	0.20423518
124	0xbccfc559	-0.025362657
125	0x3e336213	0.17517881
126	0x3e89da0f	0.26924178
127	0x3dc63965	0.09678916

v.weight f4 [1, 128]
0	0x3f10784c	0.5643356
1	0x3fa76f86	1.3080909
2	0xbe5e1fa7	-0.21691762
3	0x3d119662	0.035543807
4	0x3f17ee58	0.5934806
5	0xbe280473	-0.16407947
6	0x3e4d7229	0.2006308
7	0x3faa4c2f	1.3304499
8	0x3c8cf417	0.017206235
9	0x3d897fdd	0.06713841
10	0xbe31a4c7	-0.17348014
11	0xbe629129	-0.22125687
12	0x3d53b716	0.051688276
13	0xbe287a45	-0.16452892
14	0x3e9e1559	0.30875662
15	0xbe440850	-0.19143796
16	0xbc9dbe7e	-0.019255873
17	0xbe47205d	-0.1944594
18	0x3ef0fa9b	0.47066197
19	0xbe2b8fef	-0.16754125
20	0xbe6521ca	-0.22376171
21	0xbe712ebf	-0.23552988
22	0x3e8c012a	0.27344638
23	0x3da7e780	0.08198452
24	0x3eccdb95	0.40011278
25	0xbe36f105	-0.17865379
26	0x3e94fc97	0.2909896
27	0x3eccfd6c	0.40037096
28	0x3e1091cf	0.14118122
29	0x3f0a9f40	0.54149246
30	0x3ea62e51	0.32457212
31	0xbe2d6d0f	-0.16936134
32	0xbe33ebb3	-0.17570381
33	0xbe2af510	-0.16695046
34	0xbe377930	-0.17917323
35	0xbe1c4c11	-0.15263392
36	0xbe2d1103	-0.1690102
37	0x3e336d29	0.1752211
38	0x3ccf741a	0.025323916
39	0x3f1e4624	0.61825776
40	0x3f676108	0.9038243
41	0xbe7e2268	-0.24817812
42	0x3d2524e2	0.040318377
43	0xbe4fc74e	-0.20290872
44	0x3e2447ad	0.16042967
45	0xbe29e171	-0.16589905
46	0xbe6dd5dd	-0.23226114
47	0x3e251335	0.16120608
48	0xbe4ad00e	-0.19805929
49	0xbe2ee7cf	-0.17080615
50	0xbe321ee5	-0.17394598
51	0xbe360aae	-0.17777511
52	0xbe17a090	-0.14807343
53	0x3dea67cc	0.11445579
54	0xbe7156e4	-0.23568302
55	0x3d537e59	0.051634166
56	0x3fe8681f	1.8156775
57	0x3f2743af	0.6533765
58	0x3b283e90	0.0025672056
59	0xbe2f84e2	-0.17140535
60	0xbe3307cd	-0.17483445
61	0xbe547bbf	-0.2075033
62	0xbe282bde	-0.16422984
63	0xbe4df735	-0.20113833
64	0xbe341a34	-0.1758812
65	0xbe82dd9d	-0.25559703
66	0x3ca62732	0.020282362
67	0xbe97258f	-0.29520842
68	0x3ee8b03c	0.45446956
69	0xbe4db314	-0.20087844
70	0x3f15fef8	0.58592176
71	0xbe75c209	-0.239998
72	0xbe7122f9	-0.23548497
73	0xbea78fb0	-0.32726812
74	0xbe3607e0	-0.17776442
75	0x3e0c1393	0.13679342
76	0x3ea6ed01	0.32602695
77	0xbe5d7b08	-0.21628964
78	0xbe307a36	-0.1723412
79	0xbe50daa9	-0.20395912
80	0xbe42c941	-0.19022085
81	0x3e82a89e	0.2551927
82	0xbe3cbfec	-0.18432587
83	0xbe5fb856	-0.21847662
84	0xbe2e4990	-0.1702025
85	0x3c723e0f	0.014785304
86	0xbe90914a	-0.28235847
87	0x3f2fd5ec	0.68685794
88	0xbe41f7c4	-0.18942171
89	0xbc1195e0	-0.008885831
90	0x3f28fa5a	0.66007006
91	0xbe8cef49	-0.2752631
92	0xbe214345	-0.15748318
93	0x3f1cfea2	0.6132604
94	0xbe7a979f	-0.24471901
95	0x3e898761	0.26861098
96	0xbe3e02da	-0.18555775
97	0xbe7854cd	-0.24251099
98	0x3d062b92	0.032756396
99	0x3f0ebcc2	0.5575677
100	0x3d861862	0.065476194
101	0x3e267b8b	0.16258065
102	0xbe80efc5	-0.2518293
103	0x3e3f14fd	0.1866035
104	0xbc20d007	-0.009815223
105	0x3d7b2761	0.06131685
106	0xbe6b6f13	-0.2299159
107	0x3ecde668	0.4021485
108	0x3e3f8d9a	0.1870636
109	0xbe377cf6	-0.17918763
110	0x3b925dda	0.0044667544
111	0xbe1ae379	-0.15125836
112	0x3d9c571d	0.07633803
113	0xbe1e37f0	-0.15451026
114	0x3d82b774	0.06382647
115	0x3e972ef4	0.2952801
116	0xbe2a497c	-0.16629595
117	0xbe56c462	-0.20973352
118	0x3f15a5a2	0.5845586
119	0x3fd6183e	1.6726148
120	0x3c3449bf	0.011003911
121	0xbe67c4be	-0.22633645
122	0xbe633826	-0.22189388
123	0xbe31c314	-0.17359573
124	0x3ce81c0e	0.02833369
125	0xbe7f0a88	-0.24906361
126	0xbe3a27f7	-0.18179308
127	0xbe4f74f8	-0.20259464
