SAC/critic2_v4.pth (torch, 46095 bytes, 7 tensors)

fc1.weight f4 [32, 11]
00000000: a42d f23e 1603 713e b325 b93e 2068 543e
00000010: e639 393c 8dbc 8abc 4558 fb3d 18b2 0c3f
00000020: 7db2 cb3c 5353 82bc 5fb3 4abe f48a 33bd
00000030: cf84 6e3e 8ff6 1cbe 0f26 623e e5e8 8dbd
00000040: c1cf 65bd bbb5 873e f5b9 ed3d 4346 1b3f
00000050: 04eb 613c 9ca3 f33d e28c 4c3f bb55 5d3f
00000060: 9007 fa3e 437a ef3e e842 8639 cf67 d5bc
00000070: e264 3abe f82a 39be 0c01 563d 9ba8 bb3c
00000080: ec02 3e3b e11c c3bd 91a5 313d aead d9bd
00000090: a4a0 183d 0522 9ebc b8f4 56bc fe86 ffbd
000000a0: 59f9 843e 3768 0e3f 4a93 aa3d 2057 0bbd
000000b0: 5ded 08be fa06 16bf a384 0fbe 27b5 033e
000000c0: 4e76 17bc 85d0 31bb 9e68 913e 720d 83bf
000000d0: a588 09be 8e7d 0fbd c6f8 86bd ce96 4ebf
000000e0: 5b4f 85bf 43f3 c8be f5ef 303d 098b 303c
000000f0: a8b5 d03b 260e afbe a230 87bf cb39 48be
00000100: 477a 25bb 1671 a33d a4e5 e1bd 9cd0 26bf
00000110: 1825 4dbd ffd4 51be 9002 d33c 38dd 3dbc
00000120: 2bab 3d3d 96df 14ba 3e98 b33e 07b8 45bd
00000130: 568a c23e dbe1 63bf 794a 663d 7876 ce3e
00000140: 6638 093f c5a8 67bc 9291 babb 0a06 53be
00000150: aaff e23c ab0e d13e e438 b7bd 2848 813d
00000160: 88f3 1f3f 1f6c 7c3e d55d 653f 6a75 383f
00000170: 2277 deba dcf2 17bc 2e96 a23d 3178 d4be
00000180: 373d bb3e 6ce8 9d3c d263 09bc 8dcb d63c
00000190: 7dce d0bc 14e5 663e 29a7 d73e c06c 9ebc
000001a0: ebc7 c43c 6f9d 3cbe eeb5 443f eb54 8d3d
000001b0: e9e9 bb3c 9e4f a83d 95d2 753d 6ff1 9dbd
000001c0: 00e5 68be ca94 c5be 87d4 4f3e 58cb 553e
000001d0: fbe6 a33e 4d12 3b3e d09e 003f 6243 c6bc
000001e0: 55e7 67bd a337 c73e ad31 52be 5c5f 3fbe
000001f0: 3d21 d4be 0d9d ddbd 39ad f4bd 2bbc 803d
00000200: dc92 25be ca67 253f 3078 d43c d6d7 393d
00000210: ea64 31bf 7b04 9f3e ccfd 50bf 82ad 21bf
00000220: fa03 88bc 534e f5bb 4110 f73d aae3 dabe
00000230: 815b 883e 8e64 01bd 16de 9b3d bcfc 31bf
00000240: 90bd bdbd 839d 96be 420c 52be 3587 cf3b
00000250: a345 41bc 06d4 ca3d 4a82 34be c28f f03e
00000260: 1e00 813c 9c49 aabe a6a9 123f 247b bcbd
00000270: 8de3 c53c aa08 323b 917d 8bbb 0e33 da3b
00000280: 73d8 3ebe 6dda eb3d f993 a03d cb1f 38bf
00000290: 5189 363c 5f31 d8bc c79c 6e3e a36b ba3e
000002a0: bf6c 733e 909c 19bd 163d a0bc d6d5 e0bc
000002b0: 4a77 8a3e 00f4 023f ddfc f93c ade9 293b
000002c0: 9716 a53d e5a2 34bd a219 d43e 0add 863e
000002d0: 2ec9 3839 922b 87bb c51b 90be 67d5 3abf
000002e0: 6692 973e 97b8 fc3a 3d49 81bd 2f68 b0be
000002f0: d935 e3bd b06d ec3e b9c3 b4be 25ec 2b3c
00000300: f975 cbbc 24ab 5cbe 2cb1 be3d d9a6 06bc
00000310: 8b95 d53c 5eaa 6dbe 9457 0fbd 2a56 5d3e
00000320: 323f 31be afb9 00bf 4c7e f1bc 5746 9bbc
00000330: 1281 013f 2c2b 913f f4e7 303e 9e96 0cbd
00000340: f294 22bc 0350 04be b8aa 4bbf c707 09bf
00000350: a1f5 47bd d339 ea3b 30b2 c23c 9f67 8dbe
00000360: 6252 223d 79a4 193e f2b6 2fbd c62b 053e
00000370: 5109 c8be 92f0 1d3d 4b1c 6fbb 88d8 acbe
00000380: ebc7 34ba c3a5 90bd 040e 033f f54c 7fbf
00000390: 0ff7 b8bd c7e2 1cbd d4e1 24be 139e 7bbe
000003a0: ca35 0cbe a2ba 0a3e 312a 843e fc17 673d
000003b0: 4ec1 573d 6049 583f e1b4 04bf ecb7 173e
000003c0: 1f54 133d 2202 6e3c abe2 e93d 2440 2ebe
000003d0: 8ba9 8f3e d415 923e b01a 863a 525d 8d3b
000003e0: f461 f5bc 4a4c c03e de53 78bd fb5c b83c
000003f0: 2181 863b 2bdf 50be eea4 02bf 5e21 b1be
0.47300446 0.23536333 0.36161575 0.20742846 0.011305308 -0.016935611 0.122726955 0.5495925
0.024865383 -0.015908873 -0.19794987 -0.043833688 0.2329285 -0.1532843 0.2208483 -0.06929187
-0.056106333 0.26505837 0.11607734 0.60654086 0.013788942 0.118964404 0.7990247 0.8645894
0.48833895 0.46772966 0.0002560832 -0.026050476 -0.18202546 -0.18082798 0.052247092 0.022907546
0.002899344 -0.095269926 0.043370787 -0.1062883 0.037262574 -0.019303331 -0.013119869 -0.124769196
0.25971487 0.5562777 0.083288744 -0.034018636 -0.13371797 -0.58604395 -0.1401544 0.12862073
-0.009244515 -0.0027132344 0.2840013 -1.0238478 -0.13431032 -0.035031848 -0.065904185 -0.8069886
-1.0414842 -0.39248094 0.04319759 0.010775336 0.0063693114 -0.34190482 -1.0561717 -0.19553296
-0.0025249885 0.07980554 -0.110301286 -0.6516206 -0.050084203 -0.20491408 0.025758058 -0.011588387
0.046305817 -0.0005679069 0.3507709 -0.048271205 0.37996167 -0.89016503 0.056223366 0.4032476
0.5360168 -0.014139359 -0.005693623 -0.20607772 0.0277098 0.40831503 -0.08946398 0.06312591
0.62480974 0.2465062 0.895963 0.7205416 -0.001697276 -0.009274211 0.07938801 -0.4149795
0.3657014 0.019275866 -0.008385615 0.026220107 -0.025489086 0.22548324 0.4211972 -0.019338965
0.02402111 -0.18419431 0.768401 0.069009624 0.022938685 0.08218311 0.06001528 -0.077120654
-0.22743607 -0.3859008 0.20295916 0.2087835 0.32012162 0.182687 0.5024233 -0.024202053
-0.0566171 0.38909635 -0.20526762 -0.1868872 -0.4143161 -0.10820971 -0.11947102 0.0628589
-0.16169304 0.64611495 0.025936216 0.045371853 -0.6929461 0.31058106 -0.81637263 -0.63155377
-0.016603459 -0.0074861436 0.12063647 -0.4275182 0.26632312 -0.031590037 0.07610719 -0.6952627
-0.09264672 -0.29417047 -0.20512488 0.0063332566 -0.011796388 0.099037215 -0.17627826 0.46984679
0.015747126 -0.33259284 0.5729011 -0.09203175 0.024156356 0.0027165809 -0.004256912 0.006658918
-0.18637256 0.11516271 0.078407235 -0.7192351 0.011141137 -0.02639073 0.23301993 0.36410245
0.23771952 -0.037502825 -0.019560378 -0.027445715 0.27044135 0.51153564 0.030516082 0.0025926635
0.08060949 -0.04410066 0.41425806 0.26340514 0.00017622553 -0.004125067 -0.28146186 -0.72981876
0.2960388 0.0019281086 -0.06312797 -0.34454486 -0.11094255 0.46177435 -0.35305575 0.010493313
-0.024836527 -0.2154966 0.093111366 -0.0082184905 0.026072284 -0.23209521 -0.03499563 0.216149
-0.17309263 -0.5028333 -0.029479168 -0.01895444 0.5058757 1.13413 0.17275983 -0.034323327
-0.009923207 -0.12921147 -0.7955737 -0.5352749 -0.048818234 0.0071480065 0.023766607 -0.2761812
0.039629348 0.15004148 -0.04289908 0.1300498 -0.39069608 0.038559504 -0.003648537 -0.3375895
-0.0006896245 -0.070628665 0.5119326 -0.997268 -0.09031498 -0.03830221 -0.16101772 -0.2457202
-0.13692394 0.13547757 0.2581344 0.056419358 0.052674584 0.8448696 -0.518385 0.14816254
0.035968896 0.014526876 0.114201866 -0.17016655 0.2805904 0.2853228 0.0010231342 0.004314103
-0.029953934 0.37558204 -0.060626857 0.022505274 0.004104749 -0.20397632 -0.5103291 -0.3459577

fc1.bias f4 [32]
00000000: 9d84 173e 8d31 123f 5e59 743e 11ba 023f
00000010: bd3d a0be 0486 4b3e 00ef c1bd 1ba5 c13e
00000020: 63c4 3d3e 5b7b f23e 6d1a 343f ac6c 053e
00000030: a198 883e 34ea 9f3e d07b ca3c 0f62 853e
00000040: 77cd 383f 78a9 003e 1dcf 6f3e 0920 263d
00000050: 28ed 833e 9c7c 84bc 2062 25bd 74dc 8f3e
00000060: 7465 a63e 6ff2 163f 132c 7f3e 56cd 0bbd
00000070: 74c5 093f d3f5 d1bd adc7 2cbd a6de 013f
0.14796682 0.5710686 0.23862216 0.51065165 -0.31297103 0.19875342 -0.09469414 0.37821278
0.18531947 0.47359738 0.7035282 0.13029736 0.26678947 0.3123337 0.024717242 0.26051375
0.72188514 0.12564647 0.23418851 0.040557895 0.25766873 -0.0161727 -0.040376782 0.2809788
0.32499278 0.58963674 0.24919157 -0.03413137 0.53816915 -0.102519654 -0.042182613 0.5073036

fc2.weight f4 [64, 32]
00000000: b5f8 99bb 53d3 7dbe 3945 1d3d 441b eabd
00000010: 9011 9d3e 1a52 8bbf 35ed 3e3e c7fa a4bd
00000020: 52af 2f3d 18f4 863d d0a4 b1bd 6385 c33d
00000030: 32e3 213f a2fd 103e 05f2 ecbd 93c8 143e
00000040: 4a89 0f3f 417e d33e 23df 08bf ebb6 8c3e
00000050: 16bf 93bd d359 493e ce8d 3c3d e33e 2a3d
00000060: cafe e03d c585 17be 2323 ed3d 01f3 cb3e
00000070: e2e0 053e c45b 9bbe 3bad b7bd 1182 8e3e
00000080: dab1 973d 79ed be3b b0a7 893e d359 383e
00000090: e99d 2cbf 9828 673f 5b44 2abe 8374 523e
000000a0: c725 303e 9538 8c3d 65c4 653d 7887 6c3e
000000b0: d943 87bc 79e7 cfbe 614f 2d3e 2747 653d
000000c0: df37 ec3e b386 3c3c c094 2cbf e940 8bbd
000000d0: f353 b1bd 7244 ebbd 10de d0bd 8de2 103e
000000e0: 3c43 813b 5bde 1fbe f2bd a33e 2f4f 7cbe
000000f0: e741 7d3d 673e bc3d d814 aa3e 838b 613e
00000100: 9295 48be 0d87 b23e 90cc 0fbd 2ca4 903e
00000110: 83f7 debd 5109 c23d 5504 2f3e 3f7f 453e
00000120: 9cd8 ce3d c067 e73d 50f3 a23e d26f 9c3e
00000130: ac75 fc3d 250f 813e 9c34 89bb 37b9 893e
00000140: e5c5 8fbd 4bd0 c33d 3440 483e 5d03 a03d
00000150: 7a14 163d f736 8a3c ea35 88bd 381e be3d
00000160: 7ea9 2ebc 5a9d 973d bbbb f83d cab4 f43c
00000170: d887 9b3c e946 06be 249f 14be ffd1 353e
00000180: dc37 7d3e c58c 14bd 0789 553e 949c f2bd
00000190: c128 e33c 5308 823f d929 313d 41ea c1bc
000001a0: c510 ac3e f951 bebe 136c 38be c0cb d23c
000001b0: f9bd acbe 14c1 9abe 0577 60be b361 ab3e
000001c0: 0ac5 983d d6ce 783e 4c86 abbd 5a4a 88bd
000001d0: f43f a53e 2002 233d e218 89be 6017 cfbf
000001e0: 5427 9d3e 5954 03be 4ff9 393d 7ed2 32bf
000001f0: cdd0 773e 50ca df3d 0d17 14bd 872a a7be
00000200: 82bf 70bd 9e29 9b3e d508 ce3e c54f 833e
00000210: b92f 61bc c15b e0bd 8be4 8b3d cc84 b7be
00000220: 4f70 c2be b6fc b4be 52ca 9f3e 18c0 8f3d
00000230: f488 24bf 04e3 073e 0059 053e 2425 b6bd
00000240: 1383 aebe ac51 053e f0f8 403e f935 65bd
00000250: fb79 f43d a10f e5bd 521f 08bf ea6f 573c
00000260: a9e9 1c3f 30c7 c33d aa8a 7d3d 7a81 213e
00000270: bbf8 05bd 89ef 653e f277 e3be 2a57 953e
00000280: 4944 213e 938f 5c3e f509 273e 116a 073e
00000290: 3d66 12bc 47c2 f83b ad94 35bc 1a4f 3ebe
000002a0: 34d0 843e d4a6 d9bd abd1 963e 3030 b03e
000002b0: c8fd 87bd be3e 20bd b75c 613d d538 893c
000002c0: 8012 08bd df03 59be 1d39 3c3e a77c cc3d
000002d0: e7d7 3f3e ad5d 223e 06c6 8d3d e7a0 7cbd
000002e0: 4ae0 313d 1c7b fe3d 2d1a 623d cc56 19be
000002f0: 4ff1 6f3d f893 0a3e a227 683d 3400 263e
00000300: 510c cdbd 8f49 dd3d 9e0b f33d edce 773e
00000310: 0f4a d23e 7756 f2bb e99a b5bd 2eca eabd
00000320: 8b00 003e 47f5 e13d f23e b23e abe0 993e
00000330: da2b 2f3d b2a0 733e 7f7d 14be d972 51be
00000340: 79c6 373e 440c 3abe 218f 4d3e a672 b9be
00000350: c210 6b3d 4b79 73be 91cb a4be bd35 98bb
00000360: 560e 5f3e 3e4f e63c 0d87 843e 3e70 80be
00000370: 6042 fdbc e3a1 883e 0207 30bd 6efc 9d3e
00000380: 62b5 2bbf 6cc7 68ba bc0d 133f 0421 47be
00000390: 8ae9 563e dca1 51bd e1ac 833e ddc8 2a3f
000003a0: 0af6 833d 384c d4be a5e9 c93d bd68 d43d
000003b0: 136c 5fbe c780 3b3e d4d8 9bbc 51eb 25bd
000003c0: 04cb 2d3d 2505 c23d 07a8 c2be 8a8e 6b3f
000003d0: 2e82 4bbf 1838 093e a3f7 f8be 6b91 13bf
000003e0: db5b ba3d 3b30 81bc 0886 40be 2971 d23e
000003f0: c4f2 dd3d 6946 d9be a979 debe 6a3c 183e
-0.0046988376 -0.24787645 0.038396094 -0.11430982 0.30677462 -1.088443 0.18645175 -0.080556445
0.042891808 0.06589526 -0.086740136 0.09546926 0.632373 0.14159253 -0.11569599 0.14529638
0.5606886 0.41307262 -0.5346548 0.27483305 -0.07214181 0.19663171 0.046033673 0.04156388
0.10986097 -0.14797123 0.115789674 0.39833835 0.13074067 -0.3034345 -0.08968588 0.27833608
0.07406969 0.005826649 0.26885748 0.18003015 -0.6742845 0.90296316 -0.16627638 0.20552258
0.17201911 0.0684673 0.0560955 0.23098552 -0.016511844 -0.40606287 0.16924812 0.05597606
0.46136376 0.011506724 -0.67414474 -0.0679949 -0.0865859 -0.11487664 -0.10198605 0.14148922
0.0039447825 -0.15612166 0.31980854 -0.24639581 0.061830427 0.0919159 0.33219028 0.22025876
-0.19588307 0.3486866 -0.035107195 0.28250253 -0.10887053 0.09474433 0.17091496 0.19286822
0.10099909 0.112990856 0.31826258 0.30554062 0.12327132 0.25206867 -0.0041871797 0.2689912
-0.07020167 0.09561213 0.19555742 0.078131415 0.03664062 0.016871912 -0.06650908 0.092831075
-0.010660527 0.07403059 0.12145182 0.029871363 0.018985674 -0.13112988 -0.14513832 0.17755888
0.2472834 -0.03626706 0.20853053 -0.11846271 0.027729394 1.015879 0.0432528 -0.023671271
0.33606544 -0.37171915 -0.18009977 0.025731921 -0.33738688 -0.30225432 -0.21920402 0.33472976
0.07459457 0.24297652 -0.083752245 -0.066548064 0.32275355 0.03979695 -0.26776797 -1.6179008
0.30694067 -0.12825145 0.045403775 -0.69852436 0.24200745 0.1092726 -0.036154795 -0.32649633
-0.058776386 0.3030519 0.40241113 0.25646797 -0.013744288 -0.10955001 0.068307005 -0.35843503
-0.3797631 -0.35349053 0.31209046 0.07019061 -0.64271474 0.13270193 0.13022232 -0.08893803
-0.34084377 0.13019437 0.18844962 -0.055959675 0.119373284 -0.111846216 -0.5317279 0.013149241
0.6129404 0.095594764 0.06189982 0.15772048 -0.03270791 0.22454657 -0.4442745 0.29168063
0.15748705 0.21539144 0.16312392 0.13224055 -0.008935508 0.007591519 -0.01108281 -0.18584862
0.25940096 -0.10627523 0.2945684 0.34411764 -0.06640202 -0.039122336 0.05502006 0.016750732
-0.033220768 -0.21192883 0.18381162 0.09984713 0.18734704 0.15856047 0.069225356 -0.061676886
0.04342679 0.12425825 0.055200744 -0.14974517 0.05857974 0.13533008 0.05667842 0.16211015
-0.10012115 0.10805046 0.1186745 0.2420003 0.41072127 -0.0073955613 -0.088674374 -0.11464344
0.12500207 0.11033111 0.34813648 0.3005422 0.04276643 0.23791769 -0.14500998 -0.20453967
0.17946805 -0.18168741 0.2007413 -0.36220282 0.05738903 -0.23776738 -0.3218656 -0.004645078
0.21782812 0.028113957 0.25884286 -0.25085634 -0.03091544 0.2668601 -0.042975433 0.3085665
-0.67073643 -0.0008879814 0.5744283 -0.19446188 0.20987526 -0.05117975 0.25717834 0.66712743
0.064434126 -0.414644 0.09859017 0.1037154 -0.21818571 0.18310843 -0.01902429 -0.04050762
0.04242994 0.094736375 -0.3801882 0.9201437 -0.79495513 0.13400304 -0.48626432 -0.57643765
0.09099551 -0.015770068 -0.18801129 0.4110196 0.108373195 -0.4243653 -0.43452194 0.14866796

fc2.bias f4 [64]
00000000: 784b 483d 7721 983d ed14 9d3e 3ea9 8dbc
00000010: 8b11 713e 4fa2 993e 133b ab3e 206f e63d
00000020: 059e e1bb 399e c23e 444b 133e b340 373d
00000030: 72fa 1a3d 9608 423d 234d 11bd 74a9 b83c
00000040: 1a2e 383e 24d3 2ebe 2ba8 9f3e c105 e639
00000050: 0e38 e13e e341 f63e 17b1 9b3e 3be7 e43e
00000060: 5b95 743e 33a6 c43e bdd9 723d 18f5 d83e
00000070: e139 e43d 3916 cf3e 64a6 423e 1f97 6bbd
00000080: 81db ebbb 522b 433e 5465 a13e c0c8 e0bd
00000090: a2e1 ff3e 81eb ed3d d2c2 2e3d 2017 00be
000000a0: 229b d4bb 3a4d fe3d 6e1b 3f3e 42d6 a23e
000000b0: a8a9 803e 1f84 a63e 451d c5bd 2772 863e
000000c0: c98b d63e f0f6 ae3e bad5 843e 399d 8e3e
000000d0: 49be d23e 15c0 673e 52cd 853d 7cc6 03be
000000e0: 2fca 943e 96ad 033e abbb cb3e 4239 fa3e
000000f0: d206 1e3e d1ee a03d bbc3 00be 24b3 713e
0.048900098 0.07428258 0.30680028 -0.017292615 0.23541848 0.30006644 0.33443508 0.11251664
-0.0068852925 0.3801134 0.1438418 0.044739436 0.0378365 0.04737147 -0.035473954 0.022541739
0.17986336 -0.17072731 0.3118299 0.00043873306 0.4398808 0.48097143 0.30408546 0.44707665
0.238851 0.3840805 0.059289683 0.42374492 0.11143852 0.40446642 0.19008785 -0.057517167
-0.0071977978 0.19059494 0.3152262 -0.1097579 0.49976832 0.116171844 0.042666264 -0.12508821
-0.00648822 0.124170735 0.18662807 0.3180409 0.25129437 0.32522675 -0.09624723 0.26258966
0.41903523 0.34172773 0.2594431 0.27854326 0.411608 0.22631867 0.06533302 -0.12868685
0.29060504 0.12859187 0.39791617 0.4887181 0.15432289 0.078580506 -0.12574665 0.23603493

fc3.weight f4 [128, 64]
00000000: dc79 5cbf 1081 6cbf ae94 863d 1de4 4bbe
00000010: 050e 793e 47fd 213e adeb 20bc 9e1b 273f
00000020: 5956 f9bc e324 d1bd 6def 093f 5cef 90bd
00000030: c04b 1abd 1236 2a3e 1ce6 c03d 22f7 dd3e
00000040: 3311 f1bd 2dee a63e e95f 8b3d ac66 ba3d
00000050: ab4e 85be a45f 553c f1aa 153c a7a8 823d
00000060: 6749 b6be 24ba 14bd 5aea cdbd 474d 2abe
00000070: e525 7ebd 47b9 da3d 2016 8139 0f36 eebe
00000080: 4973 d6bf 659d 24be f1e0 523e 1cac df3e
00000090: 32c6 aabd daa8 9ebe d6a1 b8be 9a42 06be
000000a0: ff95 9fbf 1a6c 19be e350 37bd c0af 493e
000000b0: 751a a73d 0b9d ab3d d97e fa3c 7a5c 603d
000000c0: 8fcc b93d 90f2 be3c 6145 b9be 4ff0 14be
000000d0: c6c2 083e f58b 843c 862e 5cbe 34ce 803e
000000e0: 0161 833e db56 3abf a40b 2abc 7007 423e
000000f0: be5b 74bf 750e 92be 9f80 b13e 0882 cc3d
00000100: 35e8 e8bd d922 153e 903d d6bd f995 69bd
00000110: e8b2 86be 2eeb 53ba e24b 19bd 1cc8 833d
00000120: f7c2 bbbd f85c 8abe f05d c23d 6a3c 33bd
00000130: d48f f73d 6b24 9fbd 88b0 7a3e a428 87be
00000140: 767a 953d 8b50 43bf 6635 0fbe cb92 61bd
00000150: 2a9c 133c a24f 2ebd ac85 4ebd 9e01 e3bd
00000160: 8f7b 02be 43c9 9b3d 946e 21bd 622f 46bd
00000170: cf6d 963c d11c 6fbd 4804 47bd 5e8d eabd
00000180: 00f4 e93c 916a 283d cea8 fcbd 3afc 973d
00000190: 7f6d 783d 676d 863d c525 3f3c b60f 03bd
000001a0: 23fc 2b3e 73c5 ebbc b868 41be 9caa ab3d
000001b0: c485 1dbe a7b2 7d3d 5cad e2bd 697f 0ebc
000001c0: dd23 e2bd 16b2 2a3d d78a 083e 6915 a0bc
000001d0: bfc9 0d3c 3971 b23e 0303 223d 4a4e e83d
000001e0: 6da4 c0bd 3d0d 6ebd 39d6 a53d 2095 5abd
000001f0: d786 9ebd f166 15be c117 29be cfea 1d3d
00000200: 5563 3c3e ebe5 9a3e 22a0 413e b2e5 9f3e
00000210: b7d9 873e d264 903d 3576 843e 0e72 3c3e
00000220: b436 083e 7ccb f23e 1166 2abe 63c7 45bd
00000230: 596a 6c3d 9a78 913e aa12 71bd 238a a53e
00000240: 90b1 9f3e ed84 e13e 0117 283e 5ac3 e4bd
00000250: 8412 8d3e 5012 7b3e 4517 0f3e 9696 863e
00000260: d2d3 a53e de80 1b3e 7ed6 3e3d 7f8a a53e
00000270: 705b 993d 048e 403e 710c f03c ca07 0a3f
00000280: 7384 083e a557 463e afaf 3e3e 602e 5d3e
00000290: 6268 973d dc8e e83d b30f 1f3e 264d 0f3e
000002a0: 00f2 05bd 54a6 8f3d 0c12 823e 1095 0e3e
000002b0: ada3 603e 4022 ed3d 3be1 98bc e7f1 6c3e
000002c0: c723 443e c658 413e 63d1 573e 1c3a 983d
000002d0: c2d2 a23e 6383 153e d197 d6bd 9f47 293f
000002e0: 301b 793e 2679 2d3f 6a11 7a3e db4b 813e
000002f0: 2f7a 6a3d b3a7 8b3d 5311 ee3e 4c4b 013e
00000300: 6a5c c83e af3f 6a3e 6bab e9bd d4fb 35be
00000310: cec1 7abe 067e 9dbd b06b ab3c 4831 c0be
00000320: cb76 973f f7d6 9b3d 80da 693e 989f f5bc
00000330: eaa7 8abd 5de5 723e 5e47 90bd cf76 42bd
00000340: e73b 39bd a72b 723f f602 713e 5ccd 9f3d
00000350: 1164 8f3c 1c0c 2a3d 439f d63d 0e31 413e
00000360: 011d 113f 569d 3a3c e8fd b4bc 52e3 ffbd
00000370: 9aad 00be 0e97 87bc c8af 94bd c095 7cbe
00000380: 91be 593e fa73 ddbd ed58 a23d 0aa6 ee3c
00000390: ccc7 4dbe 9c97 9bbe 1621 95bc f91e 7e3d
000003a0: 7285 c1be ebc2 c93d 67a6 59be 9a26 2e3d
000003b0: 408b 7a3e ecbb e33d c4cd fdbe 0180 f8bd
000003c0: 95fe d6bd 0ecf 40be af38 d7bd 2a22 f7bd
000003d0: 7682 e23d c2cf c73e 5c46 973d 3763 b5be
000003e0: 818c 11be 181e 063e 7cde be3d e2f1 7ebe
000003f0: 9b27 fc3c 7eb6 033f 1be8 843d f9f6 4a3e
-0.8612344 -0.92384434 0.06571327 -0.19911237 0.24321754 0.15819274 -0.0098218145 0.65276515
-0.030436682 -0.10212114 0.5388096 -0.07076904 -0.037669897 0.16622189 0.0941889 0.4335261
-0.117708586 0.3260359 0.06805403 0.09101614 -0.2603658 0.013023291 0.009134994 0.06379824
-0.35602877 -0.03631033 -0.10054465 -0.16631041 -0.062047858 0.1067987 0.00024621282 -0.46525618
-1.6753932 -0.16075666 0.20593621 0.43685997 -0.08338584 -0.309882 -0.3606097 -0.13111344
-1.246765 -0.14982644 -0.044754874 0.1969595 0.08159343 0.08379563 0.030578064 0.054775693
0.090722196 0.023309022 -0.36185744 -0.14544795 0.1335555 0.016180018 -0.21502122 0.2515732
0.25659946 -0.7278878 -0.010378752 0.1894815 -0.9545249 -0.28526655 0.34668443 0.09985739
-0.11372415 0.14564075 -0.10460961 -0.05702779 -0.2630837 -0.0008084056 -0.037425883 0.06434652
-0.09168046 -0.27024055 0.094905734 -0.043758787 0.1208798 -0.07770618 0.24481404 -0.26398194
0.07298748 -0.76294774 -0.13985214 -0.055071633 0.0090094 -0.042556413 -0.05042045 -0.11084293
-0.12742446 0.07606747 -0.039412096 -0.04838503 0.018362908 -0.05837709 -0.048588067 -0.11452745
0.028558731 0.041117255 -0.123368844 0.07421155 0.0606513 0.065638356 0.01166672 -0.031997405
0.16795401 -0.028780675 -0.18887603 0.083821505 -0.15383059 0.061937954 -0.11068222 -0.008697369
-0.11041997 0.041673742 0.13334213 -0.01954146 0.008654057 0.34852007 0.039553653 0.113430575
-0.09406362 -0.058118094 0.080975 -0.053364873 -0.077405624 -0.1459005 -0.16512968 0.03855401
0.18397267 0.30253538 0.18908742 0.3122993 0.2653329 0.0705048 0.25871435 0.18402883
0.13302118 0.4742087 -0.16640498 -0.048285853 0.05771861 0.28412324 -0.05885569 0.32331952
0.31190157 0.44046727 0.16415025 -0.11170073 0.2755319 0.24518704 0.1397372 0.26286763
0.3238817 0.15185878 0.046591274 0.32332227 0.074881434 0.18804175 0.029302808 0.53918135
0.13331775 0.19369371 0.18621705 0.21599722 0.07392956 0.11355373 0.15533333 0.13994274
-0.032701492 0.070141464 0.25404394 0.1392405 0.21937437 0.11578798 -0.018662086 0.23139153
0.19154273 0.1888152 0.21075968 0.074329585 0.3180142 0.14600901 -0.104781754 0.6612491
0.24326777 0.6776298 0.24420705 0.25253186 0.05724543 0.068190955 0.46497592 0.1262638
0.39133006 0.22875856 -0.114096485 -0.17771846 -0.24487993 -0.07690053 0.020925373 -0.375376
1.1833128 0.07609361 0.22837257 -0.029983327 -0.06770308 0.23720308 -0.07044862 -0.047476586
-0.045223143 0.9459786 0.23536286 0.07802841 0.01750377 0.041515455 0.104795955 0.18866369
0.5668488 0.011390051 -0.022093728 -0.1249453 -0.12566224 -0.01655152 -0.0726009 -0.246665
0.21264102 -0.108131364 0.079271175 0.029131908 -0.20095748 -0.30389106 -0.018204253 0.062041257
-0.37797123 0.09851631 -0.21254884 0.042517282 0.24467182 0.11119828 -0.4957105 -0.1213379
-0.104977764 -0.18828985 -0.105088584 -0.12067063 0.1106004 0.39025694 0.07386467 -0.35427257
-0.14213754 0.13097417 0.09319779 -0.24896958 0.030780604 0.51450336 0.06489583 0.19820775

fc3.bias f4 [128]
00000000: e480 ecbd eac3 b3bd 494f eb3e bad8 88be
00000010: 7b57 0fbe b8f4 b83e 0e91 cb3a f146 2bbe
00000020: b21b 7c3d e6af cf3d e63d e13e 8f59 a73e
00000030: 5444 82be 408f d73e 8c4a 1bbd f395 ce3e
00000040: e878 b0bc 1088 8b3e 0bd1 11bd 7553 df3e
00000050: 18b4 663d d2b5 a33e 9a29 5ebe 8a56 e5bc
00000060: 3026 083e e517 013f 5430 0cbe e365 44bd
00000070: d9c2 37be bfe7 81bd e922 6cbd f962 d33e
00000080: 8c5f 953e 0fb8 963e ad8d 9d3e 18a7 f23e
00000090: 14a1 983e 3726 39be 21f3 9cbd 2738 83be
000000a0: b40b 43bd a115 a33e 40b1 4b3d 7f29 873e
000000b0: bd3c a7bd abb7 e33e f05c 973e 9503 14be
000000c0: 5645 ff3e 6f30 a83e 927f cc3e 56c5 e93e
000000d0: ebb1 c43e 2a69 8f3e fe87 903e ec79 90bd
000000e0: 7e63 73bd 19f1 2b3d 8a0d 8e3c 0d2e 883e
000000f0: b76a 963e c14d d53e 90fc c23e 0363 d43e
00000100: 5daa b13e 1a43 dc3e 27d0 443d 68ff 283b
00000110: ab31 3dbe 903a c33e c88b 0dbd 24d7 6f3e
00000120: 9fd9 223e dc0f 37bd 94b6 853e 1c76 94bc
00000130: 2638 8bbb 3ddd a53e 38ff a53e 2332 c03e
00000140: 904a e63e 0b99 573d ea87 bb3e 7652 a43e
00000150: c8fa fbbd 54ba f93b 57ef fa3e e5c0 28be
00000160: 930b 8e3e 587d dabd 03f1 9f3e b90f b23e
00000170: dc5f de3e ffda 36be 1e36 943e 3d2f 64bd
00000180: c11b be3e 788a 94bd 305b 4dbc 695e d3bd
00000190: b669 4b3d a0ed 0abe a2c8 93bd 3d90 43be
000001a0: d413 86bd 70d1 eabd d563 ea3e ebca 2bbe
000001b0: c5c0 67be 53eb a93e 3bfe 6dbc f408 013f
000001c0: 0306 e3bc 17d4 ba3e 62a3 3ebd 3533 0bbe
000001d0: 8080 9b3e 2716 b73e 3c61 7dbd 7a49 38be
000001e0: b787 f83c 2309 703e 5a01 a93e fcad b83e
000001f0: 4cf6 eebc 234a af3e 4df4 e43e 9c6d b23e
-0.115480214 -0.08777602 0.45958927 -0.2672785 -0.13998215 0.36124206 0.00155309 -0.16726281
0.06154985 0.10140972 0.43992537 0.32685515 -0.25442755 0.4210148 -0.03791289 0.40348777
-0.021542028 0.27252245 -0.03559975 0.4361836 0.056324095 0.31974655 -0.21695557 -0.027995367
0.13295817 0.50427085 -0.1369031 -0.04794873 -0.17945422 -0.0634303 -0.05765048 0.41286448
0.2917446 0.294373 0.30772153 0.47393107 0.29810393 -0.18080984 -0.07663561 -0.25628778
-0.047618583 0.3185244 0.049729586 0.26398847 -0.08165882 0.44476065 0.29563093 -0.14454491
0.49857587 0.32849452 0.39941078 0.45658368 0.3841699 0.2800992 0.28228754 -0.07054505
-0.059421055 0.041977976 0.01734044 0.26597634 0.29378292 0.41660884 0.38083315 0.4148179
0.3470029 0.43019944 0.048050072 0.0025787 -0.18475978 0.38130617 -0.034557134 0.23421913
0.15903328 -0.04469286 0.2611586 -0.018122725 -0.004248637 0.32395354 0.3242128 0.3753825
0.44978762 0.052636188 0.36627132 0.32094163 -0.12303692 0.007621089 0.49010727 -0.16479833
0.27743205 -0.10668439 0.31238565 0.3477762 0.4343251 -0.17856978 0.28947538 -0.055709112
0.3713055 -0.07252973 -0.012533948 -0.10320742 0.04966136 -0.13567209 -0.07216002 -0.19097991
-0.06546751 -0.11465728 0.4577929 -0.16776626 -0.2263213 0.3318735 -0.014525945 0.50404286
-0.027712828 0.36489937 -0.046542533 -0.13593753 0.30371475 0.35759088 -0.061860308 -0.17996779
0.030338151 0.23440985 0.33008844 0.3607024 -0.029170178 0.3423625 0.44717637 0.3484925

v.weight f4 [1, 128]
00000000: c4cf 833f c038 efbb 4930 8fbe d005 623f
00000010: 1b82 373f 5b49 79be 3b24 ef3e eb19 043f
00000020: 8c29 853c 5c53 893d a407 85be b7dd 9fbe
00000030: c2fa b63e 6d2a 85be fc9d 343f f44a 78be
00000040: 7ebe 9dbc b9cb 80be d505 923d 7bc2 74be
00000050: dba2 f4bc 9b59 99be 5b86 163f cb65 a83d
00000060: 063b 29bf aca4 70be b7e6 893f 8403 b93d
00000070: 9992 6e3e de02 f93e 89e9 a03c 8d27 66be
00000080: 6390 7cbe f381 82be 9590 6bbe 83c0 6bbe
00000090: f66c 71be 90ca 6b3f 73bd a23c bbc6 a33f
000000a0: 6ee2 ed3e e4da 93be 1f9a 0f3f 2cea 83be
000000b0: 11ca 623f 3b61 87be 4368 8ebe cd14 463f
000000c0: 7774 84be e6da 7bbe f19a 81be d8de 7ebe
000000d0: 223b 6cbe 5dd0 cabe cccd 86be 7d60 123f
000000e0: c95f cc3b a429 ac3b 4c8b 053b f102 77be
000000f0: 667e 81be a470 92be a300 6dbe 3acc 9dbe
00000100: 8f5f 70be f51d 9abe 8916 9d3c 32c7 aebd
00000110: bf38 6b3f 2372 87be ece5 163f f668 9dbe
00000120: 75a5 94bf 4f53 a5bd cb5c 84be f053 223f
00000130: 22e9 e03e 9ccb 91be 0cdc 7abe c6a5 8abe
00000140: 912e 80be aef7 043f 034e 85be fd3b 93be
00000150: 0a79 09bd 9ab7 5ebf 2c2b 8ebe e719 513f
00000160: 4593 81be 4daa f6bb 5094 78be 2f53 aebe
00000170: d682 59be 5f30 6d3f c97c abbe 5237 c73e
00000180: 17cd 8abe 4fc7 78bf 976f 0f3d 81fd 573f
00000190: f206 883d 2681 4c3f 7138 8abc 9d9f 483f
000001a0: 5cb4 3d3e 1f81 763d 4323 afbe 34a8 683f
000001b0: 2a75 e13e 73af 70be 900d 21ba 4611 81be
000001c0: b6e7 393f b3ad 86be 5562 253f a9b0 a13e
000001d0: 32b1 72be 102d 94be 6e82 a43e ae80 803e
000001e0: 80a2 213c 7688 97be 5970 c0be 528f 89be
000001f0: 26c9 d83c 5ddc 96be 8775 8fbe 6168 80be
1.029778 -0.0073004663 -0.27966526 0.8829012 0.716829 -0.24344389 0.4670733 0.5160205
0.016255163 0.06705353 -0.25982392 -0.31223843 0.35738188 -0.2600893 0.70553565 -0.24247342
-0.019255873 -0.25155428 0.071300186 -0.23902313 -0.029862812 -0.29951176 0.5879876 0.082225405
-0.6610569 -0.23500317 1.0773534 0.09033874 0.2329811 0.48635 0.019642608 -0.22476025
-0.24664454 -0.25489768 -0.23004372 -0.23022656 -0.23576722 0.9210596 0.019865727 1.2795023
0.46461815 -0.28877938 0.56094545 -0.25764596 0.8858958 -0.26441368 -0.2781392 0.7737549
-0.25870106 -0.24595222 -0.25313523 -0.24889696 -0.23069432 -0.39612094 -0.26328886 0.5717848
0.0062370044 0.0052539874 0.0020377217 -0.24122216 -0.25291747 -0.28601563 -0.23144774 -0.30819875
-0.23473953 -0.3010098 0.019175785 -0.08534087 0.9188346 -0.26454267 0.5894458 -0.3074414
-1.1612993 -0.080725305 -0.25852045 0.6340933 0.43927866 -0.28475654 -0.24498004 -0.270796
-0.25035527 0.5194043 -0.2603608 -0.28756705 -0.033562697 -0.86998904 -0.27767313 0.8168015
-0.2530767 -0.0075276257 -0.24275327 -0.3404784 -0.21241316 0.92651933 -0.3349364 0.38909394
-0.27109596 -0.9717912 0.03501853 0.8437119 0.0664195 0.79884565 -0.016872616 0.7836855
0.18525833 0.060181733 -0.3420659 0.9088166 0.44034702 -0.23504429 -0.00061436836 -0.2520849
0.7261919 -0.26304397 0.6460317 0.31580094 -0.23700407 -0.2894063 0.3213076 0.25098175
0.009865403 -0.295963 -0.37585714 -0.26867157 0.026463103 -0.29465 -0.28019354 -0.25079635
