SAC/critic2_v3.pth (torch, 46095 bytes, 7 tensors)

fc1.weight f4 [32, 11]
0	0xbf352193	-0.70754355
1	0x3eb60944	0.35553944
2	0x3f0af929	0.5428644
3	0x3eb4ce53	0.35313663
4	0x3e13773b	0.14400952
5	0x3e0a2b70	0.13493133
6	0xbec35cee	-0.38156837
7	0x3f3cc600	0.73739624
8	0x3e13696f	0.14395688
9	0x3e56f3ca	0.20991436
10	0xbdf272d0	-0.11838305
11	0xbd635195	-0.055497725
12	0x3ea61a54	0.32441962
13	0xbe8b88db	-0.2725285
14	0x3dd58426	0.10425596
15	0xbd627b02	-0.05529309
16	0xbdafd506	-0.08585553
17	0x3e4b849d	0.19874807
18	0x3eb7ac6f	0.35873744
19	0x3f227548	0.63460207
20	0xbcf55920	-0.029949725
21	0x3e0fb12d	0.14032431
22	0x3f2c6b22	0.6735097
23	0x3e6ce546	0.23134336
24	0x3e8f07cc	0.27935636
25	0x3c973b0e	0.018460777
26	0x3d26b32f	0.040698227
27	0xbdf10b1c	-0.11769697
28	0xbdb6b6b0	-0.089215636
29	0xbf076ffe	-0.5290526
30	0xbdea2b9d	-0.114341
31	0x3e717bf6	0.23582444
32	0x3e1409ce	0.14456865
33	0xbebbb157	-0.36658737
34	0x39384dd0	0.00017576595
35	0xbd32d71a	-0.043662168
36	0x3d7ac8db	0.061226707
37	0xbbdc231b	-0.006718052
38	0xbc72f4a8	-0.014828838
39	0xbde2c7d4	-0.110732704
40	0xbe49b6c2	-0.19698623
41	0x3ef71e4b	0.482653
42	0x3c0992e2	0.008396836
43	0xbdb4d09c	-0.088288516
44	0x3f43d2e4	0.7649367
45	0xbe35558b	-0.17708413
46	0x3db387a3	0.08766105
47	0x3d92b56a	0.07163508
48	0x3ccda0bc	0.025101058
49	0xbe1b4708	-0.15163815
50	0x3ec61053	0.3868433
51	0xbea43133	-0.32068786
52	0x3d5c55af	0.05379265
53	0x3c276b1f	0.010218411
54	0x3cae8965	0.02130575
55	0x3f3b2578	0.7310405
56	0xbe554091	-0.20825411
57	0x3f18d5e5	0.5970138
58	0xbe2004e5	-0.15626867
59	0x3d2ea4a0	0.042637467
60	0x3d389e65	0.04507293
61	0xbde3ee9b	-0.11129495
62	0xbf0fbed7	-0.56150573
63	0xbdb689f5	-0.08913032
64	0x3c57dbbc	0.013174947
65	0xbc5ee8bb	-0.013605292
66	0xbf3ecea1	-0.7453404
67	0xbdbab0b8	-0.09115738
68	0x3d845ded	0.064632274
69	0xbe82fc07	-0.25582907
70	0x3e2acbb3	0.16679268
71	0x3bec75d9	0.007216197
72	0x3e8f316e	0.279674
73	0xbe0e4d21	-0.1389661
74	0x3edad802	0.42742926
75	0xbde1729e	-0.110081896
76	0x3c406ea6	0.011745131
77	0x3e8d35e5	0.2758018
78	0x3e8513e2	0.25991732
79	0x3d7b0df0	0.06129259
80	0x3f022683	0.50840014
81	0x3cbcd0f6	0.02304886
82	0x3e107338	0.14106452
83	0xbeab9d0f	-0.33518264
84	0xbefb350c	-0.4906391
85	0xbf06e290	-0.52689457
86	0x3da81b22	0.082083
87	0xbdbddd93	-0.092707776
88	0xbd65e5d5	-0.056127388
89	0x3cef18c4	0.029186614
90	0x3f893c5d	1.0721546
91	0x3ea5682c	0.3230604
92	0x3c9915bf	0.018687127
93	0x3b86a2b8	0.004108753
94	0xbda59f99	-0.080870815
95	0xbf2a9ad9	-0.6664253
96	0x3e31ccd3	0.1736329
97	0x3c606bf9	0.013697618
98	0xbb6cacc2	-0.0036113714
99	0xbeed915f	-0.46399972
100	0x3e48da45	0.19614513
101	0xbe2e8d6d	-0.17046137
102	0xbe36acd9	-0.17839374
103	0xbda84789	-0.08216769
104	0xbe19e2c8	-0.15027916
105	0x3e729ca4	0.23692566
106	0xbf22f661	-0.63657194
107	0xbdaf2c47	-0.08553367
108	0xbe1e948e	-0.15486357
109	0xbe192b57	-0.14957939
110	0x3df5154b	0.11966952
111	0x3c7c3145	0.015392606
112	0xbeae892b	-0.34089026
113	0xbeaf5ffe	-0.34252924
114	0x3e483eb9	0.19555177
115	0x3e56c772	0.2097452
116	0x3e99ca54	0.30037177
117	0x3ebe160c	0.37126195
118	0x3edd4a34	0.43220675
119	0xbd831b58	-0.064017
120	0xbdc0f377	-0.09421437
121	0x3f0d4873	0.55188674
122	0xbe4a156f	-0.19734739
123	0x3d966b05	0.07344631
124	0xbe68c14c	-0.22729987
125	0xbe2f98ff	-0.17148207
126	0xbde44d20	-0.11147523
127	0xbd734358	-0.059390396
128	0xbd3441a4	-0.044007912
129	0x3f1934b3	0.5984604
130	0x3d80ae27	0.06283217
131	0xbd3b3db8	-0.045713156
132	0x3f18d349	0.59697396
133	0xbe7582a8	-0.23975623
134	0x3e36f2fd	0.1786613
135	0x3e5a822f	0.21338724
136	0xbd38c6dd	-0.045111526
137	0xbd3c08da	-0.04590688
138	0x3ef48d3c	0.47764003
139	0x3e443dba	0.19164172
140	0x3e3f7075	0.18695243
141	0x3d54852a	0.051884808
142	0xbc4b6e1a	-0.012416387
143	0xbcfe37aa	-0.031032402
144	0x3e2348b0	0.15945697
145	0x3e5d18c9	0.21591486
146	0x3deb888c	0.115006536
147	0xbc61ba4b	-0.013777326
148	0x3d3f203e	0.046661608
149	0xbd26d963	-0.04073466
150	0xbe80858b	-0.25101885
151	0x3f101eaa	0.5629679
152	0x3dafc12d	0.08581767
153	0xbe0b3a4d	-0.13596459
154	0x3f499d6c	0.7875583
155	0xbd1c5e09	-0.038175616
156	0x3e8ae100	0.27124786
157	0xbe1160db	-0.14197104
158	0x3dfb555a	0.12272139
159	0x3c413cbb	0.011794264
160	0xbdad00a6	-0.08447389
161	0xbf2eb399	-0.68242794
162	0x3bd2dc00	0.0064349174
163	0xbeea5baa	-0.4577306
164	0xbcb2b0d6	-0.021812838
165	0xbc4ac480	-0.012375951
166	0xbc2fc189	-0.010727295
167	0xbeab5a1e	-0.3346719
168	0x3e91eebe	0.28502458
169	0x3c5dadc3	0.013530198
170	0xbca50970	-0.020146102
171	0x3ea29d10	0.31760454
172	0xbda97e5c	-0.08276054
173	0x3eadd74b	0.33953318
174	0x3c67cd3c	0.014148053
175	0xbb906e3b	-0.0044076717
176	0x3f427cc0	0.75971603
177	0x3dc4b038	0.096039236
178	0x3f4db73e	0.8035773
179	0xbd38a1b9	-0.045076106
180	0x3d128d46	0.03577926
181	0xbccaddd3	-0.024763977
182	0xbf0dad4b	-0.5534255
183	0xbe859091	-0.26086858
184	0x3d67a1eb	0.0565509
185	0xbc8b7363	-0.017022794
186	0x3caafaf6	0.02087162
187	0x3e055138	0.13019264
188	0xbf58e5c2	-0.8472558
189	0x3e0d621b	0.13806956
190	0xbe80a6d4	-0.2512728
191	0x3d7007d0	0.0586012
192	0x3ae4f480	0.0017467886
193	0xbd80540b	-0.0626603
194	0x3e672748	0.22573578
195	0x3e2fc0ec	0.17163438
196	0xbc581d3d	-0.013190565
197	0x3e8b447f	0.27200696
198	0x3efbe23b	0.49196038
199	0x3caf23d5	0.02137939
200	0xbf206c0d	-0.6266487
201	0x3db722e9	0.089422055
202	0xbd378be9	-0.044811163
203	0xbc0d4a7d	-0.008623716
204	0x3e88774b	0.26653513
205	0x3eee9000	0.46594238
206	0xbd9e50cb	-0.07730254
207	0xbbf4ba82	-0.0074685225
208	0x3c621418	0.013798736
209	0x3e87ef4b	0.26549754
210	0xbec40ea1	-0.3829241
211	0x3d945794	0.07243267
212	0xbe81c4f7	-0.25345585
213	0xbdad8020	-0.084717035
214	0xbdf702e4	-0.12061098
215	0xbe61e490	-0.22059846
216	0xbd28bf5c	-0.04119812
217	0x3e026da4	0.12737137
218	0x3dab0ce9	0.08352072
219	0xbd8aea94	-0.067830235
220	0xbf3d1322	-0.7385732
221	0xbda48f83	-0.08035185
222	0xbf1e7e10	-0.61911106
223	0x3d3db560	0.04631555
224	0xb804745c	-3.157962e-05
225	0x3c18a0bc	0.009315666
226	0x3f82c84f	1.0217379
227	0x3e6561e1	0.22400619
228	0xbd2b3e16	-0.041807257
229	0xbc8a697c	-0.016896002
230	0x3c07adac	0.008281153
231	0xbeb8d039	-0.3609636
232	0x3f1c343f	0.6101722
233	0x3f1a8ce1	0.60371214
234	0x3e521400	0.20515442
235	0x3d9b27ca	0.075759485
236	0x3dd344c0	0.103158474
237	0x3ebdec3d	0.37094298
238	0x3c972206	0.01844884
239	0xbe3f2ed8	-0.18670213
240	0xbe3991d2	-0.18122032
241	0x3e483d95	0.19554742
242	0xbf06514f	-0.5246782
243	0x3eac850e	0.33695263
244	0xbe707081	-0.23480417
245	0xbecd7b6a	-0.4013322
246	0xbd940a67	-0.072285466
247	0xbce4eccd	-0.027944947
248	0x3cde8184	0.027161367
249	0xbe8e54a1	-0.27798942
250	0x3e4471c2	0.1918402
251	0x3d066d7a	0.03281925
252	0x3dfb9459	0.122841544
253	0xbfa3a499	-1.2784606
254	0x3d8910a8	0.0669263
255	0xbf30a926	-0.690081

fc1.bias f4 [32]
0	0x3e88bccb	0.26706538
1	0x3f196159	0.59914166
2	0x3d93874e	0.07203542
3	0x3edfc196	0.43702382
4	0xbdffb3b9	-0.12485451
5	0x3e9c3ad1	0.30513623
6	0xbc93bc51	-0.018034132
7	0xbf0e96e5	-0.55698997
8	0xbbdcb6a2	-0.0067356387
9	0x3ea35991	0.3190427
10	0x3f22218c	0.6333244
11	0x3da943f2	0.08264913
12	0x3e3feb18	0.18742025
13	0x3ecf977c	0.4054526
14	0xbd419098	-0.047257036
15	0x3db53be1	0.088493116
16	0x3ef6fb41	0.48238567
17	0x3e9c6a26	0.30549735
18	0xbc820333	-0.015870666
19	0x3c929116	0.017891448
20	0x3e9cc2f1	0.30617478
21	0xbeb3b8cf	-0.35101935
22	0x3e592d1c	0.21208614
23	0x3e051534	0.1299637
24	0x3f139109	0.5764318
25	0x3f1465ad	0.57967645
26	0x3e0a9147	0.13531981
27	0xbe11806d	-0.14209147
28	0x3f07a4dd	0.52985936
29	0xbe9cf690	-0.30656862
30	0xbeb74fd9	-0.35803106
31	0x3f187515	0.59553653

fc2.weight f4 [64, 32]
0	0x3ebc7d0c	0.36814153
1	0x3d7ba18f	0.06143337
2	0x3e357049	0.17718615
3	0x3dc43578	0.09580511
4	0xbe19d368	-0.15022051
5	0x3c31e7cb	0.010858486
6	0x3e577126	0.21039256
7	0xbe976b33	-0.29573974
8	0x3ed90459	0.4238613
9	0x3e1ec401	0.15504457
10	0xbcbaff71	-0.022826882
11	0x3e759368	0.23982012
12	0x3ea3aaba	0.31966192
13	0x3e8b4f51	0.2720895
14	0x3dca948c	0.09891614
15	0x3e60b558	0.21944177
16	0x3e3a2ce1	0.18181182
17	0xbe5f10f9	-0.21783818
18	0x3e56b7c9	0.20968546
19	0x3e24ca8e	0.16092893
20	0x3ed786c7	0.42095014
21	0x3e1b352d	0.15157004
22	0xbdcb1119	-0.099153705
23	0x3e36fea6	0.17870578
24	0xbce1847c	-0.027528994
25	0xbd134a6c	-0.035959646
26	0x3e5ff051	0.21869017
27	0x3cb40201	0.021973612
28	0x3e203e95	0.15648873
29	0xbdb2c011	-0.0872804
30	0x3dab585a	0.08366461
31	0x3ed7caa8	0.42146802
32	0xbbcea85d	-0.0063066916
33	0xbd8a3a5a	-0.06749411
34	0x3e51f9ce	0.20505449
35	0x3c131784	0.0089777745
36	0x3d00441f	0.031314965
37	0x3e867c91	0.26266912
38	0xbeaddbec	-0.3395685
39	0xbea5ecc8	-0.32407212
40	0x3e72f38f	0.23725723
41	0xbec16c78	-0.37778068
42	0x3d702b29	0.05863491
43	0x3e1cc1a7	0.15308248
44	0xbd8887fe	-0.066665635
45	0xbdd2e037	-0.10296672
46	0x3e9a5680	0.3014412
47	0xbe77e5b3	-0.24208717
48	0x3ee271c1	0.44227412
49	0xbec9c212	-0.39405876
50	0x3ec5bf0d	0.38622323
51	0x3dcb3aad	0.09923301
52	0xbd099e13	-0.033598017
53	0xbdd32896	-0.103104755
54	0xbe1913b8	-0.14948928
55	0xbddf299d	-0.10896609
56	0x3e828827	0.254945
57	0xbd471323	-0.048602235
58	0x3e5c3021	0.21502735
59	0x3db7660f	0.08955013
60	0x3a1f29be	0.0006071589
61	0x3be2212d	0.0069009275
62	0x3e671b53	0.22569017
63	0x3e0fa3f5	0.14027388
64	0xbe0f5b04	-0.13999563
65	0x3ef45fce	0.47729343
66	0xbe003045	-0.12518413
67	0x3e848207	0.25880453
68	0xbe25db24	-0.16196877
69	0x3d6658dd	0.05623709
70	0x3e828185	0.2548944
71	0xbd9ecf2b	-0.07754358
72	0x3dbd121e	0.09231971
73	0x3e4aca21	0.19803669
74	0x3edd2b3b	0.43197045
75	0x3e7c95a8	0.24666464
76	0xbc7a0c52	-0.015261726
77	0x3ebfceea	0.3746255
78	0x3d8d849b	0.06910058
79	0x3d973d44	0.07384732
80	0xbe57fde0	-0.2109294
81	0xbda67299	-0.081273265
82	0x3e017590	0.12642503
83	0x3ca32cca	0.019918818
84	0xbe0e6d1d	-0.13908811
85	0xbe116365	-0.14198072
86	0x3e3c0c5b	0.18364088
87	0xbea1a5f7	-0.31571934
88	0xbe991fc3	-0.29907045
89	0x3e61562c	0.22005528
90	0x3e3fa1ea	0.18714109
91	0x3aa0919d	0.0012250427
92	0x3da1fd4d	0.079096414
93	0x3dd9ff2b	0.106443726
94	0x3ca8b006	0.020591747
95	0x3ea775e2	0.32707125
96	0x3e341f7c	0.17590135
97	0x3da62e48	0.08114296
98	0x3e08dffe	0.13366696
99	0xbea40a56	-0.32039136
100	0xbdb1d338	-0.08682865
101	0xbdb8080b	-0.08985909
102	0x3cd5ba09	0.026089685
103	0x3e3c63db	0.18397467
104	0x3e38da1e	0.18051955
105	0x3eeaa4c5	0.45828834
106	0xbe85bda3	-0.26121244
107	0xbd362462	-0.04446829
108	0xbe98b16f	-0.2982287
109	0x3c840878	0.01611732
110	0x3e37a146	0.17932615
111	0xbf259ca9	-0.6469217
112	0xbdd21867	-0.10258561
113	0xbd8a0144	-0.06738523
114	0x3ec745d0	0.3892045
115	0xbee6d072	-0.45080906
116	0xbe026a77	-0.12735926
117	0xbe339c8b	-0.17540185
118	0xbe074bc6	-0.13212499
119	0xbdd9cedf	-0.10635161
120	0xbd8fe29b	-0.070256434
121	0xbe440bc4	-0.19145113
122	0xbdadde4c	-0.084896654
123	0xbde87972	-0.11351289
124	0x3d5b1a7e	0.05349206
125	0x3e5889b8	0.21146286
126	0xbdc78122	-0.09741427
127	0xbe595b90	-0.21226335
128	0x3e027610	0.1274035
129	0x3e9a2262	0.30104357
130	0xbe870faa	-0.26379138
131	0x3e4b6d10	0.19865823
132	0xbe5f6421	-0.2181554
133	0xbe3e8cb1	-0.18608357
134	0x3d29be36	0.041441165
135	0x3e6eb690	0.2331183
136	0xbe9860bd	-0.29761305
137	0x3e46103a	0.19342127
138	0x3e383627	0.17989407
139	0xbec026d5	-0.37529626
140	0x3e7a5587	0.24446689
141	0x3d826606	0.06367116
142	0xbefcc337	-0.49367687
143	0x3d8b5073	0.06802454
144	0xbe49ff53	-0.19726305
145	0x3ec0bbe1	0.3764334
146	0xbe17c718	-0.14822042
147	0xbe7865ea	-0.24257627
148	0x3e29ccb3	0.16581993
149	0xbe15af83	-0.14617734
150	0x3cbabf27	0.022796227
151	0x3e72a716	0.2369655
152	0x3e20fbf5	0.15721114
153	0xbd028da0	-0.031873345
154	0xbeb34aaf	-0.35017917
155	0xbd2a4263	-0.041567218
156	0xbd1d6d8c	-0.03843455
157	0x3ddbfa87	0.10741144
158	0x3d4b0af6	0.049571
159	0x3df488f1	0.11940182
160	0x3e864430	0.26223898
161	0x3e4b5af3	0.19858913
162	0x3e39e9f1	0.18155648
163	0x3dca91ba	0.098910764
164	0xbde59bfb	-0.112113915
165	0x3df76c91	0.12081254
166	0xbd85b09b	-0.065278254
167	0xbe808d11	-0.25107625
168	0x3ee2c4e9	0.44290856
169	0x3d55a8b2	0.052162834
170	0x3e79771d	0.24361844
171	0x3e927a1c	0.28608787
172	0x3da86d11	0.08223928
173	0x3df680e9	0.120363064
174	0x3e0353f6	0.12824997
175	0xbddfeda7	-0.109340005
176	0x3cd71a1a	0.026257563
177	0xbe48348b	-0.19551294
178	0x3e4b2889	0.19839682
179	0x3e43139b	0.19050448
180	0x3e6d6dfc	0.23186487
181	0x3e15861e	0.14601943
182	0x3dfbe45a	0.12299414
183	0xbd93f070	-0.07223594
184	0xbc9fa09d	-0.019485766
185	0x3e46efa7	0.19427358
186	0x3df7855b	0.120859824
187	0xbe09109e	-0.13385245
188	0x3dbb0f45	0.09133772
189	0x3e3b6e08	0.18303692
190	0x3d8d228e	0.068913564
191	0x3e85066b	0.2598146
192	0xbf23de3a	-0.64010966
193	0x3e42f3e8	0.19038355
194	0xbe7626aa	-0.24038187
195	0x3e1b5c2d	0.15171881
196	0x3e050e42	0.1299372
197	0x3ddc81f0	0.10766971
198	0xbdc70db9	-0.09719414
199	0xbf218b23	-0.6310293
200	0x3f25ed9f	0.64815706
201	0xbdede6fb	-0.11616322
202	0x3e12be16	0.14330325
203	0x3e1e9872	0.15487841
204	0x3d02bed3	0.031920265
205	0x3eb26051	0.3483911
206	0xbea7fc27	-0.32809564
207	0xbda4ab6f	-0.08040511
208	0xbdc9df2a	-0.09857018
209	0xbdc18edd	-0.09451077
210	0x3df178a4	0.117905885
211	0x3d9cd5cf	0.07657968
212	0x3e9384c1	0.2881222
213	0xbf0b22b7	-0.54349846
214	0xbe3ea86f	-0.1861894
215	0xbd978158	-0.07397717
216	0x3e04f00a	0.12982193
217	0x3df6e7fb	0.120559655
218	0x3e07dc4d	0.13267632
219	0xbe35f069	-0.1776749
220	0xbc7a58c5	-0.015279953
221	0x3e8b5eb1	0.2722068
222	0xbea351f7	-0.31898472
223	0x3ebfb3cb	0.3744186
224	0x3da11369	0.0786503
225	0x3e31454f	0.17311595
226	0xbde5dcfc	-0.1122379
227	0xbeda611b	-0.4265221
228	0xbdd87bea	-0.1057051
229	0xbe952994	-0.29133284
230	0xbe4b22e1	-0.19837524
231	0x3e3b9e2b	0.18322055
232	0x3e362b78	0.1779002
233	0xbd6e3583	-0.0581565
234	0x3d8d4cd6	0.06899421
235	0xbc2c7baa	-0.010527531
236	0x3e1357d0	0.14388967
237	0x3be7cd91	0.007074066
238	0x3ccbf3be	0.024896499
239	0xbc963bc1	-0.01833904
240	0xbbf2db0e	-0.0074113673
241	0x3e98dbca	0.29855186
242	0x3e676b7d	0.22599597
243	0xbebd9a4d	-0.37031785
244	0xbe7b4e49	-0.24541582
245	0x3e5c6daf	0.21526216
246	0xbe7da236	-0.2476891
247	0xbdd9a83b	-0.106277905
248	0xbf0d9374	-0.5530312
249	0xbedad2c2	-0.4273892
250	0x3e294df2	0.1653364
251	0x3dd5ae92	0.10433687
252	0x3cb2c1dc	0.021820955
253	0x3e816c31	0.25277856
254	0x3ec03581	0.3754082
255	0x3e80103c	0.25012386

fc2.bias f4 [64]
0	0x3e5c570b	0.2151758
1	0xbae7fb54	-0.0017698803
2	0x3eb83cb0	0.359838
3	0xbe03e302	-0.12879565
4	0x3df11c42	0.11772968
5	0x3e9e4269	0.30910042
6	0x3eaa33c6	0.33242625
7	0x3ded2c48	0.115807116
8	0x3e63b17f	0.22235678
9	0x3f04f733	0.51939696
10	0x3eb6f5b7	0.3573434
11	0xbd446c59	-0.04795489
12	0x3d146236	0.036226474
13	0xbe740f73	-0.23834018
14	0xbe8d2569	-0.27567604
15	0x3e3f8d85	0.18706329
16	0x3e2fdfa8	0.17175162
17	0x3c9aa2e7	0.018876506
18	0x3ea41178	0.32044578
19	0xbd2a437e	-0.04156827
20	0x3eb75ee4	0.35814583
21	0x3ef36968	0.47541356
22	0x3e8adb75	0.27120557
23	0x3eeca037	0.46215984
24	0x3ed0e4b5	0.4079949
25	0x3eb6300f	0.3558354
26	0x3def5781	0.11686612
27	0x3ed57714	0.41692412
28	0xbe87642e	-0.2644362
29	0x3e8076f1	0.25090745
30	0x3e78ddc5	0.24303348
31	0x3e6e07b2	0.23245123
32	0xbdf5b450	-0.119972825
33	0x3e5f1e84	0.21788985
34	0x3e990603	0.298874
35	0x3e872526	0.2639553
36	0x3efd9e13	0.49534664
37	0x3e470685	0.19436081
38	0x3e963a52	0.2934137
39	0x3e19e329	0.15028061
40	0x3cb7c9db	0.02243512
41	0x3e1c8fdf	0.15289257
42	0x3e414c61	0.18876792
43	0x3ed8a533	0.42313537
44	0x3ea3c6d0	0.3198762
45	0x3e989c89	0.29806927
46	0x3e1faea8	0.1559397
47	0x3e379e4c	0.17931479
48	0x3e887672	0.26652867
49	0x3eb0d254	0.34535468
50	0x3eb11c9d	0.34592143
51	0x3e9aff7c	0.30273044
52	0x3ec091fc	0.37611377
53	0x3c8af936	0.016964536
54	0xbe0d3243	-0.13788705
55	0xbd9d83a5	-0.07691125
56	0x3e33e9ae	0.1756961
57	0x3e4a3d98	0.19750059
58	0x3ed002b0	0.4062705
59	0x3eae5d6e	0.34055656
60	0xbbc78f5d	-0.0060900883
61	0xbc89a689	-0.016803043
62	0xbe142156	-0.14465842
63	0x3e2edcf2	0.17076471

fc3.weight f4 [128, 64]
0	0xbd29cda6	-0.041455887
1	0xbbb1afab	-0.0054225526
2	0xbdc4f5f7	-0.096172266
3	0xbe44d83a	-0.19223109
4	0xbe19b076	-0.15008721
5	0x3d695248	0.056963235
6	0x3c18bccd	0.009322357
7	0x3d895400	0.06705475
8	0xbdd31797	-0.10307234
9	0xbd970324	-0.07373646
10	0xbda4f8fe	-0.08055304
11	0x3dbeab10	0.09309971
12	0xbd34b64d	-0.044119168
13	0x3cdbb4d0	0.026819617
14	0x3ddc51fa	0.10757823
15	0x3d6dfd23	0.058102738
16	0xbd96769b	-0.07346841
17	0x3c245765	0.010030602
18	0x3d3af22b	0.045641106
19	0x3e00a0d2	0.12561348
20	0xbe1d50ae	-0.15362808
21	0x3cb407eb	0.021976432
22	0x3aa63596	0.0012680765
23	0x3d815a4a	0.063160494
24	0x3cede772	0.029041026
25	0xbd456b30	-0.048197925
26	0xbd7fc8bc	-0.062447295
27	0xbe428902	-0.18997577
28	0x3d95d3b8	0.07315773
29	0x3dbf62bc	0.09345004
30	0xbe3d8a33	-0.1850975
31	0x3e01c855	0.12674077
32	0xbb51dde9	-0.0032023138
33	0xbe15ab5c	-0.1461615
34	0x3dcaad4a	0.098963335
35	0xbe58a33c	-0.21156019
36	0xbd80b1ec	-0.06283936
37	0xbdf7c17b	-0.1209745
38	0xbe11540d	-0.14192219
39	0x3de31829	0.110885926
40	0x3d8f3d9f	0.06994175
41	0xbdd26938	-0.10273975
42	0xbdeed861	-0.11662365
43	0xbc800556	-0.015627544
44	0xbdcc37aa	-0.099715546
45	0x3bd303e8	0.0064396746
46	0x3e278ace	0.16361544
47	0xbd2fef5b	-0.042952877
48	0x3dc76cf7	0.0973758
49	0xbdc56755	-0.0963885
50	0xbe7d90a3	-0.24762206
51	0xbdb3267e	-0.08747576
52	0x3da7b992	0.081896916
53	0x3e37d9d0	0.17954183
54	0xbdc9a5b7	-0.09846061
55	0xbd58a488	-0.052891284
56	0xbd26d6d9	-0.04073224
57	0x3d6c66e9	0.05771533
58	0xbd5770cf	-0.052597817
59	0xbb604c1d	-0.0034225055
60	0xbd561b67	-0.052272227
61	0x3e450d8c	0.19243449
62	0xbe0e36eb	-0.13888137
63	0x3e439c5b	0.19102614
64	0xbc8406b4	-0.016116478
65	0x3d966243	0.07342961
66	0xbe8e6624	-0.27812302
67	0xbea63401	-0.3246155
68	0x3e32d3e1	0.17463638
69	0xbca0e904	-0.01964236
70	0xbec50002	-0.38476568
71	0xbe88150a	-0.26578552
72	0xbe399df4	-0.1812666
73	0xbdf30d2d	-0.118677475
74	0x3eb27b43	0.34859666
75	0x3e81fc52	0.25387818
76	0x3deaa6e3	0.11457612
77	0x3d5c4fb1	0.053786937
78	0xbda45052	-0.080231324
79	0x3d834ea8	0.06411487
80	0xbd0dc212	-0.034608908
81	0x3ded875f	0.115980856
82	0xbe1a5188	-0.15070164
83	0x3db3e0e4	0.08783129
84	0x3ddbca15	0.107319035
85	0xbc9fa9eb	-0.019490203
86	0xbe0050fb	-0.12530892
87	0xbe317a09	-0.17331709
88	0x3ddd1dce	0.107967004
89	0x3d99809d	0.07495234
90	0x3e4b8ab1	0.19877125
91	0xbd727b32	-0.05919952
92	0x3e11c649	0.14235796
93	0xbf64c18c	-0.8935783
94	0xbd88bcb2	-0.06676616
95	0x3da7d309	0.08194549
96	0x3e51e2f6	0.20496735
97	0xbb2deb26	-0.0026537864
98	0xbe4d8d43	-0.20073418
99	0xbcdb2d3e	-0.026754972
100	0x3b079672	0.0020689038
101	0x3daf9815	0.08573929
102	0x3db8863a	0.09009977
103	0x3de47d29	0.11156685
104	0x3e3c3f58	0.18383539
105	0xbd1fe1f0	-0.03903383
106	0xbdf4ef4f	-0.11959707
107	0x3d96623d	0.07342956
108	0xbe9851c6	-0.29749888
109	0x3d5674b2	0.052357383
110	0xbe98e0e8	-0.2985909
111	0xbdd335ed	-0.1031302
112	0xbf938b41	-1.1526872
113	0xbd16f908	-0.03685859
114	0x3d82fc93	0.06395831
115	0xbd49d2d4	-0.049273327
116	0xbc8ad592	-0.016947541
117	0x3eac93b5	0.33706442
118	0x3dc1be58	0.09460133
119	0x3e2d7382	0.16938594
120	0xbeae8a60	-0.34089947
121	0xbe3505af	-0.1767795
122	0xbdc011b8	-0.093783796
123	0x3e3abee1	0.18236877
124	0xbea0662b	-0.31327948
125	0x3e56ef3c	0.20989698
126	0xbf1d7a1b	-0.61514443
127	0xbdfa7975	-0.12230197
128	0x3e23b0e3	0.15985446
129	0x3e8bb88e	0.27289242
130	0x3e6f0c57	0.23344551
131	0x3ee3c074	0.44482768
132	0x3ec8f217	0.392472
133	0x3da3504c	0.079743
134	0x3ee00829	0.43756226
135	0x3eed00fc	0.46289814
136	0x3ee06b0f	0.4383168
137	0x3e5b0d07	0.21391688
138	0x3edfdf19	0.43724898
139	0xbe920d98	-0.28525996
140	0x3d8d8cf0	0.06911647
141	0xbf1a18d3	-0.6019413
142	0xbec1e0a3	-0.37866697
143	0x3e5ff224	0.21869713
144	0x3e8c3d62	0.2739058
145	0x3e34b651	0.17647673
146	0x3e43b200	0.1911087
147	0xbed27250	-0.4110284
148	0x3e8b6a1c	0.27229393
149	0x3e835401	0.25650027
150	0x3df5944d	0.11991177
151	0x3e912745	0.28350273
152	0x3e8f5c92	0.28000313
153	0x3dd3fec2	0.103513256
154	0x3ec1fc13	0.3788763
155	0x3e90d7a1	0.28289512
156	0xbed83a76	-0.42232102
157	0x3f095978	0.53652143
158	0x3d79e6db	0.061011177
159	0x3ea3ea64	0.32014763
160	0xbe9914e7	-0.2989876
161	0x3e37e994	0.17960197
162	0x3e371f1c	0.17882961
163	0x3e83ca55	0.25740305
164	0x3db8977e	0.0901327
165	0x3d52821c	0.051393613
166	0x3e1dc3b1	0.15406682
167	0x3e2ef556	0.17085776
168	0x3eb1eb8b	0.34750018
169	0x3dc961ba	0.09833093
170	0x3e897264	0.26845086
171	0x3e30f5c3	0.1728125
172	0x3eb2c40e	0.34915203
173	0x3df48183	0.11938765
174	0x3eac6cb7	0.33676693
175	0x3e48f8df	0.19626187
176	0x3f314715	0.6924909
177	0x3e70bf2a	0.23510423
178	0x3e8703f1	0.26370195
179	0x3e11eded	0.14250918
180	0x3e8f5ebb	0.2800196
181	0x3f49f4a7	0.78888935
182	0x3d7fb0e3	0.06242455
183	0x3f40ae72	0.7526618
184	0x3e21a215	0.15784486
185	0x3ead3bdc	0.33834732
186	0x3e8a8e06	0.2706148
187	0x3e95338a	0.29140884
188	0x3e246b0e	0.16056463
189	0xbf335697	-0.70054
190	0x3f15da4d	0.58536226
191	0x3eb86f79	0.36022547
192	0x3e0553b9	0.13020219
193	0x3ea913e2	0.33022982
194	0xbe44e8a2	-0.19229367
195	0xbef671be	-0.48133653
196	0x3dfe877f	0.124281876
197	0xbda7257b	-0.08161446
198	0x3eb49fff	0.35278317
199	0x3ddf211d	0.10894988
200	0xbf5183bb	-0.8184163
201	0xbe1eb97b	-0.15500443
202	0xbec5930f	-0.3858876
203	0xbd859c75	-0.065239824
204	0xbd99ae9d	-0.07504008
205	0xbe219cb1	-0.1578243
206	0xbe506bdb	-0.20353644
207	0x3de913e7	0.11380749
208	0xbd03a6c9	-0.03214148
209	0xbbd91a87	-0.0066254768
210	0xbdd24fae	-0.10269104
211	0xbfb5cad4	-1.4202523
212	0xbf1debef	-0.6168813
213	0x3e04ceb3	0.12969474
214	0x3d513906	0.051079772
215	0x3d9a4173	0.07532015
216	0x3e7cb4ed	0.24678393
217	0xbd1f84aa	-0.038944878
218	0x3dbc578d	0.091963865
219	0xbd45b06e	-0.04826396
220	0x3f370eef	0.7150716
221	0x3ed06f5f	0.4070997
222	0xbdcdfd6e	-0.100581035
223	0x3e6052d5	0.21906598
224	0x3e480bf4	0.1953581
225	0xbeb9f492	-0.36319405
226	0x3d063126	0.032761715
227	0xbd8f11d4	-0.06985822
228	0x3ca29cf6	0.019850235
229	0x3e7612cb	0.24030606
230	0x3db600bb	0.08886858
231	0x3cf28cf1	0.029608222
232	0xbf1426bf	-0.5787162
233	0x3da3dcc0	0.08001089
234	0xbd43291e	-0.047646634
235	0x3d83af4f	0.06429922
236	0x3dbdf8b2	0.092759505
237	0x3db17571	0.08664978
238	0xbc43c727	-0.011949337
239	0xbe85de01	-0.26145938
240	0x3ed5866c	0.41704118
241	0xbd33dc59	-0.04391131
242	0x3dd4c743	0.10389569
243	0x3cc8781d	0.024471337
244	0x3de7c5a7	0.11316996
245	0xbe387d05	-0.18016441
246	0x3f012868	0.5045228
247	0xbecaa0b2	-0.39575726
248	0xc025980f	-2.587406
249	0x3d9eb29b	0.0774891
250	0x3d8ec6f7	0.06971543
251	0x3cef2206	0.029191028
252	0xbe545100	-0.20734024
253	0x3f2bf5fe	0.6717223
254	0xbc4aa2b2	-0.012367891
255	0xbdd3eb1b	-0.10347577

fc3.bias f4 [128]
0	0xbca5c079	-0.02023338
1	0xbdddef7e	-0.10836695
2	0x3ee2f393	0.44326457
3	0xbe0c97e0	-0.1372981
4	0x3d6cd469	0.057819758
5	0x3eabe705	0.3357469
6	0xbdd3d0f6	-0.103425905
7	0xbe18132e	-0.14851066
8	0x3d81c555	0.06336466
9	0x3c921768	0.017833427
10	0x3ed64f50	0.41857386
11	0x3e950326	0.29103965
12	0xbddf694e	-0.10908757
13	0x3ecb023d	0.39650145
14	0x3d251254	0.040300682
15	0x3ec75892	0.3893476
16	0xbcb078e8	-0.021542028
17	0x3e859f2d	0.26098004
18	0x3b2dc8ab	0.0026517313
19	0x3ed5df12	0.41771752
20	0x3ee2a284	0.44264615
21	0x3e94831a	0.29006273
22	0xbdbdb4d2	-0.09263004
23	0xbcef1aee	-0.029187646
24	0xbd5f9e63	-0.05459441
25	0x3efa8fd7	0.48937866
26	0xbd9a3948	-0.07530457
27	0xbd660529	-0.056157265
28	0xbe1c0ecb	-0.15240018
29	0xbe66a320	-0.22523165
30	0xbe24499a	-0.16043702
31	0x3ec6eede	0.38854116
32	0x3e891de5	0.2678062
33	0x3e8b2dec	0.27183473
34	0x3e973352	0.29531342
35	0x3ee9cdc2	0.45664793
36	0x3e8ced78	0.27524924
37	0xbe211dcc	-0.15734023
38	0xbe4d06dc	-0.20022148
39	0xbe25b879	-0.16183652
40	0xbd560e36	-0.052259646
41	0x3e9c01b9	0.30470064
42	0x3cb476c2	0.022029284
43	0x3e7bebea	0.24601713
44	0xbc6b8278	-0.014374368
45	0x3ed84e1a	0.42247087
46	0x3e91f0d5	0.28504053
47	0xbdf198e1	-0.117967375
48	0x3ef4be7b	0.47801575
49	0x3ea17ef2	0.31542164
50	0x3ec0a4f0	0.37625837
51	0x3ee20142	0.44141585
52	0x3ec4cb98	0.3843658
53	0xbdfda9ab	-0.12385877
54	0x3e8bf409	0.27334622
55	0x3d7bc3f6	0.06146618
56	0xbd760d3f	-0.060071226
57	0x3d535882	0.05159808
58	0x3c776e69	0.015102007
59	0x3e7bca72	0.24588946
60	0x3e89d23f	0.26918218
61	0x3ec782b3	0.38966903
62	0x3ebc1dc3	0.36741456
63	0x3ec03be3	0.3754569
64	0x3ea4a007	0.3215334
65	0x3ed4cc68	0.415622
66	0x3d3ad910	0.045617163
67	0x3ebab65d	0.36467257
68	0xbe365fc4	-0.17809969
69	0x3eb4bbfe	0.35299677
70	0xbd2de3fd	-0.042453755
71	0x3e58af09	0.2116052
72	0x3ef0635d	0.46950808
73	0x3ea934ef	0.33048198
74	0x3e723970	0.23654723
75	0x3c722df2	0.014781462
76	0xbdf6f450	-0.12058318
77	0x3e950d32	0.2911163
78	0x3e9cdfa5	0.30639377
79	0x3eb1235d	0.34597293
80	0x3eddcd8e	0.43320888
81	0x3bcf059c	0.0063178074
82	0x3eb0deaa	0.3454488
83	0x3e97e2a0	0.2966509
84	0x3e6f99cc	0.23398513
85	0xbd8316b1	-0.064008124
86	0x3efdf42a	0.49600345
87	0xbdbbf469	-0.09177477
88	0x3e7d4e05	0.24736793
89	0xbdd37324	-0.10324696
90	0xbe1f908b	-0.15582483
91	0x3ea75689	0.3268321
92	0x3eda0531	0.42582086
93	0xbded755a	-0.11594649
94	0x3e89abcb	0.2688888
95	0xbd896b7b	-0.067099534
96	0x3eaf3a76	0.3422429
97	0x3e7af32a	0.24506822
98	0xbc96ed03	-0.018423563
99	0xbdad49cb	-0.084613405
100	0x3d433080	0.047653675
101	0xbdb83d6e	-0.08996092
102	0x3e991695	0.2990004
103	0xbe0cd36e	-0.13752529
104	0xbd819ef8	-0.06329149
105	0xbe13fa5f	-0.14450978
106	0x3edb3c25	0.42819324
107	0xbe20ba08	-0.15695965
108	0xbe0a27ca	-0.13491741
109	0x3ea2ddb1	0.31809762
110	0xbc46f2a8	-0.012142815
111	0x3ef2d2a8	0.47426343
112	0xbd273a40	-0.040827036
113	0x3eaa2b90	0.3323636
114	0xbd97ff65	-0.074217595
115	0xbe0572a4	-0.13032013
116	0x3e900bf5	0.28134122
117	0x3eacb7b1	0.33733895
118	0xbd7a2a66	-0.06107559
119	0xbe029369	-0.12751545
120	0xbd1b8264	-0.037966147
121	0x3e60caea	0.21952406
122	0x3e9bf7a9	0.30462387
123	0x3eac9598	0.3370788
124	0xbcd89d10	-0.02644208
125	0x3ea56bb6	0.3230874
126	0x3ed6e89f	0.4197435
127	0x3dccca35	0.099995054

v.weight f4 [1, 128]
0	0x3e9c6952	0.30549103
1	0xbb046777	-0.0020203271
2	0xbeb51bd2	-0.35372788
3	0x3f3d19e2	0.7386762
4	0x3d7d5c74	0.06185575
5	0xbe9850c4	-0.2974912
6	0x3e954933	0.2915741
7	0x3ee9c4fb	0.45658097
8	0x3c8ecea6	0.017432522
9	0x3ed2ad02	0.4114762
10	0xbe9f96ae	-0.31169647
11	0xbeaddecf	-0.33959052
12	0x3d4a36ae	0.049368553
13	0xbe99b222	-0.30018717
14	0x3e2b60d8	0.16736162
15	0xbea25064	-0.31701958
16	0xbc9dbe7e	-0.019255873
17	0xbea77c7b	-0.3271216
18	0x3f3bf7f6	0.73425233
19	0xbe9da784	-0.30791867
20	0xbee90432	-0.45511013
21	0xbeb3e148	-0.35132813
22	0x3f008155	0.50197345
23	0x3da5d535	0.08097307
24	0x3d152a97	0.03641757
25	0xbe9851eb	-0.29749998
26	0x3d22c857	0.03974184
27	0x3ec6fd85	0.38865295
28	0x3f645823	0.89196986
29	0x3ea20ff6	0.31652802
30	0x3edbf98c	0.42963827
31	0xbe9225e5	-0.28544536
32	0xbe98e794	-0.2986418
33	0xbe9a6513	-0.30155239
34	0xbe987366	-0.29775542
35	0xbe9a8fa8	-0.30187726
36	0xbe8e614c	-0.27808607
37	0x3f0e5712	0.5560161
38	0x3f34809d	0.7050875
39	0x3ee08008	0.4384768
40	0x3f32dd46	0.69868886
41	0xbebd2d26	-0.36948508
42	0x3ee0172c	0.4376768
43	0xbe9ca9c3	-0.30598268
44	0x3f5e63b9	0.86870915
45	0xbea2c178	-0.3178823
46	0xbeadc09c	-0.33936012
47	0x3ef3b3be	0.4759807
48	0xbe9ca775	-0.3059651
49	0xbe9992a0	-0.29994678
50	0xbe9b87f2	-0.30377156
51	0xbe9cde36	-0.30638283
52	0xbe8e432d	-0.27785626
53	0x3f0b1e76	0.54343355
54	0xbeb712d6	-0.35756558
55	0x3e71cc42	0.23613074
56	0xbada14a2	-0.0016638229
57	0x3c3643ef	0.011124595
58	0x3a137ecd	0.00056265
59	0xbe99af33	-0.3001648
60	0xbe98288d	-0.29718438
61	0xbea60e04	-0.32432568
62	0xbe9af3bb	-0.30264077
63	0xbea8b973	-0.32953987
64	0xbe8d2af4	-0.27571833
65	0xbec587f1	-0.38580278
66	0x3c8cc4b9	0.017183648
67	0xbeca15e7	-0.39469835
68	0x3f9d8b86	1.2308204
69	0xbea10a9b	-0.31453404
70	0x3f1713fb	0.5901486
71	0xbeb23a8f	-0.34810302
72	0xbeaecfe6	-0.3414299
73	0xbed099ec	-0.40742433
74	0xbe9ddcae	-0.30832428
75	0x3f053492	0.5203334
76	0x3f060c3a	0.52362406
77	0xbea3b94a	-0.31977302
78	0xbe9f38b8	-0.3109796
79	0xbea46560	-0.32108593
80	0xbe9865fe	-0.29765314
81	0x3eb93fd4	0.3618151
82	0xbea09709	-0.3136523
83	0xbeaa2c0a	-0.33236724
84	0xbe9030b7	-0.28162166
85	0x3f038c97	0.513864
86	0xbeca7e4f	-0.3954949
87	0x3cf36267	0.029710008
88	0xbe935595	-0.2877623
89	0xbc1195e0	-0.008885831
90	0x3f0d6995	0.5523923
91	0xbece14f6	-0.40250367
92	0xbe8fd1aa	-0.28089648
93	0x3f1cced6	0.61253107
94	0xbebf85b1	-0.37406686
95	0x3f010643	0.5040018
96	0xbe9750b8	-0.2955377
97	0xbeafd52a	-0.3434232
98	0x3cf2ec0f	0.029653577
99	0x3ecfe241	0.40602306
100	0x3d8659da	0.065601066
101	0x3eaf59f1	0.34248307
102	0xbe99adb8	-0.3001535
103	0x3f045489	0.5169149
104	0x3eddacd9	0.43295935
105	0x3f607c1f	0.87689394
106	0xbebd1b25	-0.36934772
107	0x3f21dd9e	0.63228786
108	0x3ed40328	0.41408658
109	0xbe978ef6	-0.29601258
110	0x3ac8e726	0.0015327677
111	0xbe89ac6e	-0.26889366
112	0x3f66d4e0	0.9016857
113	0xbe962c53	-0.29330692
114	0x3f80b398	1.0054808
115	0x3ec6c6db	0.3882359
116	0xbe950b3c	-0.29110134
117	0xbeb36a18	-0.3504188
118	0x3e9d4f60	0.3072462
119	0x3d8c0d26	0.06838445
120	0x3ee9b7ba	0.45647985
121	0xbeb72394	-0.3576933
122	0xbeb2b472	-0.34903294
123	0xbe8e2fd0	-0.27770853
124	0x3cd41b1e	0.025891837
125	0xbeb9a05e	-0.36255163
126	0xbea08a87	-0.31355688
127	0xbf9012f3	-1.1255783
