SAC/critic1_v2.pth (torch, 46095 bytes, 7 tensors)

fc1.weight f4 [32, 11]
0	0x3ec51e91	0.38499883
1	0xbd9babda	-0.076011375
2	0xbd471b09	-0.048609767
3	0x3ce900c4	0.028442748
4	0xbe189a14	-0.14902526
5	0xbd424dae	-0.047437362
6	0x3ea47531	0.3212066
7	0xbeccea56	-0.40022534
8	0x3e8c7eac	0.27440393
9	0x3b5a6664	0.003332519
10	0xbc7e2561	-0.0155118415
11	0x3e9cf2af	0.30653903
12	0xbe3f7378	-0.18696392
13	0x3f37b8ab	0.71766156
14	0xbe87e23a	-0.26539785
15	0xbe4bff94	-0.19921714
16	0xbe42821e	-0.18994948
17	0xbf336dcb	-0.70089406
18	0x3c4929f3	0.012278068
19	0x3dfbd705	0.12296871
20	0xbd432b66	-0.04764881
21	0xbd465ab4	-0.048426345
22	0xbee1c22a	-0.44093448
23	0xbe65e3c9	-0.22450174
24	0xbc0cfc54	-0.008605082
25	0x3e33c780	0.17556572
26	0xbe938ed9	-0.28819922
27	0x3e074dbd	0.13213249
28	0x3e55666f	0.20839857
29	0xbe01154d	-0.12605782
30	0x3e264004	0.16235358
31	0xbde250d3	-0.11050572
32	0x3bc19158	0.005907219
33	0xba12f6e8	-0.000560625
34	0x3dd9d313	0.10635962
35	0x3e76a2ed	0.24085589
36	0x3e89baba	0.26900274
37	0xbcaad163	-0.020851796
38	0xbe3b9fe4	-0.18322712
39	0x3dd1a31c	0.10236189
40	0xbdced47a	-0.100991204
41	0x3e8621bf	0.2619762
42	0x3d4e0a37	0.05030271
43	0x3d9418fd	0.07231329
44	0xbf3787ca	-0.7169157
45	0xbdb1e70a	-0.08686645
46	0x3ddee182	0.10882856
47	0xbe894ffb	-0.26818833
48	0xbd799bbf	-0.060939547
49	0xbdba564a	-0.090984896
50	0x3eb554e7	0.35416338
51	0x3ec9aadb	0.39388165
52	0x3e8320d9	0.25610998
53	0xbd9286bb	-0.07154604
54	0xba16d0bd	-0.00057531503
55	0xbc7e655f	-0.015527098
56	0xbdcc6523	-0.09980228
57	0xbf026038	-0.5092807
58	0xbde8a994	-0.113604695
59	0x3dbf8cfe	0.09353064
60	0xbdfa075b	-0.12208434
61	0x3e4f220c	0.20227832
62	0xbeb2a1e8	-0.3488915
63	0x3efa31a1	0.4886599
64	0x3b269dd8	0.0025423672
65	0xbc8345fe	-0.016024586
66	0xbd96ea8a	-0.073689535
67	0xbf17e90d	-0.5933998
68	0x3ec13ed3	0.37743244
69	0xbe5abf0e	-0.21361944
70	0xbc5935a6	-0.01325742
71	0xbd044cb8	-0.032299727
72	0xbe8ec299	-0.2788284
73	0xbe4f9c5f	-0.20274495
74	0x3e4efb17	0.2021297
75	0x3cd107a9	0.025516348
76	0xbd2ea38c	-0.04263644
77	0xbf0d81fd	-0.5527647
78	0xbeb9a4d0	-0.36258554
79	0xbeae021d	-0.33985987
80	0xbe7cc1a0	-0.24683237
81	0x3c85ff82	0.016357187
82	0x3d52d5ca	0.051473416
83	0xbdcfa199	-0.10138244
84	0x3d38fe65	0.045164485
85	0x3d7adb3d	0.06124424
86	0x3cd68a55	0.026189009
87	0x3d847252	0.06467117
88	0x3f24d8bf	0.6439323
89	0x3e16fc3a	0.14744654
90	0x3d15b3bf	0.036548372
91	0x3e165c9f	0.1468377
92	0x3d63a05e	0.05557286
93	0xbe0ccc57	-0.13749824
94	0xbd244811	-0.04010779
95	0xbd737f5d	-0.059447635
96	0xbe77d5cb	-0.2420265
97	0x3cdc575f	0.02689713
98	0xbc35d1f3	-0.011097419
99	0xbe47ba13	-0.19504575
100	0x3dcde715	0.10053841
101	0x3d9248f7	0.07142823
102	0x3d86f12f	0.06588971
103	0x3d5e1d19	0.05422697
104	0x3e1dd540	0.1541338
105	0xbc3364d5	-0.010949333
106	0xbea2a32a	-0.3176511
107	0x3f0e932c	0.55693316
108	0xbd2b05f4	-0.041753724
109	0x3de3eeb4	0.111295134
110	0x3ee655b3	0.44987258
111	0x3dabc13e	0.083864674
112	0x3f076f4e	0.5290421
113	0xbd96f63f	-0.073711865
114	0xbd0aa412	-0.033847876
115	0xbdf7a1e4	-0.12091425
116	0x3d56dbd8	0.052455753
117	0xbd0b87e1	-0.03406513
118	0x3e1321b5	0.14368327
119	0x3d10ee1c	0.03538333
120	0xbd010ce4	-0.031506434
121	0xbf266fe7	-0.650145
122	0x3ea21372	0.3165546
123	0x3ec15bef	0.37765452
124	0x3dc2bee9	0.095090695
125	0xbd95c3aa	-0.073127106
126	0xbe3df4da	-0.18550435
127	0xbe30bcde	-0.17259547
128	0xbede9c34	-0.4347855
129	0x3e13b925	0.14426096
130	0xbbd315eb	-0.006441822
131	0x3ce675b4	0.028132297
132	0x3d86bb73	0.06578722
133	0x3e16675c	0.14687866
134	0x3ddf27be	0.10896252
135	0x3e305cc8	0.17222893
136	0x3e2184c3	0.15773301
137	0x3dad9927	0.08476477
138	0x3e94b674	0.2904545
139	0xbdc2024d	-0.09473095
140	0x3ed77240	0.42079353
141	0x3caf2116	0.021378081
142	0xbd2ce0f6	-0.042206727
143	0xbea57a1e	-0.3231973
144	0x3d027cb4	0.031857207
145	0x3e8ada6b	0.27119765
146	0x3e3be3f8	0.18348682
147	0x3d74b29e	0.059740655
148	0x3e293faa	0.16528192
149	0x3eb6a7b0	0.3567481
150	0x3dd1bdc2	0.102412716
151	0xbcc0935b	-0.023507765
152	0xbd86bed6	-0.06579368
153	0x3d95b6d5	0.07310263
154	0xbe6b2323	-0.22962622
155	0x3e9bd211	0.30433705
156	0x3ed8ebcd	0.42367402
157	0x3edf212c	0.43579996
158	0x3d8f079f	0.069838755
159	0x3d82f834	0.06394997
160	0xbecf86cc	-0.4053253
161	0xbd4bf84e	-0.04979735
162	0xbe23bf44	-0.15990931
163	0x3d4171af	0.047227558
164	0x3b0d9acc	0.0021607159
165	0xbee4f1d8	-0.44715762
166	0x3d2866d6	0.041113697
167	0x3c103872	0.00880252
168	0x3d1efd36	0.0388157
169	0x3ebe4cf8	0.37168097
170	0x3d8f28c0	0.06990194
171	0x3f111523	0.5667288
172	0x3e371293	0.17878179
173	0xbea82d8e	-0.32847255
174	0x3d3a8f46	0.045546792
175	0xbcd02913	-0.02541021
176	0x3ee6513f	0.4498386
177	0xbc8103b8	-0.015748844
178	0x3edf9514	0.43668425
179	0xbe85a1c2	-0.26099974
180	0x3cf3a5a5	0.029742071
181	0x3e1eefc5	0.15521152
182	0xbea2cf7b	-0.3179892
183	0x3e597148	0.2123462
184	0x3e9472b1	0.28993753
185	0xbd126a4e	-0.03574591
186	0xbc28c043	-0.010299745
187	0xbd1832e9	-0.037157927
188	0x3e287874	0.16452199
189	0x3ec7fe90	0.39061403
190	0x3ec1b6de	0.3783483
191	0x3ede668b	0.4343761
192	0x3e47cf9c	0.1951279
193	0xbb8b7cf0	-0.004256837
194	0x3e843934	0.25824893
195	0xbe5ae881	-0.21377756
196	0xbda17c27	-0.07885008
197	0x3cf233b9	0.029565679
198	0x3f117ffd	0.5683592
199	0xbe617973	-0.22018985
200	0x3e6aa0ea	0.22912946
201	0xbb06d973	-0.0020576387
202	0x3df333e2	0.1187513
203	0x3db7d897	0.08976858
204	0xbf200529	-0.62507874
205	0x3dc3de28	0.09563857
206	0x3b65db7b	0.0035073448
207	0x3bc11c94	0.0058932994
208	0x3d008fae	0.031387024
209	0x3d7c5206	0.06160166
210	0xbe9ac40b	-0.30227694
211	0x3e5b7f42	0.21435264
212	0x3efc730f	0.49306533
213	0x3d35d505	0.044392604
214	0xbd4c9591	-0.049947325
215	0x3ed5b9d2	0.41743332
216	0xbdd4bb91	-0.10387338
217	0x3ead1847	0.33807585
218	0x3d464bac	0.04841201
219	0xbbbd0813	-0.005768785
220	0x3d44a557	0.048009243
221	0x3d2848a2	0.041084893
222	0x3e5cca96	0.21561655
223	0x3e830fda	0.2559803
224	0xbdd2bc4d	-0.10289822
225	0xbe075a8e	-0.13218138
226	0x3e4b984f	0.1988232
227	0x3e8bf91d	0.27338496
228	0x3f0b119f	0.5432376
229	0xbd5b6dbb	-0.053571444
230	0xbdc50cfd	-0.09621618
231	0x3da76bfe	0.08174895
232	0x3d776a26	0.060403965
233	0x3e01d941	0.12680532
234	0x3e3282ce	0.1743271
235	0x3da5a265	0.08087615
236	0x3d94ff4a	0.07275255
237	0xbf23842c	-0.63873553
238	0xbe0333ea	-0.12812772
239	0x3e99bdf1	0.30027726
240	0xbc0f9fd5	-0.008766134
241	0x3c54edc1	0.012996138
242	0x3e9016b2	0.28142315
243	0x3e907edb	0.28221783
244	0x3e492dbd	0.19646354
245	0x3e2c6933	0.16837005
246	0xbe43831e	-0.19092986
247	0x3db04c31	0.08608282
248	0xbf42b613	-0.76059073
249	0x3d833897	0.06407278
250	0xbe7e4a08	-0.24832928
251	0x3ace8c68	0.0015758397
252	0x3b905d18	0.004405629
253	0xbe3cc8f4	-0.18436033
254	0x3e674565	0.22585066
255	0xbef60fe5	-0.48059002

fc1.bias f4 [32]
0	0x3ebd9271	0.37025788
1	0xbe94454d	-0.28959122
2	0x3e729a16	0.23691592
3	0xbe0cbbed	-0.13743563
4	0xbd217eea	-0.039427675
5	0xbcaf393d	-0.021389598
6	0x3f005cd2	0.5014163
7	0x3d2e4b13	0.042552065
8	0xbece54ef	-0.40299174
9	0x3efe2532	0.49637753
10	0xbe900338	-0.28127456
11	0xbe1d2550	-0.15346265
12	0xbd5cfe4d	-0.053953458
13	0x3e546409	0.20741285
14	0x3e560b78	0.20902812
15	0xbe79d532	-0.24397734
16	0x3ea9c4d5	0.33157983
17	0xbe71cc66	-0.23613128
18	0xbe4bf03c	-0.19915861
19	0x3efccf26	0.49376792
20	0x3e862994	0.26203597
21	0x3e47230c	0.19446963
22	0xbec36026	-0.38159293
23	0x3e7b0955	0.24515279
24	0x3de117eb	0.1099089
25	0xbeaf49fc	-0.34236133
26	0xbd856c96	-0.06514852
27	0xbde9916a	-0.11404689
28	0x3e884c8b	0.26620898
29	0x3e812349	0.25222233
30	0xbe470b71	-0.19437958
31	0x3e778a90	0.24173951

fc2.weight f4 [64, 32]
0	0x3e4d18dc	0.20029014
1	0x3da74ea6	0.08169298
2	0xbd8c97be	-0.0686488
3	0x3d149fcd	0.03628521
4	0xbcb55f68	-0.02214022
5	0x3e3835ed	0.17989321
6	0x3e560026	0.20898494
7	0x3da78706	0.081800506
8	0x3d42833b	0.047488432
9	0x3ec314da	0.38101846
10	0xbda94b5f	-0.08266329
11	0x3d147961	0.03624857
12	0x3e231d83	0.15929227
13	0x3e3811f5	0.179756
14	0x3e216607	0.15761577
15	0x3e206644	0.15664011
16	0x3dc36973	0.09541597
17	0xbb8acc50	-0.0042357817
18	0x3d29f52a	0.041493572
19	0x3dd78504	0.105234176
20	0x3e8aa99c	0.27082527
21	0x3e35379c	0.17696995
22	0xbc6e80db	-0.014557089
23	0x3db7a4a8	0.089669526
24	0xbca9bc6f	-0.020719735
25	0x3c57d5bd	0.013173518
26	0xbddba39f	-0.107245676
27	0xbe1a7693	-0.15084295
28	0xbdc8bb47	-0.09801345
29	0x3d4ab818	0.04949197
30	0xbe21dac7	-0.15806113
31	0x3d393281	0.04521418
32	0x3d161ecf	0.036650475
33	0x3d97b780	0.07408047
34	0xbd45fc70	-0.048336446
35	0xbe3dce4a	-0.18535724
36	0x3da8ee8a	0.08248623
37	0xbde784e6	-0.11304645
38	0x3e6246ed	0.22097369
39	0xbc13f981	-0.009031654
40	0x3e256dda	0.16155186
41	0xbeb30e64	-0.34971917
42	0x3e75bfc6	0.23998937
43	0xbdc5b1b6	-0.09653036
44	0xbdd21782	-0.1025839
45	0x3e264f5c	0.1624121
46	0x3f0c39ad	0.54775506
47	0x3eb1631d	0.3464593
48	0x3e29f598	0.16597593
49	0xbe13584e	-0.14389154
50	0x3e990db6	0.29893273
51	0x3c0dc67b	0.008653278
52	0xbd81cc27	-0.06337767
53	0xbd8add5b	-0.067805015
54	0x3c3d9d38	0.011573128
55	0x3df249d4	0.11830488
56	0x3d95e22d	0.0731853
57	0x3ede1fc0	0.43383598
58	0xbe1685bf	-0.14699458
59	0x3db27f35	0.08715669
60	0xbebcdf0d	-0.36888924
61	0x3eb3a982	0.35090262
62	0xbe63ce49	-0.2224666
63	0x3ca912ed	0.020638907
64	0x3e1c3dbd	0.15257926
65	0x3d98c95a	0.0746028
66	0x3e08f180	0.13373375
67	0x3e1f6b16	0.15568194
68	0xbd04290f	-0.03226572
69	0x3dbbb092	0.091645375
70	0x3de93e35	0.11388818
71	0xbe0e8a33	-0.13919906
72	0xbccce13c	-0.025009744
73	0x3e4ea1b7	0.20178877
74	0x3d42e19c	0.04757844
75	0xbdc5defa	-0.0966167
76	0x3e5e89fe	0.21732327
77	0x3e114950	0.14188123
78	0xbe68e36b	-0.22743003
79	0x3ddeeff6	0.10885613
80	0x3e1e66fd	0.15468974
81	0x3e8a3f9b	0.27001652
82	0x3da442ee	0.08020578
83	0x3dc26fd5	0.094939865
84	0xbcee484e	-0.029087212
85	0x3e22d199	0.15900268
86	0x3e262f14	0.16228896
87	0x3e1b4406	0.15162668
88	0x3ddc67dd	0.10761998
89	0x3e7346a9	0.23757423
90	0x3e1b14dd	0.15144677
91	0x3e0a6c13	0.1351779
92	0x3e2a872c	0.16653126
93	0x3db0ea61	0.08638454
94	0x3d750e06	0.059827827
95	0x3dff0647	0.12452369
96	0xbd98db86	-0.07463746
97	0x3d3e7655	0.04649957
98	0x3a7ee76c	0.00097238156
99	0xbd4146c5	-0.04718663
100	0x3c4e5bb6	0.012595108
101	0xbca3f65c	-0.020014934
102	0x3e44993b	0.19199078
103	0xbcfd0b25	-0.030889103
104	0xbe19ab8a	-0.15006843
105	0x3e35bd4d	0.17747994
106	0xbce0a478	-0.027422175
107	0x3d651cb2	0.05593557
108	0x3e58dd17	0.21178089
109	0xbe06ecf9	-0.13176335
110	0x3dec3506	0.11533551
111	0xbde66a1a	-0.11250706
112	0x3e5979e4	0.21237904
113	0x3e2881aa	0.16455713
114	0x3dfc8746	0.12330489
115	0x3d2548c1	0.040352587
116	0x3e9b34ee	0.3031382
117	0x3e14a8e6	0.14517555
118	0xbd631c46	-0.055446886
119	0x3e1e91ae	0.1548526
120	0x3dfd90dd	0.12381146
121	0xbe2cc5b4	-0.16872293
122	0xbcc890ca	-0.024483103
123	0xbe34ef5d	-0.17669435
124	0x3e07465a	0.1321043
125	0x3e8aa833	0.2708145
126	0xbd949b20	-0.0725615
127	0x3c370e4e	0.011172844
128	0x3c84ffb9	0.01623522
129	0x3e013ac9	0.12620081
130	0xbcad64d9	-0.021166252
131	0xbe869370	-0.2628436
132	0xbe4a93a8	-0.19782889
133	0xbe2db3e5	-0.16963156
134	0x3db01a7d	0.08598802
135	0xbce4ce5a	-0.027930427
136	0x3e8e50fe	0.27796167
137	0xbd0cb572	-0.034352727
138	0xbd962206	-0.07330708
139	0xbe3c9f72	-0.18420199
140	0xbe1c3266	-0.152536
141	0x3dc7caca	0.09755476
142	0xbf0c779a	-0.5487
143	0x3e527361	0.20551826
144	0x3e4e952f	0.20174097
145	0x3ec092e7	0.37612078
146	0xbea773a3	-0.3270541
147	0xbf43cb2f	-0.7648191
148	0x3b8f90ba	0.0043812664
149	0xbdee5788	-0.11637789
150	0x3dd0ae15	0.101894535
151	0xbdd0944e	-0.10184537
152	0xbda98cc8	-0.08278805
153	0x3e45eb26	0.19327983
154	0x3da8c3fb	0.08240505
155	0x3e91b019	0.28454664
156	0xbea3c35d	-0.31984988
157	0x3d80a0d8	0.062806785
158	0x3ca9417e	0.020661112
159	0xbeeb2eba	-0.45934087
160	0x3e3329fa	0.17496482
161	0x3ec74279	0.38917902
162	0xbd8b681a	-0.06806965
163	0x3d4da524	0.05020632
164	0xbe79ae42	-0.2438288
165	0x3e219773	0.1578043
166	0xba814f32	-0.0009865521
167	0xbeb4e58d	-0.35331383
168	0x3d1ac2b2	0.037783332
169	0xbe37d293	-0.17951421
170	0x3dd4f306	0.103979155
171	0xbd10b44a	-0.035328187
172	0x3d14addb	0.036298614
173	0x3e8d6896	0.27618855
174	0x3f43dca4	0.76508546
175	0x3eacc5d7	0.3374469
176	0x3ea03821	0.31292823
177	0x3e6b064f	0.22951625
178	0x3c679785	0.014135246
179	0x3e897125	0.26844135
180	0xbe449a3e	-0.19199464
181	0x3d8f38c7	0.06993251
182	0x3d10ebf1	0.03538126
183	0xbdc1860f	-0.09449398
184	0xbe3c799c	-0.18405765
185	0xbca2491b	-0.01981025
186	0x3b3e091a	0.0028997124
187	0xbf2afa85	-0.6678851
188	0xbe1fa276	-0.15589318
189	0x3e201acd	0.15635224
190	0xbde6ed50	-0.112757325
191	0xbd4af9cf	-0.049554642
192	0xbd99885f	-0.07496714
193	0x3e3b4573	0.18288212
194	0xbe047927	-0.12936841
195	0x3d53b194	0.051683024
196	0x3e64cc44	0.22343546
197	0x3e0a075d	0.13479371
198	0xbe633acd	-0.221904
199	0x3e193e5c	0.14965194
200	0xbdd44b2e	-0.10365902
201	0x3eb21e33	0.34788665
202	0x3d1b039d	0.037845243
203	0x3e04a44a	0.12953296
204	0xbd6bf8d5	-0.05761035
205	0xbc88789a	-0.01665907
206	0xbe55c6c4	-0.20876604
207	0xbe26542b	-0.16243045
208	0x3c1c36ac	0.009534519
209	0xbdd66c69	-0.10469896
210	0xbe01c9d9	-0.12674655
211	0x3e0911fe	0.1338577
212	0x3e688db6	0.22710308
213	0xbe51fd81	-0.2050686
214	0xbd973210	-0.073825955
215	0x3e01de99	0.1268257
216	0x3e8f773a	0.2802065
217	0x3d86384b	0.06553706
218	0x3e557fc9	0.20849527
219	0xbcb2d9a4	-0.021832295
220	0xbe021efd	-0.12707134
221	0xbdba69e0	-0.09102225
222	0xbdced2d7	-0.10098808
223	0xbdcd63e1	-0.10028816
224	0x3e477d97	0.19481502
225	0x3e2bd2c4	0.1677962
226	0xbcbdd348	-0.023172036
227	0x3e0929fa	0.13394919
228	0x3e07dc12	0.13267544
229	0xbd3c551e	-0.04597961
230	0xbce1dcd9	-0.027571129
231	0xbcaa9f64	-0.020827956
232	0xbd076a5b	-0.033060413
233	0x3e94887c	0.2901038
234	0x3dbd8a1d	0.09254859
235	0x3e6a7f6b	0.22900169
236	0x3dd57f27	0.10424643
237	0xbe20fdf6	-0.15721878
238	0x3e0f96fe	0.14022443
239	0xbce661e3	-0.028122848
240	0x3e6f6219	0.23377265
241	0xbd8089be	-0.06276272
242	0x3dd07679	0.10178847
243	0xbde267fd	-0.110549904
244	0x3e7dd4a1	0.24788143
245	0x3dcf694a	0.10127504
246	0xbe42587a	-0.18979064
247	0xbd2c9836	-0.042137347
248	0x3e0b4973	0.13602237
249	0x3e72b0d9	0.23700275
250	0x3e2d8423	0.16944937
251	0xbcb7893f	-0.022404311
252	0xbca2e0fc	-0.019882672
253	0x3e57f4f1	0.21089531
254	0x3d4b3bf9	0.04961774
255	0xbe168a5c	-0.14701217

fc2.bias f4 [64]
0	0x3e9124db	0.2834843
1	0xbe5fa683	-0.21840863
2	0x3eb0e3d4	0.3454882
3	0x3eda610f	0.42652175
4	0x3da72857	0.08161991
5	0xbe314e44	-0.17315012
6	0x3e24998d	0.160742
7	0x3eb5d0cb	0.3551086
8	0x3df24afb	0.11830708
9	0x3e5e4eaf	0.21709703
10	0xbde4c45e	-0.111702666
11	0x3e84110a	0.2579425
12	0xbd430ef6	-0.04762169
13	0x3ebe8751	0.37212613
14	0xbd5514d8	-0.05202183
15	0x3dc0413b	0.09387442
16	0x3d883e96	0.06652562
17	0xbcc79169	-0.02436133
18	0x3ebaecd9	0.36508825
19	0x3daefa22	0.08543803
20	0x3dbf7b01	0.09349633
21	0x3e8c6147	0.27417967
22	0x3ea29cff	0.31760404
23	0x3d94eee7	0.072721295
24	0x3ebe282b	0.3714002
25	0x3ebc8737	0.3682191
26	0xbdae852a	-0.08521493
27	0x3eb6457f	0.35599896
28	0x3e98d2e6	0.29848403
29	0x3ead45b1	0.33842233
30	0x3ea3b228	0.3197186
31	0x3e9417c0	0.2892437
32	0x3ead9379	0.33901575
33	0x3dc0b558	0.094095886
34	0x3e0c3920	0.13693666
35	0x3c69e8ec	0.014276724
36	0x3dbc9df6	0.09209816
37	0x3dc324be	0.095284924
38	0x3e4fe1ea	0.20301023
39	0x3e993f72	0.29931217
40	0x3ed1b91d	0.40961543
41	0x3d86b4b3	0.065774344
42	0x3dc33987	0.09532457
43	0xbe4b7223	-0.19867758
44	0x3de19454	0.110146195
45	0x3df1884e	0.11793576
46	0x3e8974c0	0.26846886
47	0x3db2654e	0.087107286
48	0x3c7f9de0	0.015601605
49	0x3e14e8e0	0.1454196
50	0xbe215184	-0.15753752
51	0xbd5432ea	-0.051806368
52	0x3d2db04b	0.042404454
53	0x3e894558	0.26810718
54	0x3e8fb3b8	0.28066802
55	0x3d37cfe0	0.04487598
56	0x3e61649c	0.22011036
57	0x3eb23ff2	0.3481441
58	0x3eca1435	0.39468542
59	0x3ead66e8	0.33867574
60	0x3d020929	0.031747017
61	0x3e3a91ad	0.18219633
62	0x3da905e3	0.08253076
63	0xbcfe85df	-0.031069694

fc3.weight f4 [128, 64]
0	0x3e0064e9	0.12538494
1	0x3e226a56	0.15860876
2	0x3d97df56	0.07415645
3	0xbd7a5573	-0.061116647
4	0x3d731314	0.059344366
5	0x3a93f3f9	0.001128792
6	0x3dc7ca76	0.09755413
7	0xbe10809b	-0.14111559
8	0x3e1673d6	0.14692625
9	0x3deafa2e	0.11473499
10	0x3e96f8bf	0.29486653
11	0xbf303e36	-0.68844926
12	0x3d9d30c8	0.0767532
13	0xbd0e19b9	-0.0346925
14	0x3e45b453	0.1930707
15	0xbe9ef75e	-0.310481
16	0x3e2cdf9a	0.16882172
17	0x3dae5c35	0.08513681
18	0xbdcef741	-0.10105754
19	0xbc81941f	-0.0158177
20	0x3e11ba0b	0.14231126
21	0x3d0a61e2	0.033784755
22	0xbd9765ca	-0.073924616
23	0x3dfeb317	0.124365024
24	0xbd81cbbe	-0.06337689
25	0xbe0a185d	-0.13485856
26	0x3ed34bc9	0.41268757
27	0xbe11080d	-0.14163227
28	0x3dc205ee	0.09473787
29	0x3db9135f	0.09036898
30	0xbd2dcafe	-0.042429917
31	0xbc5130b6	-0.012767961
32	0xbea3963b	-0.31950554
33	0xbdbbb81c	-0.091659755
34	0x3e0da198	0.13831174
35	0xbcecb4de	-0.028894838
36	0xbe2c9f77	-0.16857706
37	0x3e518e1e	0.2046437
38	0x3e3e7cef	0.18602346
39	0xbe23bccf	-0.15989994
40	0xbcf2fef0	-0.02966258
41	0x3cfe384f	0.03103271
42	0xbd382fe2	-0.04496754
43	0xbdf78bb9	-0.12087197
44	0xbde786eb	-0.113050304
45	0xbe12bb21	-0.14329197
46	0xbd849c78	-0.064751565
47	0x3df027b7	0.11726325
48	0xbd1a4aeb	-0.037669104
49	0x3df4f450	0.119606614
50	0x3d4c21e4	0.049837008
51	0x3e9c80b8	0.30566955
52	0xbed0c06e	-0.40771812
53	0x3d269a0b	0.04067425
54	0xbeafc420	-0.3432932
55	0x3dc3c5af	0.095591895
56	0x3c2d38a2	0.010572584
57	0x3e3ca94e	0.1842396
58	0xbdd5dfe0	-0.104430914
59	0xbc06138b	-0.00818337
60	0x3e2d77d3	0.1694024
61	0x3da7886c	0.08180317
62	0x3d276006	0.04086306
63	0xbd8eb7c3	-0.069686435
64	0x3cd24456	0.02566735
65	0xbd41aa5b	-0.047281604
66	0x3dd4ed26	0.10396795
67	0x3e4327e6	0.19058189
68	0xbe0fb831	-0.14035107
69	0x3e02d06a	0.12774816
70	0x3d40b66e	0.04704898
71	0x3e2b683b	0.1673898
72	0x3e56e0ab	0.20984142
73	0x3db7923d	0.089634396
74	0x3eb6f014	0.3573004
75	0x3e3a7b4f	0.18211101
76	0xbbe10a75	-0.0068677017
77	0xbc9c8504	-0.019106396
78	0xbe52c042	-0.20581153
79	0x3b3b68bd	0.0028596364
80	0x3d2c84a9	0.042118702
81	0x3d5c6be7	0.05381384
82	0x3d08a8ae	0.03336399
83	0x3dd3d87f	0.10344028
84	0xbb8292d7	-0.00398479
85	0x3e51be91	0.20482852
86	0x3e8a44d1	0.27005628
87	0x3e5aecf6	0.21379456
88	0x3c97dc6f	0.018537728
89	0x3e50f1b9	0.2040471
90	0xbdba5c4e	-0.09099637
91	0x3eded0a9	0.4351857
92	0x3e2b04b8	0.16701019
93	0x3e69e343	0.228406
94	0x3e9b5e25	0.30345264
95	0x3e33a79c	0.17544407
96	0x3ebf78ee	0.3739695
97	0x3e85d04b	0.26135477
98	0xbb9a068b	-0.004700487
99	0x3e02bbac	0.12766904
100	0x3e8ae171	0.27125123
101	0x3e258460	0.16163778
102	0x3df0a0ac	0.11749396
103	0x3d84cc3c	0.06484267
104	0x3e85e8ca	0.26154166
105	0x3dc49386	0.0959845
106	0x3e57692f	0.21036218
107	0xbe31ccf8	-0.17363346
108	0x3e3ad37a	0.18244734
109	0x3d96e5c1	0.07368041
110	0x3e77b8fa	0.24191657
111	0x3d879edd	0.06622098
112	0xbe5ab0f3	-0.21356563
113	0x3d4a1f9e	0.04934656
114	0x3daf11b3	0.08548298
115	0xbe8443dd	-0.25833026
116	0x3dcaaaa5	0.09895829
117	0x3cd904ac	0.026491486
118	0x3e9469fc	0.2898711
119	0x3e12d885	0.14340408
120	0x3e1cfd40	0.15330982
121	0x3df0f932	0.1176628
122	0x3e34251a	0.17592278
123	0x3e0eb804	0.13937384
124	0x3e2ecd6c	0.1707055
125	0x3df0571e	0.11735366
126	0x3eb7c2d4	0.3589083
127	0x3e1ce8f4	0.1532324
128	0xbdaa8328	-0.08325797
129	0xbf3be6d2	-0.7339908
130	0x3dd4c53e	0.103891835
131	0x3c60d9ff	0.013723849
132	0x3e9d471a	0.3071831
133	0xbf317944	-0.6932566
134	0x3ddfed19	0.10933895
135	0x3d4841d5	0.048890907
136	0x3e065f64	0.13122326
137	0x3e4b0010	0.19824243
138	0xbec0f890	-0.37689638
139	0xbef4fd6b	-0.47849593
140	0x3e75d44c	0.24006766
141	0xbaf966ec	-0.0019027865
142	0x3e157e8f	0.1459906
143	0x3e972bed	0.295257
144	0xbb42f52a	-0.002974818
145	0x3d06a21f	0.032869454
146	0xbd58a7a1	-0.05289424
147	0x3dcdf4c4	0.10056451
148	0xbd98d543	-0.074625514
149	0x3db443fc	0.088020295
150	0x3dd80c57	0.10549229
151	0xbdd7b9c0	-0.10533476
152	0xba944a25	-0.0011313601
153	0xbf0642fb	-0.52445954
154	0xbef163e1	-0.47146514
155	0xbe38eb3e	-0.18058488
156	0x3baf1d50	0.0053440705
157	0xbf8e1f96	-1.1103389
158	0xbe3038ec	-0.17209214
159	0xbd7d386e	-0.061821394
160	0x3deb588e	0.114915
161	0xbf39da95	-0.72599155
162	0x3e79a2ea	0.24378553
163	0x3ee6e2f6	0.45095032
164	0xbf256980	-0.64614105
165	0x3f07c634	0.5303681
166	0xbd6a9c3e	-0.05727791
167	0x3e479b5d	0.1949286
168	0xbdd9d7a4	-0.10636833
169	0xbdc8dc21	-0.09807611
170	0xbf1a8a6a	-0.60367453
171	0xbd7585fd	-0.059942234
172	0xb8d79bdb	-0.00010281029
173	0xbec05fc5	-0.37573066
174	0x3dbdb088	0.09262186
175	0x3eae5be5	0.34054485
176	0xbecd7be4	-0.40133584
177	0xbd265c14	-0.040615156
178	0xbdfb0544	-0.12256864
179	0x3eb0e1fa	0.34547406
180	0xbf00b5dc	-0.50277495
181	0xbb8da095	-0.0043221214
182	0xbf805b35	-1.0027834
183	0x3d92207b	0.071351014
184	0xbe2c20c2	-0.16809371
185	0x3e2f5c3a	0.17125025
186	0x3d63ebb6	0.055644713
187	0xbdd8ad50	-0.10579932
188	0x3de19542	0.11014797
189	0xbc1e0fe2	-0.009647341
190	0xbf3f87e6	-0.7481674
191	0xbe4aefcd	-0.19818039
192	0xbc160174	-0.00915562
193	0x3c53885a	0.012910927
194	0xbdb3132f	-0.08743893
195	0x3c8a2540	0.016863465
196	0xbb881643	-0.0041530444
197	0x3d90e7ee	0.07075487
198	0xbc1a4d20	-0.009417802
199	0xbd9291c5	-0.071567096
200	0xbb85a440	-0.004078418
201	0x3d39dd69	0.04537717
202	0xbcb4ecf9	-0.022085654
203	0x3cf63b8a	0.030057687
204	0x3df14a4f	0.11781751
205	0x3cb410a9	0.0219806
206	0xbdc28082	-0.09497167
207	0xbdd1bb22	-0.10240771
208	0x3c29c6ec	0.010362368
209	0x3d9f259c	0.07770845
210	0x3dc24e06	0.09487538
211	0x3d825e30	0.06365621
212	0xbdba1425	-0.090858735
213	0x3db79694	0.089642674
214	0x3d0e13f8	0.034687012
215	0x3d51b31b	0.0511962
216	0xbd4ffde7	-0.05077925
217	0xbde2671c	-0.11054823
218	0xbde335ce	-0.11094247
219	0x3dcb1960	0.09916949
220	0xbb8a509d	-0.0042210356
221	0xbddbd3f6	-0.10733788
222	0x3d3c9480	0.046040058
223	0xbd999598	-0.07499236
224	0x3dbc5596	0.09196012
225	0xbd359498	-0.044331163
226	0xbc7d54d3	-0.015462118
227	0x3ac037ae	0.0014665031
228	0xbd73f8ac	-0.059563324
229	0x3cb7db76	0.022443514
230	0xba323350	-0.00067978073
231	0xbdf07d8c	-0.11742696
232	0xbde24c71	-0.11049736
233	0xbdf91ffa	-0.12164302
234	0xbde0a088	-0.10968119
235	0x3c083b63	0.00831494
236	0x3d5ba0fc	0.053620324
237	0xbd66e4d3	-0.056370568
238	0xbde3e73b	-0.11128088
239	0xbdcc7bf5	-0.099845804
240	0x3cefd075	0.029274205
241	0x3da63d7c	0.08117196
242	0xbc444060	-0.011978239
243	0x3d252b6c	0.040324613
244	0x3c8c3e08	0.017119423
245	0x3d892322	0.06696154
246	0x3cbd3678	0.023097262
247	0x3d63fe46	0.055662416
248	0xbc8fdb98	-0.017560765
249	0x3ca0738e	0.01958635
250	0x3d8c4d33	0.06850662
251	0x3dc482a2	0.09595229
252	0xbd700f47	-0.05860832
253	0x3d4c3811	0.049858157
254	0x3d63e586	0.055638812
255	0x3ce0ee30	0.027457327

fc3.bias f4 [128]
0	0x3c8e1686	0.017344724
1	0x3e34750d	0.17622776
2	0x3d75d0b5	0.06001349
3	0xbdce52eb	-0.10074409
4	0x3cc7e140	0.0243994
5	0xbd9de752	-0.077101365
6	0x3bacfd2d	0.0052792043
7	0xbccffc51	-0.025388869
8	0xbe2b64f9	-0.16737737
9	0x3dd92f9a	0.106047824
10	0xbd76ee1b	-0.06028567
11	0xbd8bdd0d	-0.068292715
12	0xbdf7df6a	-0.1210316
13	0x3e83fa94	0.25777113
14	0xbc0a5b60	-0.008444637
15	0x3ec00a00	0.3750763
16	0xbe39f781	-0.18160821
17	0xbd6a7386	-0.057239078
18	0x3e84528d	0.2584423
19	0xbe1fee3e	-0.15618226
20	0x3dd2459c	0.10267183
21	0xbe776df7	-0.24163042
22	0xbd915118	-0.070955455
23	0x3c309be9	0.010779359
24	0xbcb5009c	-0.022095017
25	0x3d73d8a7	0.059532788
26	0xbdc0b516	-0.094095394
27	0x3ea2a911	0.31769612
28	0xbe532846	-0.20620832
29	0xbe227b39	-0.15867318
30	0x3ea9efcd	0.33190766
31	0x3d013ed1	0.031554047
32	0x3cd7fbd2	0.026365194
33	0xbdb1ebab	-0.08687528
34	0x3c82dfd7	0.015975876
35	0xbde72159	-0.112856574
36	0xbdca1c7b	-0.098687135
37	0xbe1e18f5	-0.15439208
38	0x3e8e2156	0.27759808
39	0xbc6cdda1	-0.014457137
40	0xbda66fd2	-0.08126797
41	0x3e2940f2	0.16528681
42	0x3eb8f163	0.36121663
43	0xbd8dcd0e	-0.06923877
44	0xbca85f7a	-0.02055334
45	0x3df2b7b3	0.11851444
46	0x3e35e02e	0.17761299
47	0xbcfeabce	-0.031087782
48	0x3d30d721	0.043173913
49	0xbde4ff2a	-0.11181481
50	0x3e2966ca	0.16543117
51	0x3da560a7	0.080750756
52	0xbd1cc56a	-0.038274206
53	0x3eac32f7	0.33632633
54	0x3e8bf675	0.2733647
55	0x3ec2d1cd	0.3805069
56	0x3ea36816	0.3191535
57	0xbe0e0987	-0.13870822
58	0xbdd3b43f	-0.103371136
59	0x3e9b0021	0.30273536
60	0x3e0c201c	0.13684124
61	0xbd1d2f10	-0.03837496
62	0x3e4893d4	0.19587642
63	0xbca76c34	-0.020437337
64	0xbd833f14	-0.064085156
65	0x3e975e79	0.29564264
66	0xbb920ce7	-0.0044571045
67	0xbd8c809f	-0.0686047
68	0x3e4500c6	0.19238576
69	0xbe668400	-0.22511292
70	0x3eb153d9	0.34634283
71	0xbe3d9ac5	-0.18516071
72	0x3e643108	0.22284329
73	0xbdc21f56	-0.09478633
74	0x3d5d41b7	0.05401775
75	0x3eb20027	0.3476574
76	0x3e868b21	0.26278022
77	0x3eb98c09	0.3623965
78	0x3e29fb0a	0.1659967
79	0x3e5b4f86	0.21417055
80	0x3ec01b85	0.37520996
81	0xbe372242	-0.17884162
82	0x3eb66ce4	0.35629952
83	0xbdcbdcc5	-0.09954218
84	0x3eae83f7	0.34085056
85	0x3e9f638a	0.3113063
86	0xbc647e7a	-0.01394617
87	0x3e390c31	0.18071057
88	0x3e2faa31	0.17154767
89	0x3e9e464d	0.3091301
90	0xbe284016	-0.16430697
91	0xbccdfee0	-0.025145948
92	0x3e874f3c	0.2642764
93	0x3e15f7d6	0.14645323
94	0x3e1e6fa2	0.15472272
95	0xba05d9d7	-0.0005106008
96	0xbd9e2286	-0.077214286
97	0x3e1a18e7	0.15048562
98	0x3e5550fe	0.20831677
99	0x3e469c7a	0.19395629
100	0x3e170151	0.14746596
101	0xbdb25e81	-0.087094314
102	0xbcfe9f4f	-0.031081824
103	0x3e995cde	0.29953665
104	0xbdf88762	-0.12135197
105	0x3e0d7d64	0.13817364
106	0x3e7d1a74	0.24717122
107	0xbddf5d16	-0.109064266
108	0x3e57b451	0.21064879
109	0x3e91a146	0.28443354
110	0xbc8fe4a1	-0.017565073
111	0x3b325df5	0.0027216647
112	0x3e37c263	0.17945246
113	0xbbf2e6db	-0.007412774
114	0x3eb461d3	0.35230884
115	0x3e8cfbf5	0.27535978
116	0xbe470703	-0.19436269
117	0xbd0672e0	-0.032824397
118	0x3d5741dc	0.052553043
119	0x3d3b088c	0.045662448
120	0xbe78a886	-0.24283037
121	0x3e45a40e	0.19300863
122	0x3e8f6607	0.28007528
123	0xbdc9f811	-0.09861768
124	0xbbd22322	-0.0064128796
125	0x3e091bea	0.13389555
126	0x3e43d02b	0.19122379
127	0x3e1995a9	0.14998497

v.weight f4 [1, 128]
0	0x3e9f62ce	0.3113007
1	0xbe48a67e	-0.19594762
2	0x3f1be95c	0.60902953
3	0x3d2edbaf	0.042689975
4	0x3ec79737	0.38982555
5	0x3f18b9a1	0.5965825
6	0x3ca6c203	0.020356184
7	0x3e172ed2	0.14763954
8	0x3ebef24d	0.37294236
9	0xbe6dc51d	-0.23219724
10	0x3edc13c7	0.4298384
11	0x3f2ff5f6	0.6873468
12	0x3d137633	0.036001395
13	0xbe64880c	-0.22317523
14	0x3d0cdcbe	0.034390204
15	0xbe34d2ef	-0.1765859
16	0x3f1760a5	0.5913184
17	0x3e8717bf	0.26385304
18	0xbe5b923b	-0.21442501
19	0x3f183b35	0.5946534
20	0x3e91ea87	0.28499243
21	0x3f4e7917	0.8065352
22	0x3c4be0d2	0.012443738
23	0x3d836cf2	0.06417264
24	0x3f9ca4ff	1.2237853
25	0x3e6e7fab	0.23290889
26	0x3d156982	0.036477573
27	0xbe57bf84	-0.21069151
28	0x3f192304	0.59819055
29	0x3e22d4cf	0.15901493
30	0xbe5967e6	-0.2123104
31	0x3d5c9fb6	0.05386325
32	0x3f63ac25	0.88934547
33	0x3d72330c	0.059130713
34	0x3e01d8e5	0.12680395
35	0x3bb4be2e	0.0055158352
36	0x3d7d761d	0.06188022
37	0x3f1d8cfb	0.61543244
38	0xbe45b2e4	-0.19306523
39	0x3ce16124	0.02751214
40	0x3ec53969	0.38520363
41	0xbe7c573b	-0.24642651
42	0xbe58b782	-0.21163753
43	0x3f379e6e	0.7172612
44	0x3f1812a5	0.5940345
45	0xbe3227f5	-0.17398055
46	0xbf80cc44	-1.0062337
47	0x3d51e849	0.051246915
48	0x3ef86320	0.48513126
49	0x3f2d0328	0.6758294
50	0xbe580b3c	-0.21098036
51	0x3ec9bbd2	0.39401108
52	0x3f30107e	0.68775165
53	0xbe27a8f3	-0.16373043
54	0xbe8b960d	-0.27262917
55	0xbe262bbe	-0.16227624
56	0xbe6928d8	-0.22769487
57	0x3e81934b	0.25307688
58	0x3f1210da	0.57056963
59	0xbeb87abe	-0.36031145
60	0xbe435645	-0.19075878
61	0x3f7b44f6	0.981521
62	0xbe53a290	-0.20667481
63	0x3ea308ca	0.31842643
64	0x3ef0e7df	0.47051904
65	0xbe45ad90	-0.1930449
66	0x3eb3b2c2	0.3509732
67	0x3f16bdd1	0.58883387
68	0xbe33c110	-0.17554116
69	0x3f082184	0.5317614
70	0xbe83a7e5	-0.2571403
71	0x3e4ee290	0.20203614
72	0xbe5fdfe4	-0.21862751
73	0xbc898995	-0.016789237
74	0x3ac11144	0.0014729877
75	0xbe1d6ab4	-0.15372735
76	0xbe3c860a	-0.18410507
77	0xbe6afe55	-0.22948582
78	0xbe40a9b6	-0.1881474
79	0xbe22ab9c	-0.15885776
80	0xbe460aaa	-0.19340006
81	0x3e37460f	0.17897819
82	0xbe336464	-0.17518765
83	0x3e0c5d64	0.137075
84	0xbe2ad5b8	-0.1668309
85	0xbe22a291	-0.15882327
86	0x3ea39f35	0.31957403
87	0xbe6e5648	-0.23275101
88	0xbe735bff	-0.23765562
89	0xbe2da75c	-0.16958374
90	0x3ee62365	0.4494888
91	0xbda75012	-0.08169569
92	0xbe606a51	-0.21915556
93	0xbe1bdd13	-0.15221052
94	0xbe784cf8	-0.24248111
95	0x3d8b8504	0.0681248
96	0xbd7f87c1	-0.062385324
97	0xbe36400b	-0.17797868
98	0xbe818adc	-0.25301254
99	0xbe2501f7	-0.16114031
100	0xbe8300b9	-0.2558649
101	0x3e9f8065	0.31152645
102	0x3f0dc517	0.5537886
103	0xbea78eda	-0.32726175
104	0x3e69e383	0.22840695
105	0xbe459dae	-0.19298431
106	0xbe3dd986	-0.1854001
107	0x3f201c3e	0.62543094
108	0xbe70d372	-0.2351816
109	0xbe8cf0db	-0.27527508
110	0x3d60be77	0.05486914
111	0x3ea5764c	0.32316816
112	0xbe312455	-0.17299016
113	0x3e89dfdd	0.26928607
114	0xbe219375	-0.15778907
115	0xbe4df3d4	-0.20112544
116	0x3dff7e27	0.124752335
117	0x3f52ef03	0.8239595
118	0x3d863fe1	0.06555153
119	0x3ccf4f5e	0.0253064
120	0x3e5fd879	0.21859922
121	0xbe8b4fc9	-0.2720931
122	0xbe6694f1	-0.22517754
123	0x3e9acfe9	0.30236748
124	0x3e8c6786	0.27422732
125	0xbe2d73fe	-0.16938779
126	0xbe53e58e	-0.20693037
127	0xbe24ef68	-0.16106951
