SAC/critic2_v3.pth (torch, 46031 bytes, 7 tensors)

fc1.weight f4 [32, 11]
-0.3749999 0.77049255 0.32890567 0.00097369455 0.00525226 0.013721603 -0.44757813 -0.08148737
-0.22691183 0.018178718 -0.014966572 -0.47602403 0.7665522 -0.033953983 0.044141997 0.00046662914
-0.079182304 0.49762836 0.22955477 0.3371481 0.005316031 0.00089005474 0.32132503 0.15575114
0.18357906 0.02837524 -0.115847796 -0.14741775 -0.17410694 -0.28122172 -0.10366914 -0.050138857
-0.08249735 -0.036608897 0.73415524 -0.122696534 0.50051177 0.009047302 -0.0018843368 0.014757972
0.7017696 0.4034795 0.015523999 -0.07694661 -0.14156823 -0.0071467096 -0.08731611 0.06650478
0.02650438 -0.13218044 0.47126228 -0.35904777 0.031590324 0.029693972 -0.07279362 0.36861524
-0.35964358 0.011259312 -0.014399848 -0.006818002 -0.0017885705 0.13350637 0.047593486 -0.16569212
-0.01759726 0.517812 -0.5006174 -0.066040576 0.096846595 -0.14089912 0.05217399 0.057472598
0.842983 -0.08667534 0.20850107 -0.016386168 0.09129886 0.43973416 0.4791023 -0.36847195
0.120824486 0.005311288 -0.030208448 -0.7505623 0.6229717 -0.07772257 0.0031627854 0.019949745
0.7845664 0.08984104 0.6603579 0.36227638 0.021141415 -0.022065956 -0.6847412 0.39986804
0.1562653 0.0020445497 0.1719692 -0.36947712 0.13909076 0.048525486 0.039443046 0.013422228
0.022163136 0.08314914 -0.040805094 -0.073086515 0.6711853 -0.061460193 -0.45358536 0.32751974
-0.24193864 -0.144928 0.018900799 0.07620643 1.378331 0.5130829 0.17448357 0.006799536
0.09899671 0.20512271 -0.10534737 -0.62667143 -0.33237633 -0.006737465 -0.06286738 -0.15987556
-0.084924355 0.20257947 0.034428205 0.06568733 0.024211504 -0.40344182 0.27050045 0.36793286
-0.08226201 -0.08704256 0.30943754 -0.24216998 0.11951146 0.012778657 -0.056955338 -0.548
0.009167689 0.17451303 0.22739159 -0.0037761452 -0.007654641 0.73321587 -0.61917824 0.3549717
0.0088599585 -0.02733949 0.5355012 0.2978372 0.3159564 -0.010841483 0.031451084 -0.021736171
-0.7021313 -0.1033862 0.03698226 0.05405375 -0.060251813 0.26388177 0.07664358 0.08347911
0.4063301 0.009711761 -0.028962974 -0.34803587 0.78348416 0.27878046 0.01370068 0.21065259
0.058703948 0.27694634 1.1591351 0.39700183 0.00062828016 0.042641256 0.38661918 -0.13875686
-0.12065812 0.05558288 -0.0023847802 0.32979602 0.01832987 0.0047726473 -0.032704055 0.06685028
0.19611149 -1.0687904 0.5108131 -0.17105462 -0.02972771 0.010868716 -0.113532804 -0.68490756
-0.05085874 -0.057853814 0.00093726144 0.00070093485 0.483495 -0.83168536 -0.13121451 -0.0017731052
-0.0025344463 -0.29138246 -0.24547268 -0.13558163 -0.19703951 -0.009753637 -0.115394406 0.43254516
-0.28612044 0.017879656 0.005761096 0.054619107 0.051863287 -0.27361017 0.5023738 0.14542107
0.063559316 0.17647797 0.6469047 -0.5392293 -0.26484954 0.021133456 0.09864285 -0.041499835
0.12731074 -0.2592565 -0.04965961 0.14462799 0.13527685 0.5147288 0.273903 -0.025659822
-0.023260051 -0.09556707 0.43264958 0.1181093 0.41972372 -0.09029935 -0.0018375036 -0.04256548
-0.6412955 0.70875925 0.17136674 0.008187161 -0.10613051 -0.14780875 0.07742477 -0.5463321
00000000: fdff bfbe 003f 453f 5366 a83e 893f 7f3a
00000010: 261b ac3b 93d0 603c f628 e5be dae2 a6bd
00000020: 935b 68be 89eb 943c 5a36 75bc 6cb9 f3be
00000030: c43c 443f 5513 0bbd 3dce 343d e7a5 f439
00000040: 552a a2bd 25c9 fe3e 6810 6b3e ad9e ac3e
00000050: 1a32 ae3b 9052 693a b784 a43e 3a7d 1f3e
00000060: 26fc 3b3e 3173 e83c 9c41 edbd aef4 16be
00000070: 1749 32be 4bfc 8fbe 7c50 d4bd 675e 4dbd
00000080: 5ff4 a8bd 36f3 15bd 99f1 3b3f 5248 fbbd
00000090: 8a21 003f 233b 143c dafb f6ba 6ccb 713c
000000a0: 2ca7 333f dd94 ce3e 5f58 7e3c 2f96 9dbd
000000b0: 43f7 10be f22e eabb cad2 b2bd a833 883d
000000c0: b71f d93c 4f5a 07be 4a49 f13e 1cd5 b7be
000000d0: db64 013d c640 f33c d214 95bd 23bb bc3e
000000e0: 3423 b8be fa78 383c 57ed 6bbc 8c69 dfbb
000000f0: 786e eaba e5b5 083e 63f1 423d 32ab 29be
00000100: 2128 90bc 548f 043f 7628 00bf 4840 87bd
00000110: 8257 c63d dc47 10be 65b4 553d 6368 6b3d
00000120: bccd 573f d782 b1bd 4e81 553e 493c 86bc
00000130: e6fa ba3d d624 e13e e64c f53e 5ba8 bcbe
00000140: d472 f73d 500a ae3b b577 f7bc da24 40bf
00000150: 137b 1f3f 032d 9fbd bc46 4f3b a66d a33c
00000160: 58d9 483f 94fe b73d 370d 293f 4a7c b93e
00000170: c330 ad3c aac3 b4bc 334b 2fbf 81bb cc3e
00000180: 0304 203e dafd 053b b218 303e 1b2c bdbe
00000190: cf6d 0e3e a9c2 463d 088f 213d e8e8 5b3c
000001a0: 778f b53c 194a aa3d 3e23 27bd 62ae 95bd
000001b0: cdd2 2b3f afbd 7bbd 573c e8be abb0 a73e
000001c0: c3be 77be 0168 14be d9d5 9a3c 1e12 9c3d
000001d0: 266d b03f 6759 033f d2ab 323e a4ce de3b
000001e0: c9be ca3d b00b 523e 5dc0 d7bd 8a6d 20bf
000001f0: 3b2d aabe f4c5 dcbb 9dc0 80bd 6bb6 23be
00000200: d2ec adbd fe70 4f3e 9704 0d3d 1487 863d
00000210: 3457 c63c ed8f cebe 097f 8a3e b261 bc3e
00000220: fc78 a8bd 5f43 b2bd 996e 9e3e 68fb 77be
00000230: 6dc2 f43d 925d 513c 004a 69bd ba49 0cbf
00000240: 1334 163c 8bb3 323e 57d9 683e 3479 77bb
00000250: c8d3 fabb 09b4 3b3f 7782 1ebf dabe b53e
00000260: 5c29 113c 11f7 dfbc 9b16 093f 1e7e 983e
00000270: 0ac5 a13e 7aa0 31bc dad2 003d 0e10 b2bc
00000280: e0be 33bf 25bc d3bd b67a 173d 7767 5d3d
00000290: 9bca 76bd 831b 873e 4ff7 9c3d 18f7 aa3d
000002a0: 800a d03e 141e 1f3c c243 edbc c231 b2be
000002b0: 6b92 483f 50bc 8e3e d178 603c 50b5 573e
000002c0: 8d73 703d e9cb 8d3e 8a5e 943f d343 cb3e
000002d0: 2bb3 243a 99a8 2e3d f3f2 c53e 4716 0ebe
000002e0: 9b1b f7bd e0aa 633d f949 1cbb 06db a83e
000002f0: 8628 963c de63 9c3b b0f4 05bd cde8 883d
00000300: 73d1 483e 20ce 88bf a6c4 023f f128 2fbe
00000310: 8787 f3bc b312 323c e383 e8bd 1a56 2fbf
00000320: 4151 50bd 1ff8 6cbd 8db2 753a f1be 373a
00000330: a88c f73e 55e9 54bf 195d 06be 8a67 e8ba
00000340: f418 26bb 1530 95be 315d 7bbe e9d5 0abe
00000350: bac4 49be b8cd 1fbc e753 ecbd 8f76 dd3e
00000360: 617e 92be 5b78 923c 93c7 bc3b 49b8 5f3d
00000370: 996e 543d a216 8cbe 929b 003f 43e9 143e
00000380: 632b 823d a4b6 343e 8c9b 253f ee0a 0abf
00000390: 5c9a 87be 1220 ad3c 4305 ca3d bbfb 29bd
000003a0: bf5d 023e 45bd 84be e067 4bbd 5c19 143e
000003b0: 0486 0a3e 44c5 033f 043d 8c3e 8c34 d2bc
000003c0: dd8b bebc abb8 c3bd 3f84 dd3e 4ae3 f13d
000003d0: 07e6 d63e deee b8bd 64d8 f0ba 2459 2ebd
000003e0: f12b 24bf 3f71 353f c37a 2f3e 7123 063c
000003f0: f45a d9bd 2d5b 17be e190 9e3d 6cdc 0bbf

fc1.bias f4 [32]
-0.10379622 0.30168694 0.08270797 0.35785148 -0.14706387 0.22857492 -0.23696128 -0.10781933
-0.024105035 0.33150357 0.37559745 -0.3132285 0.119980395 0.19745971 -0.016708177 0.027737025
0.30517447 -0.037195936 -0.06977722 -0.09160116 0.08313899 -0.18999313 0.19161339 -0.06349161
0.13635413 0.17477229 -0.06571824 -0.023760524 0.20446135 -0.17757647 -0.17741862 0.20762764
00000000: 1d93 d4bd b676 9a3e cc62 a93d 4f38 b73e
00000010: e997 16be 8b0f 6a3e faa5 72be 62d0 dcbd
00000020: ec77 c5bc d6ba a93e 4f4e c03e 7c5f a0be
00000030: 48b8 f53d e132 4a3e 96df 88bc c238 e33c
00000040: d43f 9c3e c45a 18bd 5ce7 8ebd 6499 bbbd
00000050: c644 aa3d 8f8d 42be 4d36 443e e407 82bd
00000060: 6ba0 0b3e 82f7 323e 4997 86bd 6ea5 c2bc
00000070: 515e 513e 9bd6 35be 3aad 35be 579c 543e

fc2.weight f4 [64, 32]
0.55167 -0.039789274 0.30914763 -0.47160757 -0.2313765 -0.120458655 0.3933675 0.4036415
-0.02034554 0.2952176 -0.014411224 0.2691597 0.23341185 0.12414528 0.2092683 -0.07514057
-0.027831089 -0.691714 2.7816741 0.2930376 -0.014841435 -0.21408458 -0.07001289 -0.08985137
0.14884688 -0.0683978 0.23392783 0.04361871 0.065852165 -0.14804381 0.21371372 -0.12462045
-0.71954685 0.086689495 -0.035594556 0.10294067 -0.013491876 0.25647292 -0.064014725 -0.7555469
-0.118717864 -0.36926958 0.109856665 0.047221575 -0.017819867 -0.06539174 0.10411909 -0.021605128
0.06171521 -0.8207627 -1.1615874 0.24986047 -0.19271795 0.35625333 -0.046863515 0.0766966
0.19109872 0.02325377 0.15201353 0.15671584 -0.5591906 -0.2556225 0.21068305 0.07105982
0.32348657 0.089762576 0.102614 -0.06660817 -0.07408218 0.037574656 0.15104237 0.38190368
-0.21909337 -0.010522554 0.14231567 0.058041643 0.13746461 0.5105953 0.21731889 -0.023610687
-0.24192794 -0.19164267 2.0391316 0.1546389 0.026972964 0.08326648 -0.075091824 0.012530462
-0.12461529 -0.112395674 0.035696704 0.029368697 -0.19996127 -0.26475802 -0.07080569 -0.03351477
-0.28231278 -0.3333088 -0.09828363 -0.057463698 -0.2642009 -0.060095668 0.02504033 0.040996853
0.2544833 0.05597349 -0.087397374 -0.14336376 -0.13987558 -0.020927656 0.15351906 0.108726546
-0.43482932 0.14445543 0.3876877 0.32566398 -0.48304242 0.27319407 0.120720774 -0.33852944
-0.021757696 -0.14210658 0.030405672 0.31876856 0.33242014 0.17101645 -0.7314731 -0.24205752
0.541755 0.19750313 -0.11052484 0.17553778 0.049828485 -0.0057843444 0.12018121 -0.39988372
-0.16425355 -0.073097095 0.2803935 -0.06604675 -0.28656515 0.24048527 -0.21518573 -0.12407055
-0.10827094 0.046449844 0.6059277 0.13957217 0.025433475 0.0188075 -0.050206978 0.54114276
-0.20163102 0.20333637 -0.27252612 -0.24637938 -0.24642566 0.043793906 0.041426644 -0.2396329
0.5238784 -0.081954226 0.049560443 -0.09030777 -0.017714176 -0.13829616 0.08624502 -0.6568978
0.32999176 -0.09147334 0.1012725 -0.05380352 -0.1888326 -0.2599727 0.018854333 0.018814597
0.38179445 -0.14611253 -1.8298994 0.35540202 -0.6598448 0.001447715 0.21069418 -0.17091084
0.05083223 0.10938293 0.050586194 -0.1979857 -0.13010135 0.18465173 0.17174542 -0.6356158
0.5039961 0.039744794 -0.11619698 0.13200057 0.0033408247 0.039433826 0.1710656 0.20471282
-0.21632496 -0.07579605 0.41547546 -0.0006568937 0.10709111 0.7394573 -0.11894684 -0.41135815
-0.20232694 -0.38594344 0.47076964 0.3677379 0.28275576 0.10760563 -0.20799038 0.12980595
-0.050445814 -0.08890129 -0.3747089 0.03806243 -0.38068372 0.03379966 -0.08200646 -0.06266989
-1.0546284 0.090744376 -0.13128713 -0.5898086 -0.09636521 0.94133896 0.011727922 0.111973636
0.36951575 -0.3529324 0.19845499 0.25971285 0.019729408 -0.077369064 0.026401177 0.53869474
0.003485744 0.022760553 -0.7293499 0.095201656 -0.15640081 0.14988211 -0.4513554 -0.06047141
0.23399208 -0.11665756 -0.028272014 -0.12972815 -0.12702456 0.19336815 0.10340171 0.09308726
00000000: 3f3a 0d3f 14fa 22bd 9948 9e3e 8c76 f1be
00000010: f6ed 6cbe 07b3 f6bd 7767 c93e 19aa ce3e
00000020: b1ab a6bc c326 973e 0e1d 6cbc 4dcf 893e
00000030: 8403 6f3e e13f fe3d 6e4a 563e 4de3 99bd
00000040: 06fe e3bc 2b14 31bf f306 3240 0609 963e
00000050: 7d29 73bc fd38 5bbe eb62 8fbd ff03 b8bd
00000060: 516b 183e 2514 8cbd c78a 6f3e 88a9 323d
00000070: 80dd 863d cc98 17be c5d7 5a3e 0239 ffbd
00000080: 3934 38bf 438a b13d 99cb 11bd 8fd2 d23d
00000090: 080d 5dbc 6b50 833e 271a 83bd 866b 41bf
000000a0: 5a22 f3bd e710 bdbe 88fc e03d 696b 413d
000000b0: f8fa 91bc 1bec 85bd 643c d53d 3dfd b0bc
000000c0: 17c9 7c3d 811d 52bf e5ae 94bf 6cdb 7f3e
000000d0: db57 45be d666 b63e f5f3 3fbd 1b13 9d3d
000000e0: 62af 433e b17e be3c 6fa9 1b3e 1e7a 203e
000000f0: 1d27 0fbf f4e0 82be 4cbd 573e d087 913d
00000100: 08a0 a53e 71d5 b73d 4a27 d23d dd69 88bd
00000110: 66b8 97bd e2e7 193d daaa 1a3e e188 c33e
00000120: 035a 60be ca66 2cbc 33bb 113e 13bd 6d3d
00000130: 86c3 0c3e 60b6 023f d888 5e3e 336b c1bc
00000140: f5bb 77be fa3d 44be 2281 0240 a959 1e3e
00000150: 68f6 dc3c 9e87 aa3d bec9 99bd 914c 4d3c
00000160: 4d36 ffbd b42f e6bd b536 123d 9f96 f03c
00000170: a6c2 4cbe 5d8e 87be 9302 91bd c946 09bd
00000180: 4d8b 90be 73a7 aabe ee48 c9bd 0e5f 6bbd
00000190: 5745 87be e026 76bd 6121 cd3c 51ec 273d
000001a0: a34b 823e 7544 653d 65fd b2bd f3cd 12be
000001b0: 8b3b 0fbe 7a70 abbc 1a34 1d3e 06ac de3d
000001c0: f3a1 debe 20ec 133e 017f c63e 6ebd a63e
000001d0: 5651 f7be 18e0 8b3e 743c f73d bb53 adbe
000001e0: 323d b2bc 6384 11be 5115 f93c a235 a33e
000001f0: f932 aa3e f01e 2f3e d241 3bbf eddd 77be
00000200: 75b0 0a3f 433e 4a3e d95a e2bd 2dc0 333e
00000210: f418 4c3d 998a bdbb 9121 f63d 8fbd ccbe
00000220: 1532 28be eeb3 95bd bd8f 8f3e 8543 87bd
00000230: abb8 92be c541 763e a659 5cbe b318 febd
00000240: 28bd ddbd 3142 3e3d 141e 1b3f 02ec 0e3e
00000250: dd59 d03c 3012 9a3c d5a5 4dbd 5588 0a3f
00000260: 5d78 4ebe 6937 503e 8b88 8bbe e04a 7cbe
00000270: 0257 7cbe 3d61 333d fcae 293d 5462 75be
00000280: e51c 063f 9ed7 a7bd e4ff 4a3d 48f3 b8bd
00000290: 521d 91bc 829d 0dbe 3ba1 b03d 742a 28bf
000002a0: aef4 a83e 6056 bbbd f567 cf3d 1461 5cbd
000002b0: 555d 41be 241b 85be 6774 9a3c 1221 9a3c
000002c0: 907a c33e 869e 15be 253a eabf 41f7 b53e
000002d0: 97eb 28bf 41c1 bd3a 37c0 573e 4003 2fbe
000002e0: 7535 503d 2804 e03d 7833 4f3d c3bc 4abe
000002f0: 4a39 05be 5815 3d3e 08de 2f3e b8b7 22bf
00000300: e305 013f 70cb 223d aff8 edbd 282b 073e
00000310: bdf1 5a3b 5d85 213d d22b 2f3e 3da0 513e
00000320: 4a84 5dbe f63a 9bbd 33b9 d43e 6433 2cba
00000330: 9552 db3d 134d 3d3f 679a f3bd 899d d2be
00000340: cb2e 4fbe 619a c5be b808 f13e 2448 bc3e
00000350: 5dc5 903e 5760 dc3d 6efb 54be daeb 043e
00000360: 45a0 4ebd e111 b6bd d8d9 bfbe 5ae7 1b3d
00000370: fae8 c2be 8371 0a3d 01f3 a7bd 1259 80bd
00000380: 10fe 86bf 30d8 b93d 2270 06be b2fd 16bf
00000390: 205b c5bd 97fb 703f 7826 403c 6f52 e53d
000003a0: 2b31 bd3e 8eb3 b4be c937 4b3e 15f9 843e
000003b0: 919f a13c ac73 9ebd 4847 d83c e6e7 093f
000003c0: 1471 643b 5774 ba3c adb6 3abf 16f9 c23d
000003d0: 8927 20be b27a 193e 0e18 e7be dfb0 77bd
000003e0: 9f9b 6f3e 29ea eebd b69a e7bc 75d7 04be
000003f0: ba12 02be 4d02 463e 47c4 d33d 89a4 be3d

fc2.bias f4 [64]
-0.025452582 -0.09113881 -0.034737587 -0.03861508 -0.05005891 -0.041144308 0.07558608 0.026829915
0.04810663 0.03784249 0.12541434 0.054418337 0.044001963 -0.2746658 -0.09408218 -0.081195414
-0.06868177 -0.15518528 0.115498774 0.0033804493 0.11764659 0.12827724 0.14370517 0.35257605
0.07855207 0.020873116 0.072910406 -0.056733515 -0.13035809 0.06521291 -0.04672016 0.22849607
-0.04256386 0.061535344 0.037726976 -0.1596357 0.19620141 -0.08573396 0.028104825 -0.091204904
0.017552886 -0.09701988 -0.14299184 0.07424449 -0.21098156 -0.029896602 -0.15143965 -0.18315849
0.21561918 -0.037470512 0.0005654883 -0.06300335 0.12829857 0.2540149 0.0029389856 -0.21628927
0.10510533 0.12892163 0.009580766 0.04968239 -0.008116871 0.12949288 -0.11861086 -0.10362561
00000000: ef81 d0bc fca6 babd 0049 0ebd d92a 1ebd
00000010: 920a 4dbd ef86 28bd e0cc 9a3d 69ca db3c
00000020: 750b 453d ba00 1b3d 9e6c 003e c3e5 5e3d
00000030: 673b 343d ffa0 8cbe 28ae c0bd c849 a6bd
00000040: 07a9 8cbd e4e8 1ebe 9f8a ec3d 878a 5d3b
00000050: b2f0 f03d 1c5b 033e 7327 133e d984 b43e
00000060: e8df a03d 19fe aa3c 0d52 953d 6761 68bd
00000070: 977c 05be 598e 853d a35d 3fbd e0fa 693e
00000080: 7157 2ebd 7c0c 7c3d 9a87 1a3d 8a77 23be
00000090: 06e9 483e 4995 afbd 173c e63c a3c9 babd
000000a0: 12cb 8f3c 5cb2 c6bd 746c 12be 7f0d 983d
000000b0: 8d0b 58be b8e9 f4bc ff12 1bbe e68d 3bbe
000000c0: 46cb 5c3e ae7a 19bd 473d 143a e607 81bd
000000d0: b360 033e 3e0e 823e ff9b 403b ef7a 5dbe
000000e0: 7741 d73d 0804 043e a5f8 1c3c c37f 4b3d
000000f0: a0fc 04bc c899 043e 40ea f2bd aa39 d4bd

fc3.weight f4 [128, 64]
0.54276276 0.4367462 0.13418542 0.60338616 -0.06991651 -0.4096129 0.21517865 0.34771827
-0.14743643 0.47741336 0.020732556 -0.06939068 -0.037669897 -0.90188646 -0.15307364 -0.46829182
0.6283972 -0.41398865 -0.0073267994 0.09101614 -0.29993317 0.24033326 -0.72579855 -0.29330763
0.56596214 -0.7029363 -0.05520447 -0.6246255 0.1686064 -0.23291174 -0.4368823 -2.2728798
-0.2909737 -1.4008751 0.11288435 0.13359728 -0.64547527 -0.78812414 0.16235094 0.04536407
0.19461769 -0.35770297 0.04839007 -0.32578552 0.68071616 -0.13014002 0.26592934 -0.674569
0.538564 -0.24179181 -0.15878437 0.6994015 -0.349244 -0.4425449 -0.45562315 -0.51558036
-2.154675 -0.44955134 -0.3757109 0.5834141 -1.9095374 0.021747544 -0.99963003 -0.38511574
0.07237068 0.17587338 -0.03627133 0.027870461 0.04045634 0.06771212 -0.39986962 -0.24342684
-0.005927268 -0.48023438 0.0060993973 -0.04371754 0.1208798 -0.124992535 0.1292568 0.18466641
0.6197615 -0.2986193 -0.07375721 -0.052483656 0.1166528 0.11661835 0.106205635 0.058811624
-0.47229588 0.35953638 -0.8011444 -0.11503916 0.003340204 -0.78465974 0.13728301 0.27110884
-0.3881252 0.15992978 -0.1136435 0.64991605 0.20205954 0.23409025 -0.22603631 0.15499546
0.044580027 0.06968575 -0.25702986 -0.11308322 -2.2708676 0.10546335 -0.4020487 0.097987406
-0.12221033 0.102359444 0.17976032 -0.6090591 0.16055775 0.21182154 0.09918941 0.16866633
0.052986443 0.07170455 0.2234545 0.03751728 0.19903299 -0.15590867 -0.5974508 0.088995785
-0.11166443 -0.026749307 0.033297684 -0.13215747 0.24481234 0.08080249 0.18715286 0.48224097
0.012370957 0.21562964 -0.02820678 -0.043101866 0.056392923 0.18899816 0.11373386 0.107046716
-0.9184186 0.3380344 0.12164974 -0.11521679 0.115269475 0.05382741 -0.0036554968 0.13113666
0.46943685 -0.3044093 0.7355817 0.19858457 0.12697622 0.63666135 -0.084049135 -0.16689453
0.5453776 0.17615652 0.20965211 -0.536677 -0.028513564 -0.08157013 0.19925667 0.05240685
0.05163929 0.0053453823 0.30075115 0.3927499 1.8755469 -0.015219713 0.3624806 0.09392484
-0.0037207694 0.15369812 0.12855934 0.30479148 0.21326736 0.17827077 0.21054576 0.17175093
-0.020922733 0.025663879 0.10901638 -0.01765528 -0.16844134 0.24228051 0.6713092 0.08279585
-0.4720541 0.062765986 0.2335222 0.08340852 -0.21735246 -1.6836272 -2.4574654 -0.17391358
0.22363399 -1.3023418 0.03045772 -0.029983327 -0.06770308 -1.384832 -0.17949201 0.029780341
-0.9624886 0.031332657 0.25589022 0.075758725 -2.007589 -0.20279983 0.04833017 0.25348982
-0.42484054 0.6272235 -3.8300502 -3.4531522 0.06464882 -0.028142923 -0.02226571 0.11179961
-0.33381376 -0.15561655 0.12050476 1.5654273 0.043762617 0.17835844 -1.0081166 0.27643508
-0.013278067 0.07637149 0.39895165 -0.7392902 -1.0333787 0.126339 -0.6122934 -0.65657735
0.0094335675 -0.671468 0.44553667 -0.55549794 0.16788325 0.006703776 -0.121022895 -0.048773997
0.025402863 -0.47711322 -0.12970798 -0.84533244 0.60560036 0.4437167 -0.8161272 0.15446505
00000000: 80f2 0a3f 339d df3e e767 093e 8477 1a3f
00000010: 6330 8fbd c8b8 d1be cb57 5c3e 2108 b23e
00000020: 93f9 16be 866f f43e 52d7 a93c b31c 8ebd
00000030: c04b 1abd 08e2 66bf 56bf 1cbe f2c3 efbe
00000040: a4de 203f 52f6 d3be a615 f0bb ac66 ba3d
00000050: d790 99be ec19 763e efcd 39bf 6b2c 96be
00000060: e5e2 103f a2f3 33bf 151e 62bd 75e7 1fbf
00000070: 28a7 2c3e 6a80 6ebe 09af dfbe dd76 11c0
00000080: 81fa 94be e04f b3bf e92f e73d bacd 083e
00000090: de3d 25bf 81c2 49bf 533f 263e adcf 393d
000000a0: dc49 473e d824 b7be ab34 463d 5ccd a6be
000000b0: 6a43 2e3f 6d43 05be e427 883e 8eb0 2cbf
000000c0: 55df 093f 4698 77be 5f98 22be fa0b 333f
000000d0: 1cd0 b2be 3f95 e2be 7047 e9be 13fd 03bf
000000e0: 32e6 09c0 982b e6be 2e5d c0be a05a 153f
000000f0: b96b f4bf e827 b23c c1e7 7fbf e42d c5be
00000100: 1437 943d 2718 343e 3f91 14bd 9850 e43c
00000110: 8cb5 253d a7ac 8a3d b6bb ccbe e344 79be
00000120: 8739 c2bb 48e1 f5be 74dd c73b 2a11 33bd
00000130: d48f f73d 16fc ffbd e55b 043e 3119 3d3e
00000140: b1a8 1e3f a1e4 98be 050e 97bd 1af9 56bd
00000150: aae7 ee3d 9ad5 ee3d 5782 d93d 75e4 703d
00000160: c4d0 f1be 2715 b83e cd17 4dbf a799 ebbd
00000170: 53e7 5a3b 76df 48bf eb93 0c3e c7ce 8a3e
00000180: 59b8 c6be a2c4 233e ecbd e8bd e660 263f
00000190: b2e8 4e3e 5bb5 6f3e 1076 67be 21b7 1e3e
000001a0: 8c99 363d 67b7 8e3d 6b99 83be 2d98 e7bd
000001b0: e555 11c0 2bfd d73d 54d9 cdbe 9fad c83d
000001c0: 6949 fabd d4a1 d13d 1713 383e 4ceb 1bbf
000001d0: 4069 243e bfe7 583e d123 cb3d deb6 2c3e
000001e0: 5008 593d d6d9 923d 42d1 643e b8ab 193d
000001f0: 4ecf 4b3e 86a6 1fbe 89f2 18bf 6c43 b63d
00000200: 52b0 e4bd 5d21 dbbc 2763 083d 4a54 07be
00000210: 16b0 7a3e c77b a53d 00a5 3f3e 4ae8 f63e
00000220: 8eaf 4a3c 04ce 5c3e e811 e7bc 958b 30bd
00000230: 44fc 663d bc88 413e 4ced e83d 4f3b db3d
00000240: 7b1d 6bbf d812 ad3e 8023 f93d c8f6 ebbd
00000250: 6712 ec3d 217a 5c3d 0f91 6fbb b048 063e
00000260: 075a f03e 89db 9bbe 154f 3c3f c159 4b3e
00000270: 0e06 023e 3dfc 223f f421 acbd 66e6 2abe
00000280: de9d 0b3f 6062 343e 0baf 563e aa63 09bf
00000290: 4795 e9bc 3e0e a7bd f109 4c3e 91a8 563d
000002a0: b883 533d 5128 af3b 0efc 993e 8416 c93e
000002b0: ec11 f03f 1a5c 79bc 0f97 b93e ab5b c03d
000002c0: 27d8 73bb 0a63 1d3e 0fa5 033e a10d 9c3e
000002d0: c262 5a3e 9d8c 363e 4f99 573e 7adf 2f3e
000002e0: 2766 abbc 0e3d d23c fb43 df3d cea1 90bc
000002f0: e37b 2cbe 6218 783e ebda 2b3f df90 a93d
00000300: 13b1 f1be 748b 803d 7220 6f3e 16d2 aa3d
00000310: a591 5ebe 1981 d7bf 1d47 1dc0 6716 32be
00000320: 4f00 653e 23b3 a6bf 7882 f93c 989f f5bc
00000330: eaa7 8abd 2d42 b1bf c1cc 37be e7f5 f33c
00000340: a765 76bf ac56 003d 0b04 833e 6427 9b3d
00000350: 577c 00c0 c2aa 4fbe dbf5 453d 6bc9 813e
00000360: b384 d9be b891 203f 8b1f 75c0 7200 5dc0
00000370: 9a66 843d fd8b e6bc 9466 b6bc 32f7 e43d
00000380: a3e9 aabe f259 1fbe 33cb f63d ec5f c83f
00000390: 6e40 333d 98a3 363e f709 81bf e688 8d3e
000003a0: 408c 59bc a868 9c3d 6443 cc3e 1f42 3dbf
000003b0: c145 84bf 035f 013e 43bf 1cbf 7415 28bf
000003c0: 408f 1a3c 54e5 2bbf 621d e43e 1d35 0ebf
000003d0: 96e9 2b3e 59ab db3b dada f7bd 3ec7 47bd
000003e0: aa19 d03c 2f48 f4be 2bd2 04be b567 58bf
000003f0: a008 1b3f d62e e33e b6ed 50bf 162c 1e3e

fc3.bias f4 [128]
-0.39043447 0.24942482 0.07043337 0.081931956 0.027487095 -0.024167325 0.06221266 -0.045172125
0.15063919 0.10414823 0.028835727 -0.11920002 -0.013678165 0.02293273 0.15971231 -0.01336669
-0.02949356 -0.122311644 0.12188814 0.04816147 0.07895191 -0.08312082 -0.032888923 -0.04243735
-0.22931029 0.092782356 -0.118830316 0.21289273 -0.11864949 -0.05272343 0.23806368 0.030336002
-0.105094746 -0.09629729 -0.08599025 0.08881624 -0.20717816 -0.042436384 -0.018206302 -0.039028604
0.057361297 -0.06017123 0.21914338 -0.14478645 0.14041391 0.04955703 -0.10468247 0.119725406
0.09068675 -0.061743222 0.0025262574 0.031614643 0.004936978 0.20425779 -0.09257813 0.088940114
-0.009675158 0.096535325 0.019252717 -0.13400798 -0.09886318 0.029699195 -0.010968271 0.026532661
-0.05657351 -0.018641468 0.1411857 0.00891385 -0.38365898 -0.03557525 0.0013474466 -0.15578908
0.09123144 -0.04469286 -0.119687274 0.27404502 0.08850644 -0.1263551 -0.058517605 -0.00036035237
0.029770931 0.17805067 -0.027055275 -0.068580694 -0.12028964 0.23499198 0.38500708 0.09186719
-0.12663199 -0.10500883 -0.09554878 -0.039486013 0.0691789 0.1971022 -0.10224614 0.17048284
-0.030681511 -0.12451138 -0.014477298 0.17021923 0.18940209 0.18782952 0.0050487625 0.343163
0.076676995 0.07963625 0.071869865 0.08659343 0.11085429 -0.12926467 -0.02008554 0.111780316
0.29847747 -0.029541887 0.27176836 -0.059556384 -0.08282546 -0.036423616 0.13922429 -0.03915409
0.019026425 -0.15588136 -0.06480516 -0.07988717 0.004039911 -0.04475794 0.06184403 -0.14841285
00000000: 07e7 c7be 3869 7f3e 5f3f 903d f1cb a73d
00000010: 9e2c e13c 8efa c5bc b4d2 7e3d 6806 39bd
00000020: 2941 1a3e ab4b d53d e738 ec3c 241f f4bd
00000030: 621a 60bc 6cdd bb3c a08b 233e f6ff 5abc
00000040: 7a9c f1bc 877e fabd 7da0 f93d f644 453d
00000050: 8ab1 a13d 403b aabd 89b6 06bd c9d2 2dbd
00000060: 51d0 6abe ad04 be3d 4f5d f3bd 8d00 5a3e
00000070: 81fe f2bd 86f4 57bd f7c6 733e 3583 f83c
00000080: ea3b d7bd 8337 c5bd a81b b0bd 4ae5 b53d
00000090: 8326 54be c6d1 2dbd 6225 95bc 75dc 1fbd
000000a0: aef3 6a3d 1c76 76bd 1f67 603e e642 14be
000000b0: aac8 0f3e 50fc 4a3d c363 d6bd 9832 f53d
000000c0: fab9 b93d 76e6 7cbd 918f 253b 5b7e 013d
000000d0: 60c6 a13b f428 513e 9a99 bdbd 3c26 b63d
000000e0: 8e84 1ebc 50b4 c53d e0b7 9d3c 6339 09be
000000f0: c778 cabd ba4b f33c 43b4 33bc 065b d93c
00000100: a0b9 67bd feb5 98bc fc92 103e 660b 123c
00000110: f36e c4be 5ab7 11bd ce9c b03a 2c87 1fbe
00000120: 8dd7 ba3d dc0f 37bd 9a1e f5bd a14f 8c3e
00000130: dd42 b53d 3b63 01be 28b0 6fbd aded bcb9
00000140: 2be2 f33c ea52 363e 06a3 ddbc 0974 8cbd
00000150: 6a5a f6bd bda1 703e a61f c53e de24 bc3d
00000160: d1ab 01be df0e d7bd 14af c3bd 16bc 21bd
00000170: abad 8d3d 29d5 493e 6d66 d1bd 0e93 2e3e
00000180: cb57 fbbc d3ff febd 3032 6dbc f34d 2e3e
00000190: 9ff2 413e 6256 403e 1770 a53b 10b3 af3e
000001a0: d408 9d3d 5518 a33d 8230 933d e557 b13d
000001b0: 9307 e33d f55d 04be 6e8a a4bc 14ed e43d
000001c0: 0ad2 983e d401 f2bc 3925 8b3e 65f1 73bd
000001d0: 65a0 a9bd ee30 15bd d090 0e3e 0a60 20bd
000001e0: 4edd 9b3c 5d9f 1fbe 91b8 84bd e29b a3bd
000001f0: 3b61 843b 1a54 37bd 2a50 7d3d 8af9 17be

v.weight f4 [1, 128]
2.4205241 0.5519292 -0.08049704 2.1175518 1.1085994 -0.076703034 1.7552044 1.4927498
1.1449755 0.069384545 -0.03391825 -0.006824552 0.9884552 -0.07581199 1.0076064 -0.014481748
-0.017418826 -0.04845827 0.69355893 -0.084729746 -0.15032832 -0.047190707 0.030812448 1.0246941
1.4699179 -0.039782986 3.0334 1.4023347 2.6914892 2.7118165 0.65459585 -0.06951627
-0.06311124 -0.08515148 -0.0584068 -0.089779705 -0.080375165 1.2594726 1.4484824 2.8895204
1.811696 -0.1058602 2.2867963 -0.034491193 1.888931 -0.059093878 -0.025036657 2.251118
-0.050994642 -0.07119089 -0.05101582 -1.5074371 -0.0668236 0.4848701 -0.13662295 0.0368638
0.5308117 2.5544307 0.0038571425 -0.04508078 -0.094078764 -0.09941365 -0.058382843 -0.11821171
-0.06518683 -0.022490053 -1.0997118 -0.16169126 2.2720222 -0.024493188 0.8538708 -0.08952085
-0.025074938 -0.080725305 -0.11309645 0.50347483 1.0476656 -0.24490651 -0.0934218 -0.13796347
-0.03035696 0.7931091 -0.06374564 -0.07364325 -0.14365576 1.2906162 0.8314729 0.93988264
-0.07484503 -0.008630303 -0.03946301 -0.15987797 -0.09041997 1.104692 -0.06045163 1.644855
-0.05521823 -0.120079786 0.03325337 0.777882 1.3219721 0.72654283 -1.0646163 0.7731751
1.2680247 1.7413173 -0.13690494 0.45849296 0.48547497 -0.04820104 0.00893576 -0.08564331
1.0190737 -0.061474524 0.7057375 2.063869 -0.1425582 -0.09011803 1.8856349 1.1279128
4.2090774e-06 -0.08704238 -0.047214422 -0.023527052 1.84929 -0.06624579 -0.09639958 -0.8896677
00000000: dee9 1a40 3b4b 0d3f a2db a4bd f885 0740
00000010: 96e6 8d3f 7b16 9dbd 8aaa e03f 6d12 bf3f
00000020: 8f8e 923f 7c19 8e3d dded 0abd 7ea0 dfbb
00000030: 660b 7d3f 5143 9bbd 3ff9 803f db44 6dbc
00000040: edb1 8ebc 2e7c 46bd 148d 313f ca86 adbd
00000050: abef 19be 0b4b 41bd 636a fc3c 2d29 833f
00000060: 4526 bc3f 7cf3 22bd 3a23 4240 b47f b33f
00000070: 5c41 2c40 678e 2d40 9893 273f 8c5e 8ebd
00000080: 7740 81bd e663 aebd f83b 6fbd 6cde b7bd
00000090: bc9b a4bd 6636 a13f df67 b93f e7ed 3840
000000a0: a8e5 e73f 3ccd d8bd df5a 1240 a346 0dbd
000000b0: 7ec8 f13f 6c0c 72bd ad19 cdbc 5112 1040
000000c0: c2df 50bd 88cc 91bd f7f5 50bd b3f3 c0bf
000000d0: d0da 88bd e540 f83e e3e6 0bbe 7ffe 163d
000000e0: 47e3 073f cb7b 2340 1dc8 7c3b a0a6 38bd
000000f0: 5eac c0bd 6299 cbbd d922 6fbd fb18 f2bd
00000100: ac80 85bd 0f3d b8bc 5bc3 8cbf 6592 25be
00000110: d068 1140 f0a5 c8bc 4797 5a3f b556 b7bd
00000120: f569 cdbc 4f53 a5bd 1d9f e7bd bae3 003f
00000130: e819 863f c6c8 7abe ee53 bfbd 4c46 0dbe
00000140: 29af f8bc 3309 4b3f 138d 82bd 46d2 96bd
00000150: 7f1a 13be e932 a53f 68db 543f 269c 703f
00000160: 5a48 99bd 1d66 0dbc f7a3 21bd 0db7 23be
00000170: 1b2e b9bd 8c66 8d3f 219c 77bd 9c8a d23f
00000180: 832c 62bd 64ec f5bd b034 083d 4623 473f
00000190: 6236 a93f b6fe 393f 5945 88bf ceee 453f
000001a0: a24e a23f 7ce3 de3f cf30 0cbe 97bf ea3e
000001b0: 2d90 f83e 746e 45bd 4b67 123c c265 afbd
000001c0: 0271 823f b6cc 7bbd 36ab 343f 6e16 0440
000001d0: c7fa 11be cd8f b8bd 7c5c f13f 725f 903f
000001e0: b33b 8d36 4643 b2bd e963 41bd cebb c0bc
000001f0: 89b5 ec3f dfab 87bd 256d c5bd 43c1 63bf
