SAC/critic1_v3.pth (torch, 46095 bytes, 7 tensors)

fc1.weight f4 [32, 11]
000000 40 81 6f 3f 9e 11 a9 bb 32 71 10 3e 3c b7 cb bd
       0.93556595 -0.005159571 0.1410568 -0.099470586
000010 e8 30 11 be be 81 ff bd b7 1f b4 3e 3f 0a 40 be
       -0.14178813 -0.12475918 0.35180447 -0.18753909
000020 0d ea 44 3e 7a 06 85 3d 8e 96 87 3d 94 e7 f4 bd
       0.19229908 0.06495376 0.06620513 -0.119582325
000030 49 cf 7f be ca 93 08 3f 33 f7 98 bd 03 25 89 be
       -0.24981417 0.5335051 -0.074690245 -0.2678605
000040 ad c0 ff bd f0 22 04 bf a2 3d b8 3e cd 68 06 3f
       -0.12487922 -0.5161581 0.35984522 0.52503663
000050 5e 47 7d 3d 68 b1 66 3d 0b f3 e6 bd ed f1 a0 be
       0.06183564 0.05632153 -0.112768255 -0.31434575
000060 00 22 3b 3c cf f2 81 be 9d 0d 10 be 1a b7 42 bc
       0.01142168 -0.2538056 -0.14067693 -0.011884475
000070 41 d8 75 be 74 e1 14 be e0 1f 15 3e 56 12 86 bb
       -0.24008276 -0.14539129 0.1456294 -0.0040915413
000080 57 20 8a 3d 07 d8 b0 ba 0f a1 99 3e ae 20 28 3f
       0.067444496 -0.0013492116 0.3000569 0.65674865
000090 73 17 f3 3e bb 70 c2 3d f5 01 41 3d 43 4d 6f bd
       0.47478828 0.09494158 0.047121007 -0.058423292
0000a0 eb 07 28 be a1 08 f6 3d 8d 92 b9 bd 5b cc fb 3d
       -0.1640927 0.120133646 -0.090611555 0.12294837
0000b0 c2 45 27 bf 0c be bb 3e 2f 1b a7 be 22 61 05 3d
       -0.65340817 0.36668432 -0.32637927 0.032563336
0000c0 1d a7 11 3c 52 43 e3 3b bf 0e be 3e ab 8b 89 3f
       0.008889941 0.0069355154 0.37120625 1.0745748
0000d0 a2 9d af 3e 43 a7 9b 3d 40 e8 69 be 95 d3 b0 bd
       0.34299952 0.07600262 -0.22842503 -0.08634106
0000e0 4e e6 7f be 32 23 fd bd 20 b3 c0 bd 0f 32 03 3e
       -0.24990198 -0.123602286 -0.094091654 0.12812065
0000f0 d6 b2 44 be 18 ae 02 3f b0 70 21 3d 22 b5 13 3f
       -0.19208845 0.51046896 0.039414108 0.5769826
000100 ff 2a 37 3c 10 c6 17 be d3 83 b6 be c8 5a 21 be
       0.011179685 -0.14821649 -0.3564745 -0.15757287
000110 f1 75 a7 3e 76 d2 74 bd 03 0f b1 3b 2d 01 25 bd
       0.3270717 -0.059771024 0.005403401 -0.040284324
000120 6b 08 38 3c 9c c2 06 be 96 45 a2 3e 86 72 f7 3b
       0.011232476 -0.13160175 0.31693715 0.007551494
000130 81 32 19 bd ea 3d 18 bd 98 be 04 3e ce a2 20 bf
       -0.03740168 -0.03716842 0.12963331 -0.6274842
000140 b9 f1 36 3e 14 54 b5 bc ad 29 af 3c d6 fb b0 be
       0.17865647 -0.022134818 0.021382177 -0.34567136
000150 79 3a 44 3f 7f 64 b0 3e a9 90 9c 3d 08 30 b7 3d
       0.7665172 0.34451672 0.07644779 0.08944708
000160 e1 fa 45 3f a6 03 ae 3d 27 6f 0f 3e 5e 0b 5a 3e
       0.77335936 0.0849679 0.14007245 0.21293399
000170 7f 47 24 3c ec 26 54 be a6 19 93 be c6 fc 2d bf
       0.010026812 -0.20717973 -0.28730506 -0.67963827
000180 09 8f e1 bb 2b cc 92 bb 60 0d 5a be 22 41 92 bd
       -0.006883506 -0.004479905 -0.21294165 -0.07141329
000190 86 59 05 3e 6b 86 01 bd 35 e6 9b 3d f3 99 d6 3b
       0.13022432 -0.03162233 0.07612268 0.006549114
0001a0 ba d1 14 3e cb ba 85 3c 3d 99 63 be 6a 36 2b 3f
       0.1453313 0.016324421 -0.22226425 0.66879904
0001b0 cb 8d eb bc d0 73 2a 3e d3 19 e9 3e f5 d4 6a 3e
       -0.028754136 0.16645741 0.45527515 0.22932799
0001c0 06 52 34 3f a1 48 ea bd 1d 2f 10 3d c6 62 cd bd
       0.7043766 -0.11439634 0.03520118 -0.10028605
0001d0 da b0 86 be da 20 b9 3d aa d3 bc 3e a0 40 e0 3d
       -0.26306802 0.09039469 0.36880237 0.10949826
0001e0 fe 20 46 be 74 62 01 bf 7e c7 6b 3e 90 b7 85 3e
       -0.19348523 -0.5054085 0.23025319 0.2611661
0001f0 17 d5 f1 bd 8c be a3 bd b7 6c 05 be cd 08 1d 3b
       -0.11808222 -0.07995328 -0.13029753 0.0023961545
000200 8e 62 73 bf ae 9d 95 3e 48 2d a0 bd f6 39 e9 bd
       -0.9507226 0.29221863 -0.07821137 -0.11388008
000210 68 d3 3e be d5 f8 63 3e 1a 93 38 3f 09 f0 a2 3e
       -0.18635333 0.2226289 0.7209946 0.31823757
000220 38 87 5e 3e 52 48 20 3e 2f 39 c2 be 88 49 04 3f
       0.2173127 0.15652588 -0.37934253 0.516747
000230 a4 6e d7 3e 9c 5b 25 3e 98 e3 eb bc 93 ad 8c 3f
       0.420766 0.16148227 -0.028795049 1.0990471
000240 ec a8 46 3e 5e c5 58 3e 5b 5d 4c 3e d6 b7 0c bd
       0.19400376 0.2116904 0.19957487 -0.034355007
000250 bb 92 94 3c 98 ef 65 be 7f 04 83 bd 3d 23 dc bd
       0.018136373 -0.22454679 -0.06397342 -0.10748909
000260 c3 a6 a2 bc 0b 83 b4 bc 8b a8 5a be 81 6f da bd
       -0.019854909 -0.022035142 -0.21353357 -0.10665799
000270 f8 2b 93 3e 16 6a cc 3d 83 8d af bc 00 74 4d bd
       0.28744483 0.09981172 -0.021429783 -0.050159454
000280 28 e8 c6 be f4 17 0a bf 7f 15 15 be 5c f1 12 3e
       -0.38848996 -0.539428 -0.14558981 0.14349884
000290 8e e1 32 be 10 87 35 bf 55 7d 51 3e 51 bb 20 3f
       -0.17468855 -0.70909214 0.20457967 0.6278582
0002a0 a7 ae d5 3d 80 47 04 3f 39 ec cc 3d a7 66 e2 be
       0.10433703 0.516716 0.100059934 -0.44218943
0002b0 e0 02 9a be f1 9b 83 be 08 bb 12 3c 40 26 78 3c
       -0.30080318 -0.2570491 0.008955725 0.015145838
0002c0 b3 9a 4c 3e 34 b7 10 3c e1 43 50 3e cc f9 c3 be
       0.19980888 0.0088327415 0.20338394 -0.38276517
0002d0 f3 72 96 3d 2e c0 5b 3d 38 c1 8c be 68 db fd bd
       0.073461436 0.053650074 -0.27491164 -0.12395364
0002e0 b4 f6 a7 3e b1 97 fc bc b9 58 b1 bc a4 b0 f9 3e
       0.32805407 -0.03083405 -0.021648752 0.4876758
0002f0 23 b1 90 3d b2 3c 02 bf a5 ba b4 bb 75 9e 6f 3e
       0.07065036 -0.50873864 -0.005515414 0.2340029
000300 84 a7 30 3e 67 d9 42 bd 63 68 cb 3e f5 43 71 3e
       0.17251402 -0.047570612 0.39728078 0.2356108
000310 62 c8 82 bd d8 ae c7 bc b4 e9 25 3f 79 da fc be
       -0.06385876 -0.024375364 0.6480973 -0.4938543
000320 3b 11 a2 3e a2 44 c4 be 0e 61 e0 3c a6 3c af bd
       0.3165377 -0.38333613 0.02739003 -0.0855649
000330 ad 4c 39 bf 9e 70 75 be ca d7 ed 3d 5a fb 23 3d
       -0.7238262 -0.23968741 0.11613424 0.04003463
000340 6e fe 4d bb a5 df 28 bf b3 94 9f be c3 e5 c4 be
       -0.003143217 -0.65966254 -0.31168136 -0.38456544
000350 92 31 15 3d d5 43 86 3d 17 e7 d3 3c af e2 5b 3f
       0.036424227 0.06555907 0.025867028 0.85892767
000360 48 53 ee 3c aa b7 e2 3e da 1c 3a bd c6 bd e8 3d
       0.029092446 0.4428075 -0.04543767 0.113643214
000370 ab 4b 70 3e 1e f1 b8 3d c3 ee 83 ba 2d 41 3a 3e
       0.23466365 0.090303645 -0.0010065663 0.18188925
000380 54 c9 f8 bd e3 cf 05 be a9 24 84 3e 76 b5 8a 3e
       -0.12147775 -0.13067584 0.2580922 0.2709157
000390 2f 59 1d 3f ac 11 20 be aa 7d 0a be 33 e7 90 3d
       0.6146421 -0.15631741 -0.135245 0.07075348
0003a0 35 26 f7 3d c5 08 78 3e 79 3a c3 3c 9b 60 07 3e
       0.12067834 0.24222095 0.023831593 0.13220446
0003b0 01 37 e1 3d 52 f1 39 be db 85 76 bf 57 2a c1 3e
       0.10996819 -0.18158463 -0.96298 0.37727615
0003c0 8f 98 a2 3d 3a c0 b5 bd 39 3e 4a be ff 3b 9a 3e
       0.079392545 -0.08874555 -0.19750299 0.30123898
0003d0 b9 93 ed 3e 78 61 9f 3d 7e e3 4c be 3b 82 1f 3e
       0.46401766 0.077822626 -0.20008656 0.15577023
0003e0 b4 63 09 bf e9 0a 5a bd 9f 8c 93 be a2 39 de be
       -0.5366776 -0.05323306 -0.28818223 -0.43403345
0003f0 9b 92 d1 bc 6d 98 a6 3c b7 ff d5 3d 63 b8 f3 be
       -0.025582602 0.020336354 0.10449164 -0.47601613

fc1.bias f4 [32]
000000 23 89 93 3e da 5c e6 3d 47 79 61 3e 3c fd 8e be
       0.28815565 0.11248179 0.2201892 -0.27927577
000010 2c 6e 42 3d 84 19 89 3d a0 c1 1d 3f 47 d2 a6 3e
       0.04746835 0.0669432 0.61623573 0.32582304
000020 f3 e1 2b be 1a b5 1b 3f 55 fc 65 bd e6 98 b4 bb
       -0.16785412 0.60823214 -0.056148846 -0.005511391
000030 a1 22 5d bd cc c5 fc 3d ad 9b 64 3e ff aa 30 be
       -0.053988103 0.12342414 0.2232501 -0.1725273
000040 08 48 bd 3e 70 5e 5a 3e 9a 35 b1 bd ed 39 19 3f
       0.36969018 0.21325088 -0.08652802 0.5985401
000050 d8 bc aa 3e 11 fe 8a 3e dd c6 d7 be d4 80 8c 3e
       0.333472 0.27146962 -0.42143908 0.27442038
000060 45 b9 7f 3e df 74 a0 bd 46 e8 56 bd aa d8 98 3e
       0.24973018 -0.078347914 -0.052467607 0.29852802
000070 de b9 23 3d 0e 1b 80 3d 20 07 ab bd c9 72 7e 3e
       0.03997218 0.0625516 -0.08350968 0.24848475

fc2.weight f4 [64, 32]
000000 14 91 8d 3e ff 45 cf bd 46 a0 31 be 36 cc 16 3e
       0.27649748 -0.101207726 -0.17346296 0.14726338
000010 b7 ba 2b be 26 ca a7 3d c4 77 42 3c ee 6c 10 3e
       -0.16770445 0.08192854 0.011869375 0.14104053
000020 e7 2f d2 3d db 58 cc 3e 9d 72 07 be b2 ba bc 3d
       0.10263043 0.3991154 -0.13227315 0.09215297
000030 cd cf 04 be e7 f0 19 3f 03 d7 09 be 2e 69 09 bf
       -0.12969895 0.6013321 -0.13460927 -0.53676116
000040 91 9c 80 bd 3d 6a 0f 3d 71 99 8c be 6c c1 bc 3d
       -0.06279863 0.035013426 -0.27460817 0.0921658
000050 7f c5 a9 3e 8e d8 7e 3e 9d d5 8b 3d b8 43 f1 3d
       0.3315849 0.24887297 0.06827853 0.117804945
000060 40 4a 4a be 7f d9 4b 3e e1 fc 5e be 15 17 49 be
       -0.19754887 0.19907187 -0.21776153 -0.19637711
000070 b3 b9 7c bb 43 29 07 be 47 a6 2e 3d 3d 11 ff 3e
       -0.0038562834 -0.13199334 0.042639043 0.4981784
000080 fb 59 b3 3b 1a 42 16 be 6c 89 07 3e 08 e2 9d bd
       0.005473373 -0.14673653 0.13236016 -0.07709128
000090 42 ee 01 3d e9 1c 60 bd 52 2f 65 3e b2 b7 5e be
       0.03172136 -0.05471507 0.22381333 -0.21749762
0000a0 1b f5 54 be 68 ec e6 be b6 0c 76 3e 54 0b d3 3e
       -0.20796625 -0.4510224 0.24028286 0.4121958
0000b0 5a 15 15 3d 08 8f 92 be 0f 19 51 be 1e 48 bd bd
       0.036397316 -0.2862475 -0.20419715 -0.09242271
0000c0 67 af 41 3e b9 da b3 3d 9c d3 c0 3e 94 20 ca 3d
       0.18914567 0.087819524 0.37661445 0.09869495
0000d0 a9 d3 32 be fa ec ca 3d f4 30 fc 3d d3 fe 21 3e
       -0.17463554 0.09908481 0.123140246 0.15819864
0000e0 20 02 e9 3d d8 f8 cd bd bd 40 db bd 4f 89 7f be
       0.113773584 -0.10057229 -0.10705707 -0.24954723
0000f0 9f fa a9 be d6 a0 0e 3e 43 06 96 bd 1f 2c 41 be
       -0.3319902 0.13928542 -0.07325413 -0.18864487
000100 47 9d 26 3e 03 30 05 3e cf 9c 27 3d 40 0f e6 3e
       0.16270934 0.13006596 0.04092103 0.4493351
000110 c4 f3 70 3e 0e 9f 10 3e 23 3a 9a bc b9 f7 2d 3e
       0.23530489 0.14123175 -0.01882655 0.1698903
000120 45 b0 85 3e 12 ce d5 3d c5 ab 6b 3e e4 8d ec bd
       0.26111045 0.104396954 0.23014744 -0.11550501
000130 00 d2 0e 3f e0 fe e9 3e eb 99 10 bf 9c 08 bb bc
       0.55789185 0.45702267 -0.5648486 -0.022831254
000140 25 49 fb 3d a2 1e a8 3e 87 33 9d 3e 0a 19 7c 3e
       0.122698106 0.3283587 0.30703375 0.24618927
000150 b0 72 11 3e e6 da 51 3e f2 52 9d 3e 59 0e 53 3e
       0.14203906 0.2049366 0.30727345 0.20610942
000160 93 3b 01 3e 39 ae eb 3e 5c 07 0a 3e eb b0 1c be
       0.12620382 0.4603136 0.1347937 -0.15301864
000170 57 91 73 3e f9 bc 3a 3e 42 e7 b1 3e 58 9e 09 3f
       0.23785912 0.1823615 0.34746748 0.5375724
000180 a4 2d ee 3b 64 34 7b 3d 87 16 f6 bd d5 33 16 3d
       0.0072686244 0.06132926 -0.120160155 0.036670525
000190 48 73 f4 be 5d 3a 1b be 8c 1a 67 3d a8 f0 7b 3e
       -0.47744203 -0.15158983 0.0564218 0.24603522
0001a0 c8 27 01 bd 23 53 00 bd e9 b2 0b 3e f0 e4 86 bd
       -0.03153208 -0.031329285 0.13642468 -0.06586635
0001b0 e1 37 27 3e 42 f0 ae bd 30 3e a3 3e 2e 7c 51 3e
       0.1632991 -0.08541919 0.31883383 0.20457527
0001c0 ee c4 55 3e 36 b8 9e 3d b5 03 d1 3e 5c 06 43 bf
       0.20875904 0.07749979 0.4082314 -0.7618158
0001d0 19 94 4f 3e 99 7e 05 3e 8a 9e bd 3d 35 a5 45 bc
       0.20271339 0.13036574 0.092587546 -0.012063314
0001e0 a6 40 90 3d fe 72 09 3e 2b 55 8a bd b8 cd 7a be
       0.07043581 0.13422772 -0.06754526 -0.24492538
0001f0 c7 89 9a be 48 54 c7 bb 89 6b 9b bd 3e 44 38 bf
       -0.3018324 -0.006083045 -0.0758887 -0.7197913
000200 14 39 0e be bf 8a 0c 3e f6 39 50 3e cd dd b8 3c
       -0.13888961 0.13724802 0.2033461 0.0225667
000210 05 6c 3a 3e 2a 94 39 3d d1 50 a7 3d 6b 69 00 bd
       0.18205269 0.045307316 0.081697114 -0.031350534
000220 13 c0 a9 3c 7f 31 07 be b2 05 95 bd 0b c6 05 be
       0.020721471 -0.13202475 -0.07276477 -0.13063829
000230 53 51 b8 3c a0 b5 fa bd 6f 2d 30 be 49 e5 6b 3e
       0.022499716 -0.122416735 -0.17204832 0.23036684
000240 fe a9 c2 3e be a0 09 bd 28 c1 9b bb 4f 7c c3 bc
       0.3802032 -0.03360056 -0.0047532506 -0.023862986
000250 b5 8c a0 bd a1 33 7f be eb 1c ad 3d dc ab 8b 3c
       -0.07839338 -0.24922039 0.08452781 0.017049722
000260 e5 72 2d 3e 9d 1f 21 be 4c 2e 0a 39 13 79 7a 3e
       0.1693836 -0.15734716 0.00013177952 0.24460249
000270 7c 51 25 3e 49 23 22 3e b4 1b 86 be d9 3c 0a 3d
       0.16144365 0.15833773 -0.2619301 0.033749435
000280 ba 88 38 3c 0e 47 28 3e be 22 69 be 0f cc 00 3f
       0.011263067 0.16433355 -0.2276716 0.5031137
000290 53 7d b4 3d e9 f2 2d 3e 97 3d 84 be e6 77 f4 3d
       0.08812966 0.16987194 -0.2582824 0.11936931
0002a0 36 f4 22 3f 3c 35 a5 be 5a ad d1 3d 3a b3 59 be
       0.63653886 -0.32267177 0.10238142 -0.21259776
0002b0 e8 99 fb 3e 24 c0 b7 3c 55 be 02 3a bc 63 e8 bc
       0.4914086 0.022430487 0.0004987468 -0.02836787
0002c0 be 09 e1 3c 89 6f 3a 3e b5 18 e5 3e d4 f4 71 3e
       0.027470466 0.1820661 0.44745412 0.23628551
0002d0 bf 16 cd bd df b4 dc 3d 9e 51 82 3e 76 dc e6 bd
       -0.10014104 0.10776686 0.25452894 -0.11272518
0002e0 e7 61 3f be 0c fe 54 3d fb 0f f8 3b de 00 9d 3c
       -0.1868969 0.05200009 0.0075702644 0.019165453
0002f0 e2 dd 39 3c 44 9c b3 3e 32 f2 c9 be cf f3 dd 3e
       0.011344405 0.3508016 -0.39442593 0.43350074
000300 66 e1 a4 bd 52 a7 9f 3e 3d 99 e0 bd db 44 d4 3c
       -0.08050804 0.31182343 -0.10966728 0.02591174
000310 b8 43 b1 3e f0 d5 78 3e e0 51 88 3d 42 e6 7e bb
       0.34621978 0.2430036 0.066562414 -0.0038894569
000320 39 57 59 be 14 0a df 3e be 2d cd 3d 63 a9 f3 3d
       -0.21224679 0.43562376 0.1001849 0.11897542
000330 d8 67 00 be ce 43 e7 bd 00 b1 46 be 13 0f 42 bd
       -0.12539613 -0.112922296 -0.19403458 -0.047377657
000340 d3 9f eb 3d 55 c4 96 3d 03 01 08 3d 2c cd c5 3e
       0.115050934 0.07361666 0.03320409 0.38633096
000350 f9 b7 84 3e 3c 31 01 be d3 4a 0e bd 44 2e 48 3e
       0.2592161 -0.12616438 -0.034739327 0.19548899
000360 ab 7d f1 3e 1a 6c ad 3d 6d b1 f3 3d bf b7 28 be
       0.4716619 0.08467884 0.11899076 -0.16476344
000370 92 f9 cc bd d0 24 da bd 87 62 5b 3e 5b 9e b6 3d
       -0.10008539 -0.10651553 0.21424304 0.08916923
000380 16 0b 84 3e df bb 4f 3e fa 8d 4d bd 0b a7 8c 3e
       0.25789708 0.20286511 -0.050184228 0.27471194
000390 f4 e2 4f 3e 31 4c 73 3b ce 07 86 3d 3a b1 7b 3e
       0.2030142 0.003712427 0.065444574 0.24579325
0003a0 af 8b de 3c 16 28 b7 3e 6d c9 2c 3e d7 c4 86 3e
       0.027166216 0.3577277 0.16873713 0.26322052
0003b0 61 34 fb 3d a1 a5 0c bc 39 73 48 3e 3a 73 71 bc
       0.1226585 -0.008584411 0.19575204 -0.014736945
0003c0 09 38 80 3e c6 0c ad 3d 16 71 aa 3d 46 19 a0 bc
       0.2504275 0.08449702 0.08322351 -0.019543301
0003d0 69 67 cb 3e 91 e2 41 3e d4 ea e6 bd 90 c9 68 3d
       0.39727333 0.18934084 -0.11275259 0.05683285
0003e0 4c 0c 60 3e 12 2e a6 3e 11 32 74 3e e6 37 31 be
       0.21879691 0.32457024 0.23847224 -0.1730648
0003f0 3d 8a 1c 3d 29 47 1e 3e 63 cb 92 3e 95 37 f8 3c
       0.03821777 0.15456833 0.28670797 0.030299941

fc2.bias f4 [64]
000000 e4 1d 8f 3e fe 3c 88 be 56 7a bd 3e 08 f4 b8 3e
       0.27952492 -0.26609033 0.37007397 0.3612368
000010 62 bd b3 bc 5f 81 85 be a1 e7 93 3e 7b 40 fd 3e
       -0.02194089 -0.26075265 0.28887656 0.49463257
000020 0c ee 86 3c 1d a4 bc 3e 7f fc 09 3e 1a 13 d6 bc
       0.016470931 0.36843958 0.13475226 -0.026132155
000030 e8 25 ef bd 19 b3 f4 3e 0f 37 a7 3d 26 8b 7f 3d
       -0.11677152 0.4779289 0.081647985 0.06238856
000040 f2 81 2e 3e dd b0 2f be 60 d5 06 3f 4f 19 ac 3e
       0.17041758 -0.17157312 0.52669334 0.3361306
000050 2f bd ad 3e a9 65 cf 3e 1f 96 00 3f 11 c1 96 3e
       0.33933398 0.40507248 0.50229067 0.29444173
000060 03 a0 c3 3e ca 7f 08 3f 3c db 21 3e ac 1b 67 3e
       0.38208017 0.5331999 0.15806288 0.2256915
000070 3f 54 af 3e 30 02 fe 3e 58 4d 8b 3e 8c 51 d4 3e
       0.34243962 0.49611044 0.27207446 0.41468465
000080 43 ab 07 3f 8a 92 cd 3e 2a 8b 1c 3e 05 72 4b 3e
       0.529957 0.40150863 0.15287462 0.19867714
000090 d7 79 ad 3d 8e 30 71 3e 23 90 b0 3d 1e 7a 15 3f
       0.08470505 0.23553678 0.08621242 0.5838946
0000a0 85 e2 0f 3f 51 99 42 3e 01 08 8e 3e 00 c4 39 be
       0.56205016 0.19003798 0.27740481 -0.18141174
0000b0 97 1f 81 3e 8e f7 f4 3d 91 d5 cc 3e a6 9d 0b 3e
       0.25219414 0.1196128 0.40006688 0.13634357
0000c0 32 4a 45 3d f8 e7 52 bc 2d 03 26 be 04 db cd bd
       0.04816646 -0.0128726885 -0.16212149 -0.100515395
0000d0 c0 d8 ee 3d ad 20 cb 3e 00 d2 d8 3e 1b 8d 68 3d
       0.116624355 0.39673367 0.42347717 0.056775194
0000e0 3d d7 d6 3e b9 76 c1 3d 43 93 fb 3e 19 9d fc 3e
       0.4196109 0.09446473 0.4913579 0.49338606
0000f0 dd 7e 3d 3c f9 63 95 3e d2 d2 48 3e ff cb d6 3d
       0.011565891 0.29177836 0.19611672 0.10488128

fc3.weight f4 [128, 64]
000000 18 4f e5 3d 0b e3 b4 3e 63 bd 2e 3d fc d0 93 be
       0.111967266 0.3532947 0.042661082 -0.2887038
000010 8d 33 e6 3d e9 e8 b8 3e 62 b2 2e 3e 19 96 06 be
       0.11240301 0.36115196 0.17060235 -0.13143195
000020 08 b6 de be 8c c3 0c be c2 a8 1f 3d 21 22 3c 3e
       -0.43498254 -0.1374647 0.0389793 0.18372394
000030 45 71 50 be b6 ac ad be 48 d9 cf bf 63 5d 85 be
       -0.20355709 -0.3392083 -1.6238184 -0.2604781
000040 8f e0 2e 3e 59 d1 28 3f 14 53 5d bc ab 7c 94 be
       0.1707785 0.6594444 -0.013508577 -0.29001364
000050 de df bf 3b 28 a8 4a 3d eb 84 56 bd 54 c5 09 3e
       0.0058555445 0.049476773 -0.052372854 0.13454181
000060 e1 8b 81 bd a2 4c 96 3d 14 a1 8d 3e 26 55 8d bf
       -0.06325508 0.07338835 0.27661955 -1.104161
000070 95 77 2b 3e 22 26 73 3e 35 af 47 bd 78 ff 7e 3c
       0.16744836 0.23745015 -0.048751075 0.015563838
000080 6c d9 a6 bd e9 fd aa bd 07 d7 57 bd 9a 42 a1 3d
       -0.08146939 -0.08349211 -0.0526953 0.07874031
000090 2e fc 06 bf e5 94 2d bc f4 05 25 3e 2a 33 e1 bc
       -0.52728546 -0.010594581 0.16115552 -0.027490217
0000a0 ae 96 b0 bc fe ce 76 3c 75 02 3b 3e df d3 93 be
       -0.021556225 0.015063999 0.18262656 -0.28872582
0000b0 4c 41 a0 bd f0 0f 5f be 37 aa 5a bd 67 bb 9a 3d
       -0.078249544 -0.21783423 -0.053384986 0.075552754
0000c0 f3 e2 fc 3d 64 68 47 3f e4 21 4c 3d 9e 34 81 3e
       0.12347975 0.7789366 0.049837008 0.25235456
0000d0 6d a8 c8 be 9f 4b a8 3c 98 1a 63 bd 47 8e 16 3d
       -0.39191 0.020543871 -0.055445284 0.03675678
0000e0 bd 99 55 3e 28 9e f0 3e db e2 e9 bd 41 31 0f bd
       0.20859428 0.46995664 -0.11420222 -0.03495908
0000f0 57 70 91 3e 52 71 7e 3d 6e 01 d1 3c 12 f6 a4 be
       0.2840602 0.06211979 0.025513377 -0.32218987
000100 e8 67 25 3e c3 3f 07 be 1f d6 3f 3e 22 d4 f5 3e
       0.16152918 -0.13207917 0.18734024 0.48013407
000110 0d 68 7e be b3 23 04 be 18 64 3d 3e 76 75 81 3e
       -0.2484438 -0.12904243 0.18495214 0.25284928
000120 68 db 2a 3f 26 54 41 3e 66 10 d6 3e c7 3f ac be
       0.6674104 0.18879756 0.41809386 -0.33642408
000130 7c ae 95 3e cc 9a a0 3e c0 cc b5 3e c0 ac c1 be
       0.29234684 0.313681 0.35507774 -0.3782711
000140 eb d8 03 3e ba e7 48 bf 98 15 02 3e 9f 7e 37 3f
       0.12875716 -0.78478587 0.1270355 0.71677583
000150 03 bf d3 3d 26 43 92 3e 4a 0d c2 3e 64 21 b6 3e
       0.10339167 0.28566855 0.37900764 0.3557235
000160 3d 84 c3 3d 95 9d 8c 3e 3d 76 bb 3e 00 0c 8d 3f
       0.09546707 0.27463976 0.36613646 1.1019287
000170 34 ad d7 3e 30 ce 90 3e ad 08 10 3f 87 4a 5c 3e
       0.4212433 0.2828231 0.5626324 0.21512805
000180 e5 2e b3 3e 48 eb 79 3e f6 30 64 3e 56 15 7d 3e
       0.34996715 0.24406159 0.22284302 0.2471517
000190 91 5e 1b 3f af 17 c1 3e 20 c7 3b 3e 06 8c 19 3e
       0.6069117 0.37713382 0.18337679 0.14994821
0001a0 25 da b5 3e 41 af 46 3e a2 39 b6 3e 00 be 41 bd
       0.35517994 0.19402792 0.35590845 -0.04730034
0001b0 1a ae 56 3e fe d5 f4 3e 56 f0 a8 3e d4 b4 ec 3d
       0.20964852 0.47819513 0.32995862 0.11557928
0001c0 93 47 9d be 82 5d 30 bf e9 73 bc 3d fe ed 0d bd
       -0.3071867 -0.6889268 0.092017956 -0.034650795
0001d0 4a 66 d4 3e 0c 5d c6 3d a9 d9 c8 3e c5 52 7c 3e
       0.4148429 0.09685716 0.39228562 0.24640949
0001e0 23 39 8e 3e 16 60 bb be 50 9f 7d 3e 0e 48 7f 3e
       0.27777967 -0.36596745 0.24767804 0.2492983
0001f0 84 4b 49 3e dc 95 27 3e a6 81 b4 3e 12 87 f3 3e
       0.19657713 0.1636576 0.35255164 0.47563988
000200 21 1b c9 bd 73 68 97 3e 68 18 42 3e 1c 28 e8 bd
       -0.098196276 0.29571876 0.18954623 -0.11335775
000210 70 cb 00 3f 80 e9 ec 3e 00 93 08 be 73 7a 9a 3d
       0.5031042 0.46271896 -0.13337326 0.075428866
000220 a9 8e bf bd b3 49 bc bd db b8 ad 3d 96 35 e8 3e
       -0.09353382 -0.091937445 0.08482524 0.45353383
000230 14 77 08 3e 7b b4 c9 bc 6e 50 9b 3e d8 05 eb bd
       0.13326675 -0.024622193 0.303348 -0.11475724
000240 d6 3c 1d bb 66 20 0d 3f 1e 33 de bd d1 56 6b 3d
       -0.002399256 0.5512756 -0.108495936 0.05745584
000250 9e db aa 3d 22 b3 2e 3b b3 50 30 be 31 4e 18 be
       0.0834267 0.0026657064 -0.17218284 -0.14873578
000260 a4 37 a0 3d 6b f6 93 bd d7 82 2b bf 81 f1 29 be
       0.078231126 -0.07224735 -0.6699652 -0.16596033
000270 cc da ae 3d d2 29 22 be 28 09 98 be 0e 90 86 3c
       0.08537826 -0.15836266 -0.29694486 0.016426113
000280 64 4f d8 3c 1d 5f 02 bd de f0 16 3e c2 be 16 bb
       0.026405044 -0.03182899 0.14740321 -0.0023001884
000290 24 c7 81 3e c5 72 5e be bc dd 31 bc a3 f4 0d bf
       0.25347245 -0.21723469 -0.010856088 -0.5545141
0002a0 b0 28 07 be a8 c1 50 bd 75 26 57 bf 3d 5e 7b 3e
       -0.13199115 -0.050965935 -0.84043056 0.24547668
0002b0 f0 cc 2c 3e 66 0e b9 3e 75 cc 95 3d 25 8a 4a 3d
       0.16875052 0.36143798 0.07314388 0.04944815
0002c0 42 aa c5 3e cc 58 98 3e 44 05 fb bd 0b 0c 3a 3e
       0.3860646 0.29755247 -0.12256864 0.18168657
0002d0 0b 27 6f 3e d9 1e 30 bc a2 fc bd 3b 0f 69 05 3e
       0.23354737 -0.010749542 0.0057979384 0.13028358
0002e0 85 d8 a0 be 98 d5 53 3e 38 90 14 3d 25 a0 32 be
       -0.3141519 0.20686948 0.03627035 -0.17443903
0002f0 63 e7 b5 3e cb 74 84 bd d7 10 34 bd 1a a9 8e bf
       0.35528097 -0.06467589 -0.043961372 -1.1145356
000300 90 05 2a 3e cb 79 b4 3d f9 39 0b bd 96 6c 11 be
       0.16603684 0.08812293 -0.033990834 -0.14201578
000310 33 80 9d 3d 18 f7 29 3f 40 f7 1d 3d af 32 e5 bd
       0.07690468 0.6639266 0.038565874 -0.11191308
000320 83 c2 a6 bd 33 58 77 bd 41 d9 87 3e 89 06 61 3f
       -0.08142569 -0.060386848 0.2653294 0.87900597
000330 cc d4 12 3e 9d 16 06 3d b3 6c d1 bd de 70 9f 3e
       0.14338988 0.03273641 -0.10225811 0.31140798
000340 1d 8a 5a 3c 17 9e c8 3d 51 68 e2 3c 35 e0 a6 3e
       0.013338593 0.09795778 0.027637633 0.3259293
000350 8c df f5 bd a3 61 ba 3d cf 54 de 3d 68 9c 53 3d
       -0.12005529 0.09100654 0.1085602 0.051662832
000360 8c e3 9a bd 9c b0 69 bc 51 4c 55 be db fb 5d 3f
       -0.07562932 -0.014263298 -0.20829894 0.86712426
000370 25 da 69 bc 9d a6 29 be 3d 2b 2e 3f 6a 61 dd bd
       -0.014273201 -0.16567464 0.68034726 -0.10809596
000380 ea 2e 55 3e f9 16 0e bd b2 89 84 be 6a 49 ed bb
       0.20818678 -0.034689877 -0.25886303 -0.0072414177
000390 af 7b e5 bd eb ea 74 3e d6 ac 0e bf 0c a9 89 be
       -0.112052314 0.23917739 -0.55732477 -0.26886785
0003a0 33 ff af bd 48 b4 36 be 0d c3 e8 be 7a 18 0a 3f
       -0.08593597 -0.1784221 -0.45461312 0.539436
0003b0 1a 74 2b 3e 7a 45 1a be f4 b4 69 be 76 56 e6 be
       0.16743508 -0.15065566 -0.22822934 -0.4498784
0003c0 97 b1 b1 3e 53 d4 6e 3e 60 40 44 bc f6 7b c0 bc
       0.34705803 0.23323183 -0.011978239 -0.02349661
0003d0 52 af 04 3f ad d0 83 3d 60 7c d2 be f6 dc 0b be
       0.5183002 0.06436286 -0.41110516 -0.13658509
0003e0 c3 6d 17 be 42 2c 02 3d 6d 86 9c 3d 18 c1 0f 3e
       -0.14787965 0.03178049 0.07642827 0.14038503
0003f0 24 de 3e be 17 fb 21 bd 3d 2a 18 3e aa 1a 3c 3f
       -0.18639427 -0.0395461 0.14859863 0.73478186

fc3.bias f4 [128]
000000 d1 db 9d bd 66 2f a8 3e b6 72 6b bd 68 12 ec bd
       -0.07707942 0.32848662 -0.057482444 -0.11526948
000010 9f f3 62 bd a6 ea 11 be b8 f1 22 3c 2f f4 b6 bc
       -0.055408116 -0.14249668 0.009945326 -0.022333233
000020 95 95 26 be 84 ca 83 3e 73 d4 69 bd d0 30 d1 bd
       -0.16267999 0.25740445 -0.057087373 -0.10214388
000030 82 5a f0 bd 19 a6 d0 3e 1b 5d 38 bc 51 24 06 3f
       -0.11736013 0.40751722 -0.011252667 0.52399164
000040 20 fe 8c bd a5 c6 1d bd da 7b d1 3e 52 f3 31 be
       -0.06884408 -0.03851952 0.40914804 -0.17377976
000050 e7 fe 0f 3f 0e f6 5c be 9b c0 98 bd 10 04 e1 bd
       0.56248325 -0.21578237 -0.074586116 -0.10987103
000060 96 5c 30 bd 65 30 22 3b 91 36 b5 bd 6a 86 ef 3e
       -0.043057047 0.0024748084 -0.08848298 0.46782237
000070 a5 8d 70 be a7 98 83 be 3d 33 f9 3e 5f b9 eb bd
       -0.23491533 -0.25702402 0.48671904 -0.11509966
000080 ff ed 0b bc 64 52 65 be 0c bc 7a bd cb ff de bd
       -0.008540629 -0.22394711 -0.06121449 -0.108886324
000090 c0 2c ca bd 5d 6a 48 be ee 15 db 3e 8f 66 6f bc
       -0.09871817 -0.19571824 0.4279017 -0.014611854
0000a0 fb c0 28 be 9d 89 a6 3e 20 c9 02 3f bf 65 4e 3d
       -0.16479866 0.32526866 0.5108814 0.05039
0000b0 66 6c 8b bc 80 f0 88 3e 80 29 f5 3c b0 10 03 bd
       -0.017019462 0.26745987 0.029927015 -0.031998336
0000c0 cf 87 7b bd 8f 6c 01 be 6b 90 a3 3e 96 85 94 bd
       -0.061408814 -0.12639068 0.3194612 -0.07252042
0000d0 7b 1d 8e bd 6b b7 f7 3e d3 e1 d9 3e 1a b5 06 3f
       -0.06939217 0.48382124 0.42555103 0.5262009
0000e0 c0 bf f0 3e a0 94 51 be 0b 6a 36 be 9b f6 ec 3e
       0.47021294 -0.20466852 -0.1781389 0.46281895
0000f0 1a 4d 94 3e 06 87 d0 bd 19 82 b3 3e 8e 45 4e bd
       0.28965074 -0.10182004 0.35060194 -0.0503593
000100 45 3a ef bd 8f 18 f2 3e e0 b8 98 bd 13 12 b8 bd
       -0.11681036 0.47284362 -0.07457137 -0.089878224
000110 17 19 af 3e b2 3d 85 be 10 81 00 3f fd e9 63 be
       0.3419883 -0.26023632 0.50196934 -0.22257228
000120 5c cc bf 3e 02 d8 80 3d bf c4 8e bd 91 14 ff 3e
       0.374606 0.062912 -0.0697112 0.49820378
000130 ce e2 d2 3e 39 25 03 3f 02 1d a3 3e 92 30 ba 3e
       0.41188663 0.5122867 0.3185807 0.3636518
000140 01 ed 06 3f 12 d1 8a be 8e 03 02 3f 79 3b 48 be
       0.5270539 -0.27112633 0.50786674 -0.19553937
000150 e4 39 f6 3e 98 cb 22 be 6b 9e 39 3d b9 22 aa 3e
       0.48091042 -0.15897977 0.045317095 0.33229616
000160 a1 de a4 3e 92 15 ec 3e 9e 5d 84 be e0 fe cd bc
       0.32201102 0.46110207 -0.25852674 -0.025145948
000170 e1 ea d4 3e bc 72 97 3e 8a 79 a4 3e c1 0d 88 ba
       0.41585448 0.29579723 0.32123977 -0.0010380076
000180 a5 c7 a9 3e 54 b2 99 3e 45 a9 b9 3e 63 34 af 3e
       0.3316013 0.30018866 0.36261955 0.34219655
000190 2e fe 9a 3e 42 ab 23 be e0 8a a8 bc 8d a1 b3 3b
       0.3027205 -0.15983298 -0.020574033 0.005481905
0001a0 58 85 3e be 0e 82 92 3e 23 91 26 bd da 4a 3c be
       -0.18605554 0.2861485 -0.040665757 -0.18387929
0001b0 2c 12 ba 3e 17 2c e0 3e cd df c0 bd 55 71 91 bd
       0.3634199 0.43783638 -0.094176866 -0.071016945
0001c0 64 ec a9 3e e5 0e c0 bd 96 1c 00 3f cf 1f dc 3e
       0.33188164 -0.09377841 0.5004362 0.42993018
0001d0 b6 09 88 be df 66 15 be 78 2f 6f 3d 8c 08 3b 3d
       -0.2656991 -0.14590023 0.05839488 0.045662448
0001e0 e6 f0 73 be b2 72 af 3e 9c 50 dc 3e b2 99 55 be
       -0.23822364 0.34267193 0.4303025 -0.20859411
0001f0 bb ac b3 bd 6b 43 8f 3e f9 80 af 3e 5d 28 99 3e
       -0.0877318 0.27981123 0.34278086 0.29913607

v.weight f4 [1, 128]
000000 43 46 03 3f 8a 54 a4 be 44 f3 07 3f d0 4d 97 3f
       0.51279086 -0.32095748 0.5310557 1.1820621
000010 d2 25 bc 3e df 06 40 3f c8 cd 1d 3f 6e 5a 03 3d
       0.36747605 0.75010484 0.6164212 0.032068662
000020 9e b7 65 3f ee 2f b3 be 3e 4a 8c 3f c7 b8 c0 3e
       0.897333 -0.34997505 1.0960157 0.37640974
000030 ab ed 3c 3d 90 cb ac be ba 7a 01 3d 6e 3c 98 be
       0.046125095 -0.33749056 0.03161118 -0.29733604
000040 d8 65 96 3d 84 b7 0a 3b e2 29 ad be 10 7b 9e 3e
       0.07343644 0.0021166513 -0.33821017 0.30953264
000050 36 d5 b8 be 47 ce 3d 3f 08 cf 05 3c f4 a2 09 3f
       -0.36100167 0.7414288 0.008167036 0.5376427
000060 00 c5 5c 3f 65 75 68 3e 08 55 25 3d 35 a1 ac be
       0.862381 0.22701032 0.040364295 -0.3371674
000070 b1 7a 9f 3e 5c da b1 3e 16 86 b5 be 69 0b f0 3e
       0.31148294 0.34736907 -0.35453862 0.46883705
000080 e4 87 c8 3e 06 6c 1b 3f 9c 67 a7 3e b6 9b 55 3b
       0.39166176 0.60711706 0.32696235 0.0032594032
000090 34 57 7f 3d d1 81 d6 3e 58 c1 a1 be 96 5b e2 3c
       0.062339023 0.41895917 -0.31592822 0.027631562
0000a0 f2 29 03 3f 31 4e c0 be 93 c2 b1 be 5b 34 1f 3d
       0.5123588 -0.37559655 -0.3471876 0.03886829
0000b0 3c 67 99 3e 5b 34 95 be bd 26 81 bd ca 68 51 3d
       0.29961574 -0.29141507 -0.06306217 0.051125325
0000c0 ea 17 13 3f 7c 66 d6 3e ab 9a b3 be f0 d4 02 3f
       0.57458365 0.41875064 -0.3507894 0.51106167
0000d0 d9 d0 d9 3e f8 ff 8f be e7 01 cd be 98 2b 8e be
       0.4254215 -0.28124976 -0.40040514 -0.27767634
0000e0 6a 49 b9 be f9 c2 c2 3e 6e 00 63 3f e9 71 eb be
       -0.36188823 0.38039377 0.8867253 -0.45985344
0000f0 a9 17 a5 be c0 61 83 3f a9 9b ab be 7a 56 f9 3e
       -0.32244614 1.0264206 -0.33517197 0.4869879
000100 9c 05 c1 3e 2c c5 b0 be 22 a6 c9 3e 0c f0 bb 3e
       0.37699592 -0.3452543 0.39384562 0.3670658
000110 92 8f 96 be 3d ae c5 3e 7d 39 c9 be 71 f2 9b 3f
       -0.2940641 0.38609496 -0.39301673 1.2183362
000120 84 b4 b2 be c4 32 72 bf 57 24 bf 3e f1 f0 91 be
       -0.34903347 -0.9460871 0.37332413 -0.28504136
000130 99 67 9c be c5 8c ac be e3 94 a7 be a2 42 97 be
       -0.3054779 -0.3370115 -0.3273078 -0.29543024
000140 0e 7a a6 be ec a7 bb 3e cb ce 9d be c7 c5 49 3f
       -0.32514995 0.36651552 -0.30821833 0.7881741
000150 d9 1f 95 be f8 13 d3 3e 36 4b 56 3d 28 cd b3 be
       -0.2912586 0.41226172 0.05231782 -0.3511746
000160 54 b4 bf be 93 9f 9d be f1 18 4c 3f 12 50 a7 bd
       -0.37442267 -0.30785808 0.7972556 -0.08169569
000170 23 92 ad be 59 26 94 be bc d6 d9 be 93 6b 89 3d
       -0.33900556 -0.28935507 -0.42546642 0.06709971
000180 c4 dd d4 be 16 b4 9a be c8 c3 c0 be 84 27 97 be
       -0.41575444 -0.3021552 -0.3764937 -0.29522336
000190 33 c0 c7 be 6b d2 01 3f 54 b3 b8 3e 77 05 06 bc
       -0.39013824 0.507117 0.36074317 -0.008180014
0001a0 33 db 15 3f 7b 7b 9d be d8 e8 02 40 22 97 b3 3f
       0.58537596 -0.3075827 2.0454617 1.4030497
0001b0 81 8b b8 be f8 37 c8 be 54 f3 db 3e 9c b7 e3 3e
       -0.36043933 -0.391052 0.42959082 0.4447602
0001c0 29 a5 9c be 58 0f 84 3f 08 65 8e be 5f 3b ad be
       -0.30594757 1.0317183 -0.27811456 -0.3383436
0001d0 b1 14 c0 3e 4d 9a bd 3e a6 a9 85 3d 5e 4f cf 3c
       0.37515786 0.37031785 0.065264985 0.0253064
0001e0 91 0f 0e 3f db 32 b9 be f3 76 b8 be f1 ae 00 3f
       0.554925 -0.36171612 -0.3602825 0.5026694
0001f0 cc 28 e7 3e 7a 5d 90 be cb 22 ad be 48 2e 95 be
       0.45148313 -0.28196317 -0.33815607 -0.29136872
