SAC/target_critic2_v1.pth (torch, 46633 bytes, 7 tensors)

fc1.weight f4 [32, 11]
00000000: ec07 a53c 6b78 b83e 43b6 403f cea4 8e3e
00000010: 342f 593a 6ae6 223a 28ff c4be 5bba de3e
00000020: c58d 96bd f11a 493c d9f7 a7bc 8da5 9dbe
00000030: 5933 db3e 18b0 b3be 0789 473e 095e 24bb
00000040: ddae e1bd 30b0 b93b 8ff1 953e 085e f13e
00000050: b02e 1abd dbf6 903c 909e ed3e 9bef e03e
00000060: 70f9 b7be 8699 503d 9bd3 1dbd 5a8e f43b
00000070: 0ed6 17be 126b 6abf 4ea4 abbe 846e 10bd
00000080: aa11 dcbd 48cd 98be 3763 bf3d d874 c33d
00000090: ab84 133e e688 96bd a25b 93bd 45d2 b9be
000000a0: 883d 91bd d144 ed3e 98eb e9bb ddc1 a33c
000000b0: 85f7 a93e 4657 8abc bc91 293f 2dc7 39bd
000000c0: d578 5dbd 7bdd 57bd 763a 30be bd1b bb3e
000000d0: fe2d 04be 97fd b9be 6fe7 dbbb 6759 e13e
000000e0: 5cd1 033e 66f4 fa3e d1dd cdbe 409b 6f3a
000000f0: e998 663c 00c6 2b3e 9ecd fcbe 264a 15bc
00000100: b1d1 1d3d fe3b ecbc 42dc 5ebe 1361 95bd
00000110: f1f1 4d3f cf16 a0be 1bb0 c5bc 0293 a7bd
00000120: d760 363e fde6 a8be 966b 703e a551 3b3c
00000130: aa77 debd 8550 013f 5ab6 6a3d 232e 0f3f
00000140: 3701 db3d 1701 a0bc ea3f 5dbd 86a0 47bf
00000150: 688f 113f 3679 9abe 2cdc d23a 6de9 373c
00000160: 7f89 b13d de35 483f 0318 af3e e953 d43e
00000170: be02 6538 f0f0 e638 b8d5 55bf dc08 163d
00000180: 3ebc 52bd 38d4 723c b4f5 b43c c47c 18bf
00000190: 3968 a6be 52d9 1cbf 85fe 4bbe bf6f 913e
000001a0: 7a42 e3bd 58fd 263d d001 cfbe e315 99be
000001b0: 59dd 86bc bab4 523d 90f0 333d 592a 53be
000001c0: d6e5 91be 30d5 8bbe 7f50 643e b28e 573e
000001d0: 7522 593e 4234 2e3e 49a7 af3e cee3 0c3c
000001e0: ddb8 85bc 10a5 e93e f142 15be 23a0 013d
000001f0: 2b50 a5be 868b 01be 420d f5bd 5fe4 6c3e
00000200: dbdd d2be e7a4 cd3e a783 713b 1d07 a4bd
00000210: 75d7 d53e 76c1 bdbe 9d92 9f3f 1ff7 c23e
00000220: 9a97 32bd 7ec5 93bd 9242 103f adb6 013f
00000230: c536 0c3e 500c 453d 7d18 5fbd 652f eabd
00000240: 1bd5 603e a0a4 c33e 30d1 0b3e 0862 54bc
00000250: e9b6 063d 5274 ed3d 9804 b9be 053f fa3e
00000260: 04db 813d 20af c2bd a4ab af3e 19f4 563e
00000270: f437 173e 65ca 20bd 242e 003e c8d7 e4bc
00000280: b2ab 74be 5073 8bbc 51a0 eebd 3e13 d43d
00000290: 6531 483d 0817 84bf bf3d c13e 1b91 313f
000002a0: a2c1 e93e 8b17 32bc 2fc3 4ebc b801 14bf
000002b0: 6600 0a3f 54f3 153f d82d a23c a9e2 a5bc
000002c0: f8d4 053f 7e7e 2d3e ed52 3f3f b48c fdbd
000002d0: 1f1e fe3d c78d 283d dc04 b3be 5d8b b4be
000002e0: 3ea2 19be f0fe 4f3d 850b 85bd 2679 613b
000002f0: ef5a a1bf 59b5 a2be 1f39 69bf 5c06 793c
00000300: 29ab 183d 03e8 a53c 76f1 10bf 097a 063e
00000310: 407f 03bd b254 9cbd 833e 21c0 bfac 893d
00000320: fde4 7fbe 4614 dbbc 7800 12b8 6463 433a
00000330: 7b77 153f 5658 8cbe 8df4 a5bd d40d 80bc
00000340: 0816 4c3c e547 d13d 6321 0abf 055d 65be
00000350: f72c dcbe d2a1 5cbd 1c21 15be d224 6b3e
00000360: a875 f23c 521c 9f3e bb3f 0cbd dbed 9fbd
00000370: c09e 3c3e 81bb 14be 03d5 06bf c6cd bd3e
00000380: 6e78 0a3d 1281 af3c 39d9 713f a149 f53e
00000390: 732a babd 97d6 0fbc 75aa 853d 790c a8be
000003a0: b5ab e83e c807 1e3d c4fb 50bd 0b2d 6d3d
000003b0: ffff c23d 560d c53e cb98 1f3f 41d8 f43c
000003c0: 7793 66bb bc42 cdbd 6c1e b6be b368 d23e
000003d0: b587 82bd 193e fabe c2f7 5bbd 0cc2 e9bd
000003e0: 6e6f 01bc e4b5 8d3e ae4f 163c ebb9 febc
000003f0: 2d4a 04be 487e 0dbe e756 0c3f eaa7 2abf
0.020145379 0.36029372 0.7527811 0.2786011 0.0008284927 0.0006214144 -0.3847592 0.43501553
-0.07351259 0.01227449 -0.020503925 -0.30790368 0.42812613 -0.35095286 0.19485866 -0.0025080463
-0.11019681 0.005666755 0.29285857 0.47142053 -0.03764218 0.017695835 0.46410036 0.43932804
-0.35932493 0.05092766 -0.03853188 0.0074632587 -0.14827749 -0.91569626 -0.33523792 -0.035261646
-0.10745557 -0.29844117 0.093450956 0.095437706 0.14406078 -0.0735033 -0.07195212 -0.36293235
-0.07091814 0.46341565 -0.0071386807 0.019989902 0.33196655 -0.016887318 0.66238 -0.045355964
-0.054070313 -0.052701455 -0.17209801 0.365446 -0.1290817 -0.36326286 -0.0067109386 0.4401352
0.12872833 0.49014586 -0.40208295 0.00091402605 0.014074543 0.1677475 -0.49375623 -0.009111917
0.038530055 -0.0288372 -0.21763709 -0.07293906 0.804473 -0.31267402 -0.024131825 -0.081823364
0.17810379 -0.3298873 0.23478541 0.01143304 -0.10862668 0.5051349 0.05730281 0.55929774
0.10693591 -0.01953177 -0.05401603 -0.77979314 0.56859446 -0.30170602 0.0016087345 0.011225087
0.086688034 0.78207195 0.34198007 0.41470268 5.460041e-05 0.00011012133 -0.83529234 0.036629543
-0.051449053 0.014821105 0.022089817 -0.5956538 -0.3250139 -0.61269104 -0.1992131 0.28405568
-0.11096664 0.04076895 -0.4043107 -0.2989951 -0.016462969 0.051441886 0.04393059 -0.20621623
-0.28495663 -0.27311087 0.22296332 0.21050528 0.2120455 0.17012122 0.34307316 0.008599235
-0.016323501 0.45633745 -0.14576317 0.03164686 -0.32287726 -0.1265088 -0.11965419 0.23133992
-0.41184887 0.40164873 0.0036852153 -0.08009169 0.41765943 -0.3706166 1.2466618 0.38079163
-0.04360161 -0.07215403 0.5635158 0.50669366 0.13692768 0.048107445 -0.054466713 -0.11434821
0.21956293 0.38211536 0.13654017 -0.012962826 0.03288928 0.11594452 -0.36136317 0.48876205
0.06340602 -0.09506059 0.3431064 0.20991553 0.14767438 -0.03925552 0.12517601 -0.027934924
-0.23893622 -0.017022759 -0.11651672 0.10355233 0.04887523 -1.0319529 0.3774242 0.6936204
0.45655543 -0.010869871 -0.012619778 -0.5781512 0.5390686 0.58574414 0.01979725 -0.020249682
0.5227809 0.16942784 0.7473591 -0.123803526 0.12408089 0.041150834 -0.34964645 -0.35262576
-0.15003297 0.050780237 -0.06496338 0.0034404485 -1.2605876 -0.31778982 -0.91102785 0.01519927
0.037272606 0.020252233 -0.5661844 0.1313249 -0.032103777 -0.07633342 -2.5194404 0.06722402
-0.24989696 -0.026743066 -3.480955e-05 0.000745347 0.5838544 -0.27411145 -0.08103285 -0.015631594
0.0124564245 0.10218791 -0.53957194 -0.22398765 -0.43003055 -0.05386526 -0.14563411 0.22963265
0.029597118 0.31076294 -0.034240466 -0.07809039 0.18419933 -0.14524652 -0.5266878 0.37071055
0.033806257 0.02142385 0.9447208 0.47907737 -0.09090128 -0.00877919 0.06526653 -0.32822016
0.45443502 0.03858164 -0.051021352 0.057904284 0.09521484 0.38486737 0.6234252 0.029888274
-0.003518311 -0.10022494 -0.35570085 0.41095504 -0.0637354 -0.48875502 -0.053703077 -0.11413965
-0.007900102 0.27677834 0.009174271 -0.031094512 -0.12918921 -0.13817704 0.548201 -0.66662467

fc1.bias f4 [32]
00000000: f824 4b3d 0d36 df3e b86e 18be fde7 d53e
00000010: 4a8e 9dbe de34 c53e 81bc 57be 8ae1 a9be
00000020: d461 6dbe 4a41 d83d e84e 0b3f a3d0 e9bd
00000030: 56b1 0c3e 9098 a93e 1a4a 2ebe f65d ab3e
00000040: eb36 8d3e f3c6 873e 4dd7 9fbc fd1a 4e3e
00000050: 879f 833e 32ab 09be c206 f13c 5034 ef3d
00000060: d996 0c3f c217 ec3e 587e db3b b6a9 353e
00000070: 64d5 db3e 2891 58bd 187c bdbe f32d 003f
0.049595803 0.43595925 -0.14885986 0.41778556 -0.3077262 0.38516897 -0.21068002 -0.33179885
-0.2318185 0.10559328 0.54417276 -0.114167474 0.13739523 0.33124208 -0.17020455 0.33470124
0.27580962 0.26518974 -0.019511843 0.20127483 0.25707647 -0.13444212 0.029422168 0.116799
0.54917675 0.46111876 0.006698411 0.17740521 0.42936242 -0.052872807 -0.3700874 0.5007011

fc2.weight f4 [64, 32]
00000000: 5834 0f3e 4db8 97be c680 97be 0255 29be
00000010: 880f 2e3e 58df 863d c02c 753d 82d3 66be
00000020: 3e28 763d 5c03 44bd cde0 f93d 8bbc bd3e
00000030: 50ae cd3e 11a3 e53d d802 073d a9f5 a1be
00000040: 7f3a 013e 3f9d 9fbc e05f 603f f6c8 b03e
00000050: c793 e33e fada d9bd f86d 8abe b1b5 c6be
00000060: 7d27 d6bd 4028 be3d d5e3 15be 6650 8a3d
00000070: 8eeb a03e ea1e debc 653d 123d f2ef 6c3e
00000080: 1cf6 92be 8b51 6abe 78ba b83e cda5 adbe
00000090: 28b4 52be 60f1 183e b87f 533e 839c 2ebe
000000a0: d082 1dbe b8d3 89bd 6b85 093e c120 9e3d
000000b0: e3e8 65be 9e17 f6bc 5f41 8e3e 792e ddbe
000000c0: 8c33 573e 5631 213e 761b ff3f 8e76 ff3c
000000d0: 3b09 683f 2f79 08bf 9e65 bebe 71a9 b83e
000000e0: 02b2 7bbe 74aa 27be e234 153e fcfc f93c
000000f0: 0dbb dabd 34aa a33d 8b5d 823e 26c9 81bb
00000100: 952c abbe efff 5c3e 76b3 4fbe 606e d53d
00000110: 30c9 e0bd 0c72 863e e138 813e e7a9 97bd
00000120: 056f 02be a0ef 163c 3179 193e de64 333e
00000130: d853 323e 0df0 b23e 3982 b2bd be28 303e
00000140: 5833 35be f547 993d 8d6c 1bbf fcb7 ca3d
00000150: cd1a 143e 7141 5abe 1aa4 09be b751 4a3d
00000160: 8241 59be ee3b 58bc df03 bdbc d54a 8dbd
00000170: 6eab b6bc 6a74 0cbe f10b 1dbe 0d8d 253e
00000180: 7057 fa3e 3d9a e3bc 6ddd 4f3e 5f33 a1be
00000190: b444 71bd 0cf2 f4bc 5a56 ad3c 0529 20bf
000001a0: 5a54 333d d5e1 68be b5b6 bbbd 44c2 09be
000001b0: 8df2 48be d1f8 643d 32d7 873d 5af5 cf3e
000001c0: 7342 b6be 4574 61bd 06e7 8e3e 1473 04bf
000001d0: 8d9e 9a3d 12d0 14be 6af2 af3c 0832 273e
000001e0: 8c8f e83d c295 dabe 1de1 62bc 0ac0 943e
000001f0: 066e 283e 8cd0 02bc bb9f 7dbe de16 6fbe
00000200: d345 f83d e3db 293e 2a6b 163e 4a04 a33d
00000210: 484e 933d d17f 91be cc52 8bbe fa73 96be
00000220: 8d99 9f3e 62be d0bd a510 313b b716 74be
00000230: 1973 c1be 91d7 8cbc 19f6 30be d3e3 2abd
00000240: 6d89 82be 74be 1f3f 784f cf3f bb0e 49be
00000250: 82b0 703e bcfa 09be e370 a73d 5a0d 5e3d
00000260: 64e5 093d 802a a43d 4b94 7dbe 6328 2d3e
00000270: dd7e 21be 0026 293e 7f52 973d 04e9 78bc
00000280: 1861 2c3e 7f19 033e 516f e1bd 00a5 6a3d
00000290: ca26 99be a7e9 813c b5d2 e4bd 6f94 873d
000002a0: b254 8f3f be53 e03d 3b20 e03d 3b38 113e
000002b0: e912 21be 84d1 95bd 6b02 b53d 31ac 1bbe
000002c0: f32e 7abe 81e6 6f3d 912c 533f 04f8 083e
000002d0: a828 283d 6fb3 9f3d 154b cf3d 59ea 6abe
000002e0: f515 063e d450 573e 9eec c93d cd31 963c
000002f0: 9b00 3fbc 3819 4a3e fd33 66be 7ca8 113e
00000300: c328 6bbd 0bcf 793d 2b2a b9be 9115 8f3e
00000310: e86f 373d a46d 3a3c 46be c83d 9140 23bf
00000320: d0e7 b4bd bd6a ea3d ece1 4f3e 8a0c 8b3c
00000330: a414 97be 437a f93d 8540 5bbd ea65 51be
00000340: 2d86 63be 3bdc d53b ff48 54bf c89a 5c3e
00000350: 6306 51be e35b 00be 6cd0 df3d c34f 94bc
00000360: be5a ff3d 5900 1a3e 2615 2c3e eb6c 743d
00000370: 60b4 3fbd d516 9e3d d6de cebd baf6 233e
00000380: f56a 41bd 280a 7b3d 92fb 47bd f177 81be
00000390: 6a4f 17be d80b cabb f058 ba3d 2e27 51bc
000003a0: 26e0 963e b58b 47bd dedc a43d e1b4 7e3e
000003b0: 43ba 943e 514f 6f3e 4395 29be 67ae 9bbe
000003c0: 4735 69bd b8d6 abbe 6daa a33f fd47 633d
000003d0: fad8 12be 0560 86bd 1042 49be 8ddb 7abd
000003e0: 82b9 96be 8cdd 42bc 0560 eebe 2d46 26bc
000003f0: 04ef a83d a8a8 103e 94d0 6e3d 692d 633e
0.13984811 -0.29632798 -0.29590434 -0.16536334 0.16998112 0.06585568 0.05985713 -0.22541621
0.06009697 -0.047854766 0.122010805 0.3705791 0.40172052 0.11212743 0.032961696 -0.31632736
0.1261997 -0.01948416 0.87646294 0.3452832 0.44448683 -0.106374696 -0.27037024 -0.38810495
-0.104567505 0.09285021 -0.14637692 0.06753616 0.31429714 -0.02711435 0.03570308 0.23138407
-0.28703392 -0.22882669 0.36079764 -0.33915558 -0.20576537 0.14935827 0.2065419 -0.17051892
-0.15381932 -0.06729835 0.13429801 0.07721091 -0.2245212 -0.030040558 0.2778425 -0.43199518
0.21015757 0.15741476 1.9930255 0.031184461 0.90639085 -0.5330991 -0.37186903 0.36066774
-0.24579623 -0.16373616 0.14570954 0.03051614 -0.10680208 0.07991448 0.25461993 -0.0039607463
-0.3343245 0.21582006 -0.20283303 0.10421443 -0.109758735 0.26258886 0.25238708 -0.07405453
-0.12737663 0.0092124045 0.14987637 0.17518947 0.17414796 0.3494877 -0.08716244 0.17203042
-0.17695367 0.07484428 -0.6071251 0.098983735 0.14463349 -0.21314026 -0.13441506 0.049394336
-0.21216395 -0.013197882 -0.023073135 -0.06899039 -0.02229854 -0.13716283 -0.15336587 0.16167088
0.48894835 -0.027783507 0.20299311 -0.31484506 -0.05890341 -0.029900573 0.02115934 -0.6256259
0.043781616 -0.22742398 -0.09165708 -0.13453013 -0.19623776 0.055901352 0.06632842 0.40616876
-0.35597572 -0.055042524 0.27910632 -0.51738095 0.075497724 -0.14532498 0.021477897 0.16327679
0.113555044 -0.4269238 -0.0138476165 0.29052764 0.1644822 -0.007984292 -0.24767964 -0.23348567
0.12122693 0.16587786 0.14689317 0.079598024 0.07192665 -0.2841783 -0.27211607 -0.29385358
0.31171837 -0.10192563 0.0027017978 -0.2383679 -0.37783125 -0.017192634 -0.17281379 -0.041721176
-0.25495473 0.62399983 1.6196127 -0.19634525 0.23504832 -0.13474554 0.08175828 0.05421195
0.03366603 0.08015919 -0.247636 0.16909938 -0.15771051 0.16518402 0.07388782 -0.015192274
0.16833913 0.12802695 -0.1100756 0.057286263 -0.29912406 0.015858484 -0.11173002 0.06620108
1.1197722 0.109534726 0.109436475 0.14181606 -0.1572987 -0.073153526 0.08838352 -0.15202405
-0.24431972 0.058569435 0.8248988 0.1337586 0.041054398 0.07797896 0.10121743 -0.22940959
0.13094313 0.21026927 0.09859584 0.018334294 -0.011657859 0.19736183 -0.2248077 0.14224428
-0.05741192 0.060988467 -0.36164984 0.2794614 0.044784456 0.011378679 0.09801917 -0.63770396
-0.08833277 0.1144614 0.20301026 0.016973753 -0.29507935 0.12181523 -0.053528327 -0.20449033
-0.22219153 0.0065264977 -0.82923883 0.2154342 -0.20412593 -0.12535052 0.10928425 -0.01810444
0.124684796 0.15039195 0.16804942 0.059674185 -0.04680288 0.077191986 -0.10101096 0.16012087
-0.047221143 0.061288983 -0.0488239 -0.2528682 -0.14776388 -0.0061659627 0.09098995 -0.012765689
0.29467887 -0.04871722 0.080499396 0.24873687 0.29048356 0.233701 -0.16560845 -0.30406496
-0.056935575 -0.33562255 1.2786385 0.055488575 -0.14340582 -0.06561283 -0.19654107 -0.061244536
-0.29438406 -0.011893641 -0.46557632 -0.010148567 0.082487136 0.14126837 0.058304384 0.22185291

fc2.bias f4 [64]
00000000: eb09 ad3d e5d1 48be 141c 1f3e 44bf c1bd
00000010: a760 183b 56fe 1f3e 2b18 5d3d 6a4a 1c3e
00000020: b7b8 cb3d cee7 c23e 02cd a03e c989 19bd
00000030: 3177 2b3d ca69 91bd 3857 35bd a03b 923d
00000040: 297b dd3b 3f03 4bbc c2ae 513e 289f 40bd
00000050: f91a d83d 8b81 aa3e c41d f93d 786d 9a3e
00000060: 1ba4 a33e 06a7 913e baae 3f3e 2514 913e
00000070: 4f45 51be f663 ee3d 0689 d33d ea04 a93e
00000080: a715 00be c97b e5ba b500 1e3e bd7f e8bd
00000090: 1b78 a83e 0628 7b3d b25b 103e ccfe 943d
000000a0: 41b6 083e 6cdf 5e3d e908 c13c 54f7 673e
000000b0: c5b5 cd3d ec72 dd3d e750 663d 24ec fb3d
000000c0: 7215 ce3e 4b1c 5c3e 170d 4a3e b991 363e
000000d0: 86df 973e 4fd5 debb 1ed4 a23c 031f 013b
000000e0: 56ff 3d3c 0da7 563e f04a c33e bf18 9f3e
000000f0: 7462 d7bd ee7b f73c fb65 a43d 8d12 bdbd
0.08449157 -0.19611318 0.15538055 -0.09460309 0.0023250969 0.15624365 0.053978126 0.15262762
0.09947341 0.38067478 0.3140641 -0.037484918 0.041861717 -0.07100256 -0.04427263 0.07140279
0.0067590666 -0.012390911 0.20476821 -0.047026783 0.105520196 0.33301958 0.121638805 0.30161643
0.3196114 0.2844774 0.18718997 0.28335682 -0.20436595 0.1164016 0.103288695 0.33011562
-0.1250826 -0.0017508204 0.15429957 -0.11352489 0.32904133 0.061317466 0.14097479 0.07275161
0.13350774 0.05441229 0.023563819 0.22652942 0.100444354 0.10812935 0.0562295 0.123008996
0.40250736 0.21495168 0.19731556 0.17829026 0.29662722 -0.0068003307 0.019876536 0.0019702322
0.011596521 0.20962162 0.3814311 0.31073567 -0.10516825 0.030210461 0.08027264 -0.09232054

fc3.weight f4 [128, 64]
00000000: 94f8 9fbd 8b05 8cbb 24e5 6f3b 88ed ddbd
00000010: e3e6 84bd 8fee 9e3d 6233 f2bc 46f4 863d
00000020: 483e 9cbc e1bf 65bc d0b3 6dbb 683a 99bd
00000030: ba0a 35bd c8b4 db3c f172 803d 3d48 7c3d
00000040: aeda 8d3d 82ab 443b 3468 693d f5f2 ae3d
00000050: ac23 d4bd 9e72 433d 5c3b 6e3c fcd7 e33d
00000060: 8322 9f3b 3d42 64bc 9ca2 e2bd c1aa e8bd
00000070: 4729 133d a772 d93c 9d73 2ebd 1f7c 003d
00000080: b73c 9c3c 3946 e9bd 9f2d db3d 1169 eebc
00000090: 3ff2 81bd 3743 04be b7da 0abe 6fdd 983d
000000a0: be7d b1bd 7f9c c8bd 5f22 c7bd 486f 58bd
000000b0: 7e0e 8f3d 1d5a acba 50f2 ad3d 2c30 14bd
000000c0: 1bb3 d93d f429 91bd 9e8f fabd f0b0 55bd
000000d0: 18ff ab3d 085b 52bd 7a88 f8bd 34df d1bd
000000e0: 60ce 143d 50b9 6a3d d4c9 53bd b76e 9c3d
000000f0: dba7 85bd 9da3 bf3d 6f62 c7bd 8939 bb3c
00000100: 0d82 f8be 8ad6 9dbe dfcd b3bc 18fd 20bf
00000110: 62ea f4be 2115 c93c 75d1 113d a3d8 4b3c
00000120: 7cfd 803e 1532 f5bd 6c26 0dbf 1552 e33e
00000130: bcca a0be e409 33bf 1793 f63e 7419 f93d
00000140: b646 74ba 88f6 99be a88e d4bd 627d 743f
00000150: 4f79 babf 292a 7ebc 32d1 1bbd f0d4 93bd
00000160: 3bfd 023e c27d 2e3e 043c c7be c0e1 a7bc
00000170: 4187 9f3e 3c3f 773e db27 f83c ae2d 4c3e
00000180: a08d 373d cf6b 95bf d4e9 5c3d 8018 abbe
00000190: 9e1b 553d 0280 903d acf0 e53c dfb6 043e
000001a0: b509 aebe e8e1 dc3c bc47 d7bd e800 1a3d
000001b0: 6505 bbbd 8641 583d c076 d93d 6ba3 b33d
000001c0: b227 4d3e f638 4d3d f009 083e e874 013d
000001d0: 6e5d bc3d ddb6 5d3e 0f48 113f 56e5 303e
000001e0: bd29 16bf 9350 69be a984 3c3e 61b8 71bc
000001f0: 40ec 863e 6a10 123f 5793 b63c 1357 91be
00000200: 32c1 b63e 101b 81bc b987 af3d 6057 273f
00000210: 4664 d33e ca1a a0ba 9927 f2bc 7e38 b43e
00000220: 0431 34be 5d8b 273e 450f ae3e 4adf a9be
00000230: a1ce 0d3f cac0 ea3e 3098 d1bd c8c6 fc3d
00000240: 4d1c 4c3e 16c3 193d eb3a e63d 842b 26bf
00000250: 187d 5f3e aeaf 1d3e 890c 303d b5de 473e
00000260: d4c3 543e bd78 eb3c f677 3d3e ccf8 533e
00000270: bdaf 8fbe b513 58bc a13a f5bb aafe ae3d
00000280: d415 52be 3b90 a33e 03b9 453e d513 ae3e
00000290: 17f9 be3b 33ed 01bc 103f 0e3e 0f82 883d
000002a0: c122 333e ab0d 9f3c fcbd 2d3e 3f5d ba3d
000002b0: 6365 963e 4506 653d 4836 453d 548e 0e3e
000002c0: 4d0e ab3d b654 2a3e 650a 333e 4b97 803d
000002d0: 9968 583e 4a39 63be c652 32bd 4713 0d3e
000002e0: 4235 aabe a92d e83c f647 2f3e 69a9 d03d
000002f0: 244d 34be 37ed 35be 7ff9 773d 8592 033e
00000300: 27f4 d23c 4ab6 fabc dc59 d2bd dd8f 7b3d
00000310: 6262 bf3d 260d fabd eb32 863d b178 eebd
00000320: a3fd 543d 4946 e3bd e7d1 9f3c 8e9f f5bc
00000330: 4028 92bd 919e e3bd 63a5 d1bd e2f4 ca3d
00000340: 9f2b d3bc 25e9 3fbd 8ced e83d db87 9b3d
00000350: 4e0f 8c3c 051d 3b3d d41a 13bd c2bf 8a3d
00000360: 74a1 2d3d 9936 a9bd 090a ecbc d8d6 603c
00000370: 9d0f aebd c7b4 82bd e84d 9cbc e038 96bd
00000380: b2ea 8d3d 9b65 cfbd 4fed 993d 376a 0abd
00000390: 89bf edbc c0a8 e03d 2dd1 67bd 447f 9bbd
000003a0: a34a c4bd 978f d63a 47cf 48bd 4c99 1cbc
000003b0: c6c1 c43d aa8c 8fbd df34 df3c 9159 e2bd
000003c0: 0a7e fabd 848c debd 836c db3d 31f3 a4bd
000003d0: df90 183d c412 6b3c b632 0d3d c7ca 8fbd
000003e0: 5b65 0ebe b35e dcbd 4171 bc3c 85e6 68bd
000003f0: 568d b4bc 3cfc 5ebd 3e85 f63d 1b0d 8b3d
-0.078110844 -0.0042731217 0.0036605084 -0.10836321 -0.06489351 0.07760345 -0.029565517 0.0658956
-0.019072667 -0.014022798 -0.0036270507 -0.07481843 -0.044199683 0.026819602 0.06271923 0.06159233
0.069264755 0.0030009453 0.05698414 0.08542434 -0.10358366 0.04771673 0.01454052 0.1112518
0.004856409 -0.013931808 -0.110661715 -0.11360694 0.035928037 0.026543928 -0.042590726 0.03136837
0.01907192 -0.11390347 0.10702061 -0.029102834 -0.06345033 -0.12916265 -0.13559996 0.0746411
-0.086665615 -0.09795474 -0.09723353 -0.0528405 0.06985186 -0.0013149414 0.08493483 -0.036178753
0.10629865 -0.0708808 -0.12234424 -0.052170694 0.08398265 -0.051356345 -0.12135406 -0.10247651
0.036329627 0.057305634 -0.05170615 0.07638305 -0.065261565 0.09357379 -0.097355716 0.022854583
-0.4853672 -0.30827743 -0.021948753 -0.6288619 -0.4783507 0.024546208 0.035600144 0.012441787
0.25193393 -0.11972443 -0.5513675 0.4439856 -0.31404674 -0.69936967 0.48159096 0.12163058
-0.0009318398 -0.300709 -0.10378772 0.9550382 -1.456827 -0.015512981 -0.0380413 -0.07218349
0.12791912 0.1704016 -0.38912976 -0.020493388 0.31157878 0.24145216 0.030292442 0.199393
0.0448128 -1.1673526 0.053933933 -0.3341713 0.05202829 0.070556656 0.028068863 0.12960385
-0.3399178 0.02696319 -0.10511729 0.03759852 -0.09131888 0.052796863 0.10618353 0.08771404
0.20034674 0.05010315 0.13285041 0.03160563 0.09197508 0.21651788 0.5675058 0.17274985
-0.5865744 -0.22784643 0.18409981 -0.014753432 0.2635212 0.57056296 0.022287054 -0.28386745
0.3569427 -0.015759975 0.08570809 0.653677 0.4128744 -0.0012215015 -0.029559897 0.3519935
-0.17596823 0.16361757 0.33996025 -0.3317817 0.55393416 0.4585021 -0.102341056 0.12342602
0.19932671 0.037539564 0.112417065 -0.6491015 0.21825063 0.15399048 0.042980704 0.1951855
0.20777828 0.028744096 0.18502793 0.20700377 -0.28063765 -0.013188292 -0.0074837958 0.08544667
-0.2051614 0.31945977 0.19308858 0.33999506 0.0058280337 -0.007930088 0.13891244 0.06665432
0.17493726 0.019415697 0.16967005 0.090998165 0.29374227 0.055914182 0.04814747 0.13921481
0.08352337 0.16633877 0.17484434 0.06278857 0.21133651 -0.22189823 -0.04353597 0.13776885
-0.33243757 0.028342085 0.17117295 0.101885624 -0.17607552 -0.17766272 0.060540672 0.12848862
0.025751187 -0.0306045 -0.102710456 0.061416496 0.09344937 -0.12209539 0.065526806 -0.11644114
0.0519997 -0.1109739 0.019509269 -0.029983308 -0.07136583 -0.111142285 -0.10236623 0.09909989
-0.025777636 -0.046853203 0.113734335 0.07594272 0.017097142 0.045681972 -0.035914257 0.06774856
0.0423903 -0.08262367 -0.028813379 0.013723098 -0.08499072 -0.06382137 -0.019080117 -0.07335067
0.0692953 -0.101268016 0.07515966 -0.0337927 -0.029021995 0.109696865 -0.05659597 -0.07592633
-0.09584548 0.0016369697 -0.0490258 -0.009558033 0.09607272 -0.070092514 0.02724689 -0.1105224
-0.12231071 -0.10866645 0.10714056 -0.080541976 0.037247535 0.014347736 0.03447219 -0.070210986
-0.13905852 -0.1076025 0.023003222 -0.056860466 -0.02204005 -0.05443977 0.12037133 0.06789609

fc3.bias f4 [128]
00000000: 589a 283c 9011 ec3c c7af 943e 4342 c8bd
00000010: 6de5 6d3d 120b 3a3e 7919 07bd 7859 0cbe
00000020: a44f a93c 73e4 cd3d b363 863e f099 0c3e
00000030: 3f8b 21be ca7e 763e 6efd 203e 6508 713e
00000040: ce78 b0bc a12e d83d 98f0 633d 0eca 873e
00000050: 3e76 8f3e 2e29 0e3e 9b39 08be 75b7 e1bc
00000060: 0fdc 7fbd b0e5 ab3e e67d e8bd 1c61 0f3e
00000070: 4a00 d6bd c983 65be cacc 2bbe f5fe 753e
00000080: a716 ee3d 9269 ed3d d8d5 133e 1f99 993e
00000090: e6b9 ff3d aede 8ebd 5694 19be e081 3fbe
000000a0: b53a 013d c3e0 133e e81d 2f3d ed6a bf3d
000000b0: bf16 063e 9184 883e 0331 063e a8b5 f3bd
000000c0: 91f1 a63e 5509 253e aeeb 623e 1ff8 933e
000000d0: 01fd 6d3e 5d4a 073c a377 fe3d 83c7 563e
000000e0: 27ff eebd 2b66 933d 03b8 9d3c ae51 be3d
000000f0: 57e2 ec3d efc4 6f3e 4f4f 5d3e 1868 633e
00000100: c729 313e 1e60 853e 23ac 8b3d 2450 463e
00000110: 19e5 11be 3a63 4c3e 5bf4 cb3c 18cb 653d
00000120: 8d40 a43e fd65 373e 77e2 ab3d 04e9 af3d
00000130: c9c2 a1bd da29 103e dad1 1d3e cccb 433e
00000140: 69d3 903e c14b 5837 dc82 413e 898e 103e
00000150: 94c3 953d 282c 7b3d 1170 ac3e 0eba bbbd
00000160: ba0e c03d 1c73 d3bd 68ed f8bc 616a 2b3e
00000170: 540d 903e 32bc 4bbc 1f2c e93d 522f 57bd
00000180: 5d58 423e f462 b53d 0267 85bc 16dd 59bc
00000190: 3d3c 3e3d 97d7 f8bc ea44 093e 85da 15bd
000001a0: f92f e1bc 11c6 ebbd bdb5 8b3e c13b 88bd
000001b0: 514f 90bd 053c 293e a9c6 24bc ee1c a63e
000001c0: 004f e83d 0afd 393e f6cc 363c cd55 cdbd
000001d0: d7f5 033e 14a7 363e e827 083c bd04 51be
000001e0: 41c8 783e f7ec 763d a00c 173e 57a5 3c3e
000001f0: b07f 4abc 254d 2b3e b431 873e ed5d 0c3e
0.010290705 0.028816968 0.29040357 -0.097782634 0.058080126 0.18168285 -0.032983277 -0.13706005
0.020667858 0.10053339 0.2624794 0.13730597 -0.15775774 0.24071804 0.15721676 0.23538359
-0.02154198 0.10555769 0.05564937 0.26521343 0.280199 0.13882896 -0.13303225 -0.0275533
-0.062465724 0.33573675 -0.11352138 0.14001888 -0.10449274 -0.22413553 -0.1677734 0.2402304
0.11625414 0.115924016 0.14437044 0.29999635 0.12486629 -0.069760665 -0.14997992 -0.18701887
0.031550128 0.14441209 0.04275313 0.09346566 0.13094614 0.2666364 0.13104634 -0.118998826
0.32606176 0.16116841 0.22160217 0.2890024 0.23241045 0.008257476 0.12425163 0.20974545
-0.1166976 0.07197221 0.019252783 0.09292923 0.115666084 0.23414968 0.21612285 0.22207677
0.17301093 0.26049894 0.06819942 0.19366509 -0.1424755 0.19959727 0.024896791 0.05610189
0.32080498 0.17909999 0.08392804 0.08589366 -0.078984804 0.14078465 0.15412083 0.19120711
0.28286293 1.2892241e-05 0.18897575 0.14116873 0.07312694 0.061321408 0.3367925 -0.091663465
0.09377809 -0.1032469 -0.030386642 0.16739799 0.2813517 -0.012435006 0.113853686 -0.052535363
0.1897902 0.088567644 -0.01628447 -0.01329734 0.046444166 -0.030376239 0.13405195 -0.03658535
-0.027488695 -0.115123875 0.27287093 -0.06652022 -0.070463784 0.16526802 -0.01005713 0.32443947
0.11343193 0.18162933 0.011157265 -0.10026131 0.12886749 0.17837173 0.008310296 -0.20411964
0.24295141 0.06028458 0.1475091 0.18422447 -0.012359545 0.16728647 0.26405108 0.13707705

v.weight f4 [1, 128]
00000000: a3ba 9b3d beb1 3d3f 59d3 89be a76c 1a3d
00000010: 5651 7e3d a26b 4cbe ed8b 9b3e 07eb 0340
00000020: 413a 013f 83f1 893d 6950 51be 90a7 8bbe
00000030: c5ae 073f 1477 4bbe 4646 983f d845 69be
00000040: 44be 9dbc 7988 68be e896 ed3c b06a 5bbe
00000050: 6c42 93be eb8e 8dbe f29f 803f 417f a93d
00000060: b838 1f3f 9d0c 63be 63ed b03f d31f ae3f
00000070: 9192 053f c4ae 773f 89ea e33e 159c 4cbe
00000080: 9193 59be defc 3fbe cdb9 61be ff55 39be
00000090: cc05 40be a270 da3e 910a f03f 9977 df3f
000000a0: 5065 553f 839a 90be a4a6 703f 2188 79be
000000b0: ab5f 8b3f a454 56be 7777 7abe 3e0c c93e
000000c0: 9281 5ebe 93b3 5dbe 4167 4dbe e9f3 4cbe
000000d0: 1573 39be 64d6 883f 9d0f 85be 1fe8 ab3f
000000e0: 6daf 7c3f b048 953f fac7 7c3b 24d6 4cbe
000000f0: d645 6abe 529e 67be c002 60be 1e2a 73be
00000100: 0a78 54be d83e 95be 67db 0d3f 905a 9cbe
00000110: bf68 0c40 2bd4 66be b2c2 833d 7608 83be
00000120: 9136 84be ee22 b2be 1c5c 65be 3eb4 d83e
00000130: 28d1 f53e f341 7dbe 2e30 6abe 24ea 73be
00000140: 48ca 4dbe 2af2 d83e 9bee 5abe 1515 7fbe
00000150: ba39 46be af8e b63e 0eea c3be 3e0e f53c
00000160: b7f5 42be c495 11bc f949 a33f 9cf5 9abe
00000170: 8030 47be ebca 2e3f eeea 92be 3496 713f
00000180: f07d 57be c6dd 8cbe c26b ff3c 358e 4c3f
00000190: 5e21 833d a7b8 043f 4a6a 94be f346 983f
000001a0: 4748 b53e ba53 463d e2fa 91be d287 1e3f
000001b0: 8385 2f3f 4b66 4fbe a2d0 8f3b 0930 3abe
000001c0: c6c1 293f 4851 47be b29b a73e 30dc c03e
000001d0: a989 48be 5a27 78be 328f c23e 4206 ea3e
000001e0: b7cf 1f40 6390 89be 3c62 95be db83 5dbe
000001f0: 5859 1140 e668 87be 764a 5abe 727a e0bf
0.076039575 0.7409934 -0.26919058 0.037701275 0.062089287 -0.19962934 0.30380192 2.06122
0.50479513 0.06735518 -0.2044083 -0.27276278 0.5300105 -0.19869643 1.1896446 -0.2278055
-0.019255765 -0.2270831 0.029002622 -0.21427417 -0.28761613 -0.276481 1.0048811 0.08276225
0.6219592 -0.2217278 1.3822445 1.3603462 0.5217677 0.96751046 0.44514874 -0.19981416
-0.21247698 -0.18748805 -0.22043534 -0.18099211 -0.18752211 0.42664057 1.8753225 1.7458373
0.83357716 -0.28242883 0.94004273 -0.24368335 1.088857 -0.20930725 -0.24459635 0.39267153
-0.21729115 -0.21650533 -0.2005892 -0.2001492 -0.18110307 1.0690427 -0.25988474 1.3430213
0.9870518 1.1662807 0.0038571344 -0.20003563 -0.22878203 -0.22618988 -0.21876049 -0.23746535
-0.20748916 -0.29149508 0.55412906 -0.30537844 2.1938932 -0.22541873 0.064336196 -0.25592393
-0.2582288 -0.34792274 -0.22398418 0.42325014 0.48011136 -0.24732189 -0.22869942 -0.23819786
-0.20096695 0.42372257 -0.21380083 -0.24910386 -0.19357958 0.35655734 -0.38264507 0.029914018
-0.19039045 -0.008885805 1.275695 -0.3026551 -0.19452095 0.6827838 -0.28694862 0.94369817
-0.21044135 -0.2751295 0.031179313 0.7990449 0.06402849 0.5184426 -0.28987342 1.1896652
0.35406706 0.04841969 -0.2851172 0.61925995 0.685631 -0.20253865 0.0043888846 -0.18182386
0.663113 -0.194646 0.32735974 0.3766799 -0.19583763 -0.24233761 0.37999874 0.457079
2.497053 -0.2686797 -0.2917651 -0.2163233 2.271078 -0.2644722 -0.21317467 -1.7537367
