SAC/target_critic1_v4.pth (torch, 46095 bytes, 7 tensors)

fc1.weight f4 [32, 11]
0	0x3e4b7ac0	0.19871044
1	0xbd43d915	-0.047814447
2	0xbddbd4b0	-0.10733926
3	0xbe879c31	-0.26486352
4	0xbd070f00	-0.03297329
5	0xbdb8b6ae	-0.090192184
6	0x3d0d884d	0.034553815
7	0xbebdfc5e	-0.37106603
8	0x3ea56959	0.32306936
9	0x3e137ee5	0.14403875
10	0x3d98a451	0.07453216
11	0x3e382127	0.17981397
12	0x3e5e04b3	0.2168148
13	0x3efed7dd	0.49774066
14	0x3d923459	0.07138891
15	0xbd9c56d9	-0.076337524
16	0xbe01a8b5	-0.12662013
17	0xbe78aff0	-0.24285865
18	0x3f006d30	0.50166607
19	0x3f288655	0.65829974
20	0xbe530dee	-0.20610783
21	0xbd68e395	-0.056857664
22	0xbef9e4b5	-0.48807302
23	0xbed37cb8	-0.4130609
24	0xbf3f2d4f	-0.7467851
25	0xbf1dcc0c	-0.61639476
26	0xbcc2e87c	-0.023792498
27	0xbca2ab82	-0.019857172
28	0xbe1c6455	-0.15272649
29	0xbcc5b04c	-0.024131916
30	0x3e9e3c37	0.30905315
31	0x3e04a4cf	0.12953494
32	0x3c106ec4	0.008815471
33	0x3ead23de	0.33816427
34	0x3e7d7e09	0.2475511
35	0xbf267afd	-0.65031415
36	0x3e92c347	0.2866461
37	0xbd4b93dc	-0.049701557
38	0x3d482d6d	0.048871446
39	0x3d776b3e	0.06040501
40	0x3dc0ddb0	0.094172835
41	0x3e094f74	0.13409215
42	0xbd90133e	-0.0703492
43	0x3e60f884	0.21969801
44	0xbe9f2662	-0.3108397
45	0xbe29bd95	-0.16576226
46	0xbe8d5e92	-0.27611214
47	0x3db912f0	0.09036815
48	0xbdb26fb9	-0.08712716
49	0xbda06e19	-0.078334995
50	0x3f0b1196	0.5432371
51	0x3b3d01b2	0.0028840122
52	0x3ed0c33a	0.40773946
53	0x3dd82fcd	0.10555992
54	0xbdec9353	-0.11551537
55	0x3e35bc0c	0.17747515
56	0xbd23f7a7	-0.0400311
57	0xbe65890e	-0.22415563
58	0xbf09d909	-0.53846794
59	0xbb5cca85	-0.0033690047
60	0xbc0a722a	-0.00845007
61	0x3e227270	0.15863967
62	0x3eb5c2ae	0.3550009
63	0x3e87b71f	0.26506898
64	0x3db48e72	0.08816232
65	0xbd55d02b	-0.052200478
66	0xbd5a8c66	-0.05335655
67	0xbe4ad230	-0.19806743
68	0xbf41c56a	-0.75691855
69	0x3dc4d33a	0.09610601
70	0xbc86e1d6	-0.016465109
71	0x3c68c591	0.01420726
72	0xbda62a76	-0.081135675
73	0xbf75cc6d	-0.96015054
74	0x3e6c93e4	0.23103291
75	0xbd84ddf4	-0.06487647
76	0x3e35cbd3	0.17753534
77	0xbe30fb47	-0.17283355
78	0xbee9f02a	-0.45691043
79	0xbf070a63	-0.52750224
80	0xbf24572e	-0.64195526
81	0xbba6a79a	-0.0050858976
82	0x3b89f520	0.0042101294
83	0x3ec7562e	0.38932937
84	0x3e9b89ed	0.30378667
85	0xbc83691f	-0.016041337
86	0xbd027a2e	-0.0318548
87	0xbb8dcf1f	-0.0043276693
88	0xbeb1aedb	-0.34703717
89	0xbf3909f1	-0.72280794
90	0xbd7cacb8	-0.061688155
91	0x3e559fd5	0.20861752
92	0xbbbf966d	-0.0058467896
93	0xbba64181	-0.0050737266
94	0x3dfb7721	0.122785814
95	0xbf86c101	-1.052765
96	0xbe2a86ce	-0.16652986
97	0x3d18131d	0.037127603
98	0xbc80c4ce	-0.015718844
99	0xbe8c44f0	-0.27396345
100	0xbdb07f16	-0.0861799
101	0xbe9b46f0	-0.3032756
102	0xbdf436a4	-0.11924484
103	0x3d26d350	0.040728867
104	0x3ddc8a70	0.10768592
105	0x3e00e8d1	0.12588812
106	0xbe9f0338	-0.31057143
107	0x3f164306	0.5869602
108	0x3cabaa1c	0.020955138
109	0x3d9ee86b	0.07759174
110	0x3ea61379	0.3243673
111	0x3ef72ead	0.48277798
112	0x3d75b382	0.059985645
113	0x3eb90317	0.3613517
114	0x3c3b09b6	0.0114158895
115	0x3c7dbebc	0.015487369
116	0xbd54c910	-0.05194956
117	0xbe40caa7	-0.18827306
118	0x3f113a67	0.5672974
119	0xbc543709	-0.0129525745
120	0xbd185ee7	-0.03719988
121	0xbe347408	-0.17622387
122	0x3c95fe4c	0.018309735
123	0xbf00ddc4	-0.5033839
124	0xbf04a5a6	-0.5181526
125	0xbb9208d2	-0.004456618
126	0xbc9ce87f	-0.019153832
127	0xbe8eddb6	-0.27903527
128	0xbe3fc12f	-0.18726037
129	0x3e3e71d9	0.18598117
130	0xbc8199e7	-0.015820457
131	0xbd9e8222	-0.077396646
132	0x3d5e117a	0.054215886
133	0x3e5a4daa	0.21318689
134	0x3df6b14b	0.12045535
135	0x3e76ac2f	0.2408912
136	0x3d68204a	0.05667142
137	0x3cfcfd77	0.03088258
138	0x3e5809d8	0.21097505
139	0xbed0cfa9	-0.40783432
140	0x3f052638	0.5201144
141	0x3dafdf12	0.08587469
142	0xbd66b41d	-0.056324113
143	0x3e561458	0.20906198
144	0x3e96ed25	0.29477802
145	0x3e937574	0.28800547
146	0xbedb121b	-0.4278725
147	0x3c3b3803	0.011426928
148	0xbd2221dc	-0.039583072
149	0x3d599d82	0.053128727
150	0xbf35fe97	-0.710916
151	0xbd72df8a	-0.059295215
152	0x3df80d57	0.121119194
153	0xbdc101be	-0.094241604
154	0xbe904cf2	-0.28183705
155	0xbf52d43d	-0.823551
156	0x3ea91695	0.3302504
157	0xbedb76bd	-0.42864028
158	0x3d14aec6	0.03629949
159	0xbd82fa9f	-0.063954584
160	0xbf0bfad2	-0.54679596
161	0xbf81f620	-1.0153236
162	0x3e4736d5	0.1945451
163	0x3e1fe524	0.15614754
164	0xbdb6bc1e	-0.08922599
165	0x3f847642	1.034859
166	0x3e96a783	0.29424676
167	0x3e244fc1	0.16046049
168	0x3e815b82	0.25265127
169	0x3cd32817	0.025775952
170	0x3cb9b1ea	0.022667844
171	0x3e33afbe	0.17547509
172	0x3d864beb	0.06557449
173	0x3dbf4c71	0.09340752
174	0x3d93a304	0.07208827
175	0x3bd46c35	0.006482626
176	0x3de50e40	0.111843586
177	0x3ead10cd	0.3380188
178	0x3db344c4	0.087533504
179	0xbda793cd	-0.08182488
180	0x3da9f353	0.082983635
181	0x3d588fcd	0.052871514
182	0xbdd336ab	-0.103131615
183	0x3da75538	0.08170551
184	0x3efe1037	0.49621746
185	0xbe448894	-0.19192725
186	0x3e2092f6	0.15681061
187	0xbef6e255	-0.48219553
188	0xbe0575ef	-0.1303327
189	0x3e8120d6	0.25220364
190	0x3f12b975	0.57314235
191	0xbce57d6a	-0.028013904
192	0x3c6c8ee6	0.0144383665
193	0xbf115219	-0.56765896
194	0xbf389e0d	-0.72116166
195	0x3e3620ed	0.17785998
196	0xba054fe3	-0.00050854514
197	0x3dcc103e	0.099640355
198	0xbf553a65	-0.8329223
199	0x3f28993f	0.65858835
200	0x3e6836a9	0.22677101
201	0x3d8dc453	0.069222115
202	0xb97d49f5	-0.00024155511
203	0xbd0e6852	-0.034767456
204	0x3ce0125d	0.027352506
205	0xbeffbf34	-0.49950564
206	0x3e60f675	0.21969016
207	0xbd11875b	-0.035529476
208	0x3daf09ab	0.08546766
209	0xbe99a94a	-0.3001197
210	0xbe47a7d7	-0.1949762
211	0x3e1c62d8	0.15272081
212	0xbe2c8663	-0.1684814
213	0x3dc12364	0.09430578
214	0x3cd518a8	0.026012734
215	0x3f05ad3e	0.5221747
216	0xbbb925d5	-0.005650262
217	0x3ea5a802	0.32354742
218	0x3e2a40f8	0.16626346
219	0xbdafd198	-0.08584899
220	0x3e7a8213	0.24463682
221	0xbe15d052	-0.14630249
222	0x3bbf61d6	0.0058405204
223	0x3e44c46c	0.19215554
224	0xbddd0119	-0.10791225
225	0xbdd599e8	-0.10429746
226	0x3ea852fb	0.3287581
227	0x3e3fe50e	0.18739721
228	0x3f128784	0.5723803
229	0xbe2c9b14	-0.16856033
230	0xbdc8232b	-0.09772333
231	0x3ca6713e	0.02031767
232	0x3dd37301	0.1032467
233	0xbe8bf90d	-0.27338448
234	0xbe25e792	-0.16201618
235	0x3d5fefd8	0.054672092
236	0x3d8b0ca0	0.067895174
237	0xbe4e11ba	-0.2012395
238	0xbe0ddec1	-0.13854505
239	0x3eea4f62	0.4576369
240	0x3e48f413	0.19624357
241	0x3da3553c	0.079752415
242	0x3dee00aa	0.116212204
243	0x3e78968d	0.2427618
244	0x3eafc0d9	0.3432682
245	0x3e576d4a	0.21037784
246	0xbb85d9fa	-0.0040848227
247	0x3e37b2ce	0.17939302
248	0xbeead25f	-0.45863625
249	0x3e7d17b8	0.24716079
250	0xbe8176a3	-0.25285825
251	0x3c858ec5	0.01630343
252	0xbd9a0782	-0.07520963
253	0x3efdf365	0.49599758
254	0xbe122b6c	-0.14274377
255	0xbd73581f	-0.05941021

fc1.bias f4 [32]
0	0x3ed67d02	0.41892248
1	0x3e7ba628	0.24575102
2	0x3ec46846	0.38360804
3	0xbe87da1c	-0.26533592
4	0x3de5c76b	0.112196766
5	0xbe7adc88	-0.24498188
6	0x3f07c449	0.5303388
7	0xbd0e4c44	-0.0347407
8	0xbea7ac2c	-0.32748544
9	0x3f06c300	0.52641296
10	0x3e11c531	0.14235379
11	0xbde4d8bc	-0.11174151
12	0x3d39c941	0.045357946
13	0x3e2fba1c	0.17160839
14	0x3f104211	0.5635081
15	0x3e36316b	0.17792289
16	0x3f09b08f	0.5378503
17	0x3e1f3b4b	0.15549962
18	0x3c8b6ce4	0.017019697
19	0x3ef5611e	0.47925657
20	0x3e9516fe	0.29119104
21	0x3eb4238f	0.3518338
22	0xbec5c4fa	-0.38626844
23	0x3d88fde9	0.066890545
24	0x3e272a64	0.16324764
25	0x3d6d6f5e	0.057967536
26	0xbe709dc9	-0.2349769
27	0x3dce76ee	0.10081278
28	0x3e521b51	0.20518233
29	0x3e8ea854	0.278628
30	0xbe24cc83	-0.1609364
31	0x3e7475ae	0.23873016

fc2.weight f4 [64, 32]
0	0x3e8991e6	0.26869124
1	0x3e573cc5	0.21019275
2	0xbdb08512	-0.08619131
3	0x3bac7d00	0.0052639246
4	0xbca7679f	-0.020435153
5	0x3d841b6d	0.064505436
6	0x3d4b0eb8	0.049574584
7	0xbe05d611	-0.13069941
8	0x3cff6ac0	0.031178832
9	0x3e8bf5e8	0.2733605
10	0x3d672012	0.05642707
11	0xbcc511aa	-0.024056274
12	0x3e4acce9	0.1980473
13	0x3e7c3b4b	0.24631993
14	0x3dd1c1dc	0.10242054
15	0x3c97a65d	0.018511945
16	0x3e42d96f	0.19028257
17	0x3deec173	0.11657991
18	0xbd43770f	-0.047720965
19	0x3e0c0a20	0.13675737
20	0x3e901dba	0.2814768
21	0x3e6627d0	0.22476125
22	0x3e40b0d6	0.18817458
23	0x3cb387c2	0.02191532
24	0x3e110b7c	0.14164537
25	0xbd25809a	-0.040405847
26	0xbe36ec8d	-0.17863674
27	0xbe1605c9	-0.14650644
28	0xbd76c2e4	-0.060244456
29	0xbe0de3a4	-0.1385637
30	0xbe825129	-0.25452545
31	0x3e240e50	0.16021085
32	0xbd4a0dfb	-0.04932974
33	0x3e08c8a1	0.13357784
34	0xbd70f939	-0.058831427
35	0xbe4a4794	-0.19753867
36	0x3df64a17	0.1202585
37	0xbc827e8f	-0.015929488
38	0xbdbda288	-0.09259516
39	0x3ecc3c9b	0.39889988
40	0x3e541002	0.20709231
41	0xbbe728a2	-0.0070544044
42	0x3ea37b71	0.31930116
43	0x3b9f35c2	0.0048587034
44	0x3c66587b	0.014059181
45	0xbe98fb51	-0.2987924
46	0x3da72857	0.08161991
47	0x3e627900	0.2211647
48	0x3d96ea2a	0.07368882
49	0xbe973991	-0.29536107
50	0xbe15c4f6	-0.14625916
51	0xbc71cc5e	-0.014758198
52	0x3e94ab66	0.29037017
53	0x3e2d1845	0.1690379
54	0x3e5754a4	0.21028382
55	0x3d767fc2	0.060180433
56	0x3e941952	0.28925568
57	0x3e80928a	0.251118
58	0xbe764987	-0.24051486
59	0xbd3bca12	-0.045847006
60	0xbe6bcd6c	-0.23027581
61	0x3e278547	0.16359435
62	0xbbee79af	-0.0072776894
63	0xbc6e6740	-0.014550984
64	0x3e2e62b8	0.17029846
65	0x3e0c66b8	0.13711059
66	0x3e92155c	0.2853192
67	0x3e457f45	0.1928683
68	0x3e30fbc0	0.17283535
69	0x3e02474a	0.12722507
70	0xbcf3474a	-0.02969708
71	0xbe13466c	-0.14382333
72	0x3e5abed6	0.2136186
73	0x3e2816c1	0.1641493
74	0x3e352c72	0.17692736
75	0x3da5b375	0.08090869
76	0x3eac8a91	0.33699468
77	0x3e75c03b	0.23999111
78	0x3e9d0c8c	0.30673635
79	0x3dcfe69a	0.10151406
80	0x3dcb0404	0.09912875
81	0x3e1fd106	0.1560708
82	0x3e843760	0.25823498
83	0x3e6e63f8	0.23280323
84	0x3d8cd0a1	0.0687573
85	0x3e3aedf6	0.18254837
86	0x3ecc960e	0.39958233
87	0x3e4307d9	0.19045962
88	0x3e266442	0.16249183
89	0x3f055f78	0.520988
90	0x3dd6f64e	0.10496198
91	0x3e77c21b	0.24195139
92	0x3e730f55	0.23736317
93	0x3e83f6d0	0.2577424
94	0x3e9f0b03	0.3106309
95	0x3ceeb2f0	0.029138058
96	0x3dd41f51	0.10357536
97	0x3e4577ef	0.19284032
98	0x3da92adb	0.08260127
99	0xbdd306a6	-0.103040025
100	0x3d8d25cf	0.06891977
101	0xbd9b6eff	-0.0758953
102	0x3deaa183	0.11456587
103	0xbd106401	-0.03525162
104	0xbde369f8	-0.11104196
105	0x3e094366	0.13404617
106	0x3e2064cd	0.15663452
107	0x3dbda0ba	0.09259172
108	0x3e986b0c	0.2976917
109	0xbe03c5d4	-0.12868434
110	0x3dd94a02	0.10609819
111	0xbe035607	-0.12825786
112	0x3ea95fe6	0.33080977
113	0x3e74c510	0.23903298
114	0x3db3aa6b	0.08772739
115	0x3e319f89	0.17346014
116	0x3ebe43c1	0.37161067
117	0x3e7019cb	0.23447339
118	0x3dd6547a	0.104653314
119	0x3d9d83ce	0.076911554
120	0x3e83cd03	0.2574235
121	0xbc968a76	-0.01837657
122	0xbdcc0cf9	-0.09963412
123	0xbde71758	-0.11283749
124	0x3e1cb5a1	0.15303661
125	0x3e27b9bb	0.16379444
126	0xbdca0eca	-0.09866102
127	0x3daa9343	0.08328869
128	0x3d8a9885	0.06767372
129	0x3dab94c2	0.08377983
130	0x3e4d19c6	0.20029363
131	0x3e57cbad	0.2107379
132	0x3e5a268c	0.21303767
133	0xbf309e43	-0.6899149
134	0x3e81641d	0.25271693
135	0xbe1ca935	-0.15298922
136	0xbd2a5625	-0.04158606
137	0x3c67c5f1	0.014146314
138	0xbead5faf	-0.33862063
139	0xbdad3cdf	-0.08458876
140	0x3e144f77	0.14483438
141	0xbf50adc3	-0.8151514
142	0xbf44cad2	-0.7687198
143	0x3da8fcdd	0.08251355
144	0x3ea31052	0.3184839
145	0x3e4068f0	0.1879003
146	0x3dc3a600	0.09553146
147	0xbc7acea5	-0.015308057
148	0xbd74fbfd	-0.059810627
149	0xbcd5a66a	-0.026080329
150	0x3e61e9fe	0.22061917
151	0x3dbe01ce	0.09277688
152	0x3dfccaf3	0.12343397
153	0x3c6989a0	0.014254004
154	0xbea7d6ce	-0.3278107
155	0xbee3d5cf	-0.4449906
156	0x3d939d78	0.07207769
157	0xbf7392cc	-0.9514587
158	0x3f1ec7e5	0.62023765
159	0xbe0d80e1	-0.13818695
160	0xbdd49597	-0.103800945
161	0x3e671f18	0.22570455
162	0xbf0d3e04	-0.55172753
163	0x3eda01ed	0.42579594
164	0x3db79c95	0.089654125
165	0x3d9aff9e	0.07568286
166	0xbf3fbd4d	-0.74898225
167	0xbf7d228b	-0.98880833
168	0x3f02e4d6	0.51130426
169	0x3b3a1e0d	0.002839926
170	0x3e4f5f4a	0.20251194
171	0xbf022651	-0.50839716
172	0x3dda5440	0.10660601
173	0xbebbdeef	-0.36693522
174	0x3ec13b4a	0.37740546
175	0xbc489bd7	-0.012244186
176	0x3e1fb6c4	0.15597063
177	0xbe406315	-0.18787797
178	0xbd2d5cdf	-0.042324897
179	0x3cc3ce0f	0.023901967
180	0x3e095d82	0.13414577
181	0x3d1f6ec1	0.038923983
182	0x3e8b4130	0.27198172
183	0xbeb6584f	-0.3561425
184	0xbe1be763	-0.15224986
185	0x3e8b03b2	0.27151257
186	0xbe667c2d	-0.22508307
187	0xbe3d772e	-0.18502495
188	0xbda5c299	-0.08093757
189	0x3e3a2480	0.18177986
190	0xbe118ae1	-0.14213134
191	0x3e9f06f6	0.31059998
192	0xbb31a8a3	-0.0027108572
193	0x3e77f2b4	0.24213678
194	0x3ddf1f66	0.10894661
195	0x3b9ae787	0.0047273072
196	0x3e5d67b8	0.21621597
197	0x3d4e4415	0.050357897
198	0xbdccb04a	-0.09994562
199	0xbdc14608	-0.094371855
200	0xbdfe4559	-0.12415571
201	0x3ebeb038	0.3724382
202	0x3e2235fc	0.15840906
203	0x3e211146	0.15729246
204	0x3d9838fc	0.07432744
205	0x3dbf2354	0.0933291
206	0xbe36a11d	-0.17834897
207	0xbe4137b7	-0.1886891
208	0x3e1c4e0f	0.15264152
209	0x3dc0afc6	0.09408526
210	0xbd7b9503	-0.061421406
211	0x3e7c97af	0.24667238
212	0x3e70128d	0.23444577
213	0x3d3f6aec	0.046732828
214	0x3d95acc1	0.07308341
215	0x3ccdd890	0.02512768
216	0x3eda7f28	0.42675138
217	0x3e0c40ab	0.13696544
218	0x3e13d628	0.14437163
219	0xbe0a2da5	-0.13493975
220	0x3d2b4f61	0.04182375
221	0xbe5c4541	-0.21510793
222	0xbe44e7fe	-0.19229123
223	0x3ccff8d4	0.025387205
224	0x3e8c770d	0.2743458
225	0x3e91fcee	0.28513283
226	0x3db6b762	0.08921696
227	0x3dbc6473	0.09198847
228	0x3e70017c	0.23438066
229	0xbda4ca2d	-0.080463745
230	0xbdd166b3	-0.102246664
231	0x3dabf059	0.08395452
232	0xbd8f3d6f	-0.069941394
233	0x3e8de97f	0.27717206
234	0x3e730090	0.23730683
235	0x3e7dd0ab	0.24786632
236	0x3e3a3f92	0.18188313
237	0xbe2e4fc6	-0.17022619
238	0x3e1b6d04	0.15178305
239	0xbc4626a7	-0.012094176
240	0x3e9fe96e	0.3123278
241	0x3c345043	0.011005464
242	0x3dda1252	0.106480256
243	0x3c97d00c	0.018531822
244	0x3eb05dcf	0.3444657
245	0x3e816e21	0.25279334
246	0x3d45fa6d	0.048334528
247	0xbcd963f0	-0.026536912
248	0x3e967dab	0.29392752
249	0x3eb1adbd	0.34702864
250	0x3e311b17	0.1729549
251	0xbca42d31	-0.02004108
252	0x3d980785	0.07423309
253	0x3e4467d9	0.1918024
254	0xbdaa1560	-0.08304858
255	0xbd956df7	-0.07296365

fc2.bias f4 [64]
0	0x3eb90c12	0.3614202
1	0x3e6120cb	0.21985166
2	0x3ed88e8d	0.42296258
3	0x3f08d99d	0.5345705
4	0x3e6a942b	0.22908084
5	0x3dbe9546	0.093058154
6	0x3e902a6e	0.2815737
7	0x3efe9bec	0.49728334
8	0x3d9a9d49	0.07549531
9	0x3ecbb990	0.3979001
10	0xbd52665c	-0.05136715
11	0x3e932ae4	0.2874366
12	0xbe605398	-0.21906888
13	0x3f005916	0.50135934
14	0x3d6cffbc	0.057861075
15	0x3ed59d22	0.41721445
16	0x3e08ab93	0.133467
17	0xbceb3524	-0.028711863
18	0x3ebd17bc	0.3693217
19	0x3ec920ff	0.39282987
20	0x3ec98754	0.3936106
21	0x3ec44944	0.38337147
22	0x3eb14f2d	0.3463072
23	0x3e61aff6	0.2203978
24	0x3edf1633	0.43571624
25	0x3f03c7f8	0.51477003
26	0x3e1c14c5	0.15242298
27	0x3e884ed9	0.26622656
28	0x3efb5502	0.49088293
29	0x3e4455f6	0.19173416
30	0x3edf2ca4	0.43588746
31	0x3edb092f	0.42780444
32	0x3e79f3ac	0.2440936
33	0x3ec6c03b	0.38818535
34	0x3d988d96	0.074488804
35	0x3e4bebe8	0.1991421
36	0x3e950cf2	0.2911144
37	0x3e649ba3	0.22324996
38	0x3df9cb16	0.12196939
39	0x3ecf53c4	0.40493596
40	0x3f052427	0.5200829
41	0x3dfa2e2f	0.1221584
42	0x3e65039f	0.22364663
43	0x3da83f20	0.08215165
44	0x3e64ed8d	0.22356243
45	0x3df56c9d	0.11983607
46	0x3ea96414	0.33084166
47	0x3e62870c	0.22121829
48	0xbbfe22c6	-0.00775561
49	0x3ec4854b	0.38382944
50	0xbe5beb88	-0.21476567
51	0xbddbb018	-0.107269466
52	0x3e310ae5	0.17289312
53	0x3ec5d609	0.38639858
54	0x3ef0c2f5	0.4702374
55	0x3e0a22a2	0.13489774
56	0x3e4375b6	0.19087872
57	0x3e803ebf	0.2504787
58	0x3ef4b732	0.47796017
59	0x3ed39983	0.41328058
60	0x3eff339d	0.49844065
61	0x3e287259	0.1644987
62	0xbdbbfb4a	-0.09178789
63	0x3e353492	0.17695835

fc3.weight f4 [128, 64]
0	0x3aa6a39c	0.0012713554
1	0x3d3caaae	0.04606121
2	0xbc732dc6	-0.014842456
3	0xbe414853	-0.18875246
4	0xbeef2b35	-0.46712652
5	0x3cf1c089	0.029510753
6	0x3c24ba28	0.010054149
7	0xbe4be96b	-0.1991326
8	0xbcc4dd1f	-0.02403122
9	0xbcf2c3ea	-0.029634435
10	0xbed67f2f	-0.41893908
11	0x3c2c4d38	0.010516457
12	0x3e05c77e	0.13064381
13	0xbd83328f	-0.06406128
14	0xbeb91d4d	-0.36155167
15	0xbeeb99ed	-0.46015874
16	0x3e0db84e	0.13839838
17	0x3d63a279	0.055574868
18	0x3e010027	0.12597714
19	0xbeb96b6e	-0.36214775
20	0x3c9257e7	0.01786418
21	0x3d12251f	0.035679933
22	0xbd316ee6	-0.04331865
23	0x3df6c741	0.120497234
24	0xbe7b709e	-0.24554679
25	0xbc0eb3df	-0.008709877
26	0xbc920130	-0.017822832
27	0xbf0f9c4b	-0.5609786
28	0x3d789e59	0.060697887
29	0x3cdf6d84	0.0272739
30	0xbd441137	-0.04786798
31	0xbddaa9fc	-0.10676953
32	0xbec094a3	-0.376134
33	0xbe109d54	-0.14122516
34	0x3e79797e	0.24362752
35	0x3be24a54	0.0069058333
36	0xbd96f71c	-0.07371351
37	0xbf0d5ce6	-0.55219877
38	0x3cbf3bb6	0.023343902
39	0xbe97afdf	-0.29626366
40	0xbe21e3fd	-0.15809627
41	0xbcf289b6	-0.029606681
42	0xbdd35e68	-0.10320741
43	0x3e4ff8df	0.2030978
44	0xbe114d1c	-0.14189571
45	0xbbc4a4df	-0.0060010995
46	0xbf003ecc	-0.5009582
47	0x3d968123	0.073488496
48	0x3cdd2588	0.026995435
49	0x3d772501	0.060338024
50	0x3eae4c28	0.34042478
51	0x3f8189f2	1.0120223
52	0xbec62a53	-0.38704166
53	0xbdd84bbc	-0.1056132
54	0xbb020a13	-0.001984243
55	0x3d58ea53	0.052957844
56	0x3ddbee97	0.10738867
57	0xbd99d068	-0.075104535
58	0xbdcc4d07	-0.09975629
59	0xbf074bc7	-0.5285
60	0x3d45a906	0.048256896
61	0xbdb635f2	-0.08897008
62	0xbec3ece2	-0.38266665
63	0x3d54d9b4	0.05196543
64	0x3d7702aa	0.060305275
65	0x3e3107f7	0.17288195
66	0x3e297154	0.16547137
67	0x3e84072b	0.2578672
68	0xbe9f8f4a	-0.31164008
69	0x3e1fcc03	0.15605168
70	0x3dd114dd	0.102090575
71	0x3e9ae181	0.3025017
72	0x3f1c4176	0.61037385
73	0x3e4af177	0.19818674
74	0x3e2341fc	0.1594314
75	0x3e73ad1b	0.23796503
76	0xbe84a3a8	-0.2590611
77	0x3e5c73a7	0.21528493
78	0x3e85c26a	0.2612489
79	0x3e2cd125	0.16876657
80	0x3d5b2118	0.053498358
81	0x3d20bfcc	0.03924541
82	0x3de49152	0.1116053
83	0x3e690ced	0.22758837
84	0x3e25203f	0.16125582
85	0x3e81dc9c	0.25363624
86	0x3e9ed4d3	0.31021747
87	0x3e98eb8c	0.29867208
88	0x3db5a156	0.08868663
89	0x3e8588fc	0.26081073
90	0x3e943b2c	0.28951395
91	0x3ee5f66c	0.44914567
92	0x3e82eca4	0.25571167
93	0x3e205e88	0.15661061
94	0x3eaec7a7	0.34136698
95	0x3e90fd30	0.28318167
96	0x3e542a6d	0.20719309
97	0x3e88cbfd	0.2671813
98	0x3ef66b1d	0.48128596
99	0x3e50da55	0.20395787
100	0x3e786976	0.2425898
101	0x3ea0c913	0.31403407
102	0x3e563381	0.20918085
103	0x3eddb690	0.43303347
104	0x3e9ed336	0.31020516
105	0x3e27d1b3	0.16388588
106	0x3e98efe7	0.2987053
107	0x3e56ba99	0.20969619
108	0x3e05730c	0.13032168
109	0x3e7f11d4	0.24909145
110	0x3e8c1894	0.27362502
111	0x3dc97d26	0.09838323
112	0x3eb25790	0.3483243
113	0x3de6140b	0.11234292
114	0xbe673a8c	-0.22580928
115	0x3f30dc69	0.6908632
116	0xbe6b872c	-0.23000783
117	0x3dcd966f	0.100384586
118	0x3ea2c369	0.3178971
119	0x3e4fcb11	0.20292307
120	0xbca4c8e7	-0.020115329
121	0x3e0b1f88	0.13586247
122	0x3e66135f	0.22468327
123	0x3e503de9	0.20336117
124	0x3ebb78a7	0.36615488
125	0x3da833c4	0.082129985
126	0x3f6b5720	0.9192982
127	0x3e2b8cb2	0.1675289
128	0xbcf743de	-0.030183729
129	0xbd092c3f	-0.033489462
130	0x3de0dc50	0.10979521
131	0x3db62395	0.088935055
132	0x3e2c6250	0.16834378
133	0x3e0f2206	0.13977823
134	0x3de1c4bc	0.11023852
135	0x3d72cbb9	0.059276316
136	0xbd754426	-0.059879445
137	0xbd99ddb0	-0.07512987
138	0xbd74369d	-0.059622396
139	0xbeebede8	-0.46079946
140	0xbccded6f	-0.025137631
141	0xbb0f672b	-0.0021881561
142	0x3c96b004	0.018394478
143	0xbeede88c	-0.46466482
144	0x3c6e176c	0.014531951
145	0x3c7e71c1	0.015530051
146	0xbdeee035	-0.11663858
147	0xbd4187ff	-0.047248837
148	0xbdea6eb5	-0.11446897
149	0x3d529d6f	0.05141967
150	0xbd08af3f	-0.033370253
151	0x3d702ef9	0.058638547
152	0x3c61f5f4	0.01379155
153	0xbcc0f5e7	-0.023554755
154	0xbf152838	-0.58264494
155	0xbddc8177	-0.10766881
156	0x3c82eb76	0.015981417
157	0xbe5c1800	-0.2149353
158	0xbdda9868	-0.106736004
159	0xbd7350ee	-0.059403352
160	0x3db1d08d	0.08682356
161	0xbe991f10	-0.2990651
162	0x3eb0dc05	0.34542862
163	0xbd74efc6	-0.05979898
164	0xbe478b73	-0.1948679
165	0xbdf603f2	-0.12012471
166	0xbe49bf82	-0.1970196
167	0x3d75b635	0.05998822
168	0xbd77f8ba	-0.06053994
169	0xbe133e60	-0.14379263
170	0x3d9a540b	0.07535561
171	0x3e4599ca	0.19296947
172	0x3e04c996	0.12967524
173	0xbe300aa6	-0.17191562
174	0x3e1f4abf	0.15555857
175	0x3de41cbc	0.11138293
176	0xbe1dd550	-0.15413404
177	0xbe997ba4	-0.29977143
178	0x3e813d7b	0.25242218
179	0xbce36f4d	-0.027763033
180	0x3e3e7671	0.1859987
181	0xbcbcbb7a	-0.023038615
182	0x3e272bf0	0.16325355
183	0xbdeef679	-0.11668105
184	0xbd0304db	-0.031987052
185	0xbe23dab8	-0.16001403
186	0xbd05a908	-0.032631904
187	0xbd25f371	-0.040515367
188	0x3d821ff2	0.06353749
189	0x3d6ad0c0	0.057327986
190	0xbdb5d895	-0.088792
191	0x3d234261	0.039858226
192	0xbc16995b	-0.009191836
193	0x3c31807a	0.010833854
194	0xbdb381c2	-0.08764984
195	0x3c8a2513	0.016863381
196	0xbb94df90	-0.0045432523
197	0x3d900a10	0.07033169
198	0xbc1a4d04	-0.009417776
199	0xbd949364	-0.07254675
200	0xbbb9953a	-0.005663541
201	0x3d32e0d2	0.043671437
202	0xbccae1bf	-0.024765847
203	0x3ce9d97c	0.028546087
204	0x3df0e7be	0.11762951
205	0x3cadad90	0.021200925
206	0xbdc41136	-0.09573595
207	0xbdd1bb43	-0.102407955
208	0x3c277df8	0.010222904
209	0x3d9f25a4	0.07770851
210	0x3dbf9c32	0.09355964
211	0x3d823763	0.063582204
212	0xbdbaa5e2	-0.09113671
213	0x3db73c72	0.08947076
214	0x3d0cdf83	0.034392845
215	0x3d50aa38	0.050943583
216	0xbd4c7fcf	-0.049926575
217	0xbde343f1	-0.11096943
218	0xbde3357d	-0.110941865
219	0x3dcb199a	0.099169925
220	0xbb905aeb	-0.0044053695
221	0xbde56f69	-0.112028904
222	0x3d3c946a	0.046039976
223	0xbd9a4598	-0.07532805
224	0x3db899aa	0.09013684
225	0xbd36b549	-0.04460648
226	0xbc7bcf89	-0.015369304
227	0x3abcfbee	0.0014418343
228	0xbd758d31	-0.059949104
229	0x3cb84482	0.022493605
230	0xba8d9972	-0.0010803177
231	0xbdf10ffa	-0.117706254
232	0xbde106e5	-0.10987643
233	0xbdf91fa6	-0.121642396
234	0xbde4abb5	-0.11165563
235	0x3c045e2a	0.008079091
236	0x3d5aca68	0.053415686
237	0xbd66c46d	-0.05633967
238	0xbde9ce29	-0.11416275
239	0xbdccd0aa	-0.10000737
240	0x3cee0e71	0.02905962
241	0x3da5f9b1	0.081042655
242	0xbc444017	-0.011978171
243	0x3d252b71	0.040324632
244	0x3c8c3dcb	0.017119309
245	0x3d88aedb	0.06673976
246	0x3cbd3685	0.023097286
247	0x3d6226c9	0.05521277
248	0xbc8fdbf6	-0.01756094
249	0x3c9f4f0b	0.01944687
250	0x3d8bda2f	0.068287246
251	0x3dbe80fe	0.09301947
252	0xbd70e2aa	-0.058809914
253	0x3d4bc642	0.04974962
254	0x3d5e9198	0.054338068
255	0x3cc99296	0.02460603

fc3.bias f4 [128]
0	0xbdecb19d	-0.115573145
1	0x3ea85a70	0.32881498
2	0x3d895be6	0.06706981
3	0xbdceb5d3	-0.10093274
4	0xbd88d717	-0.0668165
5	0xbe53d6b8	-0.20687377
6	0x3c08fe27	0.008361376
7	0x3d7406aa	0.059576668
8	0xbe0c70f7	-0.13714968
9	0x3e8850e7	0.26624224
10	0xbc816473	-0.015794968
11	0xbbbff5d0	-0.0058581606
12	0xbdec8a29	-0.115497895
13	0x3ed40496	0.4140975
14	0xbd9f0fc4	-0.07766679
15	0x3f079d05	0.5297397
16	0xbdc834fb	-0.0977573
17	0xbd144030	-0.036194026
18	0x3eda2cc5	0.4261228
19	0xbe9b491b	-0.30329213
20	0xbd6f5553	-0.05843098
21	0xbe457577	-0.1928309
22	0xbd8cc93e	-0.068743214
23	0x3c452437	0.01203256
24	0x3d563c63	0.052303683
25	0x3d602f3e	0.054732554
26	0xbdbc5a9a	-0.091969684
27	0x3ef5c328	0.48000455
28	0xbe865a5f	-0.26240823
29	0xbe852f8b	-0.26012835
30	0x3efa5dea	0.48899776
31	0x3cf50091	0.029907497
32	0x3c6028a0	0.013681561
33	0xbe872215	-0.2639319
34	0xbd89fa6b	-0.067372166
35	0xbde87b7d	-0.113516785
36	0xbdc8895b	-0.097918235
37	0xbdd1e629	-0.10248978
38	0x3ee34500	0.4438858
39	0xbc5bc9df	-0.013414829
40	0xbe08ca97	-0.13358532
41	0x3e9ac78a	0.3023036
42	0x3f02dd1d	0.5111864
43	0x3d4e9247	0.05043247
44	0xbe12eb3f	-0.14347552
45	0x3e90e2c7	0.28298017
46	0x3ebf2ab5	0.3733727
47	0xbce6f8c4	-0.028194793
48	0xbd9362b4	-0.071965605
49	0xbdb0ed9a	-0.08639069
50	0x3ead7a76	0.33882493
51	0x3d88fbce	0.06688653
52	0xbca78371	-0.020448418
53	0x3ef3b7d1	0.47601178
54	0x3ee21ce0	0.44162655
55	0x3f09b12d	0.53785974
56	0x3ee60457	0.44925186
57	0xbe151bb8	-0.14561355
58	0xbddea584	-0.10871413
59	0x3ee5d27a	0.44887143
60	0x3e943972	0.28950077
61	0xbda751d5	-0.08169905
62	0x3eb3bf42	0.35106856
63	0x3d5b8458	0.05359301
64	0xbdfed73b	-0.12443396
65	0x3ef12d3c	0.47104824
66	0xbd3431ee	-0.04399293
67	0xbd660569	-0.056157503
68	0x3eafddf8	0.34349036
69	0xbe9292a6	-0.2862751
70	0x3efc69c9	0.49299458
71	0xbe8eee13	-0.2791601
72	0x3ec72215	0.3889319
73	0x3e8484cd	0.2588257
74	0xbe082ca2	-0.13298276
75	0x3efe5d37	0.49680492
76	0x3ed83b17	0.42232582
77	0x3f01f2b0	0.50760937
78	0x3ea76435	0.3269364
79	0x3eba6595	0.36405626
80	0x3f0677c0	0.52526474
81	0xbe96fb04	-0.29488385
82	0x3f0188a5	0.5059913
83	0xbe36f0d5	-0.17865308
84	0x3edeb55f	0.4349775
85	0x3ee46f51	0.44616178
86	0xbdabbf85	-0.08386139
87	0x3eaba55b	0.33524594
88	0x3eafbbc6	0.34322947
89	0x3eefb066	0.4681427
90	0xbe841afb	-0.25801834
91	0xbccdff02	-0.025146011
92	0x3ed6e5a4	0.41972077
93	0x3ea31664	0.3185302
94	0x3e9b6bcf	0.3035569
95	0xbd675eb9	-0.05648682
96	0x3eb0aa0f	0.34504744
97	0x3e9f734e	0.31142658
98	0x3eb39a7e	0.35078806
99	0x3eb01a60	0.34395123
100	0x3e982169	0.2971299
101	0xbe5a1078	-0.21295345
102	0x3dccceb6	0.100003645
103	0x3c4f271b	0.012643601
104	0xbdb80fc6	-0.089873835
105	0x3e99d449	0.30044773
106	0xbe0bb5db	-0.13643591
107	0xbe56c374	-0.20972997
108	0x3eba4ff1	0.36389115
109	0x3ee0ca7d	0.43904486
110	0xbcb8059d	-0.022463614
111	0xbc99db58	-0.018781349
112	0x3ea5d532	0.32389218
113	0xbdfde7cd	-0.12397728
114	0x3f006e7e	0.501686
115	0x3eddc768	0.43316197
116	0xbe21e307	-0.1580926
117	0xbe53ca35	-0.20682605
118	0x3d6500dd	0.055909026
119	0x3d3b0852	0.04566223
120	0xbe4636d3	-0.19356851
121	0x3eace61f	0.33769318
122	0x3eddef84	0.43346798
123	0xbdace915	-0.08442894
124	0xbdf24a9f	-0.11830639
125	0x3e9849ef	0.29743907
126	0x3eb75b0b	0.35811648
127	0x3e9b9b63	0.30391988

v.weight f4 [1, 128]
0	0x3f219a28	0.6312585
1	0xbe84b32c	-0.25917947
2	0x3e938e0f	0.2881932
3	0x3d2ecb81	0.042674545
4	0x3f55eea7	0.8356728
5	0x3e45e39e	0.1932511
6	0x3cbcbfc6	0.023040663
7	0xbf2c8a85	-0.67398864
8	0x3d10df56	0.03536924
9	0xbe98a10e	-0.29810375
10	0x3d80fba9	0.06298
11	0xbf5432be	-0.82889926
12	0x3d45d462	0.048298247
13	0xbe9e6c14	-0.30941832
14	0x3eb06f09	0.34459713
15	0xbe87847b	-0.26468262
16	0x3f399471	0.7249213
17	0x3b9e1e5c	0.0048253965
18	0xbe9ed3ae	-0.31020874
19	0x3e40e0cc	0.18835753
20	0x3f126b25	0.5719474
21	0x3f4d525a	0.80203784
22	0x3c6b4529	0.014359751
23	0x3d8621bb	0.06549402
24	0x3d3bd2a9	0.045855198
25	0xbf979a86	-1.1844032
26	0x3d27655c	0.04086815
27	0xbe93070a	-0.28716308
28	0x3d44a0f6	0.048005067
29	0xbeddb5ab	-0.43302664
30	0xbe8dbee4	-0.276847
31	0x3d55f677	0.052237
32	0x3f355d89	0.7084585
33	0x3f05456e	0.52059066
34	0x3ecf379e	0.4047212
35	0xbb9e7f3b	-0.0048369444
36	0x3d8a907f	0.06765842
37	0x3f609c3a	0.8773838
38	0xbe96e5ab	-0.29472098
39	0x3ce9d65d	0.0285446
40	0x3f0fa992	0.5611812
41	0xbe920374	-0.2851826
42	0xbe95947f	-0.29214856
43	0x3d1f9d2b	0.038968246
44	0x3ea8dc9b	0.3298081
45	0xbe8a1b03	-0.26973733
46	0xbf3140f6	-0.6923975
47	0x3d60abe1	0.054851416
48	0x3dbc3bbd	0.09191082
49	0x3ed3b3f3	0.41348228
50	0xbea6e721	-0.32598212
51	0x3d04f9a2	0.03246463
52	0x3f2e58a8	0.6810403
53	0xbe64208d	-0.22278042
54	0xbeaded28	-0.33969998
55	0xbe85cbd6	-0.26132077
56	0xbea5e5c2	-0.32401854
57	0x3e87658e	0.26444668
58	0x3ed62cc3	0.41831025
59	0xbecf9ee9	-0.40550926
60	0xbe87bab6	-0.26509637
61	0x3e728cd5	0.23686536
62	0xbe91d608	-0.28483605
63	0x3d83dcde	0.064386114
64	0x3f311479	0.69171864
65	0xbe9868bb	-0.29767403
66	0x3f483fea	0.78222525
67	0x3f1720e7	0.5903458
68	0xbe74519c	-0.23859257
69	0x3f34be4a	0.7060286
70	0xbea5ec4a	-0.32406837
71	0xbe21287c	-0.157381
72	0xbea07584	-0.31339657
73	0xbe7bb0e6	-0.245792
74	0x3fa7ed81	1.3119355
75	0xbe66ae6a	-0.22527471
76	0xbe8b7003	-0.27233896
77	0xbe8bfc95	-0.27341142
78	0xbe8dc701	-0.2769089
79	0xbe7401d1	-0.23828818
80	0xbe824171	-0.25440553
81	0x3d17da73	0.037073564
82	0xbe80700d	-0.25085488
83	0x3eb02fdc	0.34411514
84	0xbe8a3260	-0.26991558
85	0xbe72fae2	-0.23728517
86	0x3f24eec2	0.64426816
87	0xbe976ecf	-0.29576728
88	0xbeb6634b	-0.3562263
89	0xbe84acee	-0.25913185
90	0x3f604970	0.87612057
91	0xbda74fe1	-0.081695326
92	0xbe8ec9b1	-0.27888253
93	0xbe8d05ca	-0.2754348
94	0xbea508b6	-0.32233208
95	0x3e795529	0.24348892
96	0xbebd1a65	-0.369342
97	0xbe8a84ca	-0.27054435
98	0xbe99819a	-0.2998169
99	0xbe7a951a	-0.2447094
100	0xbe9cebd6	-0.3064868
101	0x3f035232	0.51297295
102	0x3d397919	0.045281503
103	0xbc816153	-0.015793478
104	0x3d8a8e27	0.06765395
105	0xbe8f0c30	-0.27938986
106	0x3d978c53	0.073998116
107	0x3f0d9ed0	0.55320454
108	0xbe8f4f70	-0.27990294
109	0xbeadcffd	-0.33947745
110	0x3d5162fc	0.05111979
111	0x3f77ddc4	0.9682276
112	0xbe6be1d9	-0.23035373
113	0x3f610132	0.8789245
114	0xbe6b1b68	-0.22959673
115	0xbe8ee527	-0.27909204
116	0x3f4d3755	0.80162555
117	0x3ef6ec67	0.48227236
118	0x3d801fbe	0.06256054
119	0x3ccf4f57	0.025306387
120	0x3eb8a2a5	0.36061588
121	0xbe9a6847	-0.30157682
122	0xbe9a585b	-0.30145535
123	0x3dd8024b	0.10547312
124	0x3fbba6fd	1.4660336
125	0xbe84734f	-0.25869223
126	0xbe9d59c6	-0.30732554
127	0xbe723c57	-0.2365583
