SAC/target_critic2_v4.pth (torch, 46095 bytes, 7 tensors)

fc1.weight f4 [32, 11]
000000 ce 7a f2 3e c3 b6 70 3e d0 2a b9 3e de 6d 54 3e
       0.47359318 0.23507218 0.36165476 0.20745036
000010 02 39 39 3c 8a 8c 8a bc 4b 72 fb 3d bc d3 0c 3f
       0.011305096 -0.016912717 0.12277659 0.5501058
000020 c7 d7 cc 3c 0a f8 75 bc 65 e1 4a be f5 e9 33 bd
       0.025005234 -0.01501275 -0.19812544 -0.04392429
000030 00 9c 6e 3e 45 13 1d be b5 2c 62 3e 28 05 8e bd
       0.23301697 -0.15339382 0.22087367 -0.06934577
000040 a6 e9 65 bd 15 c4 87 3e b3 ab ed 3d 6f 46 1b 3f
       -0.056131028 0.26516786 0.11605015 0.6065435
000050 56 ac 68 3c ab 31 f3 3d 99 a6 4c 3f ad 48 5d 3f
       0.014201244 0.11874708 0.7994171 0.8643902
000060 60 e9 f9 3e 01 9b ef 3e e5 ba 9c b8 d2 f1 d1 bc
       0.48810863 0.46797946 -7.4734715e-05 -0.025628004
000070 84 11 3a be 51 e6 38 be 77 08 57 3d 71 01 c3 3c
       -0.18170744 -0.18056609 0.052498307 0.023804398
000080 61 3d 1c 3b 35 37 c3 bd bb d4 31 3d ab f6 d9 bd
       0.0023840296 -0.09532014 0.043415766 -0.10642751
000090 66 dc 18 3d 6e e2 9e bc c0 29 57 bc 76 57 ff bd
       0.037319563 -0.01939508 -0.013132513 -0.12467854
0000a0 42 f7 84 3e 1f 68 0e 3f 25 5c ab 3d 22 f4 0b bd
       0.25969893 0.55627626 0.083671845 -0.03416837
0000b0 ee 52 0a be e5 be 15 bf 39 09 0f be 08 13 03 3e
       -0.13508198 -0.58494407 -0.13968362 0.12800229
0000c0 f9 da 0a bc f5 9f 5b bb 8e 2d 91 3e 73 36 83 bf
       -0.008475059 -0.003351209 0.28355068 -1.0250992
0000d0 cd 0f 0a be 44 b3 12 bd 11 c6 86 bd 2f fb 4e bf
       -0.1348259 -0.035815492 -0.06580747 -0.80852026
0000e0 0f 17 85 bf 2b 07 c9 be 0a f6 31 3d 57 49 35 3c
       -1.0397662 -0.3926328 0.04344753 0.011064849
0000f0 6f c0 c5 3b 5f 02 af be 6c 47 87 bf f3 4d 48 be
       0.0060349028 -0.34181497 -1.0568671 -0.19560985
000100 7a 72 65 bb d6 c5 a9 3d 04 1a e2 bd 18 d8 26 bf
       -0.003501086 0.08289687 -0.11040118 -0.6517348
000110 02 e0 4c bd e4 eb 51 be ce 6c d5 3c 19 20 42 bc
       -0.050018318 -0.20500141 0.026052859 -0.011848473
000120 01 30 3f 3d 25 e9 61 ba 88 bb b3 3e 77 c8 40 bd
       0.04667664 -0.000861781 0.35104012 -0.04706618
000130 f3 57 c2 3e 61 09 64 bf 68 76 68 3d 05 60 ce 3e
       0.37957725 -0.8907681 0.056753546 0.40307632
000140 eb 42 09 3f e9 0e 65 bc cb 6a c2 bb 38 10 53 be
       0.53617734 -0.013980606 -0.005933141 -0.20611656
000150 2a 6b df 3c 99 f3 d0 3e a3 cd b6 bd 3d 2d 81 3d
       0.02727278 0.4081085 -0.08925941 0.06307457
000160 7f fa 1f 3f d6 7a 7c 3e f1 69 65 3f 85 63 38 3f
       0.624916 0.24656233 0.8961478 0.72026855
000170 73 be 06 bb df 2d 16 bc f5 f0 a2 3d 81 58 d4 be
       -0.0020560294 -0.00916621 0.07956115 -0.41473773
000180 06 44 bb 3e 7e 0a a0 3c 00 03 18 bc 95 71 d9 3c
       0.36575335 0.019536253 -0.009278059 0.026543418
000190 44 ec d1 bc b2 47 67 3e b5 62 d7 3e c0 c1 9e bc
       -0.025625356 0.22585943 0.42067495 -0.019379497
0001a0 36 b3 c5 3c eb 78 3c be 45 c4 44 3f 5d ee 8d 3d
       0.024133306 -0.18405502 0.76861984 0.0693023
0001b0 0c 65 c9 3c 09 be a6 3d f1 97 75 3d 97 d9 9d bd
       0.024584316 0.08141715 0.059959356 -0.077075176
0001c0 2a 0a 69 be dc 8c c5 be 1d be 4f 3e f8 c8 55 3e
       -0.22757784 -0.3858403 0.20287366 0.20877445
0001d0 e1 f1 a3 3e 90 0d 3b 3e 26 9e 00 3f c2 53 c3 bc
       0.32020476 0.18266892 0.50241315 -0.02384365
0001e0 e3 6f 68 bd bd 34 c7 3e dd 2c 52 be a6 7e 3f be
       -0.05674733 0.38907424 -0.20524926 -0.18700656
0001f0 95 1c d4 be 1f dc dd bd 01 a7 f4 bd 2b e2 80 3d
       -0.41428056 -0.108330004 -0.11945916 0.06293138
000200 f7 91 25 be f7 66 25 3f e7 18 d7 3c d7 41 39 3d
       -0.16168962 0.64610237 0.026256992 0.045228805
000210 71 4f 31 bf 44 7c 9e 3e 34 0c 51 bf 55 a4 21 bf
       -0.6926184 0.30954182 -0.81659245 -0.63141376
000220 17 d4 8b bc 27 c9 e3 bb bc 80 f6 3d 62 31 db be
       -0.017068906 -0.0069514695 0.12036273 -0.42811114
000230 1c 39 88 3e 4e 5d f8 bc 7d 26 9e 3d c7 00 32 bf
       0.2660607 -0.030317929 0.07722185 -0.69532436
000240 f8 d9 bd bd 33 b3 96 be 05 f4 51 be 0f c7 cc 3b
       -0.0927009 -0.29433593 -0.20503242 0.0062493156
000250 7c 44 41 bc 2c c1 ca 3d 02 9e 34 be 28 81 f0 3e
       -0.011796113 0.09900126 -0.176384 0.46973538
000260 15 34 81 3c 54 2e aa be d4 98 12 3f f4 58 bb bd
       0.015771905 -0.3323847 0.5726445 -0.09147826
000270 9d 41 c9 3c d0 1e 13 3b 9d e2 41 bb fa 39 b8 3b
       0.02456742 0.0022448786 -0.0029584535 0.0056221457
000280 98 79 40 be 89 f3 eb 3d 64 13 9e 3d 0f 3a 38 bf
       -0.18796384 0.1152106 0.07718542 -0.7196359
000290 99 66 3f 3c ef df d8 bc 35 bb 6e 3e c2 64 ba 3e
       0.011682176 -0.026473967 0.23313601 0.36404997
0002a0 69 61 73 3e 20 db 19 bd a3 ae a0 bc 26 b6 df bc
       0.23767628 -0.03756249 -0.019614523 -0.027308535
0002b0 f2 77 8a 3e 91 f5 02 3f f7 7a fd 3c 1e f9 13 3b
       0.27044636 0.51155955 0.030942423 0.0022578905
0002c0 23 bf a5 3d 71 76 35 bd b0 2f d4 3e d5 c0 86 3e
       0.08093097 -0.044302408 0.41442633 0.26318994
0002d0 39 16 35 b9 e1 a6 83 bb ce 0d 90 be dd c1 3a bf
       -0.00017269784 -0.0040176963 -0.28135532 -0.7295206
0002e0 8e 99 97 3e e2 18 15 3b e6 38 82 bd 34 24 b0 be
       0.2960934 0.0022750427 -0.06358509 -0.3440262
0002f0 ca 09 e2 bd 9c 9d ec 3e 6a fe b4 be eb 76 2c 3c
       -0.11037023 0.46213996 -0.35350353 0.010526399
000300 0d a0 d0 bc a8 31 5c be f8 16 c1 3d 7e d4 f2 bb
       -0.025466943 -0.21503317 0.09428209 -0.007410585
000310 5c 79 c8 3c 8a 1a 6d be 31 c2 0f bd 34 1b 5d 3e
       0.024471931 -0.23154655 -0.035097305 0.21592408
000320 d6 c9 31 be 98 a4 00 bf 95 7a f0 bc b0 65 99 bc
       -0.1736215 -0.5025115 -0.029355327 -0.018725246
000330 5b 85 01 3f 18 1f 91 3f 85 da 30 3e 6a 8c 08 bd
       0.5059411 1.1337614 0.17270859 -0.033337034
000340 0c 93 1b bc 8c b0 03 be 34 c8 4b bf 4a dc 08 bf
       -0.009495508 -0.12860316 -0.7960236 -0.53461134
000350 6b c5 4a bd c3 eb d6 3b 5e 21 c9 3c 3d 9f 8d be
       -0.04950468 0.0065588667 0.024552044 -0.27660552
000360 75 da 23 3d 76 90 19 3e 4b c9 2e bd 0c 05 05 3e
       0.04000326 0.14996514 -0.042672437 0.12990206
000370 73 ef c7 be 66 8c 1a 3d 29 b9 80 bb 8c b3 ac be
       -0.39049873 0.03773155 -0.003928323 -0.33730733
000380 0f 63 81 ba 22 6b 8f bd 9c e1 02 3f e3 72 7f bf
       -0.0009871441 -0.07002856 0.511255 -0.9978468
000390 ae a8 ba bd 0b 7d 16 bd 38 16 25 be 3f f6 7b be
       -0.09114204 -0.036740344 -0.16121757 -0.24605654
0003a0 40 b5 0b be 39 a4 0a 3e d2 2a 84 3e 0d 73 67 3d
       -0.1364336 0.13539208 0.2581392 0.056506205
0003b0 e7 79 56 3d 7c 4f 58 3f db b6 04 bf 85 ae 17 3e
       0.05236235 0.84496284 -0.51841515 0.14812668
0003c0 32 ae 12 3d 96 d3 5d 3c 57 20 eb 3d de c9 2e be
       0.035810657 0.013539216 0.11480778 -0.17069194
0003d0 47 0a 90 3e 91 c1 91 3e 04 84 92 3a b7 f6 8f 3b
       0.2813284 0.28467992 0.001117826 0.0043934244
0003e0 cb 2f f2 bc de 95 c0 3e 4a 15 76 bd f4 b2 bd 3c
       -0.029563805 0.3761434 -0.060078897 0.02315662
0003f0 e7 0d 2b 3b 86 ba 4f be f5 31 03 bf b0 48 b1 be
       0.0026100816 -0.20285997 -0.51248103 -0.3462577

fc1.bias f4 [32]
000000 4d a9 17 3e b9 31 12 3f 46 9b 74 3e f5 b9 02 3f
       0.14810677 0.5710712 0.23887357 0.51065
000010 59 81 a0 be f3 71 4b 3e 20 62 c1 bd 07 8a c1 3e
       -0.31348684 0.19867687 -0.09442544 0.3780062
000020 f5 d1 3d 3e c3 a1 f2 3e c6 19 34 3f 69 69 05 3e
       0.18537124 0.4738904 0.7035183 0.13028492
000030 3a 76 88 3e 99 db 9f 3e 70 79 c0 3c 26 65 85 3e
       0.266527 0.31222227 0.023495406 0.26053733
000040 15 d1 38 3f 47 7d 01 3e af c1 6f 3e f3 cf 25 3d
       0.72194034 0.12645446 0.23413728 0.04048152
000050 ce 80 83 3e 0a c8 84 bc 91 23 23 bd 02 ae 8f 3e
       0.25684208 -0.016208667 -0.03982884 0.28062445
000060 81 7d a6 3e b5 f1 16 3f c8 2d 7f 3e a4 0c 09 bd
       0.32517627 0.58962566 0.24919808 -0.03345932
000070 bd c5 09 3f c4 09 d1 bd e7 01 2d bd 3a de 01 3f
       0.5381735 -0.10206941 -0.042238142 0.50729716

fc2.weight f4 [64, 32]
000000 92 89 a0 bb c9 f8 7d be 9d 3d 1b 3d 0b 74 ea bd
       -0.004899212 -0.24801935 0.037900556 -0.11447915
000010 21 26 9d 3e 55 38 8b bf 4c d6 3e 3e db 72 a5 bd
       0.30693153 -1.0876566 0.18636435 -0.080785476
000020 49 cf 2e 3d be bc 86 3d 1f f5 b1 bd ed 4b c3 3d
       0.04267815 0.065789685 -0.08689331 0.09535966
000030 b6 d9 21 3f d7 d7 10 3e 03 9b ec bd cb 95 14 3e
       0.63222826 0.14144836 -0.11553004 0.14510266
000040 f1 7a 0f 3f 5d 92 d3 3e 02 e7 08 bf 6c c8 8c 3e
       0.5604697 0.41322604 -0.5347749 0.2749666
000050 f1 52 93 bd ce 47 49 3e 4c 36 3b 3d 50 17 2b 3d
       -0.07193554 0.19656298 0.04570608 0.04177028
000060 6d 2a e1 3d 90 a2 17 be ed 3c ec 3d 70 ef cb 3e
       0.1099442 -0.14808106 0.11535058 0.39831114
000070 ac a4 05 3e 50 67 9b be ef d4 b7 bd 23 73 8e 3e
       0.13051099 -0.3035226 -0.08976161 0.27822217
000080 a6 f0 97 3d 61 aa c1 3b 2a b9 89 3e a7 6b 38 3e
       0.07418947 0.0059102033 0.2689908 0.18009816
000090 b2 88 2c bf fa 5c 67 3f ae 50 2a be 68 78 52 3e
       -0.6739608 0.90376246 -0.1663234 0.20553744
0000a0 62 23 30 3e 79 64 8c 3d f7 ec 65 3d 35 9a 6c 3e
       0.17200997 0.06855101 0.05613419 0.231057
0000b0 ec 6d 86 bc 38 dc cf be 0e 93 2d 3e c4 8b 65 3d
       -0.016409837 -0.405977 0.16950628 0.056041494
0000c0 18 31 ec 3e 22 39 3f 3c 49 8b 2c bf ee e3 8a bd
       0.46131206 0.011671336 -0.6740003 -0.067817554
0000d0 34 f5 b0 bd 4a 37 eb bd b7 75 d1 bd b8 f6 10 3e
       -0.08640519 -0.11485155 -0.102275304 0.14156616
0000e0 09 e7 87 3b dd c5 1f be ac be a3 3e a0 6e 7c be
       0.0041474146 -0.15602823 0.3198141 -0.24651575
0000f0 bc 55 7d 3d 66 b6 bc 3d 87 2c aa 3e 5e 96 61 3e
       0.06184934 0.09214477 0.33237097 0.22030017
000100 2d 9c 48 be db 87 b2 3e 3b ee 0f bd 07 a3 90 3e
       -0.19590826 0.34869274 -0.035139304 0.2824938
000110 e7 59 de bd f9 ba c3 3d f7 f5 2e 3e c1 72 45 3e
       -0.10856991 0.095571466 0.17086016 0.19282056
000120 4e b1 ce 3d 27 54 e7 3d 8f f1 a2 3e 34 70 9c 3e
       0.10092412 0.11295348 0.3182492 0.30554354
000130 75 91 fc 3d d1 13 81 3e 43 64 88 bb 08 b5 89 3e
       0.12332431 0.2521043 -0.0041623428 0.26895928
000140 6e ee 8f bd 0b f1 c3 3d c0 44 48 3e f6 3e a0 3d
       -0.07027899 0.0956746 0.19557476 0.07824509
000150 20 e0 16 3d 10 6d 8a 3c 84 dd 88 bd b6 76 be 3d
       0.036834836 0.016897708 -0.06682876 0.09299986
000160 69 64 2c bc 28 b5 97 3d 0d 83 f8 3d a9 aa f4 3c
       -0.0105219865 0.074076 0.12134371 0.029866533
000170 43 09 9b 3c fc 22 06 be 54 81 14 be 1f cb 35 3e
       0.018925315 -0.13099283 -0.1450246 0.17753266
000180 17 95 7d 3e c2 19 10 bd 23 5c 56 3e 1d 06 f1 bd
       0.24763905 -0.035180815 0.20933585 -0.11768744
000190 fc 28 e3 3c 82 08 82 3f 2e fc 32 3d 0b b0 b7 bc
       0.027729504 1.0158846 0.04369753 -0.022422811
0001a0 9d 49 ac 3e 67 0f be be 89 dd 37 be df b7 d6 3c
       0.33649912 -0.37121126 -0.17955603 0.026210723
0001b0 32 fb ab be 87 45 9a be 09 8b 60 be 51 b5 ab 3e
       -0.33590084 -0.3013117 -0.21928038 0.3353677
0001c0 26 60 99 3d ff ad 78 3e 36 54 aa bd d5 95 8c bd
       0.07489042 0.24285124 -0.08316843 -0.06864516
0001d0 7f 04 a5 3e 0a 89 25 3d 39 8b 89 be 32 1d cf bf
       0.32229993 0.040413894 -0.2686403 -1.6180785
0001e0 65 50 9d 3e d6 0a 02 be b9 09 3c 3d bb fa 32 bf
       0.307254 -0.12699446 0.04590771 -0.69913834
0001f0 e4 45 78 3e 7c dc e0 3d 04 3e 0b bd d8 d6 a6 be
       0.24245411 0.10979554 -0.03399469 -0.32585788
000200 d9 29 70 bd 0b 34 9b 3e 08 0c ce 3e 83 57 83 3e
       -0.05863366 0.30313143 0.40243554 0.25652704
000210 a6 b0 65 bc 3f 9d df bd 86 01 8c 3d 29 8e b7 be
       -0.014019167 -0.10918664 0.06836228 -0.35850647
000220 8c 72 c2 be 69 fc b4 be f8 d2 9f 3e 94 dc 8f 3d
       -0.37978017 -0.35348824 0.31215644 0.07024494
000230 8e 8b 24 bf 36 f7 07 3e ae 95 05 3e 46 25 b6 bd
       -0.64275444 0.13277897 0.1304538 -0.08893828
000240 12 94 ae be e8 4f 05 3e 98 11 41 3e d1 af 64 bd
       -0.34097344 0.13018763 0.18854368 -0.055831734
000250 77 cf f4 3d 7b d7 e4 bd b7 24 08 bf e4 a1 57 3c
       0.11953633 -0.11173912 -0.5318102 0.013161156
000260 f5 f7 1c 3f 93 fe c3 3d 1d 01 7d 3d 29 89 21 3e
       0.6131585 0.095700406 0.06176864 0.15774979
000270 b8 fc 05 bd 49 ec 65 3e 73 4c e3 be a0 5e 95 3e
       -0.032711715 0.22453417 -0.44394264 0.29173756
000280 28 44 21 3e ba 99 5c 3e 10 10 27 3e 2c 6e 07 3e
       0.15748656 0.21543017 0.16314721 0.13225621
000290 d8 56 0f bc 13 e7 09 3c 66 58 36 bc 09 4f 3e be
       -0.0087487325 0.008416909 -0.011129474 -0.18584837
0002a0 f4 c9 84 3e f7 b1 d9 bd 26 d0 96 3e a7 33 b0 3e
       0.25935328 -0.10629647 0.2945568 0.34414408
0002b0 db ce 87 bd 72 ff 1f bd 7c a1 61 3d 70 36 89 3c
       -0.066312514 -0.03906197 0.055085644 0.01674959
0002c0 77 52 08 bd 12 f0 58 be 86 44 3c 3e f4 b7 cc 3d
       -0.03328177 -0.2118533 0.18385515 0.09996024
0002d0 66 15 40 3e de 67 22 3e ee 27 8d 3d 31 e8 7b bd
       0.18758163 0.15859935 0.068923816 -0.06150073
0002e0 59 52 32 3d cf a0 fe 3d 5e b7 61 3d a9 5b 19 be
       0.043535564 0.124330156 0.055106513 -0.14976372
0002f0 d9 be 6f 3d f6 ca 0a 3e d5 bd 68 3d 99 00 26 3e
       0.058531616 0.13553986 0.056821663 0.16211165
000300 ec 21 cd bd 2b 42 dd 3d b4 fa f2 3d c2 c7 77 3e
       -0.10016236 0.10803636 0.11864224 0.24197295
000310 8b 5a d2 3e d1 51 d9 bb d2 b7 b5 bd 96 ef ea bd
       0.41084704 -0.0066320677 -0.088729516 -0.11471479
000320 1c cb ff 3d e6 e9 e1 3d 1b 3a b2 3e 31 df 99 3e
       0.12489912 0.11030941 0.34809956 0.30053094
000330 61 4d 2f 3d b0 9e 73 3e 74 5c 14 be 37 7f 51 be
       0.042798404 0.23791003 -0.14488393 -0.20458685
000340 99 a7 37 3e 7a 0a 3a be df 92 4d 3e bf 66 b9 be
       0.17935027 -0.18168059 0.20075558 -0.36211202
000350 be d8 6b 3d f0 82 73 be 91 ea a4 be 27 9b 93 bb
       0.05757975 -0.23780417 -0.3221021 -0.0045045796
000360 94 33 5f 3e b9 6f e6 3c 6d 79 84 3e 12 6f 80 be
       0.21797019 0.028129445 0.2587389 -0.2508474
000370 4f e1 fd bc 2b bc 88 3e 63 9e 2f bd 1e f8 9d 3e
       -0.030991225 0.2670606 -0.04287566 0.3085336
000380 82 da 2b bf c3 d9 7e ba d4 29 13 3f 60 5e 47 be
       -0.6713029 -0.000972178 0.574857 -0.19469595
000390 6d 47 56 3e fc 51 52 bd cb 5a 83 3e b3 c9 2a 3f
       0.20925684 -0.051347718 0.25655207 0.6671402
0003a0 dc d0 82 3d 67 40 d4 be b1 97 c8 3d 68 42 d3 3d
       0.06387493 -0.41455385 0.09794558 0.103154
0003b0 9b 4e 5f be 7d 1a 3b 3e d2 81 9a bc e2 7d 27 bd
       -0.2180733 0.18271823 -0.018860731 -0.040891536
0003c0 01 37 2a 3d 2c 1a be 3d f8 f2 c2 be 5a 96 6b 3f
       0.041556362 0.09282336 -0.38075995 0.92026293
0003d0 12 65 4b bf cf d9 08 3e 1a d9 f8 be 9e e0 13 bf
       -0.79451096 0.13364337 -0.48603135 -0.57764614
0003e0 cd 7b b9 3d 09 f3 82 bc a0 14 41 be 92 20 d2 3e
       0.09056816 -0.015985029 -0.18855524 0.41040474
0003f0 31 5b dc 3d 83 1d d9 be bd 46 de be b5 f6 17 3e
       0.10759581 -0.42405328 -0.43413344 0.14840205

fc2.bias f4 [64]
000000 5f 9a 47 3d 99 3a 98 3d 1f 12 9d 3e 28 11 88 bc
       0.048731204 0.074330516 0.30677888 -0.016609743
000010 5a 1b 71 3e 97 a2 99 3e ad 35 ab 3e 46 a5 e5 3d
       0.2354559 0.3000686 0.3343939 0.11213164
000020 3c 2b f9 bb 76 96 c2 3e f9 09 13 3e 21 41 37 3d
       -0.007604031 0.38005418 0.14359273 0.044739846
000030 d7 fa 1a 3d 05 64 42 3d 75 d2 10 bd c7 cb b7 3c
       0.037836876 0.047458667 -0.035356957 0.022436036
000040 3c 2d 38 3e 6e f4 2e be aa a5 9f 3e cd 05 e6 39
       0.17986006 -0.1708543 0.3118108 0.0004387334
000050 b6 38 e1 3e 54 40 f6 3e a2 af 9b 3e 62 e6 e4 3e
       0.4398858 0.48095953 0.30407435 0.44707018
000060 47 24 74 3e 5a a5 c4 3e 2d da 72 3d 80 f3 d8 3e
       0.23841964 0.38407403 0.0592901 0.42373276
000070 06 30 e4 3d fe 12 cf 3e 42 b3 42 3e cd 96 6b bd
       0.11141972 0.40444177 0.19013694 -0.05751686
000080 2b a2 ea bb 23 2a 43 3e 24 63 a1 3e cb 49 e0 bd
       -0.007160445 0.19059043 0.3152095 -0.10951575
000090 54 e2 ff 3e b0 a7 ed 3d 3f 4a 2e 3d 92 ed ff bd
       0.49977362 0.116042495 0.042551275 -0.12496485
0000a0 21 d1 d3 bb 8e 5c fe 3d 01 17 3f 3e 3d db a2 3e
       -0.006464139 0.12419997 0.18661119 0.3180789
0000b0 75 a6 80 3e 00 82 a6 3e cd aa c4 bd d5 6e 86 3e
       0.25126997 0.32521057 -0.0960289 0.26256433
0000c0 17 8b d6 3e 05 f7 ae 3e 6f d2 84 3e d1 9f 8e 3e
       0.41902992 0.34172836 0.25941798 0.27856305
0000d0 c7 bb d2 3e c1 a7 67 3e 9e a4 85 3d 9d dc 03 be
       0.41158888 0.22622587 0.06525539 -0.12877126
0000e0 f6 c5 94 3e fe ad 03 3e 22 bc cb 3e 29 37 fa 3e
       0.29057282 0.12859342 0.3979197 0.4887021
0000f0 df 18 1e 3e 81 f7 9f 3d 9c c3 00 be 58 b0 71 3e
       0.15439175 0.078108795 -0.12574619 0.23602426

fc3.weight f4 [128, 64]
000000 d6 aa 5c bf 04 68 6c bf be 83 84 3d 56 e4 4b be
       -0.86198175 -0.92346215 0.0647044 -0.19911322
000010 12 07 78 3e 8b f0 20 3e fb 8b 31 bc 48 41 27 3f
       0.24221447 0.1571676 -0.010836597 0.65333986
000020 e3 22 fb bc b9 35 d3 bd bb bc 09 3f 5c ef 90 bd
       -0.030656284 -0.10312981 0.53803605 -0.07076904
000030 74 4b 1a bd 74 36 2a 3e 58 cc be 3d 19 67 dd 3e
       -0.037669614 0.16622335 0.09316319 0.4324272
000040 47 42 f3 bd eb 76 a6 3e 21 5a 89 3d 9a 66 ba 3d
       -0.11877876 0.32512602 0.06706644 0.09101601
000050 3c d7 85 be ca e7 44 3c c4 e4 04 3c 84 8e 80 3d
       -0.26140773 0.012018153 0.008111183 0.06277183
000060 16 49 b6 be 53 f0 18 bd 4f ea cd bd de 56 2b be
       -0.35602635 -0.037338566 -0.100544564 -0.16732356
000070 17 ee 80 bd b3 bc d8 3d 39 0a 87 ba 48 36 ee be
       -0.06295412 0.105828665 -0.0010302729 -0.46525788
000080 87 94 d6 bf dc a7 25 be 3e d5 51 3e 13 bb df 3e
       -1.6764077 -0.16177315 0.20491502 0.43697414
000090 00 fd ac bd 31 a0 9f be 90 0b b9 be 60 93 07 be
       -0.084466934 -0.31176904 -0.36141634 -0.13239813
0000a0 1b 9c 9f bf 3a 83 1a be 29 7b 3b bd 85 b5 48 3e
       -1.2469515 -0.15089121 -0.04577175 0.19600494
0000b0 47 04 a5 3d 0d 7e a9 3d 97 a8 f2 3c e2 18 5c 3d
       0.080574565 0.082759954 0.029621406 0.053734668
0000c0 ce c1 b7 3d 1b a8 b6 3c f4 c9 b9 be c8 01 16 be
       0.08972512 0.022296956 -0.3628689 -0.14649117
0000d0 84 c3 07 3e 42 8c 84 3c 44 2e 5c be f2 50 80 3e
       0.13258177 0.016180161 -0.21502024 0.25061756
0000e0 02 f1 82 3e f9 56 3a bf f4 45 3b bc f5 02 41 3e
       0.255745 -0.7278896 -0.011430252 0.18848784
0000f0 71 a9 74 bf b0 69 92 be 7a 80 b1 3e d6 7b ca 3d
       -0.9557105 -0.28596258 0.34668332 0.09886901
000100 15 e8 e8 bd 23 23 15 3e 90 3d d6 bd 4c 96 69 bd
       -0.11372391 0.14564185 -0.10460961 -0.0570281
000110 a7 b2 86 be 08 eb 53 ba 98 4b 19 bd 2a c8 83 3d
       -0.26308176 -0.00080840336 -0.037425607 0.06434663
000120 a6 c2 bb bd ef 5c 8a be 0e 5e c2 3d 9d 3c 33 bd
       -0.091679856 -0.27024028 0.09490596 -0.043758977
000130 a6 8f f7 3d 14 24 9f bd d1 b0 7a 3e 9f 28 87 be
       0.12087946 -0.07770553 0.24481513 -0.2639818
000140 a3 7a 95 3d 3f 50 43 bf 2b 35 0f be bd 92 61 bd
       0.07298782 -0.7629432 -0.13985126 -0.05507158
000150 83 9c 13 3c 4a 4f 2e bd 63 85 4e bd 89 01 e3 bd
       0.009009483 -0.042556085 -0.050420176 -0.11084277
000160 5b 7b 02 be 7b c9 9b 3d 69 6e 21 bd 67 2f 46 bd
       -0.12742369 0.07606789 -0.039411936 -0.04838505
000170 ff 6d 96 3c c1 1c 6f bd 4b 04 47 bd 90 8d ea bd
       0.018362997 -0.05837703 -0.04858808 -0.11452782
000180 70 f4 e9 3c b0 6a 28 3d ba a8 fc bd 6f fc 97 3d
       0.02855894 0.04111737 -0.123368695 0.07421195
000190 e9 6d 78 3d 82 6d 86 3d d5 25 3f 3c 67 0f 03 bd
       0.060651693 0.06563856 0.011666735 -0.03199711
0001a0 5c fc 2b 3e 49 c5 eb bc bf 68 41 be b8 aa ab 3d
       0.16795486 -0.028780596 -0.18887614 0.083821714
0001b0 a0 85 1d be bd b2 7d 3d 8c ad e2 bd 23 7f 0e bc
       -0.15383005 0.061938036 -0.11068258 -0.008697304
0001c0 a9 23 e2 bd 48 b2 2a 3d ea 8a 08 3e 19 15 a0 bc
       -0.11041958 0.04167393 0.13334242 -0.01954131
0001d0 e2 c9 0d 3c 7d 71 b2 3e 3c 03 22 3d 90 4e e8 3d
       0.00865409 0.3485221 0.039553866 0.113431096
0001e0 43 a4 c0 bd 45 0d 6e bd 88 d6 a5 3d e4 94 5a bd
       -0.094063304 -0.058118124 0.08097559 -0.05336465
0001f0 a8 86 9e bd b8 66 15 be bd 17 29 be 2f eb 1d 3d
       -0.077405274 -0.14589965 -0.16512962 0.038554367
000200 f5 48 3c 3e fa e0 9a 3e 5a a1 41 3e eb 93 9f 3e
       0.18387206 0.30249768 0.18909207 0.3116754
000210 c8 e7 87 3e 32 6d 90 3d 9f 77 84 3e 96 23 3c 3e
       0.26544023 0.07052077 0.25872514 0.1837295
000220 66 38 08 3e 0f e6 f2 3e 0d 4c 2a be 7e c7 45 bd
       0.13302764 0.47441146 -0.16630574 -0.048285954
000230 21 6a 6c 3d 6d 4f 91 3e 0b 3e 71 bd c6 cf a5 3e
       0.0577184 0.2838091 -0.05889706 0.3238508
000240 56 b0 9f 3e 49 d3 e1 3e 5e 1c 28 3e 88 c3 e4 bd
       0.3118922 0.4410651 0.16417071 -0.11170107
000250 f1 12 8d 3e 5d 13 7b 3e aa 18 0f 3e 9a 98 86 3e
       0.27553514 0.24519105 0.13974252 0.262883
000260 7a de a5 3e c7 80 1b 3e ec d6 3e 3d 6c 8a a5 3e
       0.323963 0.15185843 0.046591684 0.3233217
000270 91 66 99 3d 0e 92 40 3e 76 af ef 3c 2a 08 0a 3f
       0.07490266 0.18805715 0.029258471 0.5391871
000280 19 7f 08 3e c8 5a 46 3e 0c b3 3e 3e 05 46 5b 3e
       0.13329734 0.19370568 0.18622988 0.21413429
000290 67 6c 97 3d f3 fd e7 3d 58 f2 1e 3e 93 4c 0f 3e
       0.07393723 0.11327734 0.15522134 0.13994054
0002a0 e3 0a 04 bd d4 a4 8f 3d 65 13 82 3e e6 a0 0e 3e
       -0.032236945 0.0701386 0.25405422 0.13928565
0002b0 9f a6 60 3e 46 21 ed 3d f4 ae 98 bc 79 ee 6c 3e
       0.21938561 0.11578612 -0.018638112 0.23137845
0002c0 6c 21 44 3e d8 59 41 3e 39 e2 57 3e b3 44 98 3d
       0.19153374 0.18881929 0.21082391 0.07434978
0002d0 35 d4 a2 3e 3d 89 15 3e 6c c5 d6 bd c3 4d 29 3f
       0.31802526 0.14603133 -0.10486874 0.6613428
0002e0 2b 12 79 3e 38 79 2d 3f f7 10 7a 3e c2 4a 81 3e
       0.24323337 0.6776309 0.24420534 0.25252348
0002f0 d9 7c 6a 3d fd df 8b 3d 90 11 ee 3e 0d 50 01 3e
       0.05724797 0.06829832 0.46497774 0.12628193
000300 a6 63 c8 3e d0 3b 6a 3e 4b ec e9 bd 87 23 34 be
       0.39138526 0.22874379 -0.114220224 -0.17591678
000310 7c 58 7b be 6c d9 9d bd 9c c6 a9 3c a3 d0 bf be
       -0.24545473 -0.077074856 0.020724587 -0.37463865
000320 19 6f 97 3f f1 4c 9d 3d 6e da 69 3e 8e 9f f5 bc
       1.1830779 0.07680691 0.2283723 -0.029983308
000330 ef a7 8a bd d8 fd 72 3e 26 ff 92 bd 8e 91 41 bd
       -0.06770312 0.23729646 -0.07177572 -0.047257952
000340 8d d0 39 bd 74 0c 72 3f f6 db 70 3e 9b cd 9f 3d
       -0.045364905 0.9455025 0.23521408 0.07802888
000350 1b 83 8e 3c 68 85 29 3d bc 60 d6 3d 24 22 41 3e
       0.0173965 0.04138699 0.10467669 0.1886068
000360 c4 23 11 3f 67 8d 38 3c d6 fd b4 bc 8c 18 00 be
       0.566952 0.011264182 -0.022093695 -0.12509364
000370 56 ea 00 be 69 23 89 bc 02 a3 94 bd f9 95 7c be
       -0.12589392 -0.016740518 -0.07257654 -0.24666585
000380 16 39 59 3e bf ce dd bd 03 eb a1 3d 45 16 fc 3c
       0.21213183 -0.10830449 0.07906153 0.030772338
000390 16 df 4d be 4d 9e 9b be 8c f9 94 bc 00 52 7f 3d
       -0.20104632 -0.3039421 -0.0181854 0.06233406
0003a0 6c d6 c1 be 47 89 c9 3d 47 bc 59 be 60 de 2d 3d
       -0.37858903 0.09840637 -0.21263228 0.0424484
0003b0 70 66 7a 3e 03 88 e3 3d 7f c3 fd be 19 cf f8 bd
       0.2445314 0.111099266 -0.49563214 -0.12148876
0003c0 0b 45 d7 bd ff eb 40 be a8 df d7 bd 14 46 f7 bd
       -0.10511216 -0.18840025 -0.10540706 -0.12073913
0003d0 b4 2f e2 3d ec c0 c7 3e 66 43 98 3d ba c1 b4 be
       0.11044255 0.39014375 0.0743473 -0.35304052
0003e0 fe e6 11 be d3 1d 06 3e 1a ae be 3d 15 17 7f be
       -0.14248273 0.13097315 0.09310551 -0.24911149
0003f0 d2 39 fb 3c d2 a5 03 3f 0f e8 84 3d 1a d2 4a 3e
       0.03066722 0.51424897 0.06489574 0.1980671

fc3.bias f4 [128]
000000 12 9a ee bd c6 c3 b3 bd 4b 4d eb 3e 42 e8 88 be
       -0.1165048 -0.08777575 0.45957407 -0.267397
000010 8f d2 0f be c4 f2 b8 3e 22 91 cb 3a b9 46 2b be
       -0.14045165 0.36122715 0.0015530924 -0.16726197
000020 b6 1b 7c 3d d3 af cf 3d ef 3b e1 3e 87 57 a7 3e
       0.061549865 0.10140958 0.43991038 0.32683966
000030 31 3b 82 be 48 8d d7 3e 1e dc 1a bd 00 94 ce 3e
       -0.25435784 0.42099977 -0.037807576 0.4034729
000040 ce 78 b0 bc 13 86 8b 3e c0 d0 11 bd 80 51 df 3e
       -0.02154198 0.27250728 -0.03559947 0.43616867
000050 68 b4 66 3d d0 b3 a3 3e 4c 29 5e be 69 56 e5 bc
       0.056324393 0.31973124 -0.21695441 -0.027995305
000060 03 36 08 3e ee 16 01 3f 1f 30 0c be e4 b9 45 bd
       0.13301854 0.5042561 -0.13690232 -0.048272982
000070 d2 c2 37 be 30 97 81 bd a5 22 6c bd 0c 61 d3 3e
       -0.17945412 -0.06327665 -0.057650227 0.41284978
000080 92 5d 95 3e 12 b6 96 3e b8 8b 9d 3e 2e a5 f2 3e
       0.2917295 0.29435784 0.3077066 0.47391647
000090 1e 9f 98 3e e6 25 39 be 24 f3 9c bd 9b 2c 83 be
       0.29808897 -0.18080863 -0.07663563 -0.2561997
0000a0 7f 0b 43 bd a0 13 a3 3e 8e b1 4b 3d 87 27 87 3e
       -0.047618385 0.3185091 0.049729876 0.26397344
0000b0 67 e7 a6 bd b1 b5 e3 3e ee 5a 97 3e 40 03 14 be
       -0.08149605 0.44474557 0.2956156 -0.14454365
0000c0 5f 43 ff 3e 77 2e a8 3e 9a 7d cc 3e 63 c3 e9 3e
       0.49856088 0.3284795 0.39939576 0.4565688
0000d0 fa af c4 3e 17 67 8f 3e 00 86 90 3e d6 99 90 bd
       0.3841551 0.2800834 0.28227234 -0.07060592
0000e0 4a 63 73 bd 6c f1 2b 3d da 0d 8e 3c 19 2c 88 3e
       -0.05942086 0.041978285 0.01734059 0.26596144
0000f0 ba 68 96 3e c0 4b d5 3e a1 fa c2 3e fc 60 d4 3e
       0.29376775 0.41659355 0.3808184 0.41480243
000100 6d a8 b1 3e 11 41 dc 3e 3a d0 44 3d 84 ff 28 3b
       0.3469881 0.43018392 0.048050143 0.0025787065
000110 fe 81 3d be 97 38 c3 3e c7 8b 0d bd 14 d3 6f 3e
       -0.1850662 0.38129112 -0.03455713 0.23420364
000120 d4 ca 22 3e e9 0f 37 bd 97 b4 85 3e f7 6f 8e bc
       0.15897685 -0.044692907 0.26114342 -0.017387373
000130 13 38 8b bb 38 db a5 3e 44 fd a5 3e 26 30 c0 3e
       -0.004248628 0.32393813 0.3241979 0.37536734
000140 9d 48 e6 3e 37 99 57 3d f0 85 bb 3e 75 50 a4 3e
       0.44977275 0.05263635 0.36625624 0.32092634
000150 82 fa fb bd b9 ba f9 3b 5d ed fa 3e a1 c0 28 be
       -0.1230364 0.007621136 0.4900922 -0.16479732
000160 9a 09 8e 3e 10 7d da bd 08 ef 9f 3e ae 0d b2 3e
       0.277417 -0.10668385 0.31237054 0.34776062
000170 f6 5d de 3e 66 ab 35 be 0e 34 94 3e 19 2f 64 bd
       0.43431062 -0.17741165 0.28945965 -0.05570898
000180 c1 19 be 3e 68 8a 94 bd 56 5b 4d bc 68 5e d3 bd
       0.37129024 -0.072529614 -0.012533983 -0.10320741
000190 af 69 4b 3d 77 ed 0a be a8 c8 93 bd 52 57 43 be
       0.049661335 -0.13567148 -0.072160065 -0.19076279
0001a0 ab 13 86 bd 25 d1 ea bd ca 61 ea 3e c1 ca 2b be
       -0.0654672 -0.114656724 0.45777732 -0.16776563
0001b0 00 b2 67 be 5e e9 a9 3e 09 fe 6d bc 00 08 01 3f
       -0.22626495 0.33185858 -0.014525899 0.5040283
0001c0 77 67 e3 bc 1b d2 ba 3e f7 03 40 bd ff 32 0b be
       -0.027759297 0.36488423 -0.04687878 -0.13593672
0001d0 8f 7e 9b 3e 27 14 b7 3e 1a 61 7d bd 32 49 38 be
       0.30369994 0.35757563 -0.06186018 -0.17996672
0001e0 15 88 f8 3c 1c 05 70 3e 48 ff a8 3e fe ab b8 3e
       0.030338326 0.23439449 0.33007264 0.3606872
0001f0 15 f6 ee bc 1c 48 af 3e 51 f2 e4 3e a6 6b b2 3e
       -0.029170075 0.34234703 0.44716123 0.34847754

v.weight f4 [1, 128]
000000 f8 bf 83 3f e0 38 ef bb e6 30 8f be 4e fa 61 3f
       1.0292959 -0.007300481 -0.27966994 0.8827256
000010 cf 75 37 3f f4 49 79 be 90 24 ef 3e 32 1a 04 3f
       0.71664137 -0.24344617 0.46707582 0.5160247
000020 4b 29 85 3c 4f 53 89 3d 1f 08 85 be b2 dd 9f be
       0.016255042 0.06705343 -0.25982758 -0.31223828
000030 f0 ee b6 3e f3 2a 85 be 31 a6 34 3f 3d 4b 78 be
       0.3572917 -0.2600933 0.7056609 -0.24247451
000040 44 be 9d bc 91 cc 80 be df 05 92 3d ed c2 74 be
       -0.019255765 -0.25156072 0.07130026 -0.23902483
000050 d2 a2 f4 bc 8a 5a 99 be 9b 86 16 3f 9d 65 a8 3d
       -0.029862795 -0.29951888 0.5879914 0.08222506
000060 22 38 29 bf 60 a5 70 be f6 e6 89 3f d4 27 b9 3d
       -0.66101277 -0.23500586 1.0773609 0.090408
000070 dc 92 6e 3e 43 ee f8 3e 98 e9 a0 3c 17 28 66 be
       0.2329821 0.4861928 0.019642636 -0.2247623
000080 52 91 7c be a6 82 82 be 45 91 6b be 7b c1 6b be
       -0.2466481 -0.25490302 -0.23004635 -0.23023026
000090 64 6d 71 be c0 ca 6b 3f 90 bd a2 3c f1 cd a3 3f
       -0.23576885 0.92106247 0.019865781 1.2797223
0000a0 b0 e2 ed 3e 81 db 93 be 56 9a 0f 3f 45 ea 83 be
       0.4646201 -0.28878406 0.5609487 -0.2576467
0000b0 1c c7 62 3f 87 61 87 be 36 69 8e be 3a 15 46 3f
       0.88585067 -0.26441595 -0.27814645 0.7737614
0000c0 f4 74 84 be cb db 7b be be 9b 81 be 1f e0 7e be
       -0.25870478 -0.24595563 -0.25314134 -0.24890183
0000d0 54 3c 6c be c8 cf ca be 6b ce 86 be 96 61 12 3f
       -0.23069888 -0.3961165 -0.2632936 0.57180154
0000e0 c7 5f cc 3b 10 2a ac 3b f3 8a 05 3b d4 02 77 be
       0.0062370035 0.0052540377 0.002037701 -0.24122173
0000f0 a0 7e 81 be e9 70 92 be 85 00 6d be c8 cc 9d be
       -0.2529192 -0.2860177 -0.2314473 -0.30820298
000100 5f 60 70 be 5c 1e 9a be 4c 16 9d 3c 98 c7 ae bd
       -0.23474263 -0.30101287 0.019175671 -0.08534163
000110 86 4d 6b 3f 79 72 87 be 4f e6 16 3f 6c 69 9d be
       0.91915166 -0.26454523 0.58945173 -0.30744493
000120 ec b9 94 bf 49 53 a5 bd 63 5d 84 be ad 74 22 3f
       -1.1619239 -0.08072526 -0.25852498 0.63459283
000130 34 e9 e0 3e c0 cb 91 be 5d dc 7a be a9 a6 8a be
       0.4392792 -0.2847576 -0.24498124 -0.27080277
000140 38 2f 80 be 12 f8 04 3f 9a 4e 85 be 85 3c 93 be
       -0.25036025 0.51941025 -0.2603653 -0.2875711
000150 32 79 09 bd df b7 5e bf cd 2b 8e be 53 1a 51 3f
       -0.033562846 -0.86999315 -0.27767792 0.8168079
000160 99 93 81 be bd aa f6 bb 14 95 78 be bf 53 ae be
       -0.2530792 -0.007527678 -0.24275619 -0.34048268
000170 42 84 59 be 11 7c 6d 3f 11 7d ab be 76 37 c7 3e
       -0.21241859 0.92767435 -0.33493856 0.389095
000180 a4 cd 8a be c0 c7 78 bf 5f 6f 0f 3d 9b fd 57 3f
       -0.27110016 -0.97179794 0.03501832 0.84371346
000190 e3 06 88 3d 5e 81 4c 3f 37 38 8a bc 75 b0 48 3f
       0.066419385 0.798849 -0.016872508 0.7839425
0001a0 b1 b4 3d 3e f2 80 76 3d 7b 23 af be 68 a8 68 3f
       0.1852596 0.060181566 -0.34206757 0.9088197
0001b0 a1 85 e1 3e 80 b0 70 be 89 0d 21 ba 59 11 81 be
       0.44047263 -0.2350483 -0.00061436795 -0.25208548
0001c0 ea ed 39 3f 03 ae 86 be f9 74 25 3f d0 b0 a1 3e
       0.72628653 -0.26304635 0.6463161 0.3158021
0001d0 b3 b1 72 be 6c 2d 94 be b0 82 a4 3e 00 81 80 3e
       -0.237006 -0.28940904 0.32130957 0.2509842
0001e0 c0 a2 21 3c 79 88 97 be 67 70 c0 be b3 8f 89 be
       0.009865463 -0.29596308 -0.37585756 -0.26867446
0001f0 20 c9 d8 3c 1a dd 96 be 4c 76 8f be e2 68 80 be
       0.026463091 -0.29465562 -0.2801994 -0.2508002
