SAC/target_critic1_v2.pth (torch, 46095 bytes, 7 tensors)

fc1.weight f4 [32, 11]
000000 f2 0d c5 3e cc a2 9b bd ef dc 47 bd 00 9c e8 3c
       0.38487202 -0.075994104 -0.048794683 0.0283947
000010 5c 3f 18 be c1 f5 43 bd 8e 51 a4 3e f6 d7 cc be
       -0.1486792 -0.04784179 0.3209347 -0.40008515
000020 3b 7f 8c 3e 34 26 63 3b 38 e2 7a bc 7c 9a 9c 3e
       0.2744082 0.0034660222 -0.015312724 0.30586612
000030 2c d4 3f be 79 b6 37 3f 8b c4 87 be 67 38 4b be
       -0.18733281 0.71762806 -0.26517138 -0.19845735
000040 ff 4c 43 be 9c 81 33 bf 35 bb 49 3c 1e 0c fb 3d
       -0.1907234 -0.70119643 0.0123127 0.122581705
000050 e1 ff 3f bd 1a 9c 46 bd 8b 1a e1 be 6c e3 65 be
       -0.046874885 -0.048488714 -0.43965563 -0.22450036
000060 b7 7e 47 bc 28 e3 33 3e 11 44 94 be a7 95 07 3e
       -0.012176207 0.17567122 -0.2895818 0.13240682
000070 52 aa 54 3e db 6a 00 be 42 3d 27 3e 97 bd e5 bd
       0.20768097 -0.12540762 0.16331962 -0.11217802
000080 07 65 b4 3b 2f e5 32 ba 36 f0 db 3d 37 5e 74 3e
       0.0055052075 -0.0006824312 0.10739176 0.23864065
000090 9d 59 89 3e 16 f5 bd bc ed a7 3b be 20 8d cf 3d
       0.26826182 -0.023188155 -0.18325777 0.10134339
0000a0 7c 2e ce bd f2 56 86 3e e7 ce 52 3d 5b 03 94 3d
       -0.1006746 0.2623821 0.05146685 0.072272025
0000b0 98 71 37 bf 2d 06 b2 bd 9e b7 dd 3d be 5d 89 be
       -0.71657705 -0.08692584 0.10826038 -0.26829332
0000c0 84 7e 7b bd 00 3d b9 bd af 39 b5 3e 20 9c c9 3e
       -0.06139995 -0.09044838 0.35395572 0.39376926
0000d0 14 2a 83 3e 3d 36 93 bd 3d 84 c7 ba f3 dc 80 bc
       0.2561804 -0.071880795 -0.0015221905 -0.015730357
0000e0 d3 96 cc bd 82 70 02 bf 01 c2 e8 bd 2f 20 c0 3d
       -0.09989705 -0.50952923 -0.11365128 0.093811385
0000f0 56 b1 fa bd 81 c8 4e 3e 73 a0 b2 be 7d 2a fa 3e
       -0.122408554 0.20193674 -0.34888038 0.4886054
000100 62 33 32 3b f7 46 81 bc e7 63 98 bd 92 af 17 bf
       0.002719127 -0.015780909 -0.0744093 -0.59252274
000110 9c cd c0 3e d3 24 5b be d9 9e 5a bc 2b b1 03 bd
       0.37656868 -0.21400766 -0.013343536 -0.032151382
000120 9f fe 8e be e1 fa 4e be 1c 9e 4f 3e 68 a5 ca 3c
       -0.27928635 -0.2021289 0.20275158 0.024737075
000130 90 a2 2e bd b0 ad 0d bf 19 9c b9 be 12 fc ad be
       -0.0426355 -0.5534315 -0.36251906 -0.33981377
000140 8a 79 7c be 6b f7 98 3c 59 6d 50 3d 32 60 d4 bd
       -0.24655738 0.018672666 0.050885532 -0.1036991
000150 c5 d8 38 3d 2d d3 79 3d 94 7b c9 3c c1 de 82 3d
       0.045128603 0.06099241 0.02459506 0.06390143
000160 ff 1a 25 3f 65 41 18 3e 61 f0 14 3d 4c 1f 15 3e
       0.6449432 0.14868696 0.036362056 0.1456272
000170 76 85 68 3d 37 2c 0e be 0f 72 20 bd 04 d4 6f bd
       0.056767903 -0.13884054 -0.039171275 -0.058551803
000180 69 65 76 be 96 8c cd 3c 7f 6d 39 bc 2c c6 47 be
       -0.24062122 0.02509145 -0.01131761 -0.1950919
000190 3d ee cd 3d 2a 96 91 3d 71 d1 86 3d 0d 2e 5e 3d
       0.10055206 0.0710872 0.065829165 0.054243136
0001a0 82 b1 1d 3e 3b f9 37 bc 5d 98 a2 be c6 93 0e 3f
       0.15399745 -0.011228855 -0.3175687 0.55694234
0001b0 fc 0d 2b bd 41 1d e4 3d 52 4c e6 3e e2 20 ac 3d
       -0.041761383 0.11138392 0.44980103 0.084047094
0001c0 7c a3 07 3f 0d 4d 96 bd d0 2e 0b bd 42 b0 f9 bd
       0.5298383 -0.07338915 -0.03398019 -0.12191822
0001d0 38 b8 57 3d 09 c0 0d bd 4a a9 12 3e 6c a3 10 3d
       0.05266592 -0.034606967 0.14322391 0.0353121
0001e0 7e 6e fe bc b1 74 26 bf 5f 68 a1 3e fd 56 c0 3e
       -0.031058546 -0.65021807 0.3152494 0.37566367
0001f0 75 16 c5 3d 77 17 96 bd b9 33 3e be 09 db 32 be
       0.09623424 -0.07328694 -0.18574418 -0.17466368
000200 d9 af de be 04 af 12 3e 5a a5 cb bb 3a 8f dc 3c
       -0.43493536 0.14324576 -0.00621478 0.026923764
000210 89 15 86 3d be 5f 16 3e c2 93 de 3d f0 6b 30 3e
       0.06547076 0.1468496 0.10868026 0.17228675
000220 76 e4 21 3e 14 e0 ac 3d 22 8c 94 3e 4f f6 c1 bd
       0.15809807 0.08441177 0.29013163 -0.09470808
000230 88 63 d7 3e c3 b6 af 3c 26 09 2d bd 5b 5a a6 be
       0.42068124 0.021449452 -0.042245053 -0.3249081
000240 3b 2c e4 3c ab d9 8a 3e da 99 3c 3e 0e 74 76 3d
       0.027853122 0.27119192 0.18418065 0.060169272
000250 c0 98 29 3e f5 57 b6 3e 03 ec cf 3d 80 06 cc bc
       0.16562176 0.3561398 0.101524375 -0.024905443
000260 41 0f 84 bd eb 55 92 3d de 5c 6a be 86 7e 9b 3e
       -0.06448222 0.07145294 -0.22886989 0.30369967
000270 fc 24 d8 3e 39 cb df 3e f2 75 8c 3d 76 24 86 3d
       0.42215717 0.43709734 0.06858434 0.06549923
000280 a3 5c d0 be 6e 39 4a bd 56 d7 23 be 42 bf 43 3d
       -0.40695676 -0.049371175 -0.16000113 0.04778982
000290 f7 25 07 3b 82 d4 e4 be 29 2e 24 3d 25 f9 cf 3b
       0.0020621994 -0.4469338 0.040083084 0.006346839
0002a0 63 a6 22 3d a7 62 be 3e 51 3b 8f 3d 51 8c 10 3f
       0.03970946 0.3718464 0.069937356 0.56464106
0002b0 26 53 37 3e bf 45 a8 be d6 b4 3d 3d f9 8a d3 bc
       0.17902812 -0.32865712 0.046315037 -0.025823103
0002c0 25 4e e6 3e bd 7a 81 bc 9c 9e df 3e fd 9d 85 be
       0.44981495 -0.015805596 0.43675697 -0.26097098
0002d0 f1 3c f6 3c 3a 6b 1e 3e 61 e1 a2 be 4d 91 59 3e
       0.030058356 0.15470591 -0.31812575 0.21246834
0002e0 10 6a 94 3e 5b ec 11 bd 6c 79 27 bc e2 19 18 bd
       0.2898717 -0.035625797 -0.01022182 -0.03713406
0002f0 4d b5 28 3e 02 ba c7 3e 48 c3 c1 3e 4c bf de 3e
       0.16475411 0.390091 0.378443 0.43505323
000300 21 25 47 3e 69 c6 76 bb a9 4a 84 3e 0c 57 5a be
       0.19447757 -0.0037654883 0.2583821 -0.21322268
000310 a5 85 a2 bd 2f a6 eb 3c 10 3e 11 3f 11 96 61 be
       -0.07935647 0.028765766 0.56735325 -0.22029902
000320 c2 8d 69 3e 0e 83 25 ba 20 4f f0 3d 6e 3a ba 3d
       0.22807983 -0.0006313779 0.11733842 0.09093176
000330 92 20 20 bf ce dd be 3d e0 2c ff 3a 66 63 e5 3b
       -0.625497 0.0931965 0.001946833 0.0070003746
000340 31 29 fb 3c 36 e0 7d 3d 93 e8 9a be 41 22 5b 3e
       0.03065929 0.061981402 -0.30255565 0.21399786
000350 5d 81 fc 3e 95 dc 36 3d b3 56 4e bd 5f 66 d5 3e
       0.49317446 0.044643957 -0.05037565 0.41679665
000360 0a 23 d3 bd 24 40 ad 3e 73 dc 46 3d 7d cf b3 bb
       -0.103094175 0.33837998 0.04855008 -0.005487381
000370 69 a2 44 3d 35 80 28 3d 39 6e 5c 3e 2f 06 83 3e
       0.04800645 0.041137893 0.21526422 0.25590655
000380 3d b2 d2 bd f5 7e 07 be 0a 57 4b 3e a4 00 8c 3e
       -0.102879025 -0.13232024 0.19857422 0.2734424
000390 d0 13 0b 3f 64 d2 5b bd 74 05 c5 bd c4 00 a6 3d
       0.54327106 -0.05366744 -0.09620181 0.08105615
0003a0 3c b1 78 3d d6 64 01 3e 66 c6 31 3e 74 43 a6 3d
       0.0607159 0.12636122 0.17360839 0.081183344
0003b0 51 f0 93 3d 64 86 23 bf 31 ef 02 be fc f2 99 3e
       0.07223571 -0.6387694 -0.12786557 0.30068195
0003c0 93 f9 eb bb 96 ba 5b 3c 71 4c 8f 3e 65 bc 90 3e
       -0.0072013824 0.013411185 0.27988008 0.28268734
0003d0 6e 57 49 3e e0 ed 2c 3e ae 22 42 be 47 a7 ad 3d
       0.19662258 0.16887617 -0.18958542 0.08479171
0003e0 ca c2 42 bf b0 64 7f 3d 7b a5 7f be 0f 58 82 3b
       -0.76078475 0.062351882 -0.2496547 0.0039777826
0003f0 5e 2b 5f 3b d6 c6 3c be 79 44 67 3e 00 25 f6 be
       0.0034052948 -0.18435225 0.22584714 -0.48075104

fc1.bias f4 [32]
000000 0b 93 bd 3e 0f 78 94 be 52 97 73 3e b2 51 0c be
       0.37026247 -0.28997847 0.23788193 -0.1370304
000010 81 35 21 bd 57 ac af bc 9c 85 00 3f 03 43 2d 3d
       -0.039357666 -0.021444483 0.5020387 0.042300235
000020 c2 9c cd be 5f 26 fe 3e 74 3f 90 be 7d 2f 1e be
       -0.4015866 0.4963865 -0.2817341 -0.15447803
000030 73 74 5d bd b7 f5 52 3e 7b f3 55 3e 8a 05 7a be
       -0.054066133 0.20601545 0.20893662 -0.24416175
000040 3d bc a9 3e fd 3a 71 be 5a 89 4d be 06 f7 fc 3e
       0.33151427 -0.23557658 -0.20071927 0.49407214
000050 e1 2d 86 3e 1b 8d 47 3e e5 0d c4 be c2 0a 7b 3e
       0.26206878 0.19487421 -0.3829185 0.24515823
000060 2b 47 e1 3d a0 bb af be b4 b1 85 bd 28 74 ea bd
       0.10999902 -0.34322834 -0.06528035 -0.11447936
000070 32 1d 88 3e c9 58 81 3e fc 27 47 be 97 3b 77 3e
       0.26584774 0.2526305 -0.19448847 0.24143825

fc2.weight f4 [64, 32]
000000 1b 08 4d 3e 60 83 a7 3d 18 fa 8b bd f1 93 14 3d
       0.20022623 0.08179355 -0.06834811 0.0362739
000010 f0 2d b5 bc f9 4a 38 3e 1f 16 56 3e 68 9b a7 3d
       -0.022116631 0.1799735 0.20906876 0.08183938
000020 e0 08 41 3d 04 0d c3 3e 83 4c a9 bd f5 62 12 3d
       0.047127604 0.38095868 -0.082665466 0.035738904
000030 fe fe 22 3e 50 ba 37 3e e1 59 22 3e 7d 59 1f 3e
       0.15917584 0.17942166 0.15854599 0.15561481
000040 45 6f c3 3d 31 c9 c8 bb 3f a7 26 3d 00 20 d6 3d
       0.09542707 -0.0061274995 0.040686842 0.10455322
000050 80 a4 8a 3e 7e 2f 35 3e 7e 0d 6f bc 95 bd b7 3d
       0.2707863 0.17693898 -0.014590619 0.08971707
000060 4e d5 a8 bc 84 86 63 3c 14 7a db bd 55 39 1a be
       -0.020609524 0.0138870515 -0.10716644 -0.15060933
000070 19 8f c8 bd a6 e4 48 3d c2 ec 21 be 12 1e 39 3d
       -0.09792919 0.04904618 -0.15812972 0.045194693
000080 0f 86 1a 3d 64 d1 98 3d a2 86 44 bd 02 de 3d be
       0.037725504 0.07461813 -0.04797996 -0.1854172
000090 ce 2c a9 3d c9 fc e6 bd b5 92 62 3e e5 ae 0f bc
       0.08260499 -0.11278684 0.22126277 -0.008769725
0000a0 58 12 26 3e 6a cd b2 be 57 37 76 3e 3b c6 c4 bd
       0.16217935 -0.34922343 0.24044548 -0.09608122
0000b0 7a 78 d1 bd 11 4c 26 3e 9d 06 0c 3f 4c 02 b1 3e
       -0.10228057 0.16239955 0.5469759 0.34572065
0000c0 cd 85 2a 3e 73 a6 13 be 9b 8d 99 3e 7f ef 1c 3c
       0.16652603 -0.14418964 0.2999085 0.009578585
0000d0 72 43 81 bd 7b ac 88 bd fb 04 4d 3c 83 c9 f2 3d
       -0.06311692 -0.06673523 0.0125133945 0.118548416
0000e0 86 cc 96 3d 25 6a dd 3e 36 67 16 be 36 df b2 3d
       0.073632285 0.43245044 -0.1468781 0.0873398
0000f0 e3 d8 bc be ce 37 b3 3e 97 0a 63 be 7d b6 ab 3c
       -0.3688422 0.35003513 -0.22172008 0.02096104
000100 42 26 1c 3e 86 ea 98 3d 31 3a 09 3e d0 66 1f 3e
       0.15248969 0.07466607 0.13401105 0.15566564
000110 57 1a 04 bd 0b d3 bb 3d 4f 61 e9 3d e1 88 0e be
       -0.032251682 0.091711126 0.11395513 -0.13919403
000120 1b dd cf bc cd 93 4e 3e f8 dc 42 3d 7b ff c6 bd
       -0.025373986 0.20173569 0.047574013 -0.09716698
000130 89 75 5e 3e e4 00 11 3e 15 fa 67 be 93 18 dd 3d
       0.21724524 0.14160496 -0.22653992 0.10795703
000140 de 69 1e 3e b6 59 89 3e 16 d5 a2 3d 1e 36 c1 3d
       0.15470073 0.26826257 0.07950799 0.0943415
000150 52 83 ee bc 7f d7 22 3e 85 4a 26 3e 95 50 1b 3e
       -0.029115353 0.15902518 0.16239364 0.15167458
000160 2c 93 dc 3d b4 57 74 3e 6d 28 1b 3e 57 c2 0a 3e
       0.10770258 0.23861581 0.1515214 0.13550697
000170 cc 9d 2a 3e 9c 34 b0 3d e3 c7 74 3d 4d fa fe 3d
       0.16661757 0.086037844 0.05976094 0.12450085
000180 d1 04 99 bd 8f 8f 3e 3d a6 68 a2 3a bb 79 41 bd
       -0.07471622 0.046523627 0.0012390807 -0.04723523
000190 44 56 4e 3c 99 bc a3 bc 85 9e 44 3e f5 1b fd bc
       0.0125938095 -0.019987391 0.19201095 -0.03089712
0001a0 b9 2c 1a be 52 af 35 3e 85 eb e0 bc 83 e3 62 3d
       -0.15056123 0.1774266 -0.027456054 0.055392753
0001b0 87 be 58 3e f2 3e 07 be bd 02 ee 3d 12 65 e8 bd
       0.2116643 -0.13207605 0.11621616 -0.11347403
0001c0 ff 75 59 3e 89 98 26 3e fd 7f fa 3d 54 15 22 3d
       0.21236418 0.16269125 0.12231443 0.03957112
0001d0 38 2d 9b 3e 75 90 14 3e 2a 40 63 bd 6d 98 1e 3e
       0.30307937 0.14508231 -0.055481113 0.15487833
0001e0 56 a9 fd 3d 4c d2 2b be f4 08 c8 bc c0 bd 34 be
       0.12385814 -0.1677944 -0.024418332 -0.17650509
0001f0 fd 60 07 3e 4a 75 8a 3e e3 ad 94 bd c0 8e 36 3c
       0.13220592 0.2704261 -0.07259729 0.011142433
000200 26 82 7e 3c c1 30 01 3e 22 50 ba bc 96 ad 86 be
       0.0155339595 0.12616254 -0.022743288 -0.2630431
000210 85 bb 4b be 64 96 2d be 7f cc af 3d 18 18 e3 bc
       -0.19895752 -0.169519 0.085839264 -0.02772145
000220 0a 51 8e 3e 25 13 10 bd e3 f6 95 bd 29 6f 3c be
       0.27796203 -0.035174508 -0.073224805 -0.18401779
000230 a8 e5 1c be 6c 8a c4 3d 75 9b 0c bf 40 73 52 3e
       -0.15321982 0.095967144 -0.5492471 0.20551777
000240 6e f5 4d 3e 12 93 c0 3e ea 99 a7 be 9b 66 44 bf
       0.20113155 0.37612206 -0.32734615 -0.76719064
000250 4a 8e 4c 3b 04 32 f0 bd aa c5 ce 3d 99 50 d1 bd
       0.003121274 -0.1172829 0.10096295 -0.10220451
000260 bc 34 ab bd 26 cc 44 3e 01 a0 a7 3d b4 00 91 3e
       -0.08359668 0.19218501 0.08184815 0.2832085
000270 da d3 a3 be 0c 85 7c 3d 58 03 aa 3c c2 78 eb be
       -0.31997567 0.06165032 0.020753548 -0.45990568
000280 f0 35 32 3e 9e 2d c7 3e 49 c2 8e bd 9d 0d 4c 3d
       0.17403388 0.3890199 -0.06970651 0.04981767
000290 66 52 79 be 20 c9 21 3e d2 6c 97 38 43 c2 b4 be
       -0.24347839 0.1579938 7.2205105e-05 -0.3530446
0002a0 27 8c 17 3d a0 59 38 be 41 6a d4 3d e0 ff 12 bd
       0.036998894 -0.18002939 0.10371829 -0.035888553
0002b0 a2 5c 13 3d b6 ff 8c 3e 28 da 43 3f a7 93 ac 3e
       0.035977013 0.27538842 0.76504755 0.337064
0002c0 33 13 a0 3e 73 67 69 3e 33 58 68 3c 5d a5 89 3e
       0.31264648 0.22793369 0.014181185 0.26883975
0002d0 be 27 45 be 34 83 8e 3d 91 81 0e 3d 00 c1 c1 bd
       -0.19253442 0.06958619 0.034791533 -0.0946064
0002e0 c9 28 3c be 91 ed ac bc 7c 1a 21 3b 66 17 2b bf
       -0.18374933 -0.021109374 0.0024582436 -0.6683258
0002f0 6a 91 21 be 2c c3 1e 3e 70 62 e7 bd 01 cf 48 bd
       -0.15778127 0.1550414 -0.11298072 -0.04902554
000300 44 e2 99 bd 73 47 3b 3e 6e 4b 04 be 55 92 53 3d
       -0.0751386 0.18288974 -0.12919399 0.051653225
000310 b7 c2 64 3e 57 0c 0a 3e 8e 3c 63 be 91 35 19 3e
       0.22339903 0.1348127 -0.22191069 0.1496184
000320 36 8b d5 bd 05 0a b2 3e 16 96 1a 3d 2c 1c 04 3e
       -0.10426943 0.3477327 0.03774079 0.12901372
000330 8d ea 6c bd 18 55 8b bc 63 c5 54 be 30 87 27 be
       -0.057840873 -0.01700835 -0.20778422 -0.16360164
000340 54 39 1a 3c a9 77 da bd 76 c8 02 be 1a 86 08 3e
       0.009413082 -0.106673546 -0.12771782 0.13332406
000350 93 6e 68 3e 14 0f 52 be 5c 0c 97 bd 85 d6 01 3e
       0.2269843 -0.20513564 -0.07375404 0.12679489
000360 14 7b 8f 3e f7 a2 87 3d ad 85 55 3e 15 2f b0 bc
       0.2802359 0.0662288 0.20851775 -0.021506825
000370 0a 10 02 be b3 52 bb bd e2 19 cf bd 19 9c cd bd
       -0.12701431 -0.09146633 -0.10112359 -0.10039539
000380 8d 6b 47 3e ef e5 2b 3e eb 99 bb bc e6 23 09 3e
       0.19474621 0.16786931 -0.022900542 0.133926
000390 17 dd 07 3e 2d 0c 3c bd f1 86 e1 bc 42 aa aa bc
       0.13267933 -0.04591005 -0.027530165 -0.020833138
0003a0 c7 c6 08 bd c3 80 94 3e 38 8a bd 3d cc f7 69 3e
       -0.033392694 0.29004487 0.09254879 0.22848433
0003b0 2d 49 d5 3d 84 51 21 be 97 94 10 3e 24 38 ee bc
       0.10414348 -0.15753752 0.14119183 -0.029079504
0003c0 21 62 6f 3e 2f 4d 84 bd 6b c4 ce 3d 1c df e3 bd
       0.23377277 -0.06460034 0.100960575 -0.11126539
0003d0 b6 c8 7d 3e 9e 55 cf 3d d0 49 42 be 48 6b 2c bd
       0.24783596 0.10123752 -0.1897347 -0.0420945
0003e0 42 5e 0b 3e 4d aa 73 3e 52 98 2d 3e 35 27 b5 bc
       0.13610175 0.23795433 0.16952637 -0.022113422
0003f0 65 09 a2 bc 68 8b 57 3e a3 fd 4a 3d f0 91 16 be
       -0.01977987 0.21049273 0.049558293 -0.14704108

fc2.bias f4 [64]
000000 e1 24 91 3e b0 38 5f be 91 e3 b0 3e d1 5d da 3e
       0.2834845 -0.21798968 0.3454862 0.426497
000010 77 65 a5 3d 26 9e 31 be d1 81 24 3e a6 cf b5 3e
       0.080759935 -0.17345485 0.16065146 0.35509986
000020 12 71 f2 3d c2 6e 5e 3e 49 5d e7 bd d2 36 84 3e
       0.11837973 0.21721938 -0.112970896 0.25823075
000030 34 ee 42 bd bf 87 be 3e ee 46 51 bd db 72 c0 3d
       -0.04759045 0.3721294 -0.051093034 0.09396907
000040 20 1a 88 3d 4f 91 c7 bc 18 e7 ba 3e 5b a8 b0 3d
       0.06645608 -0.02436128 0.36504436 0.08625861
000050 23 9b bb 3d 09 5f 8c 3e 7d ee a2 3e a3 dd 94 3d
       0.09160449 0.27416256 0.31822577 0.07268836
000060 8a 20 be 3e ca a6 bc 3e 19 7e ad bd 08 3f b6 3e
       0.371342 0.36846 -0.08471317 0.35594964
000070 1d bf 98 3e 1f 1f ad 3e 27 9d a3 3e 59 12 94 3e
       0.29833308 0.33812806 0.31955835 0.28920248
000080 cb 8d ad 3e 78 f2 bf 3d 1a 67 0c 3e 50 e5 6c 3c
       0.33897242 0.09372419 0.13711205 0.014458969
000090 cd 2d bc 3d 03 8d c3 3d 09 e0 4f 3e fc 40 99 3e
       0.09188423 0.0954838 0.20300306 0.29932392
0000a0 6e af d1 3e ef 9c 86 3d 08 34 c3 3d e3 71 4b be
       0.40954155 0.065729015 0.095314085 -0.19867663
0000b0 ab ad e1 3d 90 68 f3 3d 89 6f 89 3e 33 0b b2 3d
       0.11019453 0.11885178 0.26842907 0.08693542
0000c0 10 a1 7a 3c 81 dc 14 3e 81 51 21 be bc 1b 54 bd
       0.015297189 0.1453724 -0.15753748 -0.051784262
0000d0 43 ac 2d 3d 22 41 89 3e 6f 6b 8f 3e 4f be 37 3d
       0.04240061 0.26807505 0.28011653 0.044859227
0000e0 4c 3a 61 3e cd 3c b2 3e 05 14 ca 3e c5 63 ad 3e
       0.21994895 0.34812012 0.394684 0.3386518
0000f0 65 fa 00 3d 3e 93 3a 3e f6 33 a9 3d 84 be ff bc
       0.031488795 0.18220231 0.08261864 -0.031218775

fc3.weight f4 [128, 64]
000000 57 72 00 3e cb 1b 22 3e 29 d4 97 3d 56 44 7a bd
       0.12543617 0.15830915 0.07413513 -0.061100326
000010 ff be 76 3d 20 07 12 3b f2 b1 c7 3d 6c 7e 10 be
       0.06024074 0.002228208 0.09750737 -0.14110726
000020 e6 c1 16 3e 85 a5 ea 3d bd c8 97 3e e9 45 30 bf
       0.14722404 0.114573516 0.2964534 -0.68856674
000030 55 45 9d 3d 82 00 0e bd 73 16 47 3e 93 1e 9f be
       0.0767924 -0.034668453 0.19442157 -0.31078014
000040 4b d3 2c 3e 2d 5c ae 3d 87 f6 ce bd 36 4c 7a bc
       0.16877477 0.08513675 -0.10105615 -0.015276959
000050 35 4b 12 3e cd 60 0a 3d be dd 97 bd 64 94 fe 3d
       0.14286502 0.033783723 -0.07415341 0.12430647
000060 55 d8 81 bd 0f 62 0a be fa 40 d3 3e 47 dc 10 be
       -0.0634009 -0.13513969 0.4126051 -0.14146529
000070 21 ed c1 3d d5 93 b9 3d 2b ee 2d bd 65 aa 51 bc
       0.09469057 0.090614 -0.042463463 -0.012796973
000080 76 ac a3 be fc 99 ba bd 60 74 0d 3e a3 bd ea bc
       -0.31967515 -0.091114014 0.13813925 -0.028654879
000090 d9 c7 2b be ce c5 51 3e 68 6a 3e 3e 5e cf 23 be
       -0.16775455 0.20485613 0.18595278 -0.15997073
0000a0 d7 f8 f2 bc 6e f5 fd 3c c2 0a 39 bd be 8b f7 bd
       -0.029659672 0.031000819 -0.045176275 -0.120872006
0000b0 f3 a3 e7 bd ae 77 12 be a6 a0 84 bd 2b 34 f0 3d
       -0.11310568 -0.14303467 -0.06475954 0.117287
0000c0 6d f0 1a bd d2 d8 f4 3d 0e 22 4c 3d 68 81 9c 3e
       -0.037826944 0.11955418 0.049837165 0.3056748
0000d0 10 36 d0 be d6 95 26 3d 5e 04 b0 be 7d b8 c3 3d
       -0.40666246 0.04067024 -0.34378332 0.09556673
0000e0 ea b2 2b 3c f6 a8 3c 3e a8 b6 d5 bd 11 f7 05 bc
       0.010479668 0.18423828 -0.104352295 -0.008176581
0000f0 01 43 2d 3e c6 98 a7 3d e3 1e 27 3d b0 51 8f bd
       0.16920091 0.08183436 0.04080094 -0.069980025
000100 3c a5 d1 3c d3 6d 40 bd 37 eb d4 3d 68 1e 43 3e
       0.025591485 -0.046979737 0.10396426 0.19054568
000110 33 b2 10 be 8f 4d 01 3e 74 ca 40 3d 9f 5d 2b 3e
       -0.14130478 0.12627243 0.047068074 0.16734932
000120 8c 90 56 3e e5 d1 b7 3d de 20 b6 3e ce 8d 3a 3e
       0.20953578 0.08975581 0.3557195 0.18218157
000130 c8 83 e3 bb 66 f9 9c bc d8 22 54 be 30 5d 51 3b
       -0.0069432 -0.019161891 -0.20716417 0.0031946413
000140 d7 91 2c 3d fb 6b 5c 3d ab 83 08 3d 48 be d2 3d
       0.04213127 0.053813916 0.033328693 0.102901995
000150 eb fb 9b bb dc b8 51 3e fa 54 8a 3e a1 f2 5a 3e
       -0.0047602556 0.20480675 0.27017957 0.21381618
000160 c5 d7 97 3c 62 0a 51 3e 87 2f ba bd 22 b9 de 3e
       0.018535504 0.20414117 -0.09091096 0.4350062
000170 de 00 2b 3e 00 a2 69 3e 2a 60 9b 3e df a7 33 3e
       0.1669955 0.22815704 0.30346805 0.17544506
000180 21 8b bf 3e 2f 8a 85 3e 3d 02 95 bb 31 55 02 3e
       0.37410834 0.26081988 -0.004547386 0.1272781
000190 7a 78 8a 3e 69 54 25 3e f6 b2 f0 3d 8c ec 84 3d
       0.2704504 0.16145481 0.11752884 0.0649043
0001a0 a1 e5 85 3e 66 96 c4 3d d6 93 57 3e 09 cd 31 be
       0.26151755 0.09598999 0.21052489 -0.17363371
0001b0 ae da 3a 3e d5 5d 96 3d 0e b5 77 3e a9 19 87 3d
       0.18247482 0.07342116 0.2419016 0.06596691
0001c0 6a 87 5a be a5 4d 4a 3d d0 11 af 3d ca 44 84 be
       -0.21340719 0.049390454 0.08548319 -0.25833732
0001d0 87 85 c7 3d 55 e0 d8 3c 2c ad 94 3e bf d7 12 3e
       0.09742265 0.026474157 0.2903837 0.14340113
0001e0 84 0e 1d 3e 01 ea f0 3d 5d 0c 34 3e 9d af 0e 3e
       0.15337569 0.11763383 0.17582841 0.13934179
0001f0 e5 fe 2e 3e f7 3b f0 3d 4a c9 b7 3e f5 33 1d 3e
       0.17089422 0.117301874 0.3589576 0.15351851
000200 dc 4b aa bd 3e cf 3b bf a3 2c d5 3d 0a a7 63 3c
       -0.0831525 -0.733631 0.104089044 0.013894806
000210 58 5b 9d 3e e2 79 31 bf 0d 0d e0 3d 97 ba 48 3d
       0.30733752 -0.69326603 0.10939989 0.04900607
000220 24 71 06 3e ab cc 4a 3e 26 d2 c0 be 91 fe f4 be
       0.13129097 0.19804637 -0.3766033 -0.4785047
000230 74 06 76 3e ed 4f df ba 8c 7e 15 3e d8 2b 97 3e
       0.24025899 -0.001703737 0.14599055 0.29525638
000240 a3 c7 36 bb 3e a2 06 3d 7b 29 58 bd 2c ca cf 3d
       -0.002788999 0.03286957 -0.052773934 0.10145983
000250 6b e0 98 bd e6 93 b4 3d 14 4d d8 3d 6f 5c d7 bd
       -0.07464679 0.08817272 0.105615765 -0.10515677
000260 15 c4 7e ba 7a 3a 06 bf d3 6f f1 be 72 c0 38 be
       -0.00097185496 -0.5243298 -0.47155628 -0.18042162
000270 e4 cc bd 3b 5e 28 8e bf c8 2f 30 be ca 7d 7c bd
       0.005792247 -1.1106069 -0.17205727 -0.0616434
000280 87 7d eb 3d c0 c6 39 bf b3 e8 79 3e b3 e8 e6 3e
       0.11498552 -0.72568893 0.24405174 0.4509941
000290 d3 6b 25 bf 8b 91 07 3f 81 92 69 bd 95 bf 47 3e
       -0.6461765 0.52956456 -0.057024483 0.19506676
0002a0 c7 a4 d9 bd 10 a4 c8 bd e8 7f 1a bf c6 85 75 bd
       -0.10627132 -0.097969174 -0.6035142 -0.05994203
0002b0 18 4d 0f 37 01 69 c0 be 84 ea bd 3d ee 88 ae 3e
       8.541414e-06 -0.37580112 0.09273246 0.34088844
0002c0 c3 7b cd be e9 81 25 bd 32 05 fb bd 1d f0 b0 3e
       -0.40133485 -0.040407095 -0.1225685 0.34558192
0002d0 be b5 00 bf f8 d9 88 bb 1c 4f 80 bf 6b 85 92 3d
       -0.50277317 -0.0041763745 -1.0024142 0.07154354
0002e0 a6 30 2c be 76 95 2f 3e 73 82 64 3d 31 86 d8 bd
       -0.16815433 0.17146859 0.05578847 -0.1057247
0002f0 2f 1f e2 3d 00 3b 1b bc 06 7e 3f bf cf ef 4a be
       0.11041104 -0.009474516 -0.7480167 -0.19818042
000300 cb 01 16 bc 34 88 53 3c 36 13 b3 bd 13 25 8a 3c
       -0.009155701 0.012910891 -0.087438986 0.016863381
000310 1f 16 88 bb f0 e7 90 3d 04 4d 1a bc b8 91 92 bd
       -0.0041530277 0.070754886 -0.009417776 -0.071567
000320 f3 a3 85 bb 1a dd 39 3d a6 ec b4 bc cd 3b f6 3c
       -0.004078382 0.045376875 -0.022085499 0.030057812
000330 2e 4a f1 3d b9 10 b4 3c d2 80 c2 bd 43 bb d1 bd
       0.11781727 0.02198063 -0.09497227 -0.102407955
000340 20 c7 29 3c a4 25 9f 3d 0b 4e c2 3d 0f 5e 82 3d
       0.0103624165 0.07770851 0.09487542 0.063655965
000350 2e 14 ba bd 4a 96 b7 3d b7 13 0e 3d 10 b3 51 3d
       -0.0908588 0.08964212 0.03468677 0.051196158
000360 90 fd 4f bd d9 66 e2 bd 7d 35 e3 bd 9a 19 cb 3d
       -0.050778925 -0.11054773 -0.110941865 0.099169925
000370 d2 50 8a bb a4 d3 db bd 6a 94 3c 3d 6c 95 99 bd
       -0.0042210603 -0.107337266 0.046039976 -0.07499203
000380 86 55 bc 3d 01 95 35 bd fd 54 7d bc ab 37 c0 3a
       0.09196 -0.044331554 -0.015462157 0.0014665028
000390 e5 f8 73 bd 6e db b7 3c 61 33 32 ba 7e 7d f0 bd
       -0.059563536 0.0224435 -0.0006797817 -0.11742686
0003a0 49 4c e2 bd a6 1f f9 bd 8d a0 e0 bd 9e 3b 08 3c
       -0.110497065 -0.121642396 -0.10968123 0.008314995
0003b0 dc a0 5b 3d d9 e4 66 bd 39 e7 e3 bd 4a 7c cc bd
       0.053620204 -0.05637059 -0.111280866 -0.09984644
0003c0 71 d0 ef 3c 45 3d a6 3d 17 40 44 bc 71 2b 25 3d
       0.029274197 0.08117155 -0.011978171 0.040324632
0003d0 cb 3d 8c 3c df 22 89 3d 85 36 bd 3c 45 fe 63 3d
       0.017119309 0.06696104 0.023097286 0.055662412
0003e0 f6 db 8f bc a0 73 a0 3c 07 4d 8c 3d 7f 82 c4 3d
       -0.01756094 0.019586384 0.06850629 0.09595203
0003f0 f2 0e 70 bd 52 38 4c 3d 45 e5 63 3d 48 ee e0 3c
       -0.058608003 0.0498584 0.05563857 0.027457371

fc3.bias f4 [128]
000000 46 16 8e 3c 5d 6e 34 3e b6 63 76 3d 9b 52 ce bd
       0.017344605 0.17620225 0.060153686 -0.100743495
000010 5f b3 c5 3c 7c e5 9d bd 01 fd ac 3b ff fb cf bc
       0.024133382 -0.07709786 0.005279184 -0.025388716
000020 7b 47 2b be 02 22 d9 3d 8c ea 76 bd 8d 2e 8a bd
       -0.16726486 0.106021896 -0.060282275 -0.0674716
000030 56 df f7 bd 38 f7 83 3e c2 5b 0a bc b7 06 c0 3e
       -0.12103145 0.2577455 -0.008444728 0.37505123
000040 c3 f1 39 be f0 f6 68 bd 36 4f 84 3e 07 d2 1f be
       -0.18158631 -0.056876123 0.25841683 -0.15607463
000050 4e 07 d2 3d d5 96 76 be 67 51 91 bd f5 9b 30 3c
       0.102552995 -0.24080975 -0.070956044 0.010779371
000060 a1 9e b0 bc dd d8 73 3d 0f b5 c0 bd bc a5 a2 3e
       -0.021560015 0.05953299 -0.09409534 0.3176707
000070 6a 47 53 be 2c ee 21 be 79 ec a9 3e a8 3e 01 3d
       -0.20632711 -0.15813512 0.33188227 0.031553894
000080 15 c7 dd 3c 82 eb b1 bd b7 d4 84 3c 65 21 e7 bd
       0.027072469 -0.08687498 0.016214712 -0.112856664
000090 7b 1c ca bd 56 93 1d be 02 1e 8e 3e c0 dd 6c bc
       -0.098687135 -0.15388235 0.2775727 -0.014457166
0000a0 64 74 a6 bd 28 3a 29 3e 10 ee b8 3e 87 c7 8d bd
       -0.081276685 0.16526091 0.36119127 -0.069228224
0000b0 83 83 a7 bc 7b aa f2 3d 94 d1 35 3e f5 ab fe bc
       -0.020448452 0.11848923 0.17755729 -0.031087855
0000c0 04 dc 30 3d 28 0f e5 bd 14 60 29 3e 22 0d a5 3d
       0.043178573 -0.111845315 0.16540557 0.080591455
0000d0 34 66 19 bd b1 2f ac 3e 0d f3 8b 3e 91 ce c2 3e
       -0.037450984 0.33630136 0.2733387 0.38048223
0000e0 b7 64 a3 3e a4 1b 0e be f4 b3 d3 bd aa fc 9a 3e
       0.31912777 -0.13877732 -0.10337058 0.30270892
0000f0 72 19 0c 3e b0 55 17 bd 17 8d 48 3e 6b 5b a7 bc
       0.13681582 -0.036946952 0.19585072 -0.020429334
000100 38 5e 83 bd 2c 5b 97 3e e8 0c 92 bb b6 d1 8a bd
       -0.06414455 0.29561746 -0.004457105 -0.067782804
000110 2d fa 44 3e af ac 65 be 76 50 b1 3e 36 e2 3c be
       0.1923606 -0.22429155 0.346317 -0.18445668
000120 49 2a 64 3e 2b 1f c2 bd 0b 42 5d 3d e9 fc b1 3e
       0.22281756 -0.09478601 0.05401806 0.34763268
000130 ce 87 86 3e a8 88 b9 3e 60 f4 29 3e f9 48 5b 3e
       0.26275486 0.36237073 0.16597128 0.21414556
000140 3b 18 c0 3e aa 49 37 be 9c 69 b6 3e de 0c cc bd
       0.37518486 -0.17899194 0.3562745 -0.09963392
000150 af 80 ae 3e 4c 60 9f 3e 4a 76 5e bc 6d 05 39 3e
       0.34082553 0.31128156 -0.013578007 0.18068476
000160 63 a3 2f 3e 0d 43 9e 3e eb 3e 28 be 02 ff cd bc
       0.17152171 0.3091053 -0.16430251 -0.025146011
000170 df 4b 87 3e 57 f1 15 3e d3 68 1e 3e 3e da 05 ba
       0.26425073 0.14642845 0.15469675 -0.0005106068
000180 44 22 9e bd 44 12 1a 3e 37 4a 55 3e ef 95 46 3e
       -0.077213794 0.1504603 0.20829092 0.19393133
000190 7c fa 16 3e c4 7a b2 bd 12 9f fe bc 68 59 99 3e
       0.1474399 -0.08714822 -0.03108171 0.29951024
0001a0 64 8f f8 bd b7 76 0d 3e d4 13 7d 3e 4d a3 df bd
       -0.121367246 0.13814817 0.24714595 -0.10919819
0001b0 8e ad 57 3e df 9d 91 3e f2 e4 8f bc 9a 67 33 3b
       0.210623 0.2844076 -0.017565224 0.0027374984
0001c0 ca bb 37 3e 4c 0f f9 bb 95 5e b4 3e 9d f8 8c 3e
       0.1794273 -0.0076007005 0.3522841 0.27533427
0001d0 3d ed 46 be 97 72 06 bd 1b 42 57 3d 52 08 3b 3d
       -0.19426437 -0.032824125 0.052553277 0.04566223
0001e0 82 a8 78 be 37 9d 45 3e ab 62 8f 3e d7 0f ca bd
       -0.2428303 0.19298254 0.28004965 -0.098663025
0001f0 ff fc cf bb 53 15 09 3e 75 c9 43 3e 19 8f 19 3e
       -0.006347298 0.13387041 0.19119819 0.14995994

v.weight f4 [1, 128]
000000 c5 75 9f 3e e1 a2 48 be 9d 08 1c 3f 85 db 2e 3d
       0.3114454 -0.19593383 0.6095064 0.04268982
000010 46 c3 c7 3e 71 bb 18 3f b1 c1 a6 3c f7 2e 17 3e
       0.3901617 0.5966101 0.020356031 0.1476401
000020 30 fa be 3e 11 c3 6d be 9c 17 dc 3e 83 48 30 3f
       0.37300253 -0.23218943 0.42986763 0.68860644
000030 9f 76 13 3d d2 81 64 be 2a dd 0c 3d 5d cd 34 be
       0.036001798 -0.22315148 0.034390606 -0.17656465
000040 71 61 17 3f 37 48 87 3e 9e 8e 5b be a6 3c 18 3f
       0.5913306 0.26422283 -0.21441123 0.5946754
000050 cb f1 91 3e 96 d0 4e 3f d3 e0 4b 3c 26 6d 83 3d
       0.28504786 0.80787027 0.012443739 0.06417303
000060 a4 c1 9c 3f 1c 80 6e 3e d7 69 15 3d df b9 57 be
       1.2246594 0.23291057 0.03647789 -0.21066998
000070 7d 21 19 3f 48 96 23 3e 2d 64 59 be 8c 9f 5c 3d
       0.59816724 0.15975296 -0.2122962 0.053863093
000080 12 1c 64 3f 61 33 72 3d 89 03 02 3e 8d be b4 3b
       0.8910533 0.05913103 0.12696661 0.0055158795
000090 ce 75 7d 3d 3f 08 1e 3f 63 ad 45 be 21 61 e1 3c
       0.061879925 0.6173133 -0.19304423 0.027512135
0000a0 a8 2e c5 3e f6 54 7c be f5 b2 58 be 7d 9e 37 3f
       0.38512158 -0.24641785 -0.21162017 0.7172621
0000b0 94 f1 17 3f ca 25 32 be ca cc 80 bf 30 e8 51 3d
       0.59352994 -0.17397228 -1.0062497 0.051246822
0000c0 93 69 f8 3e a3 f4 2c 3f c5 08 58 be d0 0c ca 3e
       0.48518047 0.67560786 -0.21097095 0.394629
0000d0 00 5e 30 3f 76 a2 27 be 39 93 8b be 5a 26 26 be
       0.6889343 -0.16370568 -0.2726076 -0.16225567
0000e0 19 26 69 be 8f b6 81 3e 33 11 12 3f b2 78 b8 be
       -0.2276844 0.25334594 0.57057494 -0.36029583
0000f0 3b 52 43 be a6 2d 7b 3f da 9f 53 be 26 f2 a2 3e
       -0.19074337 0.9811653 -0.20666447 0.3182537
000100 04 08 f1 3e 90 ab 45 be f9 b2 b3 3e 72 19 17 3f
       0.47076428 -0.19303727 0.35097483 0.590232
000110 d2 be 33 be d5 6e 08 3f 3d a5 83 be 32 63 4f 3e
       -0.17553261 0.53294116 -0.25712004 0.20252684
000120 31 db 5f be fe 89 89 bc a2 11 c1 3a f4 65 1d be
       -0.21860959 -0.016789433 0.0014729986 -0.15370923
000130 d9 82 3c be 89 f8 6a be d0 a6 40 be 3d a6 22 be
       -0.1840929 -0.22946371 -0.18813634 -0.15883727
000140 a8 05 46 be d8 84 37 3e 04 62 33 be bf 3a 0c 3e
       -0.19338095 0.1792177 -0.17517859 0.13694285
000150 03 d2 2a be 97 a0 22 be 9f f9 a3 3e 3c 53 6e be
       -0.16681676 -0.15881573 0.32026383 -0.23273939
000160 bd 57 73 be 95 a3 2d be 80 28 e6 3e e1 4f a7 bd
       -0.23763938 -0.16956933 0.44952774 -0.081695326
000170 68 66 60 be 9b d7 1b be 7b 49 78 be 6a 85 8b 3d
       -0.21914065 -0.15218966 -0.2424678 0.06812556
000180 7e 87 7f bd 81 3c 36 be 63 89 81 be 82 fe 24 be
       -0.062385075 -0.17796518 -0.2530013 -0.16112712
000190 6e fe 82 be ed 6f 9f 3e 32 c5 0d 3f ee 8d a7 be
       -0.2558474 0.3114008 0.5537902 -0.3272547
0001a0 1a e4 69 3e 61 99 45 be 53 d4 3d be 4a 0f 20 3f
       0.2284092 -0.1929679 -0.18538027 0.6252333
0001b0 97 cf 70 be 8a ee 8c be 3d be 60 3d 70 76 a5 3e
       -0.23516689 -0.2752574 0.054868925 0.32316923
0001c0 0f 20 31 be 12 ee 89 3e 36 8f 21 be 47 f0 4d be
       -0.17297386 0.26939446 -0.15777287 -0.2011119
0001d0 96 40 ff 3d 13 ef 52 3f 32 40 86 3d 57 4f cf 3c
       0.12463491 0.8239605 0.06555213 0.025306387
0001e0 8b d8 5f 3e a7 4e 8b be c2 91 66 be 4f cf 9a 3e
       0.21859948 -0.27208444 -0.2251654 0.3023629
0001f0 4f 67 8c 3e 10 72 2d be cc e2 53 be 93 e9 24 be
       0.27422568 -0.16938043 -0.20691985 -0.16104726
