SAC/target_critic2_v3.pth (torch, 46095 bytes, 7 tensors)

fc1.weight f4 [32, 11]
-0.7082828 0.3555258 0.5437313 0.35298836 0.14342144 0.13490655 -0.38125417 0.7361478
0.14313048 0.20917207 -0.118388936 -0.055927422 0.3244988 -0.27206844 0.10404443 -0.055286746
-0.08597375 0.19914246 0.35869896 0.6344075 -0.030674886 0.1399135 0.6725484 0.23055615
0.27814195 0.019424183 0.041122787 -0.11758311 -0.090185925 -0.52984226 -0.11486808 0.23712566
0.14551924 -0.3662927 0.0006127734 -0.043310966 0.06081784 -0.0066178697 -0.015006344 -0.11045054
-0.19709839 0.48264715 0.007726954 -0.088578954 0.7650997 -0.17562026 0.0866911 0.071003504
0.025153074 -0.15152909 0.3864481 -0.32049078 0.054492537 0.010564464 0.021628566 0.73067355
-0.20807317 0.596557 -0.1562035 0.042648554 0.045657616 -0.11160627 -0.5618821 -0.08947148
0.013063007 -0.013057317 -0.7450812 -0.09125348 0.06529944 -0.25558493 0.16633356 0.0077234656
0.27974352 -0.13876717 0.42717654 -0.11026031 0.01090803 0.2764272 0.26090458 0.06125712
0.50730264 0.022468667 0.14123772 -0.33820945 -0.48981488 -0.5266633 0.0829276 -0.09059471
-0.056698687 0.029395107 1.0713158 0.32372302 0.017926812 0.00468944 -0.081446335 -0.66699743
0.17269252 0.014304223 -0.003852404 -0.46374896 0.19666779 -0.17096698 -0.17840205 -0.08347997
-0.14891493 0.23574375 -0.6382071 -0.08588641 -0.15502034 -0.15186681 0.11923485 0.015568637
-0.34037462 -0.3426891 0.19542062 0.20977078 0.30066514 0.37119398 0.43194905 -0.06484139
-0.09468715 0.55138814 -0.19727476 0.07382011 -0.22732604 -0.17140768 -0.11130149 -0.05932568
-0.044277824 0.5980306 0.062173907 -0.046047024 0.59709716 -0.23936448 0.17838573 0.2130742
-0.045111846 -0.04568324 0.47732216 0.1913899 0.18686186 0.051140342 -0.012496707 -0.031445604
0.15959927 0.21626087 0.11477804 -0.0137100285 0.04655846 -0.040402967 -0.25109175 0.5627813
0.08509083 -0.13621104 0.78754264 -0.03752859 0.26948357 -0.14202842 0.12312154 0.011581068
-0.085135795 -0.68318504 0.0069902604 -0.45614165 -0.01908061 -0.012325031 -0.01005833 -0.3342015
0.2846245 0.013561856 -0.020407198 0.31845722 -0.0825773 0.3396285 0.013556247 -0.005598977
0.7590756 0.095919415 0.8037133 -0.045258984 0.03648416 -0.02518101 -0.55300635 -0.26087713
0.056363143 -0.017275805 0.021193821 0.13181481 -0.8464519 0.14016683 -0.25237593 0.059100818
0.0009937477 -0.063326396 0.22569041 0.1726858 -0.013347052 0.27077588 0.49095088 0.020495532
-0.62607986 0.0895861 -0.04485689 -0.008529684 0.26626152 0.4655833 -0.07781953 -0.008273683
0.012419142 0.26569244 -0.38166898 0.073113866 -0.25374144 -0.08473129 -0.12082672 -0.2210696
-0.04118074 0.12727131 0.08337627 -0.06726348 -0.7381938 -0.08006229 -0.61876345 0.045685403
8.539028e-05 0.008847488 1.0220941 0.22453669 -0.041475885 -0.01689505 0.008092515 -0.36149427
0.61012745 0.60315514 0.20517689 0.07660465 0.10236578 0.37087268 0.018875614 -0.18678717
-0.18133512 0.19606553 -0.52523535 0.33847836 -0.23435242 -0.40129855 -0.07332885 -0.027148327
0.026237963 -0.27834475 0.1913852 0.03170661 0.12228717 -1.2785189 0.06680008 -0.68963933
00000000: 0652 35bf 7a07 b63e f931 0b3f e4ba b43e
00000010: 12dd 123e f124 0a3e bf33 c3be 2f74 3c3f
00000020: cc90 123e 3431 563e e675 f2bd 2714 65bd
00000030: b524 a63e 8e4c 8bbe 3f15 d53d 5b74 62bd
00000040: 0113 b0bd 00ec 4b3e 64a7 b73e 8868 223f
00000050: e649 fbbc 7c45 0f3e 222c 2c3f e916 6c3e
00000060: 9f68 8e3e 771f 9f3c 5e70 283d 6acf f0bd
00000070: 66b3 b8bd bea3 07bf f53f ebbd 12d1 723e
00000080: ff02 153e b78a bbbe 87a2 203a d766 31bd
00000090: 211c 793d b7da d8bb 2bdd 75bc e533 e2bd
000000a0: 29d4 49be 871d f73e 6332 fd3b e268 b5bd
000000b0: 93dd 433f ccd5 33be 1a8b b13d 496a 913d
000000c0: d20d ce3c 712a 1bbe 86dc c53e 5e17 a4be
000000d0: 9133 5f3d 9316 2d3c 642e b13c 6c0d 3b3f
000000e0: 2211 55be f6b7 183f cff3 1fbe 40b0 2e3d
000000f0: 7b03 3b3d d491 e4bd 81d7 0fbf d33c b7bd
00000100: 3906 563c 5bee 55bc a4bd 3ebf 1be3 babd
00000110: b6bb 853d 07dc 82be 5853 2a3e 2015 fd3b
00000120: 8b3a 8f3e fb18 0ebe e2b6 da3e 28d0 e1bd
00000130: 98b7 323c de87 8d3e 4995 853e bfe8 7a3d
00000140: 96de 013f 3610 b83c 9fa0 103e ca29 adbe
00000150: 04c9 fabe 68d3 06bf f2d5 a93d b889 b9bd
00000160: e23c 68bd 02ce f03c e020 893f 06bf a53e
00000170: 40db 923c e0a9 993b 56cd a6bd 58c0 2abf
00000180: 4fd6 303e 425c 6a3c 9d78 7cbb 8170 edbe
00000190: 4863 493e f811 2fbe 07af 36be 8cf7 aabd
000001a0: 287d 18be cf66 713e 8a61 23bf 37e5 afbd
000001b0: a7bd 1ebe f982 1bbe 6731 f43d 9913 7f3c
000001c0: 9545 aebe f274 afbe 581c 483e 27ce 563e
000001d0: c8f0 993e 230d be3e 6d28 dd3e 90cb 84bd
000001e0: 56eb c1bd c627 0d3f 6502 4abe ff2e 973d
000001f0: 28c8 68be 7f85 2fbe 09f2 e3bd 7cff 72bd
00000200: aa5c 35bd 8918 193f 11aa 7e3d ce9b 3cbd
00000210: 5cdb 183f f61b 75be c0aa 363e 2030 5a3e
00000220: 33c7 38bd 591e 3bbd 9263 f43e b7fb 433e
00000230: b758 3f3e 8978 513d fdbe 4cbc 1bcd 00bd
00000240: fe6d 233e 7d73 5d3e c010 eb3d 07a0 60bc
00000250: 15b4 3e3d 957d 25bd 198f 80be 6f12 103f
00000260: 1a44 ae3d e87a 0bbe 659c 493f 94b7 19bd
00000270: c0f9 893e e66f 11be 2527 fc3d 85be 3d3c
00000280: ad5b aebd 37e5 2ebf 8e0e e53b 668b e9be
00000290: f04e 9cbc edee 49bc b2cb 24bc 761c abbe
000002a0: 4dba 913e 8c32 5e3c ff2c a7bc d30c a33e
000002b0: 4a1e a9bd c9e3 ad3e 051b 5e3c a077 b7bb
000002c0: c752 423f 6671 c43d 28c0 4d3f 7c61 39bd
000002d0: 6a70 153d 6848 cebc d391 0dbf b091 85be
000002e0: 0add 663d fd85 8dbc aa9e ad3c 76fa 063e
000002f0: 12b1 58bf e587 0f3e 6b37 81be b313 723d
00000300: a440 823a 45b1 81bd 631b 673e 8cd4 303e
00000310: 98ad 5abc 23a3 8a3e ea5d fb3e 3fe6 a73c
00000320: c546 20bf eb78 b73d dcbb 37bd 16c0 0bbc
00000330: 6e53 883e ef60 ee3e d95f 9fbd 578e 07bc
00000340: a879 4b3c d708 883e 1e6a c3be b9bc 953d
00000350: 66ea 81be 9987 adbd 0074 f7bd 1260 62be
00000360: 23ad 28bd 6953 023e 2ec1 aa3d 6fc1 89bd
00000370: 45fa 3cbf b3f7 a3bd 4867 1ebf 9e20 3b3d
00000380: 8f13 b338 0ef5 103c fbd3 823f f2ec 653e
00000390: 9ee2 29bd 7d67 8abc 7896 043c c715 b9be
000003a0: 5031 1c3f 6068 1a3f e419 523e e6e2 9c3d
000003b0: 26a5 d13d 06e3 bd3e 08a1 9a3c 2345 3fbe
000003c0: eaaf 39be 67c5 483e d375 06bf 094d ad3e
000003d0: 15fa 6fbe 0177 cdbe 702d 96bd 2b66 debc
000003e0: fff0 d63c 3483 8ebe 7bfa 433e cade 013d
000003f0: b271 fa3d 82a6 a3bf 7bce 883d 348c 30bf

fc1.bias f4 [32]
0.2662391 0.598947 0.07150849 0.43701807 -0.12415483 0.30479532 -0.018287253 -0.5567589
-0.0076761325 0.3186903 0.6330666 0.08221872 0.1873297 0.4052659 -0.046701774 0.08858835
0.48219836 0.30654874 -0.01638761 0.017791213 0.30650654 -0.35110453 0.21163115 0.12920904
0.5765685 0.5797294 0.13482562 -0.14130728 0.52966046 -0.30636546 -0.35793015 0.5953502
00000000: 7e50 883e 9754 193f 0b73 923d d5c0 df3e
00000010: e344 febd 220e 9c3e 26cf 95bc c087 0ebf
00000020: 1188 fbbb 602b a33e a710 223f 4a62 a83d
00000030: 5bd3 3f3e 037f cf3e 5c4a 3fbd cf6d b53d
00000040: b4e2 f63e f5f3 9c3e 4f3f 86bc e1be 913c
00000050: 6dee 9c3e f9c3 b3be d6b5 583e 604f 043e
00000060: fe99 133f 2569 143f ba0f 0a3e dbb2 10be
00000070: d497 073f efdb 9cbe 9f42 b7be df68 183f

fc2.weight f4 [64, 32]
0.3680218 0.061306037 0.17685223 0.09564593 -0.15065426 0.010598173 0.2107937 -0.29623
0.42312273 0.15518752 -0.022832302 0.23969027 0.31884542 0.2718587 0.09896439 0.21879439
0.18168247 -0.21764858 0.2089817 0.16091527 0.42102945 0.15154594 -0.09897473 0.1784928
-0.027738025 -0.035943337 0.21849003 0.02179436 0.1562878 -0.08783578 0.08315046 0.42115474
-0.0072425464 -0.068047814 0.20427246 0.008499731 0.03018781 0.2617599 -0.33974943 -0.32469022
0.23634034 -0.3779318 0.058086645 0.15246378 -0.06808741 -0.10362273 0.300735 -0.24245556
0.44153976 -0.3949991 0.38554645 0.09858482 -0.033215374 -0.104055 -0.14968464 -0.108393006
0.25473562 -0.04947765 0.21444239 0.089091085 -0.00015895366 0.006020906 0.2251373 0.1396068
-0.14016907 0.47703344 -0.1255017 0.25845578 -0.16264904 0.055935536 0.25513393 -0.07803088
0.091554984 0.19816047 0.43176886 0.24632333 -0.016378224 0.3743166 0.06907363 0.073328465
-0.21107677 -0.08166994 0.12570748 0.01952774 -0.1388487 -0.14205751 0.18380529 -0.31553894
-0.29914755 0.21968482 0.18660201 0.0010275003 0.078806065 0.10580814 0.019971136 0.3265325
0.17590167 0.08114323 0.13366726 -0.32038873 -0.086828776 -0.089858934 0.026089815 0.18397364
0.18051955 0.45828715 -0.26121017 -0.044468276 -0.29823062 0.01611739 0.17932744 -0.6469226
-0.102585286 -0.06738498 0.38920528 -0.45080677 -0.12735812 -0.175401 -0.132125 -0.10635229
-0.070256434 -0.19145106 -0.084896095 -0.11351305 0.053492423 0.21146332 -0.09741383 -0.21226352
0.1275946 0.30137897 -0.26369032 0.19908687 -0.21731888 -0.18566662 0.04209202 0.2324649
-0.2976874 0.19400753 0.18034829 -0.37478045 0.24466082 0.06388726 -0.49252218 0.067541435
-0.1967518 0.37705863 -0.14822634 -0.24144068 0.16569561 -0.14586687 0.0232402 0.23657994
0.15704376 -0.031309385 -0.34941995 -0.041700296 -0.038221285 0.10649759 0.049256492 0.11977874
0.26209828 0.19842708 0.18124096 0.09868446 -0.112688795 0.12053743 -0.06494796 -0.25153
0.442198 0.05231764 0.24354361 0.28589028 0.0812866 0.12013011 0.12826447 -0.10991793
0.026133643 -0.19562683 0.19772078 0.19030929 0.23201054 0.14599617 0.12318694 -0.07227249
-0.01958325 0.19413249 0.12049129 -0.13405487 0.09110606 0.18245429 0.068353064 0.25941586
-0.64027 0.19018205 -0.24068393 0.15143713 0.12929322 0.107416734 -0.09688637 -0.631494
0.6470379 -0.11609056 0.14323235 0.15468854 0.03087164 0.3481146 -0.32811075 -0.08114345
-0.098660275 -0.09464506 0.117266335 0.076392815 0.28814235 -0.54373926 -0.18599458 -0.07425129
0.12968644 0.12038953 0.1323374 -0.1788615 -0.01548304 0.27166948 -0.31940177 0.37396488
0.07889313 0.1724975 -0.11310272 -0.42692798 -0.10640832 -0.29130268 -0.1991991 0.182627
0.17789803 -0.058198627 0.06872565 -0.010874106 0.1435318 0.006662009 0.024770802 -0.019164706
-0.0075496337 0.29743007 0.22506833 -0.37050995 -0.24523698 0.21397209 -0.24798042 -0.10624279
-0.5535887 -0.42765895 0.16469015 0.10366561 0.021764101 0.2510893 0.37482423 0.24938455
00000000: 5a6d bc3e 0a1c 7b3d c018 353e 03e2 c33d
00000010: 1c45 1abe f6a3 2d3c 4eda 573e 75ab 97be
00000020: 8ba3 d83e 7ae9 1e3e cf0a bbbc 5e71 753e
00000030: b53f a33e 1031 8b3e d8ad ca3d a30b 603e
00000040: f80a 3a3e 45df 5ebe 4cff 553e f9c6 243e
00000050: 2c91 d73e dc2e 1b3e 43b3 cabd d1c6 363e
00000060: db3a e3bc 5239 13bd dabb 5f3e 168a b23c
00000070: e909 203e 3fe3 b3bd ca4a aa3d 98a1 d73e
00000080: e252 edbb a75c 8bbd cd2c 513e 7542 0b3c
00000090: 6d4c f73c 6505 863e a3f3 adbe cc3d a6be
000000a0: 3403 723e 4780 c1be 43ec 6d3d 771f 1c3e
000000b0: 6971 8bbd 2738 d4bd f0f9 993e 4546 78be
000000c0: 8011 e23e 523d cabe 5866 c53e d7e6 c93d
000000d0: d80c 08bd ca1a d5bd ee46 19be 27fd ddbd
000000e0: b56c 823e 14a9 4abd c996 5b3e 6375 b63d
000000f0: ccac 26b9 054b c53b 648a 663e 16f5 0e3e
00000100: 7b88 0fbe ba3d f43e 8583 00be 5154 843e
00000110: 788d 26be a91c 653d eaa0 823e a7ce 9fbd
00000120: 2e81 bb3d 94ea 4a3e cf10 dd3e 2f3c 7c3e
00000130: a02b 86bc 6da6 bf3e 7a76 8d3d 3c2d 963d
00000140: 8224 58be 9242 a7bd 76b9 003e a4f8 9f3c
00000150: 5b2e 0ebe 8677 11be 7437 3c3e 528e a1be
00000160: de29 99be 0ff5 603e 9914 3f3e 30ad 863a
00000170: 1365 a13d f0b1 d83d 829a a33c 452f a73e
00000180: 911f 343e 6c2e a63d 12e0 083e fe09 a4be
00000190: 49d3 b1bd f607 b8bd 4fba d53c 9663 3c3e
000001a0: 1eda 383e 9da4 ea3e 57bd 85be 5e24 36bd
000001b0: afb1 98be 9e08 843c 9da1 373e b89c 25bf
000001c0: 3c18 d2bd 2301 8abd ea45 c73e 25d0 e6be
000001d0: 2b6a 02be 529c 33be c74b 07be 3bcf d9bd
000001e0: 9be2 8fbd bf0b 44be 01de adbd 8879 e8bd
000001f0: df1a 5b3d d789 583e e780 c7bd 9c5b 59be
00000200: 29a8 023e 584e 9a3e 6b02 87be 6edd 4b3e
00000210: d788 5ebe 641f 3ebe af68 2c3d 470b 6e3e
00000220: 7c6a 98be e9a9 463e 39ad 383e 39e3 bfbe
00000230: 5e88 7a3e 53d7 823d de2b fcbe 2a53 8a3d
00000240: 4e79 49be d40d c13e a5c8 17be 3a3c 77be
00000250: 1cac 293e 205e 15be 3b62 be3c 0342 723e
00000260: 14d0 203e 453e 00bd 2ce7 b2be eecd 2abd
00000270: ec8d 1cbd 691b da3d 2dc1 493d 8e4e f53d
00000280: bf31 863e 7830 4b3e 3b97 393e 141b ca3d
00000290: 62c9 e6bd 54dc f63d 7003 85bd 8ac8 80be
000002a0: c767 e23e 064b 563d 7f63 793e 3660 923e
000002b0: 9779 a63d c606 f63d c357 033e a71c e1bd
000002c0: 3916 d63c 6652 48be 5177 4a3e 70e0 423e
000002d0: 2c94 6d3e 0580 153e 6f49 fc3d 9903 94bd
000002e0: 0d6d a0bc abca 463e 23c4 f63d ae45 09be
000002f0: d095 ba3d 4cd5 3a3e b1fc 8b3d 28d2 843e
00000300: bce8 23bf 15bf 423e d975 76be 5612 1b3e
00000310: 7165 043e 4efd db3d 5c6c c6bd 97a9 21bf
00000320: 47a4 253f e3c0 edbd 80ab 123e ac66 1e3e
00000330: 86e6 fc3c 143c b23e 22fe a7be 8a2e a6bd
00000340: 660e cabd 45d5 c1bd 5529 f03d d673 9c3d
00000350: 6587 933e 7f32 0bbf 5d75 3ebe 0f11 98bd
00000360: 86cc 043e c98e f63d 7583 073e 7827 37be
00000370: 94ac 7dbc 4318 8b3e a188 a3be 5378 bf3e
00000380: b992 a13d 2fa3 303e 66a2 e7bd 4e96 dabe
00000390: 9bec d9bd a025 95be d9fa 4bbe 9302 3b3e
000003a0: e72a 363e af61 6ebd 09c0 8c3d 4e29 32bc
000003b0: 00fa 123e fb4c da3b 23ec ca3c 4dff 9cbc
000003c0: eb62 f7bb c148 983e 5078 663e 7bb3 bdbe
000003d0: 671f 7bbe 801b 5b3e 94ee 7dbe d295 d9bd
000003e0: fdb7 0dbf 1df6 dabe 89a4 283e a34e d43d
000003f0: a14a b23c c78e 803e f6e8 bf3e aa5e 7f3e

fc2.bias f4 [64]
0.21502027 -0.0024083876 0.3594801 -0.1287946 0.118118905 0.30887592 0.3321731 0.1153425
0.22254755 0.51918614 0.3574913 -0.04795478 0.036226805 -0.23759176 -0.2756739 0.18685272
0.17138438 0.0186882 0.3202431 -0.041825462 0.35792294 0.4752233 0.2709985 0.46190858
0.40784082 0.35559517 0.11672087 0.41668725 -0.26397803 0.25052088 0.24270001 0.23247458
-0.11996605 0.21750012 0.29862258 0.26367834 0.49511325 0.19409241 0.29322383 0.15009242
0.022091689 0.15267563 0.18858115 0.4229502 0.31972247 0.29788393 0.15568127 0.17913747
0.2664974 0.34513113 0.34568474 0.30253148 0.3759111 0.016572243 -0.13809447 -0.07663899
0.17554364 0.1963846 0.4059541 0.3403336 -0.0056518395 -0.01625745 -0.14465839 0.17081223
00000000: 462e 5c3e 0ad6 1dbb c70d b83e bbe2 03be
00000010: 53e8 f13d fc24 9e3e 9812 aa3e b038 ec3d
00000020: 81e3 633e 62e9 043f 1a09 b73e 3b6c 44bd
00000030: 8f62 143d 414b 73be 2125 8dbe 5256 3f3e
00000040: 637f 2f3e ff17 993c e7f6 a33e 2d51 2bbd
00000050: ad41 b73e 7850 f33e 51c0 8a3e 487f ec3e
00000060: 83d0 d03e 9210 b63e 5a0b ef3d 0858 d53e
00000070: 2128 87be 4644 803e 5a86 783e d10d 6e3e
00000080: c3b0 f5bd 5ab8 5e3e 0fe5 983e d900 873e
00000090: 7c7f fd3e 29c0 463e 6f21 963e d4b1 193e
000000a0: a1f9 b43c 0057 1c3e 6b1b 413e ee8c d83e
000000b0: aab2 a33e 3e84 983e e96a 1f3e d06f 373e
000000c0: 5972 883e 07b5 b03e 97fd b03e 68e5 9a3e
000000d0: 6b77 c03e 83c2 873c a368 0dbe e7f4 9cbd
000000e0: b6c1 333e 0b19 493e 37d9 cf3e 3540 ae3e
000000f0: 1133 b9bb 582e 85bc 5421 14be 67e9 2e3e

fc3.weight f4 [128, 64]
-0.04145563 -0.005422515 -0.09617182 -0.19223039 -0.15008688 0.056963652 0.009322408 0.067054175
-0.10307181 -0.07373586 -0.080553144 0.09309993 -0.044118844 0.026819602 0.10757866 0.058102846
-0.07346839 0.010030679 0.045641366 0.1256143 -0.1536274 0.021976532 0.0012680842 0.06316124
0.029041179 -0.048197668 -0.062447287 -0.18997584 0.0731577 0.09345085 -0.18509719 0.1267412
-0.0032023208 -0.14616042 0.098963544 -0.21156019 -0.062839195 -0.12097408 -0.14192104 0.11088672
0.06994201 -0.10273951 -0.11662368 -0.01562747 -0.099715315 0.006439706 0.16361564 -0.042952824
0.09737657 -0.096387886 -0.24762103 -0.08747549 0.08189723 0.17954054 -0.09846064 -0.052891165
-0.040732548 0.057715416 -0.052597612 -0.003422486 -0.05227239 0.19243601 -0.13888119 0.19102636
-0.01611646 0.07343038 -0.278123 -0.32461467 0.17463656 -0.019642266 -0.38476476 -0.26578778
-0.18126757 -0.118677065 0.34859958 0.25387877 0.11457551 0.053787094 -0.08023129 0.06411566
-0.03460891 0.11598143 -0.15070081 0.087831624 0.10731938 -0.019490086 -0.1253081 -0.17331633
0.10796758 0.074952535 0.19877198 -0.059199207 0.14235912 -0.8935788 -0.06676584 0.08194566
0.2049679 -0.0026537713 -0.20073299 -0.026754968 0.0020689233 0.08573949 0.090100326 0.11156696
0.18383653 -0.039033815 -0.11959647 0.07342964 -0.2974975 0.0523577 -0.29858828 -0.10312992
-1.1526893 -0.03685862 0.06395845 -0.04927316 -0.016947387 0.33706605 0.094601974 0.16938686
-0.34089866 -0.17677936 -0.09378316 0.18237026 -0.31327787 0.2098972 -0.6151473 -0.12230177
0.1595624 0.2723089 0.23332538 0.4448284 0.39190573 0.079534404 0.4371155 0.46179792
0.43782485 0.21372584 0.43737778 -0.28526065 0.06911723 -0.60220534 -0.37884068 0.21854956
0.2738019 0.17564572 0.1909887 -0.41069615 0.27216232 0.25631645 0.11968708 0.28330475
0.27969748 0.10331421 0.37809506 0.282768 -0.42158094 0.5353084 0.060834993 0.31952143
-0.29854634 0.17947134 0.1786744 0.25723195 0.0899415 0.051195115 0.15384866 0.17055584
0.3471124 0.098105825 0.26824623 0.17252934 0.34883443 0.11909958 0.33635718 0.19615228
0.6910246 0.23497532 0.26349282 0.14228119 0.27981493 0.786221 0.062215295 0.75151134
0.15798068 0.3368193 0.27033377 0.29114756 0.15997681 -0.69970024 0.58536285 0.35996673
0.13004525 0.3299632 -0.1922421 -0.48133925 0.123072416 -0.08169044 0.35279408 0.10953694
-0.81995076 -0.15505745 -0.38700974 -0.06523921 -0.07504045 -0.15769352 -0.20217097 0.113691166
-0.032195397 -0.006775707 -0.10327975 -1.4182243 -0.6169723 0.12948349 0.050924312 0.07527902
0.24646607 -0.03905265 0.09213834 -0.04835721 0.71377975 0.4067348 -0.10040584 0.21894208
0.1941459 -0.36313447 0.0326587 -0.06983016 0.019804161 0.24012876 0.088792145 0.029647583
-0.57920134 0.07974294 -0.047840767 0.064194635 0.09282681 0.08641077 -0.011385113 -0.26154032
0.41601214 -0.044045586 0.10393345 0.024272108 0.11290639 -0.17843154 0.5054011 -0.3969509
-2.5864956 0.0779738 0.069851585 0.02938056 -0.20912051 0.6706681 -0.012367928 -0.10256187
00000000: 61cd 29bd 5aaf b1bb bbf5 c4bd 0bd8 44be
00000010: 60b0 19be b852 693d 03bd 183c b353 893d
00000020: 5017 d3bd d402 97bd 0cf9 a4bd 2dab be3d
00000030: f6b5 34bd c8b4 db3c 3352 dc3d 40fd 6d3d
00000040: 9876 96bd b857 243c 71f2 3a3d 09a1 003e
00000050: 8050 1dbe 2108 b43c d835 a63a ae5a 813d
00000060: c4e7 ed3c eb6a 45bd bac8 7fbd 0789 42be
00000070: b4d3 953d 2963 bf3d 1e8a 3dbe 72c8 013e
00000080: 07de 51bb 14ab 15be 66ad ca3d 3ca3 58be
00000090: d6b1 80bd 42c1 f7bd c053 11be 9418 e33d
000000a0: c23d 8f3d 1869 d2bd 65d8 eebd 2e05 80bc
000000b0: 8b37 ccbd 2b04 d33b dc8a 273e 4def 2fbd
000000c0: 5e6d c73d 0367 c5bd 5e90 7dbe 5a26 b3bd
000000d0: bcb9 a73d 7ad9 373e bba5 c9bd 68a4 58bd
000000e0: 2cd7 26bd 0067 6c3d 9870 57bd c94b 60bb
000000f0: 931b 56bd f20d 453e df36 0ebe 6a9c 433e
00000100: ab06 84bc ab62 963d 2366 8ebe e533 a6be
00000110: edd3 323e d1e8 a0bc e3ff c4be 5615 88be
00000120: 359e 39be f60c f3bd a57b b23e 66fc 813e
00000130: 91a6 ea3d db4f 5c3d 4d50 a4bd 124f 833d
00000140: 13c2 0dbd ac87 ed3d 5051 1abe 11e1 b33d
00000150: 43ca db3d aca9 9fbc c450 00be d679 31be
00000160: 1b1e dd3d b780 993d e28a 4b3e de7a 72bd
00000170: 97c6 113e 95c1 64bf 87bc 88bd 20d3 a73d
00000180: 1be3 513e e5ea 2dbb f38c 4dbe 3c2d dbbc
00000190: c696 073b 3098 af3d 8586 b83d 387d e43d
000001a0: a53f 3c3e ece1 1fbd feee f4bd 4762 963d
000001b0: 9851 98be 0775 563d 90e0 98be c835 d3bd
000001c0: 538b 93bf 10f9 16bd a6fc 823d a7d2 49bd
000001d0: 3fd5 8abc ec93 ac3e aebe c13d c073 2d3e
000001e0: 458a aebe a605 35be 6311 c0bd 45bf 3a3e
000001f0: f565 a0be 4bef 563e 4b7a 1dbf 5a79 fabd
00000200: 5364 233e 126c 8b3e d9ec 6e3e 8cc0 e33e
00000210: dea7 c83e efe2 a23d 9acd df3e c770 ec3e
00000220: 942a e03e f2da 5a3e fbef df3e af0d 92be
00000230: 568d 8d3d 212a 1abf 68f7 c1be 75cb 5f3e
00000240: c32f 8c3e 79dc 333e 8b92 433e c446 d2be
00000250: dc58 8b3e e93b 833e 801e f53d 520d 913e
00000260: 8234 8f3e 6796 d33d ad95 c13e f8c6 903e
00000270: 75d9 d7be f909 093f 1d2e 793d 5098 a33e
00000280: 11db 98be 56c7 373e 6cf6 363e e8b3 833e
00000290: 4033 b83d f8b1 513d 818a 1d3e 31a6 2e3e
000002a0: b7b8 b13e b5eb c83d 9257 893e 88ab 303e
000002b0: 6d9a b23e 7bea f33d 0237 ac3e 25dc 483e
000002c0: fde6 303f 5f9d 703e 88e8 863e 29b2 113e
000002d0: e743 8f3e c845 493f 77d5 7e3d 0c63 403f
000002e0: b0c5 213e 9473 ac3e 3069 8a3e 4b11 953e
000002f0: f6d0 233e 8e1f 33bf 57da 153f 8f4d b83e
00000300: 952a 053e f0f0 a83e 1ddb 44be 1972 f6be
00000310: 640d fc3d 514d a7bd 6da1 b43e e754 e03d
00000320: 4be8 51bf 61c7 1ebe 2426 c6be 239c 85bd
00000330: cfae 99bd 697a 21be e805 4fbe ead6 e83d
00000340: 52df 03bd c006 debb 5584 d3bd 6088 b5bf
00000350: e6f1 1dbf 5297 043e 0396 503d e32b 9a3d
00000360: 9a61 7c3e acf5 1fbd 07b3 bc3d 3612 46bd
00000370: 45ba 363f 8b3f d03e 94a1 cdbd 5a32 603e
00000380: 2fce 463e c3ec b9be 21c5 053d 1d03 8fbd
00000390: 563c a23c 50e4 753e a8d8 b53d 7ddf f23c
000003a0: 8a46 14bf 4450 a33d aef4 43bd 7a78 833d
000003b0: fc1b be3d 21f8 b03d a088 3abc 9de8 85be
000003c0: 8bff d43e 2569 34bd 10db d43d 4dd6 c63c
000003d0: 773b e73d c2b6 36be f761 013f 263d cbbe
000003e0: 2589 25c0 bab0 9f3d 590e 8f3d 80af f03c
000003f0: b023 56be e8b0 2b3f daa2 4abc f50b d2bd

fc3.bias f4 [128]
-0.020233283 -0.10836694 0.44304636 -0.13732913 0.057819728 0.33552897 -0.10332148 -0.14851034
0.06336465 0.017707095 0.41835594 0.29082146 -0.10908741 0.3962836 0.040300786 0.3891295
-0.02154198 0.26076162 0.002533749 0.4174994 0.44242764 0.28984445 -0.092629805 -0.029187584
-0.054594737 0.4891609 -0.07530421 -0.05615713 -0.15250485 -0.22523053 -0.16056909 0.38832334
0.26758817 0.27161682 0.2950953 0.45643014 0.27503115 -0.15742522 -0.20037436 -0.16183646
-0.05241673 0.30448225 0.022029432 0.24579908 -0.014374373 0.42225286 0.28482234 -0.1180232
0.47779787 0.31520376 0.3760403 0.44119784 0.38414803 -0.1238582 0.27312785 0.061466414
-0.060070924 0.051598486 0.015102108 0.24567123 0.2689641 0.38945094 0.36719644 0.37523872
0.32131547 0.41540366 0.045617525 0.3644542 -0.17746705 0.3527788 -0.042606015 0.2113869
0.46929005 0.33026347 0.23632905 0.014437175 -0.12062176 0.29089808 0.3061756 0.3457548
0.43299088 0.006229081 0.34523064 0.2964328 0.23376723 -0.064001806 0.49578515 -0.09177448
0.24714996 -0.1032469 -0.15491135 0.3266136 0.42560306 -0.11594642 0.26867044 -0.06709888
0.34202498 0.24484992 -0.01842372 -0.08461297 0.047653403 -0.08996026 0.29878232 -0.13752519
-0.06370208 -0.14359875 0.42797494 -0.15698038 -0.13491748 0.31787968 -0.0121427355 0.4740458
-0.040653855 0.33214557 -0.0743058 -0.13053547 0.2811232 0.33712074 -0.061075635 -0.12751459
-0.038041078 0.21930563 0.30440557 0.33686107 -0.026442043 0.32286912 0.41952544 0.09972657
00000000: 45c0 a5bc 7cef ddbd f9d6 e23e 02a0 0cbe
00000010: 61d4 6c3d 74ca ab3e 369a d3bd 1813 18be
00000020: 53c5 813d 780e 913c c032 d63e 8de6 943e
00000030: 3869 dfbd afe5 ca3e 7012 253d fb3b c73e
00000040: ce78 b0bc 8c82 853e 410d 263b 7bc2 d53e
00000050: e085 e23e 7e66 943e b2b4 bdbd cd1a efbc
00000060: bb9e 5fbd 4c73 fa3e 1839 9abd 0505 66bd
00000070: 3b2a 1cbe d5a2 66be 396c 24be 51d2 c63e
00000080: 5101 893e 5c11 8b3e bb16 973e 36b1 e93e
00000090: e2d0 8c3e 1434 21be f02e 4dbe 75b8 25be
000000a0: edb2 56bd 19e5 9b3e 1177 b43c c1b2 7b3e
000000b0: 7d82 6bbc 8731 d83e 3cd4 913e 26b6 f1bd
000000c0: eca1 f43e 6362 a13e 5b88 c03e afe4 e13e
000000d0: 0daf c43e 5ea9 fdbd 6ad7 8b3e 35c4 7b3d
000000e0: ee0c 76bd ef58 533d d56e 773c 3d91 7b3e
000000f0: aab5 893e 1d66 c73e 2c01 bc3e 4a1f c03e
00000100: 7683 a43e caaf d43e 71d9 3a3d be99 ba3e
00000110: ecb9 35be 6c9f b43e a583 2ebd cf75 583e
00000120: c946 f03e 4b18 a93e 3e00 723e e789 6c3c
00000130: 8b08 f7bd 98f0 943e 0cc3 9c3e c606 b13e
00000140: fbb0 dd3e 521d cc3b 12c2 b03e 0ac6 973e
00000150: ad60 6f3e 6113 83bd 8dd7 fd3e 42f4 bbbd
00000160: e114 7d3e 1c73 d3bd 15a1 1ebe e639 a73e
00000170: a5e8 d93e 5175 edbd 2c8f 893e 236b 89bd
00000180: e61d af3e f0b9 7a3e 57ed 96bc 9149 adbd
00000190: 3730 433d 163d b8bd fff9 983e 67d3 0cbe
000001a0: 3c76 82bd 8d0b 13be 881f db3e 77bf 20be
000001b0: cf27 0abe 20c1 a23e 53f2 46bc 22b6 f23e
000001c0: a884 26bd fc0e aa3e a42d 98bd 17ab 05be
000001d0: 61ef 8f3e 179b ac3e 722a 7abd 2f93 02be
000001e0: f6d0 1bbd a891 603e 0cdb 9b3e 0e79 ac3e
000001f0: fc9c d8bc 1a4f a53e 0acc d63e 723d cc3d

v.weight f4 [1, 128]
0.30549344 -0.0020203085 -0.35341895 0.7367731 0.06185571 -0.29717857 0.29108906 0.45658243
0.01743242 0.4108444 -0.31138912 -0.33929583 0.049368896 -0.29989046 0.1673618 -0.3167179
-0.019255765 -0.32681695 0.7340496 -0.30760798 -0.45481643 -0.3510326 0.5019774 0.08097262
0.036417544 -0.29720396 0.039741993 0.38865393 0.891536 0.31652927 0.4289866 -0.28513056
-0.29833966 -0.30125308 -0.2974489 -0.30157351 -0.27778172 0.5554306 0.7044221 0.43847752
0.69806606 -0.36918148 0.4376788 -0.30568933 0.86871165 -0.3175743 -0.33906758 0.4754215
-0.30565804 -0.29964933 -0.30346686 -0.30607337 -0.27754948 0.5434369 -0.3572541 0.23613222
-0.0016638152 0.01112452 0.0005626504 -0.2998527 -0.2968853 -0.32402447 -0.30232278 -0.32923797
-0.2754106 -0.38549677 0.017183755 -0.39439777 1.2300203 -0.31424055 0.589536 -0.34780917
-0.34112892 -0.40713382 -0.30802 0.5197245 0.52301496 -0.3194686 -0.31067565 -0.32077402
-0.29735878 0.3611942 -0.31335628 -0.3320775 -0.28132567 0.51327825 -0.39519516 0.029709872
-0.2874603 -0.008885805 0.55225194 -0.4022088 -0.2805791 0.6125366 -0.37375924 0.50400394
-0.2952402 -0.34312576 0.029653434 0.4060257 0.06560057 0.34248412 -0.29984504 0.5169188
0.43236625 0.8765377 -0.36904708 0.63167393 0.41408727 -0.29570517 0.0015327779 -0.26858872
0.9001552 -0.29299086 1.0044057 0.3873636 -0.29079086 -0.3501128 0.3072488 0.0683841
0.45588028 -0.3573924 -0.3487336 -0.27741018 0.025892003 -0.36224186 -0.31326663 -1.1241515
00000000: a369 9c3e 2767 04bb 54f3 b4be 299d 3c3f
00000010: 6a5c 7d3d ca27 98be a009 953e 2cc5 e93e
00000020: 6fce 8e3c 325a d23e 656e 9fbe 2fb8 adbe
00000030: 0a37 4a3d 3e8b 99be e460 2b3e d928 a2be
00000040: 44be 9dbc 8d54 a7be adea 3b3f cb7e 9dbe
00000050: b3dd e8be 8cba b3be 9781 003f f9d4 a53d
00000060: 902a 153d 1e2b 98be 80c8 223d a6fd c63e
00000070: b43b 643f 2010 a23e 22a4 db3e a2fc 91be
00000080: fabf 98be d83d 9abe 394b 98be d867 9abe
00000090: 6839 8ebe b330 0e3f 0255 343f 2080 e03e
000000a0: 75b4 323f 5b05 bdbe 7017 e03e 5083 9cbe
000000b0: e363 5e3f 1999 a2be 449a adbe 726a f33e
000000c0: 367f 9cbe a36b 99be 0260 9bbe a6b5 9cbe
000000d0: f71a 8ebe ae1e 0b3f 02ea b6be a5cc 713e
000000e0: 6014 daba 9e43 363c d47e 133a 4b86 99be
000000f0: 5a01 98be 89e6 a5be 0dca 9abe e191 a8be
00000100: 9e02 8dbe d55f c5be f2c4 8c3c 81ee c9be
00000110: 4e71 9d3f 23e4 a0be d5eb 163f 0b14 b2be
00000120: 73a8 aebe d873 d0be ccb4 9dbe aa0c 053f
00000130: 4fe4 053f 6391 a3be e110 9fbe 7e3c a4be
00000140: 693f 98be 72ee b83e 3c70 a0be 1006 aabe
00000150: eb09 90be 3466 033f 0557 cabe 1e62 f33c
00000160: ff2d 93be c495 11bc 6260 0d3f 50ee cdbe
00000170: 10a8 8fbe 33cf 1c3f 5f5d bfbe 6706 013f
00000180: b929 97be 2eae afbe c2eb f23c 9ae2 cf3e
00000190: 9759 863d 145a af3e 4a85 99be ca54 043f
000001a0: 1c5f dd3e c664 603f bdf3 bcbe 62b5 213f
000001b0: 3f03 d43e ab66 97be 7ee7 c83a 7684 89be
000001c0: 9270 663f e602 96be 5e90 803f 8654 c63e
000001d0: 8ae2 94be fc41 b3be b74f 9d3e f70c 8c3d
000001e0: 2469 e93e 23fc b6be 368d b2be b508 8ebe
000001f0: 771b d43c c477 b9be 7c64 a0be 32e4 8fbf
