SAC/target_critic1_v3.pth (torch, 46095 bytes, 7 tensors)

fc1.weight f4 [32, 11]
0	0x3f6f7625	0.9353965
1	0xbba7a8a4	-0.005116539
2	0x3e106818	0.14102209
3	0xbdcbf0c1	-0.099580295
4	0xbe112d1d	-0.14177366
5	0xbdfec1e2	-0.12439324
6	0x3eb44849	0.352114
7	0xbe402e57	-0.18767677
8	0x3e44f8d6	0.19235548
9	0x3d8436c8	0.06455761
10	0x3d8884ea	0.06665976
11	0xbdf41384	-0.11917785
12	0xbe7fe634	-0.2499016
13	0x3f0871db	0.5329873
14	0xbd98ea26	-0.07466535
15	0xbe88eec5	-0.26744667
16	0xbe0016ed	-0.12508745
17	0xbf04251a	-0.5161911
18	0x3eb8588d	0.3600506
19	0x3f066924	0.5250418
20	0x3d7c26ae	0.061560325
21	0x3d69cf35	0.057082374
22	0xbde46fb8	-0.11154121
23	0xbe9ff66b	-0.3124269
24	0x3c337f85	0.010955696
25	0xbe820529	-0.25394562
26	0xbe105474	-0.14094716
27	0xbc380115	-0.011230727
28	0xbe779db9	-0.2418126
29	0xbe14902f	-0.14508127
30	0x3e15af5f	0.1461768
31	0xbb7c3d64	-0.003848874
32	0x3d8a5c3f	0.06755876
33	0xb9e11750	-0.00042932713
34	0x3e999877	0.29999134
35	0x3f2836a4	0.65708375
36	0x3ef2c468	0.4741547
37	0x3dc25adb	0.094899856
38	0x3d41a4c0	0.04727626
39	0xbd70b51d	-0.058766473
40	0xbe292e02	-0.16521457
41	0x3df62890	0.120194554
42	0xbdbb4210	-0.0914346
43	0x3dfabd12	0.122430936
44	0xbf277cbf	-0.6542472
45	0x3ebb5e1e	0.36595243
46	0xbea69df1	-0.32542375
47	0x3d03792c	0.03209798
48	0x3c12e62e	0.008966012
49	0x3bd3a500	0.0064588785
50	0x3ebf06cd	0.37309876
51	0x3f896987	1.0735329
52	0x3eaf53b5	0.3424355
53	0x3d998905	0.074968375
54	0xbe6bc3ec	-0.23023957
55	0xbdb1322c	-0.08652148
56	0xbe7f54f1	-0.24934746
57	0xbe00700f	-0.12542747
58	0xbdc08a7a	-0.09401412
59	0x3e028e07	0.12749492
60	0xbe4360c2	-0.19079879
61	0x3f02bad7	0.51066345
62	0x3d24c80b	0.04022984
63	0x3f13becd	0.57713014
64	0x3c3bf6da	0.011472428
65	0xbe175941	-0.14780141
66	0xbeb5d9dc	-0.35517776
67	0xbe20a931	-0.15689541
68	0x3ea75a97	0.32686302
69	0xbd77c9e2	-0.060495265
70	0x3b8dd91d	0.0043288604
71	0xbd21140b	-0.039325755
72	0x3c2bc847	0.010484762
73	0xbe0612ad	-0.13093062
74	0x3ea27945	0.31733146
75	0x3bf4bac8	0.007468555
76	0xbd1a1fe2	-0.037628062
77	0xbd1c0ba6	-0.038097046
78	0x3e04055f	0.12892674
79	0xbf206509	-0.6265417
80	0x3e36ab43	0.17838769
81	0xbcb38fcd	-0.021919155
82	0x3cac3baa	0.021024544
83	0xbeb03dab	-0.3442205
84	0x3f442b4b	0.7662856
85	0x3eb046ac	0.34428918
86	0x3d9b46ab	0.07581838
87	0x3db4cc9a	0.08828087
88	0x3f463175	0.77419215
89	0x3dafb7e3	0.085799955
90	0x3e0e0300	0.13868332
91	0x3e59ad2f	0.2125747
92	0x3c2871af	0.0102810105
93	0xbe53d831	-0.20687939
94	0xbe94591f	-0.28974244
95	0xbf2ddb0e	-0.67912376
96	0xbbb4d491	-0.005518504
97	0xbb622fc1	-0.0034513327
98	0xbe578d51	-0.21050002
99	0xbd935190	-0.07193291
100	0x3e053e67	0.13012086
101	0xbcfe40a8	-0.03103669
102	0x3d9b66cf	0.075879686
103	0x3bd48d42	0.006486566
104	0x3e14e351	0.1453984
105	0x3c8b243c	0.016985051
106	0xbe63d2e8	-0.22248423
107	0x3f2b2b53	0.6686298
108	0xbcf2aaf4	-0.029622532
109	0x3e29bd2d	0.16576071
110	0x3ee94fd6	0.45568722
111	0x3e6b3023	0.22967581
112	0x3f341bf3	0.7035515
113	0xbdea674a	-0.11445482
114	0x3d10dc76	0.035366498
115	0xbdccba4b	-0.0999647
116	0xbe86b424	-0.2630931
117	0x3db97a6e	0.09056555
118	0x3ebcfa54	0.36909735
119	0x3ddf389c	0.10899469
120	0xbe452738	-0.19253242
121	0xbf011def	-0.504363
122	0x3e6d25c1	0.23158933
123	0x3e855beb	0.2604669
124	0xbdf32f3c	-0.118742436
125	0xbda65bdc	-0.081229895
126	0xbe047ea8	-0.1293894
127	0x3a2c5f1e	0.0006575453
128	0xbf73919f	-0.95144075
129	0x3e95de1e	0.29271024
130	0xbda09430	-0.078407645
131	0xbde8275f	-0.113356344
132	0xbe3dcf98	-0.18536222
133	0x3e63660c	0.22206897
134	0x3f385cda	0.7201668
135	0x3ea2dc64	0.3180877
136	0x3e5eb2c5	0.21747883
137	0x3e203b9d	0.1564774
138	0xbec22a93	-0.37923107
139	0x3f0445a7	0.5166878
140	0x3ed78231	0.42091516
141	0x3e25781d	0.16159101
142	0xbce51fa4	-0.027969189
143	0x3f8c8060	1.0976677
144	0x3e461264	0.19342953
145	0x3e57337e	0.21015736
146	0x3e4cf60d	0.20015736
147	0xbd0c401c	-0.034240827
148	0x3c914fa6	0.017738175
149	0xbe65274f	-0.22378276
150	0xbd87c16c	-0.06628689
151	0xbddc9235	-0.10770074
152	0xbca22c30	-0.01979646
153	0xbcb7a641	-0.022418143
154	0xbe5ab1c3	-0.21356873
155	0xbdd9c33a	-0.1063294
156	0x3e9357bd	0.28777876
157	0x3dcc1411	0.09964765
158	0xbcaf83ed	-0.021425212
159	0xbd4e158e	-0.050313525
160	0xbec7345c	-0.38907135
161	0xbf09f24a	-0.5388533
162	0xbe14ef8c	-0.14544505
163	0x3e13ec67	0.14445649
164	0xbe3279b2	-0.17429236
165	0xbf358693	-0.7090847
166	0x3e522fc7	0.20526038
167	0x3f20fe6e	0.6288823
168	0x3dd8a925	0.10579137
169	0x3f040775	0.5157388
170	0x3dce0ae9	0.10060675
171	0xbee1f63a	-0.44133168
172	0xbe9acaee	-0.30232948
173	0xbe83e34d	-0.25759354
174	0x3c13d5db	0.009023155
175	0x3c7efbd4	0.01556297
176	0x3e4c8a20	0.19974566
177	0x3c16cf38	0.009204678
178	0x3e517b96	0.204573
179	0xbec42eea	-0.38317043
180	0x3d95b77c	0.073103875
181	0x3d5dc345	0.0541413
182	0xbe8cbe9a	-0.27489167
183	0xbdfdc94c	-0.1239191
184	0x3ea7f354	0.32802832
185	0xbd02627f	-0.031832214
186	0xbcb3577e	-0.021892305
187	0x3ef95862	0.48700243
188	0x3d8fdfe4	0.070251256
189	0xbf020e2f	-0.5080289
190	0xbbbb16d0	-0.0057095066
191	0x3e6fb3c3	0.23408417
192	0x3e308ffd	0.17242427
193	0xbd3e457a	-0.046452977
194	0x3ecb1ff4	0.39672816
195	0x3e711937	0.23544775
196	0xbd84932c	-0.06473383
197	0xbcd0184b	-0.025402209
198	0x3f25d03a	0.64770854
199	0xbefc7fd8	-0.49316287
200	0x3ea2310d	0.31678048
201	0xbec46b8a	-0.38363296
202	0x3cf14ecd	0.02945652
203	0xbdb186eb	-0.08668312
204	0xbf3956c2	-0.72398007
205	0xbe73bb20	-0.23801851
206	0x3deefde9	0.11669523
207	0x3d2742a0	0.040835023
208	0xbae5f9e6	-0.0017545789
209	0xbf28a0f4	-0.65870595
210	0xbe9f6c1f	-0.31137177
211	0xbec54661	-0.38530257
212	0x3d13a2c0	0.036043882
213	0x3d869e58	0.065731704
214	0x3cd32227	0.025773121
215	0x3f5bedfb	0.85910004
216	0x3ced32f6	0.028954964
217	0x3ee2d592	0.44303566
218	0xbd39be0e	-0.045347266
219	0x3de82ea8	0.11337024
220	0x3e6fc072	0.23413256
221	0x3db8a386	0.090155646
222	0xb9c1c886	-0.0003696123
223	0x3e39fba5	0.18162401
224	0xbdf8e4b7	-0.12152999
225	0xbe05aadb	-0.13053457
226	0x3e84888d	0.2588543
227	0x3e8a9ba5	0.27071872
228	0x3f1d4fdd	0.61449987
229	0xbe20fc65	-0.15721281
230	0xbe0b0bb5	-0.13578685
231	0x3d91c3d1	0.07117427
232	0x3df7c8a4	0.12098816
233	0x3e77a4d9	0.24183978
234	0x3cc09b9d	0.023511702
235	0x3e06f014	0.1317752
236	0x3de28869	0.110611744
237	0xbe3ab043	-0.18231301
238	0xbf76608a	-0.96241057
239	0x3ec14f67	0.37755892
240	0x3da18eae	0.07888542
241	0xbdb3b60e	-0.087749586
242	0xbe4bff7a	-0.19921675
243	0x3e99d47b	0.30044922
244	0x3eece184	0.46265805
245	0x3da1a4fb	0.07892796
246	0xbe4bb5af	-0.19893526
247	0x3e206961	0.15665199
248	0xbf093192	-0.53591263
249	0xbd5566f0	-0.052100122
250	0xbe94112f	-0.2891936
251	0xbedd1d56	-0.43186444
252	0xbcd63eba	-0.026152957
253	0x3ca1631a	0.019700576
254	0x3dd59148	0.10428101
255	0xbef33c24	-0.4750682

fc1.bias f4 [32]
0	0x3e939084	0.28821194
1	0x3de65f6e	0.112486705
2	0x3e6208d4	0.2207368
3	0xbe8ef555	-0.27921548
4	0x3d401e51	0.046903912
5	0x3d896661	0.0670898
6	0x3f1ddb83	0.61663073
7	0x3ea6b478	0.32559562
8	0xbe2a7c2f	-0.16648935
9	0x3f1baa03	0.6080629
10	0xbd64c746	-0.055854104
11	0xbba48013	-0.0050201504
12	0xbd5c8699	-0.0538393
13	0x3dfc56ef	0.12321269
14	0x3e64c1af	0.2233951
15	0xbe3139b2	-0.17307165
16	0x3ebd44a9	0.36966446
17	0x3e5a33b3	0.21308784
18	0xbdb00f95	-0.08596722
19	0x3f1948e8	0.5987687
20	0x3eaaaa16	0.3333289
21	0x3e8b231d	0.27175227
22	0xbed84b71	-0.42245057
23	0x3e8c53b8	0.27407622
24	0x3e7fa74e	0.24966165
25	0xbda02160	-0.07818866
26	0xbd59cb77	-0.053172555
27	0x3e98b5e2	0.29826266
28	0x3d2154b6	0.039387427
29	0x3d7e22c0	0.06204486
30	0xbdaaa99e	-0.08333133
31	0x3e7e5c48	0.2483989

fc2.weight f4 [64, 32]
0	0x3e8d7f26	0.2763607
1	0xbdcf4382	-0.10120298
2	0xbe3137cd	-0.17306443
3	0x3e16b0da	0.14715901
4	0xbe2bf41a	-0.16792336
5	0x3da76231	0.081730254
6	0x3c3c5d91	0.011496917
7	0x3e0fce90	0.14043641
8	0x3dd1d8c4	0.10246423
9	0x3ecc4436	0.3989579
10	0xbe077a23	-0.13230185
11	0x3dbce63d	0.09223602
12	0xbe04d85d	-0.12973161
13	0x3f19cc09	0.6007696
14	0xbe0a196c	-0.1348626
15	0xbf099688	-0.5374532
16	0xbd80a25b	-0.06280967
17	0x3d0e401b	0.034729104
18	0xbe8c880b	-0.27447543
19	0x3dbd35d8	0.092387855
20	0x3ea9aa4b	0.33137736
21	0x3e7ee3c8	0.24891579
22	0x3d8b08b0	0.067887664
23	0x3df0e9a6	0.11763315
24	0xbe4a67c0	-0.1976614
25	0x3e4bc08e	0.19897673
26	0xbe5f1b59	-0.21787776
27	0xbe49b3b7	-0.19697462
28	0xbb8489d5	-0.004044751
29	0xbe079153	-0.1323903
30	0x3d2d5e02	0.04232598
31	0x3eff07cf	0.49810645
32	0x3bb937d1	0.005652406
33	0xbe15ee51	-0.14641692
34	0x3e0794ac	0.13240308
35	0xbd9d9ac5	-0.076955356
36	0x3d02ae7a	0.031904675
37	0xbd61065f	-0.054937717
38	0x3e6533b8	0.2238301
39	0xbe5e9dac	-0.21739835
40	0xbe54bf3c	-0.20776075
41	0xbee6d130	-0.45081472
42	0x3e764d17	0.24052845
43	0x3ed2fd70	0.41208982
44	0x3d171386	0.036883853
45	0xbe9272a0	-0.28603077
46	0xbe50d18c	-0.20392436
47	0xbdba4b40	-0.09096384
48	0x3e41be84	0.18920332
49	0x3db3b2fc	0.08774373
50	0x3ec0df87	0.37670538
51	0x3dc92473	0.09821405
52	0xbe32a6d4	-0.17446452
53	0x3dcb9b6c	0.09941754
54	0x3dff1c63	0.12456586
55	0x3e21f7ad	0.15817137
56	0x3de90285	0.11377434
57	0xbdcc9814	-0.09989944
58	0xbddb1dff	-0.10699081
59	0xbe7ebecf	-0.24877475
60	0xbea9b57a	-0.33146268
61	0x3e0f65d3	0.14003687
62	0xbd957303	-0.07297327
63	0xbe41420a	-0.18872848
64	0x3e268272	0.16260698
65	0x3e055976	0.13022408
66	0x3d29c993	0.041452
67	0x3ee60168	0.44922948
68	0x3e70ddce	0.23522112
69	0x3e10a9a0	0.14127207
70	0xbc9afc8b	-0.01891925
71	0x3e2d1512	0.16902569
72	0x3e856ec9	0.26061085
73	0x3dd564c6	0.10419612
74	0x3e6bb2fc	0.23017496
75	0xbdec4846	-0.115372226
76	0x3f0ed2e1	0.55790526
77	0x3ee98fab	0.45617422
78	0xbf10aa91	-0.56510264
79	0xbcc35dc8	-0.02384843
80	0x3dfb6b9c	0.12276384
81	0x3ea7eb73	0.3279682
82	0x3e9d44ca	0.30716544
83	0x3e7cb431	0.24678113
84	0x3e11462e	0.14186928
85	0x3e51af54	0.20477039
86	0x3e9d2d8e	0.30698818
87	0x3e52f857	0.20602547
88	0x3e013f51	0.1262181
89	0x3eeb923d	0.46010008
90	0x3e09c4f3	0.13454036
91	0xbe1cb2b9	-0.15302552
92	0x3e72fe56	0.23729834
93	0x3e3a25e9	0.18178524
94	0x3eb1c603	0.34721383
95	0x3f09a5e4	0.53768754
96	0x3bef7fa3	0.0073089167
97	0x3d7d240d	0.06180196
98	0xbdf5820d	-0.11987696
99	0x3d161a41	0.03664613
100	0xbef4475b	-0.4771069
101	0xbe1ae7c8	-0.1512748
102	0x3d688b56	0.056773506
103	0x3e7ac671	0.24489762
104	0xbd0254c8	-0.031819135
105	0xbd00238d	-0.031283904
106	0x3e0c23a9	0.13685478
107	0xbd84c2e6	-0.064824864
108	0x3e27bbc3	0.16380219
109	0xbdb0337c	-0.0860357
110	0x3ea31a26	0.31855887
111	0x3e4fd51e	0.20296142
112	0x3e562d2f	0.20915674
113	0x3d9da626	0.07697706
114	0x3ed0fae0	0.40816402
115	0xbf429adf	-0.76017565
116	0x3e4fae2b	0.20281284
117	0x3e05c322	0.13062719
118	0x3dbd2f41	0.092375286
119	0xbc447d21	-0.011992724
120	0x3d90b326	0.0706542
121	0x3e09a2f9	0.13441075
122	0xbd8a789a	-0.06761284
123	0xbe7a9026	-0.24469051
124	0xbe9b8f73	-0.3038288
125	0xbbcdee7e	-0.006284534
126	0xbd9bacc0	-0.07601309
127	0xbf37f4cb	-0.718579
128	0xbe0e09e9	-0.13870968
129	0x3e0cd7cb	0.13754193
130	0x3e500a01	0.20316316
131	0x3cb7b6b9	0.022425996
132	0x3e3a4838	0.18191612
133	0x3d394d8a	0.045239963
134	0x3da7d62c	0.08195147
135	0xbcffaffc	-0.031211846
136	0x3cadb52b	0.021204552
137	0xbe072eba	-0.13201419
138	0xbd947d0f	-0.072504155
139	0xbe05c5ec	-0.13063782
140	0x3cba53d7	0.022745056
141	0xbdf8e075	-0.12152187
142	0xbe305869	-0.17221226
143	0x3e6cb154	0.2311452
144	0x3ec2c170	0.38038206
145	0xbd091851	-0.033470456
146	0xbb8e105d	-0.0043354467
147	0xbcc98bc7	-0.024602784
148	0xbda05852	-0.07829346
149	0xbe7ef29f	-0.2489724
150	0x3dafed1b	0.08590146
151	0x3c8aa088	0.01692225
152	0x3e2d96d4	0.16952068
153	0xbe207fcb	-0.15673749
154	0x396fcc25	0.00022868866
155	0x3e7b7774	0.24557287
156	0x3e24e256	0.16101965
157	0x3e224648	0.15847123
158	0xbe85b2f0	-0.2611308
159	0x3d08c6f9	0.03339288
160	0x3c41ca7e	0.011828063
161	0x3e28743c	0.1645059
162	0xbe68c202	-0.22730258
163	0x3f00bfd8	0.5029273
164	0x3db4ed8f	0.08834373
165	0x3e2eaf61	0.17059089
166	0xbe83fdd5	-0.25779596
167	0x3df6547c	0.12027833
168	0x3f230b7e	0.6368941
169	0xbea4f8aa	-0.32220966
170	0x3dd1d5c0	0.10245848
171	0xbe5a945e	-0.2134566
172	0x3efba488	0.49148965
173	0x3cba4f16	0.02274279
174	0x3a4e32ee	0.00078658655
175	0xbce79dad	-0.028273428
176	0x3ce414bd	0.02784192
177	0x3e3b1204	0.18268591
178	0x3ee51829	0.44744995
179	0x3e70ccc8	0.23515618
180	0xbdcc148b	-0.09964856
181	0x3ddcf44d	0.10788784
182	0x3e827678	0.2548101
183	0xbde5b727	-0.11216574
184	0xbe3eaa3f	-0.18619631
185	0x3d558bc8	0.05213526
186	0x3c016787	0.007898218
187	0x3c9ef246	0.019402634
188	0x3c49d661	0.012319178
189	0x3eb3aacd	0.35091248
190	0xbec9e05c	-0.39428985
191	0x3edd7587	0.4325373
192	0xbda57687	-0.08079248
193	0x3e9fc704	0.31206524
194	0xbddfbc0f	-0.10924541
195	0x3cd52c5b	0.026022127
196	0x3eb12fa2	0.34606653
197	0x3e7888bc	0.2427091
198	0x3d87c0b7	0.06628554
199	0xbba2fde1	-0.0049741124
200	0xbe59d5bc	-0.2127294
201	0x3ededbf1	0.43527177
202	0x3dcd4954	0.10023752
203	0x3df48cfa	0.11940952
204	0xbe006082	-0.12536815
205	0xbde86be5	-0.11348704
206	0xbe46fc3e	-0.1943216
207	0xbd43912a	-0.04774586
208	0x3deb8c4f	0.11501371
209	0x3d95704a	0.07296808
210	0x3d08422e	0.03326624
211	0x3ec62185	0.38697448
212	0x3e84906e	0.2589144
213	0xbe01639f	-0.12635659
214	0xbd0eaf99	-0.03483543
215	0x3e47df34	0.19518739
216	0x3ef16301	0.47145846
217	0x3dad260e	0.08454524
218	0x3df3122b	0.118687
219	0xbe28b628	-0.16475737
220	0xbdcefc0c	-0.10106668
221	0xbddb183d	-0.106979825
222	0x3e5b4e62	0.2141662
223	0x3db721d8	0.08942002
224	0x3e83ef70	0.25768614
225	0x3e4fe2e5	0.20301397
226	0xbd4baed9	-0.049727295
227	0x3e8ca40f	0.27468917
228	0x3e4fc6ae	0.20290634
229	0x3b6b4d94	0.0035904394
230	0x3d85a358	0.06525296
231	0x3e7ab6bc	0.2448377
232	0x3cda06be	0.026614543
233	0x3eb70334	0.3574463
234	0x3e2cc784	0.16872984
235	0x3e86e15f	0.2634382
236	0x3dfb2fb4	0.12264958
237	0xbc19238a	-0.009346852
238	0x3e482db8	0.1954869
239	0xbc7d935f	-0.015477031
240	0x3e803515	0.25040498
241	0x3dabf957	0.08397167
242	0x3daa8a6d	0.08327184
243	0xbc9b4d3c	-0.018957727
244	0x3ecb46d3	0.39702472
245	0x3e41a182	0.18909267
246	0xbde77fff	-0.1130371
247	0x3d681409	0.056659732
248	0x3e5ff00e	0.21868917
249	0x3ea60eb6	0.324331
250	0x3e73e259	0.23816814
251	0xbe314b11	-0.17313792
252	0x3d19b3a2	0.037524827
253	0x3e1dbd37	0.15404211
254	0x3e92ae5b	0.28648648
255	0x3cf95202	0.030434612

fc2.bias f4 [64]
0	0x3e8f068f	0.2793469
1	0xbe8830d3	-0.2659975
2	0x3ebd6a81	0.3699532
3	0x3eb90b1a	0.36141282
4	0xbcb2f885	-0.021847019
5	0xbe853ac0	-0.26021385
6	0x3e93c19b	0.28858647
7	0x3efd23b7	0.4944131
8	0x3c855adb	0.016278675
9	0x3ebc90c6	0.36829203
10	0x3e0a0509	0.13478483
11	0xbcd14de0	-0.025549829
12	0xbdeea3fd	-0.11652372
13	0x3ef4e711	0.4783254
14	0x3da6ceb0	0.08144891
15	0x3d7f8b65	0.062388796
16	0x3e2e4ec8	0.1702224
17	0xbe2f0cfc	-0.17094797
18	0x3f06c6e9	0.5264726
19	0x3eabfe5a	0.33592492
20	0x3eada01a	0.3391121
21	0x3ecf4dea	0.4048913
22	0x3f008add	0.5021189
23	0x3e96a39b	0.29421696
24	0x3ec3860c	0.38188207
25	0x3f08759b	0.5330445
26	0x3e21c3de	0.15797374
27	0x3e66cd35	0.22539218
28	0x3eaf4a94	0.34236586
29	0x3efe0787	0.49615118
30	0x3e8b3f05	0.27196518
31	0x3ed4007f	0.41406628
32	0x3f079f1a	0.52977145
33	0x3ecd7d4d	0.4013466
34	0x3e1cac18	0.15300024
35	0x3e4b5b6f	0.19859098
36	0x3dace3b1	0.08441866
37	0x3e717228	0.23578703
38	0x3db06251	0.08612502
39	0x3f156aa3	0.5836584
40	0x3f0fd789	0.56188256
41	0x3e426025	0.18981989
42	0x3e8de96d	0.27717152
43	0xbe39c3b6	-0.18141064
44	0x3e8104d6	0.25199002
45	0x3df51b40	0.11968088
46	0x3eccb631	0.3998275
47	0x3e0b997f	0.13632773
48	0x3d458d03	0.048230182
49	0xbc543c35	-0.012953808
50	0xbe260311	-0.16212107
51	0xbdcd415d	-0.10022233
52	0x3def5bb0	0.1168741
53	0x3ecb0cf5	0.39658323
54	0x3ed8d356	0.42348737
55	0x3d6a42a4	0.05719246
56	0x3ed6b608	0.41935754
57	0x3dc19f5f	0.09454226
58	0x3efb81a0	0.49122334
59	0x3efc89da	0.49323922
60	0x3c336773	0.010949957
61	0x3e95554f	0.29166648
62	0x3e48c8f4	0.19607908
63	0x3dd60106	0.10449414

fc3.weight f4 [128, 64]
0	0x3de611f2	0.112338915
1	0x3eb4ba83	0.35298547
2	0x3d2f1500	0.042744637
3	0xbe9370a3	-0.28796872
4	0x3de5f690	0.11228669
5	0x3eb8f4db	0.3612431
6	0x3e2e98c8	0.17050469
7	0xbe068edf	-0.13140438
8	0xbede654a	-0.43436652
9	0xbe0cb7a1	-0.13741924
10	0x3d2483c8	0.04016474
11	0x3e3b8db3	0.18315773
12	0xbe5047d6	-0.20339903
13	0xbeada898	-0.3391769
14	0xbfcfbccc	-1.6229491
15	0xbe855d3f	-0.26047704
16	0x3e2ee8be	0.17080972
17	0x3f289a85	0.6586078
18	0xbc5d29df	-0.013498752
19	0xbe93aae0	-0.28841305
20	0x3bbf3523	0.005835192
21	0x3d4b03e7	0.04956427
22	0xbd56579a	-0.052329637
23	0x3e09c9f1	0.13455941
24	0xbd81457e	-0.06312083
25	0x3d965e41	0.07342196
26	0x3e8db1fa	0.27674848
27	0xbf8d11ba	-1.1021035
28	0x3e2c495f	0.16824864
29	0x3e7333b1	0.23750187
30	0xbd4553c1	-0.048175577
31	0x3c7ddb9a	0.015494252
32	0xbda6dcc1	-0.08147574
33	0xbdaade2f	-0.083431594
34	0xbd58421b	-0.052797418
35	0x3da175db	0.07883807
36	0xbf072c64	-0.5280211
37	0xbc2af1b8	-0.010433607
38	0x3e251ea9	0.16124977
39	0xbce14a70	-0.027501315
40	0xbcb02053	-0.021499788
41	0x3c76ca9e	0.015062956
42	0x3e3b01dd	0.1826243
43	0xbe93d3fb	-0.28872666
44	0xbda039e2	-0.0782354
45	0xbe5e95a4	-0.21736771
46	0xbd5a5dc0	-0.053312063
47	0x3d9b1a9e	0.07573436
48	0x3dfd2318	0.12360209
49	0x3f47724c	0.7790878
50	0x3d4c220e	0.049837165
51	0x3e811dd1	0.2521806
52	0xbec8b6f4	-0.39202082
53	0x3ca8b6c7	0.020594968
54	0xbd62e3cb	-0.05539302
55	0x3d16ac95	0.03678568
56	0x3e558dfa	0.20854941
57	0x3ef0ab9f	0.47005937
58	0xbde9dedd	-0.11419461
59	0xbd0f3c6d	-0.034969736
60	0x3e917dbf	0.2841625
61	0x3d7e8670	0.06213993
62	0x3cd3711b	0.025810769
63	0xbea4b732	-0.32171017
64	0x3e24ca38	0.16092765
65	0xbe06eee1	-0.13177063
66	0x3e3fa18d	0.1871397
67	0x3ef573b0	0.47939825
68	0xbe7e530f	-0.24836372
69	0xbe040719	-0.12893333
70	0x3e3d5b57	0.18491875
71	0x3e815f76	0.25268143
72	0x3f2a6999	0.6656738
73	0x3e411960	0.18857336
74	0x3ed5670e	0.41680187
75	0xbeabf5c7	-0.3358595
76	0x3e959c0a	0.2922061
77	0x3ea08bee	0.31356758
78	0x3eb5af00	0.35485077
79	0xbec1ad1a	-0.3782738
80	0x3e039faf	0.12853883
81	0xbf48b0d0	-0.78394794
82	0x3e01e461	0.12684776
83	0x3f3732f3	0.7156212
84	0x3dd38e5d	0.10329888
85	0x3e921f66	0.2853958
86	0x3ec1f234	0.378801
87	0x3eb6083b	0.35553154
88	0x3dc2e194	0.09515682
89	0x3e8c88d3	0.2744814
90	0x3ebb6707	0.3660204
91	0x3f8ce089	1.1006023
92	0x3ed7010f	0.41992995
93	0x3e90a63b	0.28251824
94	0x3f0fdd8c	0.5619743
95	0x3e5c405e	0.21508929
96	0x3eb31f13	0.34984645
97	0x3e79b2ff	0.24384688
98	0x3e643a02	0.22287753
99	0x3e7cca2c	0.24686497
100	0x3f1b8edd	0.6076487
101	0x3ec0f519	0.37686995
102	0x3e3b7300	0.18305588
103	0x3e196440	0.14979649
104	0x3eb5bdc9	0.35496357
105	0x3e46857c	0.19386858
106	0x3eb6278e	0.35577053
107	0xbd41be4a	-0.047300614
108	0x3e5680ea	0.20947614
109	0x3ef4696e	0.47736686
110	0x3ea8d379	0.3297384
111	0x3debd733	0.11515655
112	0xbe9d5768	-0.30730748
113	0xbf306764	-0.6890776
114	0x3dbc739a	0.09201737
115	0xbd0daa04	-0.034585968
116	0x3ed474ef	0.41495463
117	0x3dc5f88d	0.09666548
118	0x3ec8a20e	0.39186138
119	0x3e7c333e	0.24628922
120	0x3e8e2c6c	0.27768266
121	0xbebb6d6d	-0.36606923
122	0x3e7d7795	0.24752648
123	0x3e7f2410	0.249161
124	0x3e48efc3	0.19622712
125	0x3e2765c9	0.16347422
126	0x3eb43c8c	0.35202444
127	0x3ef34861	0.47516158
128	0xbdc91b0f	-0.09819614
129	0x3e9768c7	0.29572126
130	0x3e421886	0.18954667
131	0xbde827e5	-0.11335734
132	0x3f00cb9d	0.5031069
133	0x3eece9dc	0.4627217
134	0xbe0892bb	-0.13337223
135	0x3d9a7ab7	0.07542937
136	0xbdbf8e86	-0.09353356
137	0xbdbc496a	-0.0919369
138	0x3dadb948	0.08482605
139	0x3ee835f4	0.45353663
140	0x3e087762	0.13326791
141	0xbcc9b42f	-0.024622051
142	0x3e9b5064	0.3033477
143	0xbdeb0644	-0.114758044
144	0xbb1d3c94	-0.0023992406
145	0x3f0d20be	0.55128086
146	0xbdde3310	-0.10849583
147	0x3d6b5720	0.057456136
148	0x3daadbb0	0.08342683
149	0x3b2eb348	0.0026657153
150	0xbe305092	-0.17218235
151	0xbe184e14	-0.14873534
152	0x3da037dc	0.07823154
153	0xbd93f65c	-0.07224724
154	0xbf2b82e1	-0.6699658
155	0xbe29f151	-0.16595961
156	0x3daedb20	0.085378885
157	0xbe222985	-0.15836151
158	0xbe9808f0	-0.2969432
159	0x3c869046	0.016426217
160	0x3cd84fa3	0.026405161
161	0xbd025ed7	-0.031828728
162	0x3e16f13f	0.14740466
163	0xbb16be78	-0.0023001712
164	0x3e81c6e3	0.2534705
165	0xbe5e72bc	-0.21723455
166	0xbc31dd72	-0.010856019
167	0xbf0df477	-0.5545115
168	0xbe07289f	-0.1319909
169	0xbd50c1a8	-0.050965935
170	0xbf572660	-0.8404293
171	0x3e7b5ea5	0.24547823
172	0x3e2ccd58	0.16875207
173	0x3eb90e75	0.36143842
174	0x3d95ccab	0.07314428
175	0x3d4a8a3e	0.049448244
176	0x3ec5aa96	0.3860671
177	0x3e985903	0.2975541
178	0xbdfb0532	-0.1225685
179	0x3e3a0c5d	0.18168779
180	0x3e6f274c	0.23354834
181	0xbc301e92	-0.010749476
182	0x3bbdfcf5	0.005797977
183	0x3e05695a	0.1302847
184	0xbea0d869	-0.31415108
185	0x3e53d5ef	0.20687078
186	0x3d149043	0.03627039
187	0xbe329ffa	-0.17443839
188	0x3eb5e7d1	0.35528424
189	0xbd8474d3	-0.06467595
190	0xbd3410ba	-0.043961264
191	0xbf8ea952	-1.1145422
192	0x3e29cfbe	0.16583154
193	0x3db5360f	0.088482015
194	0xbd09b49e	-0.033619516
195	0xbe111193	-0.1416686
196	0x3da234c9	0.07920224
197	0x3f2a07a3	0.664179
198	0x3d20fa65	0.039301295
199	0xbde3ceb5	-0.111234106
200	0xbda5e1e5	-0.080997266
201	0xbd711708	-0.058859855
202	0x3e879029	0.26477173
203	0x3f6106e4	0.8790114
204	0x3e12d4e7	0.14339028
205	0x3d0616ca	0.032736577
206	0xbdd521ce	-0.10406838
207	0x3e9f70a4	0.31140625
208	0x3c65ae26	0.014018571
209	0x3dc89e72	0.09795846
210	0x3cea0f8c	0.028571866
211	0x3ea676cd	0.32512513
212	0xbdf4783d	-0.11936996
213	0x3dbc1066	0.09182815
214	0x3ddf5ee1	0.109067686
215	0x3d57ea9e	0.052713983
216	0xbd9a28e7	-0.07527333
217	0xbc5f7486	-0.013638621
218	0xbe550991	-0.2080443
219	0x3f5dbe37	0.8661837
220	0xbc6697a0	-0.014074236
221	0xbe281d0d	-0.16417332
222	0x3f2e00ed	0.6797016
223	0xbddbb388	-0.10727602
224	0x3e56385b	0.20919935
225	0xbd0b82fb	-0.03406046
226	0xbe84a560	-0.2590742
227	0xbbde2886	-0.006779733
228	0xbde57b85	-0.112052
229	0x3e74f937	0.23923193
230	0xbf0e9747	-0.5569958
231	0xbe894294	-0.26808608
232	0xbdaee69b	-0.08540078
233	0xbe35b550	-0.17744946
234	0xbee86d71	-0.45395997
235	0x3f0a1892	0.5394374
236	0x3e2c7700	0.1684227
237	0xbe1a4597	-0.15065609
238	0xbe692def	-0.22771429
239	0xbee5cafa	-0.4488142
240	0x3eb1b1b1	0.3470588
241	0x3e6f2452	0.23353699
242	0xbc444017	-0.011978171
243	0xbcbc1d71	-0.022963258
244	0x3f04af6a	0.5183016
245	0x3d848997	0.06471556
246	0xbed1b077	-0.40954944
247	0xbe08e568	-0.13368762
248	0xbe166935	-0.14688571
249	0x3d036c8f	0.03208595
250	0x3d9e5bf6	0.07732384
251	0x3e108809	0.14114393
252	0xbe3e667c	-0.18593782
253	0xbd1e61fa	-0.038667656
254	0x3e1805e9	0.14846005
255	0x3f3bec00	0.7340698

fc3.bias f4 [128]
0	0xbd9dd07c	-0.07705781
1	0x3ea817d0	0.32830667
2	0xbd6b7279	-0.057482217
3	0xbdea40d9	-0.1143815
4	0xbd640cc1	-0.055676226
5	0xbe11ea88	-0.14249623
6	0x3c235b26	0.009970462
7	0xbcb6f491	-0.022333415
8	0xbe263a06	-0.16233072
9	0x3e83b2ec	0.25722444
10	0xbd62c8bf	-0.055367228
11	0xbdd13098	-0.10214347
12	0xbdf05a56	-0.1173598
13	0x3ed08e83	0.40733728
14	0xbc385d81	-0.011252762
15	0x3f061886	0.5238117
16	0xbd8cfdfb	-0.068843804
17	0xbd1dc678	-0.038519353
18	0x3ed1643f	0.40896794
19	0xbe31f352	-0.17377976
20	0x3f0ff31e	0.5623034
21	0xbe5d6789	-0.21621527
22	0xbd98c0eb	-0.07458671
23	0xbde103c5	-0.10987047
24	0xbd2fcf48	-0.04292229
25	0x3b22308c	0.0024748174
26	0xbdb5367a	-0.08848281
27	0x3eef6ed1	0.46764234
28	0xbe708d82	-0.23491481
29	0xbe839883	-0.25702295
30	0x3ef91bac	0.48653924
31	0xbdebb92d	-0.11509929
32	0xbc0bedb7	-0.008540562
33	0xbe655697	-0.22396313
34	0xbd7abbc2	-0.061214216
35	0xbddeffc0	-0.10888624
36	0xbdca2c7f	-0.09871768
37	0xbe486a1b	-0.19571726
38	0x3edafe5e	0.42772192
39	0xbc6f66f8	-0.014611952
40	0xbe29191f	-0.16513489
41	0x3ea67203	0.3250886
42	0x3f02bd5a	0.5107018
43	0x3d4e65bf	0.05039
44	0xbc8b6c6b	-0.017019471
45	0x3e88d8ec	0.26727998
46	0x3cf52995	0.029927054
47	0xbd0310f6	-0.031998597
48	0xbd7ae9b9	-0.06125805
49	0xbe016c43	-0.12638955
50	0x3ea378d3	0.3192812
51	0xbd948554	-0.07251993
52	0xbd8e1d7b	-0.06939217
53	0x3ef79fcd	0.48364106
54	0x3ed9ca3a	0.425371
55	0x3f06a953	0.5260212
56	0x3ef0a829	0.47003296
57	0xbe519498	-0.2046684
58	0xbe36ad61	-0.17839576
59	0x3eecdf01	0.46263888
60	0x3e943583	0.28947076
61	0xbdcda5a1	-0.10041357
62	0x3eb36a7b	0.35042176
63	0xbd4e77e6	-0.050407313
64	0xbdef3a0d	-0.11680994
65	0x3ef200fe	0.47266382
66	0xbd98b8b8	-0.07457107
67	0xbdb8121e	-0.089878306
68	0x3eaf017f	0.3418083
69	0xbe853d9b	-0.26023564
70	0x3f007548	0.50178957
71	0xbe639309	-0.22224058
72	0x3ebfb4c7	0.3744261
73	0x3d809f69	0.06280405
74	0xbd8ec4ab	-0.06971105
75	0x3efefcf9	0.49802378
76	0x3ed2cb36	0.41170663
77	0x3f03196c	0.51210666
78	0x3ea30571	0.3184009
79	0x3eba18f6	0.3634717
80	0x3f06e136	0.52687395
81	0xbe8b02ee	-0.27150673
82	0x3f01f7c6	0.507687
83	0xbe475dad	-0.19469328
84	0x3ef6224f	0.4807305
85	0xbe22dc06	-0.15904245
86	0x3d399e36	0.045316897
87	0x3eaa0b22	0.3321162
88	0x3ea4c70a	0.32183105
89	0x3eebfdfc	0.46092212
90	0xbe84991f	-0.25898072
91	0xbccdff02	-0.025146011
92	0x3ed4d34a	0.4156745
93	0x3e975b21	0.29561713
94	0x3ea461f0	0.3210597
95	0xba880dea	-0.0010380123
96	0x3ea9b011	0.3314214
97	0x3e999ac1	0.3000088
98	0x3eb991af	0.3624396
99	0x3eaf1ccc	0.34201658
100	0x3e9ae692	0.30254036
101	0xbe23f40b	-0.16011064
102	0xbca88ab9	-0.02057396
103	0x3bb3a1c9	0.005481933
104	0xbe3ec372	-0.18629244
105	0x3e926a76	0.28596848
106	0xbd1f8af6	-0.038950883
107	0xbe3c8eb6	-0.18413815
108	0x3eb9fa8e	0.3632397
109	0x3ee0147e	0.43765634
110	0xbdc0dfa3	-0.09417655
111	0xbd91710c	-0.0710164
112	0x3ea9d4cf	0.33170173
113	0xbdbdbfff	-0.09265136
114	0x3f0010cf	0.5002565
115	0x3edc0839	0.42975023
116	0xbe880e7f	-0.2657356
117	0xbe1566b8	-0.14589965
118	0x3d6f2fe4	0.05839528
119	0x3d3b0852	0.04566223
120	0xbe7482c0	-0.23878002
121	0x3eaf5b10	0.34249163
122	0x3edc3903	0.43012246
123	0xbe5609f9	-0.20902242
124	0xbdb35343	-0.08756115
125	0x3e8f2bd1	0.27963117
126	0x3eaf695c	0.3426007
127	0x3e9910be	0.29895586

v.weight f4 [1, 128]
0	0x3f033049	0.5124555
1	0xbea42e79	-0.32066706
2	0x3f07f35a	0.531057
3	0x3f96e8b4	1.1789765
4	0x3ebc04b6	0.36722344
5	0x3f40073a	0.75011027
6	0x3f1d6be3	0.6149275
7	0x3d035aca	0.032069005
8	0x3f659b10	0.8968973
9	0xbeb30b92	-0.34969765
10	0x3f8c2b79	1.0950767
11	0x3ec0b8f6	0.37641114
12	0x3d3ceddd	0.04612528
13	0xbeaca7ac	-0.33721673
14	0x3d017b1a	0.03161154
15	0xbe981804	-0.29705822
16	0x3d96662f	0.07343709
17	0x3b0ab72b	0.0021166306
18	0xbead0694	-0.3379408
19	0x3e9e7b53	0.30953464
20	0xbeb8b026	-0.3607189
21	0x3f3db4f3	0.7410423
22	0x3c05ceeb	0.008167009
23	0x3f09a2fe	0.5376433
24	0x3f5cf2ce	0.8630799
25	0x3e6875a0	0.2270112
26	0x3d25553c	0.04036449
27	0xbeac7a63	-0.33687124
28	0x3e9f7acb	0.3114837
29	0x3eb1dab5	0.34737173
30	0xbeb5605b	-0.35425076
31	0x3ef00bd1	0.46884015
32	0x3ec8882e	0.39166397
33	0x3f1b4cf0	0.6066427
34	0x3ea767b4	0.32696307
35	0x3b559bd7	0.0032594108
36	0x3d7f570e	0.06233888
37	0x3ed681eb	0.41895995
38	0xbea19d3b	-0.3156527
39	0x3ce25b85	0.02763153
40	0x3f03201a	0.5122086
41	0xbec02985	-0.37531677
42	0xbeb19d42	-0.3469029
43	0x3d1f347b	0.03886841
44	0x3e996753	0.29961643
45	0xbe9511a3	-0.29115018
46	0xbd8126a2	-0.06306197
47	0x3d516874	0.051125005
48	0x3f12f52b	0.57405347
49	0x3ed66693	0.41875133
50	0xbeb37693	-0.35051402
51	0x3f02d532	0.5110656
52	0x3ed9d12f	0.42542407
53	0xbe8fda1f	-0.280961
54	0xbeccde0e	-0.40013164
55	0xbe8e07a3	-0.277402
56	0xbeb92479	-0.3616064
57	0x3ec2c33a	0.3803957
58	0x3f62eb93	0.8864071
59	0xbeeb4b58	-0.4595592
60	0xbea4f1f7	-0.32215855
61	0x3f833817	1.0251492
62	0xbeab77ee	-0.33489937
63	0x3ef92284	0.48659146
64	0x3ec105ea	0.37699825
65	0xbeb09eb5	-0.34496084
66	0x3ec9a682	0.39384848
67	0x3ebbf059	0.36706808
68	0xbe966cac	-0.29379785
69	0x3ec5ae7e	0.3860969
70	0xbec91452	-0.39273316
71	0x3f9bda94	1.217608
72	0xbeb29051	-0.3487573
73	0xbf71e313	-0.9448711
74	0x3ebf24a9	0.37332657
75	0xbe91cb09	-0.28475216
76	0xbe9c43d4	-0.305205
77	0xbeac685c	-0.3367337
78	0xbea770e6	-0.32703322
79	0xbe971d8f	-0.2951474
80	0xbea65521	-0.32486823
81	0x3ebb5b1a	0.36592942
82	0xbe9da989	-0.30793408
83	0x3f498c6d	0.787299
84	0xbe94f7bf	-0.29095265
85	0x3ed3091b	0.41217884
86	0x3d564b3c	0.052317843
87	0xbeb3a888	-0.35089517
88	0xbebf8f49	-0.37414005
89	0xbe9d7ad7	-0.30757782
90	0x3f4c03c5	0.7969325
91	0xbda74fe1	-0.081695326
92	0xbead6d39	-0.33872393
93	0xbe940129	-0.28907135
94	0xbed9b20d	-0.42518654
95	0x3d896bea	0.06710036
96	0xbed4b8c6	-0.4154722
97	0xbe9a90e2	-0.30188662
98	0xbec09edc	-0.376212
99	0xbe9703a9	-0.2949498
100	0xbec79bea	-0.3898614
101	0x3f01bdc2	0.5068017
102	0x3eb8b371	0.36074403
103	0xbc06059a	-0.008180046
104	0x3f15c071	0.5849677
105	0xbe9d5761	-0.30730727
106	0x4002e903	2.045472
107	0x3fb36ada	1.4016984
108	0xbeb866e8	-0.3601601
109	0xbec8127f	-0.3907661
110	0x3edbf3ab	0.4295934
111	0x3ee3b7f4	0.44476283
112	0xbe9c7f69	-0.30565956
113	0x3f83cb63	1.0296444
114	0xbe8e40eb	-0.27783903
115	0xbead165c	-0.3380612
116	0x3ebff896	0.37494344
117	0x3ebd9a85	0.37031952
118	0x3d85a9ce	0.06526528
119	0x3ccf4f57	0.025306387
120	0x3f0de9ac	0.5543468
121	0xbeb90f26	-0.3614437
122	0xbeb85159	-0.35999563
123	0x3f009293	0.50223655
124	0x3ee74bf7	0.45175144
125	0xbe9038c0	-0.28168297
126	0xbeacfeb6	-0.3378808
127	0xbe950944	-0.29108632
