SAC/target_critic2_v3.pth (torch, 46031 bytes, 7 tensors)

fc1.weight f4 [32, 11]
0	0xbebfffce	-0.3749985
1	0x3f453f2a	0.77049506
2	0x3ea86664	0.32890618
3	0x3a7f3f3a	0.00097368995
4	0x3bac1b38	0.005252268
5	0x3c60d099	0.013721609
6	0xbee52918	-0.44757915
7	0xbda6e282	-0.08148672
8	0xbe685b75	-0.22691138
9	0x3c94eb48	0.018178597
10	0xbc753679	-0.014966601
11	0xbef349a1	-0.47517112
12	0x3f440146	0.76564443
13	0xbd09ec10	-0.033672392
14	0x3d3014f3	0.04298873
15	0x39994846	0.00029236282
16	0xbd9ff3ce	-0.07810174
17	0x3eff1de5	0.49827495
18	0x3e6be035	0.23034747
19	0x3eacfcad	0.33786526
20	0x3bb5c111	0.005546697
21	0x3b254773	0.002521959
22	0x3ea49dce	0.32151645
23	0x3e1ed9da	0.15512791
24	0x3e3aa616	0.1822742
25	0x3cedc70e	0.02902558
26	0xbdef8280	-0.11694813
27	0xbe1712c1	-0.14753248
28	0xbe320fa9	-0.17388786
29	0xbe9015fd	-0.28141776
30	0xbdd40cc7	-0.103539996
31	0xbd51bcf0	-0.051205575
32	0xbdacb175	-0.08432285
33	0xbd152968	-0.03641644
34	0x3f3bc841	0.7335244
35	0xbdfb8ea2	-0.122830644
36	0x3f001903	0.50038165
37	0x3c1b5933	0.009481716
38	0xbb0f1812	-0.0021834415
39	0x3c7411c0	0.01489681
40	0x3f33a2a8	0.7017007
41	0x3ece9d3f	0.40354344
42	0x3c82e4f5	0.015978316
43	0xbd9cf1bc	-0.07663295
44	0xbe11a358	-0.14222467
45	0xbbc8a1f2	-0.006122821
46	0xbdb4b57a	-0.088236764
47	0x3d897d85	0.06713394
48	0x3cde94fb	0.027170649
49	0xbe06bbca	-0.13157573
50	0x3ef12908	0.47101617
51	0xbeb808bc	-0.35944164
52	0x3d002884	0.03128864
53	0x3cff3990	0.031155378
54	0xbd96cf94	-0.07363811
55	0x3ebcf180	0.36903
56	0xbeb80908	-0.3594439
57	0x3c2c45c8	0.010514684
58	0xbc6c952d	-0.014439863
59	0xbc005f4c	-0.007835221
60	0xbb1bc67b	-0.0023769427
61	0x3e087ae2	0.13328126
62	0x3d45924c	0.048235223
63	0xbe296b94	-0.16544944
64	0xbc8da834	-0.01729212
65	0x3f04814e	0.51759803
66	0xbf0018a0	-0.50037575
67	0xbd86df77	-0.06585591
68	0x3dc67889	0.09690959
69	0xbe10ccbc	-0.141406
70	0x3d54fab0	0.051996887
71	0x3d6a175e	0.05715119
72	0x3f57da5a	0.84317553
73	0xbdb0479e	-0.0860741
74	0x3e55e0df	0.20886563
75	0xbc84e6b7	-0.016223295
76	0x3dbb14d1	0.0913483
77	0x3ee1223a	0.43971425
78	0x3ef46e80	0.47740555
79	0xbebc85a8	-0.36820722
80	0x3df60aae	0.12013756
81	0x3b9b0ed5	0.0047319927
82	0xbcf97271	-0.030450078
83	0xbf408326	-0.75200117
84	0x3f1f5c74	0.6225045
85	0xbda13716	-0.07871835
86	0x3b92867e	0.004471599
87	0x3caa4436	0.020784479
88	0x3f48e609	0.78476006
89	0x3db754ee	0.08951746
90	0x3f28d4b1	0.6594954
91	0x3eb9f448	0.36319184
92	0x3caa2f1e	0.02077442
93	0xbcb1f1b0	-0.02172169
94	0xbf2f3b09	-0.68449455
95	0x3eccb681	0.3998299
96	0x3e2042ab	0.15650432
97	0x3ac38784	0.0014917706
98	0x3e3064d3	0.17225961
99	0xbebccfd1	-0.368773
100	0x3e0d4fbd	0.13799949
101	0x3d465811	0.04842383
102	0x3d205ff4	0.039154008
103	0x3c4e6c4c	0.012599062
104	0x3cbf8f48	0.023383752
105	0x3daa7a97	0.083241634
106	0xbd26cedc	-0.04072462
107	0xbd94f954	-0.07274118
108	0x3f2c0c1c	0.6720598
109	0xbd7c74c0	-0.06163478
110	0xbee84421	-0.45364478
111	0x3ea7e5f3	0.32792625
112	0xbe7732aa	-0.2414042
113	0xbe1510dc	-0.14557213
114	0x3c9a3aa3	0.018826788
115	0x3d9c1324	0.07620838
116	0x3fb066ab	1.3781332
117	0x3f036863	0.51331156
118	0x3e32a093	0.17444067
119	0x3bd7da1c	0.00658728
120	0x3dca5d7b	0.09881111
121	0x3e52170e	0.20516607
122	0xbdd62aa5	-0.104573525
123	0xbf20404b	-0.62598103
124	0xbeaa5168	-0.33265233
125	0xbbe0cc45	-0.0068602883
126	0xbd821853	-0.06352296
127	0xbe23f2d9	-0.16010608
128	0xbdacebb9	-0.08443398
129	0x3e4f9481	0.20271493
130	0x3d0784f7	0.03308579
131	0x3d84fc29	0.06493408
132	0x3cc1c545	0.023653636
133	0xbece20b7	-0.40259334
134	0x3e8a4fc5	0.27013984
135	0x3ebbfa13	0.3671423
136	0xbda8151a	-0.0820715
137	0xbdb3752c	-0.08762583
138	0x3e9e430f	0.30910537
139	0xbe783ce8	-0.24241984
140	0x3df4121f	0.11917519
141	0x3c504a85	0.012713079
142	0xbd665fe7	-0.056243803
143	0xbf0c6568	-0.54842234
144	0x3c1dd44a	0.009633133
145	0x3e329690	0.17440248
146	0x3e686c85	0.22697647
147	0xbb657b1e	-0.003501601
148	0xbc02dfcb	-0.007987927
149	0x3f3b901f	0.73266786
150	0xbf1e99fa	-0.619537
151	0x3eb57d25	0.3544704
152	0x3c125013	0.008930224
153	0xbcd7f507	-0.026361955
154	0x3f08e6c5	0.53477126
155	0x3e98c99f	0.29841325
156	0x3ea198be	0.31561846
157	0xbc24d7eb	-0.0100612445
158	0x3cfce843	0.03087247
159	0xbcaae4f4	-0.020861126
160	0xbf33ed84	-0.70284295
161	0xbdd564fa	-0.104196504
162	0x3d1486f2	0.036261506
163	0x3d59c28d	0.053164054
164	0xbd74b295	-0.05974062
165	0x3e8746b3	0.26421127
166	0x3d9c6cde	0.07637952
167	0x3da816db	0.08207484
168	0x3ed08777	0.4072835
169	0x3c18752c	0.00930528
170	0xbce35b7d	-0.027753586
171	0xbeb20ce6	-0.34775466
172	0x3f48a3c6	0.783749
173	0x3e8ef213	0.27919063
174	0x3c5cbc91	0.013472692
175	0x3e57b150	0.21063733
176	0x3d7702a5	0.060305256
177	0x3e8d06ad	0.27544156
178	0x3f94779d	1.1599003
179	0x3ecb48fd	0.39704123
180	0xba668408	-0.0008793478
181	0x3d2ff951	0.042962376
182	0x3ec68e26	0.38780326
183	0xbe0c99ea	-0.13730589
184	0xbdf407dd	-0.11915562
185	0x3d64b77f	0.055839058
186	0xbb41bf29	-0.0029563403
187	0x3ea89972	0.3292957
188	0x3c9a1e7f	0.01881337
189	0x3b852f10	0.004064448
190	0xbd03ae11	-0.032148425
191	0x3d8a54cc	0.06754455
192	0x3e4853f0	0.1956327
193	0xbf88db36	-1.0691898
194	0x3f02a313	0.5103008
195	0xbe2fa169	-0.17151417
196	0xbced2369	-0.028947549
197	0x3c4b25d6	0.0123991575
198	0xbde723d1	-0.11286128
199	0xbf2f7cf9	-0.6855007
200	0xbd5061d5	-0.05087455
201	0xbd6e9641	-0.058248762
202	0x3a83a7a0	0.0010044463
203	0x381de462	3.7644415e-05
204	0x3ef7db56	0.48409528
205	0xbf54b7f8	-0.83093214
206	0xbe05b440	-0.13057041
207	0xbaec6686	-0.0018035925
208	0xbb5c4e0b	-0.0033615853
209	0xbe955579	-0.29166773
210	0xbe7af3e6	-0.24507102
211	0xbe0aa03b	-0.13537686
212	0xbe49ecd0	-0.19719243
213	0xbc160443	-0.0091562895
214	0xbdeeb230	-0.1165508
215	0x3edd3ef2	0.43212086
216	0xbe929447	-0.28628752
217	0x3c8fdae5	0.017560432
218	0x3bcb29f1	0.006200068
219	0x3d5df517	0.054188814
220	0x3d539821	0.051658753
221	0xbe8bedf8	-0.27329993
222	0x3f006643	0.5015604
223	0x3e14aa28	0.14518034
224	0x3d821c19	0.063530155
225	0x3e34860e	0.17629263
226	0x3f258dc3	0.64669436
227	0xbf0a0dd8	-0.53927374
228	0xbe87b48e	-0.2650494
229	0x3cabae79	0.020957218
230	0x3dc93058	0.09823674
231	0xbd2b0437	-0.041752066
232	0x3e034c7c	0.12822145
233	0xbe84a842	-0.2590962
234	0xbd4fb586	-0.050710224
235	0x3e13f881	0.14450265
236	0x3e09d74c	0.13461035
237	0x3f03ceb4	0.5148728
238	0x3e8c6cb6	0.2742669
239	0xbcd0bfb9	-0.025482045
240	0xbcc0cf44	-0.023536332
241	0xbdc495f5	-0.095989145
242	0x3eddd70a	0.43328124
243	0x3defce65	0.117092885
244	0x3ed72eb6	0.42027825
245	0xbdb8d348	-0.09024674
246	0xbb3808e1	-0.0028081464
247	0xbd2b7f3b	-0.041869383
248	0xbf23f783	-0.6404955
249	0x3f3584f2	0.70905983
250	0x3e301748	0.17196381
251	0x3be5906a	0.007005741
252	0xbddba5db	-0.10724994
253	0xbe178348	-0.14796174
254	0x3d9f532b	0.07779535
255	0xbf0be247	-0.54642147

fc1.bias f4 [32]
0	0xbdd49300	-0.103796005
1	0x3e9ad4af	0.3024039
2	0x3da9a699	0.08283729
3	0x3eb740ab	0.35791525
4	0xbe16e70b	-0.14736573
5	0x3e6a4f41	0.22881795
6	0xbe724687	-0.23659717
7	0xbddeda77	-0.108815126
8	0xbcc382f0	-0.023866147
9	0x3ea9e826	0.33184928
10	0x3ec048b7	0.37555477
11	0xbea04dc4	-0.3130933
12	0x3df50805	0.1196442
13	0x3e49af6c	0.19695824
14	0xbc8ec739	-0.017428981
15	0x3ce694c3	0.028147107
16	0x3e9d04cf	0.3066773
17	0xbd1a3c86	-0.037655376
18	0xbd8d959a	-0.069133
19	0xbdbc40d2	-0.09192051
20	0x3da9dc42	0.08293964
21	0xbe425f02	-0.18981555
22	0x3e44d2d8	0.19221056
23	0xbd8230c3	-0.06356957
24	0x3e0b1a10	0.13584161
25	0x3e3398a8	0.17538702
26	0xbd86ac94	-0.065758854
27	0xbcc2041a	-0.023683596
28	0x3e51955d	0.20467134
29	0xbe35abd8	-0.17741334
30	0xbe35bf18	-0.17748678
31	0x3e54047b	0.20704834

fc2.weight f4 [64, 32]
0	0x3f0d3a86	0.55167425
1	0xbd233579	-0.039845917
2	0x3e9e64bd	0.30936232
3	0xbef1a415	-0.47195497
4	0xbe6d5023	-0.23175101
5	0xbdf46d9d	-0.119349696
6	0x3ec932e8	0.3929665
7	0x3ecee6db	0.40410504
8	0xbca61463	-0.020273393
9	0x3e976bb0	0.29574347
10	0xbc72793c	-0.014799412
11	0x3e89d8aa	0.26923114
12	0x3e6e71e0	0.23285627
13	0x3dfc3c66	0.123162076
14	0x3e568f0a	0.20953003
15	0xbd999b3d	-0.075003125
16	0xbcf4f2f6	-0.029901009
17	0xbf30d0e4	-0.6906874
18	0x40321778	2.7826824
19	0x3e95fdbf	0.29295155
20	0xbc62ad9d	-0.013835338
21	0xbe5b743c	-0.21431059
22	0xbd8fd784	-0.07023528
23	0xbdb88229	-0.09009201
24	0x3e18a1c0	0.14905453
25	0xbd8c53b2	-0.06851901
26	0x3e6f2f7c	0.23357958
27	0x3d31c8b3	0.043404292
28	0x3d85aacc	0.065267175
29	0xbe18b0d7	-0.14911209
30	0x3e5ad69c	0.2137093
31	0xbdffb6b6	-0.12486021
32	0xbf38347d	-0.7195509
33	0x3db0f708	0.086408675
34	0xbd11ae3c	-0.035566553
35	0x3dd1b067	0.10238724
36	0xbc606f96	-0.013698479
37	0x3e834bed	0.25643864
38	0xbd832005	-0.064025916
39	0xbf413f3d	-0.7548712
40	0xbdf3d76a	-0.11906321
41	0xbebd11dd	-0.3692769
42	0x3de0dd04	0.109796554
43	0x3d412706	0.047156356
44	0xbc926595	-0.017870704
45	0xbd862001	-0.06549073
46	0x3dd41dd2	0.1035725
47	0xbcb3ea18	-0.02196221
48	0x3d7faac0	0.0624187
49	0xbf521c68	-0.82074594
50	0xbf949a90	-1.1609669
51	0x3e7fcca0	0.24980402
52	0xbe4569c6	-0.1927863
53	0x3eb602ef	0.35549113
54	0xbd409fe9	-0.047027502
55	0x3d9db797	0.077010326
56	0x3e42d556	0.19026694
57	0x3cbd25d9	0.023089336
58	0x3e1b9e96	0.15197214
59	0x3e200988	0.15628636
60	0xbf0f40e4	-0.5595839
61	0xbe82af12	-0.25524193
62	0x3e579208	0.210518
63	0x3d9172de	0.07101987
64	0x3ea5a03c	0.32348812
65	0x3db6bac4	0.089223415
66	0x3dd0e698	0.10200232
67	0xbd878ef5	-0.06619064
68	0xbd9766f1	-0.073926814
69	0x3d1e53f7	0.038654294
70	0x3e1c253b	0.15248577
71	0x3ec28f29	0.37999848
72	0xbe5e8e32	-0.2173393
73	0xbc308c46	-0.010775631
74	0x3e12e089	0.14343466
75	0x3d6e4f85	0.058181304
76	0x3e0d5dfe	0.13805386
77	0x3f03276f	0.51232046
78	0x3e5ea4f8	0.21742618
79	0xbcb60abe	-0.02222192
80	0xbe76ac7f	-0.2408924
81	0xbe420aa4	-0.18949372
82	0x40029575	2.0403721
83	0x3e1db608	0.1540147
84	0x3cf013e1	0.029306354
85	0x3daf307a	0.08554168
86	0xbd9869fb	-0.07442089
87	0x3c4bb342	0.012432875
88	0xbdfd3bc5	-0.12364916
89	0xbde73c14	-0.11290756
90	0x3d1701ad	0.036866833
91	0x3cf69479	0.030100094
92	0xbe4af1ad	-0.19818754
93	0xbe870e31	-0.26378015
94	0xbd921c68	-0.07134324
95	0xbd03fa15	-0.03222092
96	0xbe908af8	-0.28231025
97	0xbeab284a	-0.33429176
98	0xbdc7c442	-0.0975423
99	0xbd6d4f56	-0.05793699
100	0xbe87715b	-0.2645367
101	0xbd70c025	-0.058776993
102	0x3cd17ab9	0.025571214
103	0x3d27f379	0.041003678
104	0x3e82b914	0.25531828
105	0x3d62f501	0.055409435
106	0xbdb30219	-0.087406345
107	0xbe12d5b5	-0.14339335
108	0xbe0f03a9	-0.1396624
109	0xbca54434	-0.020174123
110	0x3e1d0394	0.15333396
111	0x3de027c9	0.109450884
112	0xbede190c	-0.43378484
113	0x3e14bd87	0.14525424
114	0x3ec7033a	0.3886965
115	0x3ea6a000	0.32543945
116	0xbef5fdab	-0.48045096
117	0x3e8c221e	0.2736978
118	0x3df6430b	0.12024506
119	0xbead546e	-0.33853477
120	0xbcb2aa92	-0.02180985
121	0xbe131a33	-0.14365463
122	0x3cf8ec3e	0.030386087
123	0x3ea2dbf4	0.31808436
124	0x3eaa089d	0.33209696
125	0x3e2e8976	0.17044625
126	0xbf3b7498	-0.7322478
127	0xbe7734d7	-0.2414125
128	0x3f0ab086	0.54175603
129	0x3e4a8664	0.19777828
130	0xbde2f339	-0.11081547
131	0x3e34183c	0.1758737
132	0x3d4cc4b4	0.04999228
133	0xbbaacdcd	-0.0052125216
134	0x3df72533	0.12067642
135	0xbecc0e21	-0.3985453
136	0xbe272a94	-0.16324836
137	0xbd92cd88	-0.07168108
138	0x3e8fb3c8	0.2806685
139	0xbd873a58	-0.06602925
140	0xbe92c120	-0.28662968
141	0x3e772b1f	0.24137543
142	0xbe5b7519	-0.21431388
143	0xbdfcb844	-0.123398334
144	0xbddcfe31	-0.10790671
145	0x3d3e249b	0.04642163
146	0x3f1b364c	0.60629725
147	0x3e0ec730	0.13943172
148	0x3cdc4d9e	0.02689248
149	0x3c9ceff0	0.01915738
150	0xbd4cbf78	-0.049987286
151	0x3f0a7a3d	0.5409277
152	0xbe4d5871	-0.20053269
153	0x3e4fee99	0.20305862
154	0xbe8b7d26	-0.27243918
155	0xbe7b87fb	-0.24563591
156	0xbe7be6b1	-0.2459972
157	0x3d335ac5	0.043787736
158	0x3d298244	0.041383997
159	0xbe75602e	-0.23962471
160	0x3f061d0a	0.5238806
161	0xbda69c26	-0.08135252
162	0x3d473ce0	0.04864204
163	0xbdb69eb4	-0.08916989
164	0xbc90cafa	-0.017674912
165	0xbe0d9f66	-0.13830337
166	0x3db141d8	0.08655137
167	0xbf2808b0	-0.65638256
168	0x3ea911f5	0.33021513
169	0xbdb8bde8	-0.09020597
170	0x3dd04a02	0.10170366
171	0xbd5e40e7	-0.054261114
172	0xbe4167ea	-0.18887296
173	0xbe847a7b	-0.25874695
174	0x3c9cc458	0.019136593
175	0x3c9f0579	0.01941179
176	0x3ec34c15	0.38143983
177	0xbe16b901	-0.14719011
178	0xbfea469d	-1.83028
179	0x3eb58603	0.35453805
180	0xbf288936	-0.6583437
181	0x3b27cd41	0.0025604519
182	0x3e57bf3f	0.21069048
183	0xbe2fefa6	-0.17181262
184	0x3d4ef5c2	0.05052734
185	0x3de07b16	0.10960977
186	0x3d4e8634	0.050420955
187	0xbe4a42b9	-0.19752015
188	0xbe04abe6	-0.12956199
189	0x3e3d9eea	0.18517652
190	0x3e2f8d96	0.17143854
191	0xbf22b9ae	-0.63564575
192	0x3f010635	0.50400096
193	0x3d23aabf	0.039957758
194	0xbdedf16f	-0.116183154
195	0x3e056aaa	0.1302897
196	0x3b4c8b3c	0.003121092
197	0x3d1e9f96	0.03872641
198	0x3e2efdc7	0.17088996
199	0x3e50125f	0.20319508
200	0xbe5e4301	-0.21705247
201	0xbd9c64b5	-0.07636396
202	0x3ed4a0c8	0.41528916
203	0xb9937226	-0.00028123072
204	0x3dda1287	0.10648065
205	0x3f3cfd40	0.7382393
206	0xbdf42333	-0.11920776
207	0xbed3178e	-0.41228908
208	0xbe516adc	-0.2045092
209	0xbec5c71e	-0.38628477
210	0x3eef7f12	0.46776634
211	0x3ebcab9a	0.36849672
212	0x3e8fd157	0.280894
213	0x3ddc2346	0.107489154
214	0xbe54bbb1	-0.20774724
215	0x3e054519	0.1301464
216	0xbd4c283b	-0.049843054
217	0xbdb55c69	-0.088555165
218	0xbebfdea2	-0.37474543
219	0x3d1ca761	0.038245562
220	0xbec34821	-0.38140967
221	0x3d090579	0.033452485
222	0xbda70af5	-0.08156387
223	0xbd81a5e3	-0.063304685
224	0xbf86fe0b	-1.0546278
225	0x3dba1020	0.09085107
226	0xbe06d5de	-0.13167521
227	0xbf16cdc6	-0.58907735
228	0xbdc84011	-0.09777845
229	0x3f71110d	0.9416664
230	0x3c2fb432	0.010724114
231	0x3de709fc	0.11281201
232	0x3ebd62c1	0.36989406
233	0xbeb4ee43	-0.3533803
234	0x3e4b0373	0.19825535
235	0x3e850502	0.25980383
236	0x3c9ae7f7	0.018909438
237	0xbda158e5	-0.078782834
238	0x3cdd5d18	0.02702193
239	0x3f0a11e6	0.5393356
240	0x3b20e6a4	0.0024551535
241	0x3cbb0510	0.022829562
242	0xbf3b2a59	-0.7311149
243	0x3dc11398	0.09427565
244	0xbe2000d1	-0.15625311
245	0x3e18a26e	0.14905712
246	0xbee7180d	-0.45135537
247	0xbd78c752	-0.06073696
248	0x3e7021f2	0.23450449
249	0xbdee32c9	-0.1163078
250	0xbcebbe90	-0.02877739
251	0xbe05e3e9	-0.13075222
252	0xbe010e54	-0.12603122
253	0x3e46c438	0.19410789
254	0x3dd39e13	0.10332885
255	0x3dbf0df0	0.0932883

fc2.bias f4 [64]
0	0xbcd312f8	-0.025765881
1	0xbdbadeba	-0.09124513
2	0xbd0a2614	-0.03372772
3	0xbd1e3792	-0.038627215
4	0xbd4c1dd0	-0.04983312
5	0xbd275d76	-0.040860616
6	0x3d9a7389	0.07541568
7	0x3cda7ef3	0.026671862
8	0x3d44fb06	0.048090957
9	0x3d1a30a0	0.03764403
10	0x3e006ce3	0.12541537
11	0x3d5ee594	0.05441816
12	0x3d343b4e	0.04400187
13	0xbe8ccd11	-0.27500203
14	0xbdc0d8b1	-0.094163306
15	0xbda5cff6	-0.08096306
16	0xbd8c793c	-0.06859061
17	0xbe1ef6dc	-0.15523857
18	0x3deceeb7	0.11568969
19	0x3b5d8a50	0.0033804365
20	0x3df1b588	0.118022025
21	0x3e038693	0.12844305
22	0x3e1309ba	0.14359179
23	0x3eb478d7	0.35248443
24	0x3da0e038	0.07855266
25	0x3ca65f6c	0.020309173
26	0x3d956a42	0.07295658
27	0xbd6f3f56	-0.05841001
28	0xbe05c205	-0.13062294
29	0x3d856d13	0.06514945
30	0xbd3ee81e	-0.046608083
31	0x3e6a3767	0.22872697
32	0xbd2db989	-0.04241327
33	0x3d7d272a	0.061804928
34	0x3d198f91	0.03749043
35	0xbe2434e3	-0.160358
36	0x3e48ecd1	0.19621588
37	0xbdae93f6	-0.08524315
38	0x3ce66da2	0.028128449
39	0xbdba0e9e	-0.09084819
40	0x3c92b0fe	0.017906662
41	0xbdc57653	-0.09641709
42	0xbe1279c6	-0.14304265
43	0x3d987ce2	0.074456945
44	0xbe580b48	-0.21098053
45	0xbcf86c64	-0.030325122
46	0xbe1aebbe	-0.15128991
47	0xbe3b0c8d	-0.18266506
48	0x3e5cd249	0.21564592
49	0xbd1853bb	-0.037189227
50	0x39cfe35c	0.00039651513
51	0xbd8279ca	-0.06370886
52	0x3e036bc8	0.12834084
53	0x3e820c8a	0.25400192
54	0x3b3f7524	0.0029214108
55	0xbe5b9e80	-0.21447182
56	0x3dd7985f	0.10527109
57	0x3e044732	0.12917784
58	0x3c2a1235	0.010380317
59	0x3d4916d3	0.049094032
60	0xbc029172	-0.007969247
61	0x3e044c73	0.12919788
62	0xbdf0efd4	-0.117644936
63	0xbdd42230	-0.10358083

fc3.weight f4 [128, 64]
0	0x3f0af28a	0.54276335
1	0x3edf9d8f	0.43674895
2	0x3e096802	0.13418582
3	0x3f1a7797	0.6033873
4	0xbd8f3017	-0.06991594
5	0xbed1b888	-0.409611
6	0x3e5c580f	0.21517967
7	0x3eb20869	0.3477204
8	0xbe16f974	-0.14743596
9	0x3ef46fa5	0.47741428
10	0x3ca9d788	0.020732656
11	0xbd8e1cb3	-0.06939068
12	0xbd1a4b74	-0.037669614
13	0xbf66e1b9	-0.90188175
14	0xbe1cbf30	-0.15307307
15	0xbeefc3f1	-0.4682918
16	0x3f20df0c	0.6284034
17	0xbed3f6bf	-0.4139919
18	0xbbf01596	-0.007326792
19	0x3dba669a	0.09101601
20	0xbe9990bc	-0.29993236
21	0x3e761a35	0.24033435
22	0xbf39cdde	-0.72579753
23	0xbe962c60	-0.2933073
24	0x3f10e33f	0.5659675
25	0xbf33f36e	-0.7029332
26	0xbd621dcd	-0.0552042
27	0xbf1fe764	-0.6246245
28	0x3e2ca774	0.16860753
29	0xbe6e801d	-0.23291059
30	0xbedfaec0	-0.4368801
31	0xc0117684	-2.2728586
32	0xbe94fa84	-0.29097378
33	0xbfb34fc2	-1.4008715
34	0x3de7303c	0.11288497
35	0x3e08cdb7	0.13359724
36	0xbf253dcd	-0.64547426
37	0xbf49c23f	-0.7881202
38	0x3e263f9c	0.16235203
39	0x3d39cfd1	0.045364205
40	0x3e474a36	0.19461903
41	0xbeb7249e	-0.35770124
42	0x3d4634de	0.04839026
43	0xbea6cd05	-0.32578292
44	0x3f2e432d	0.6807125
45	0xbe054313	-0.13013868
46	0x3e882816	0.26593083
47	0xbf2cb071	-0.6745673
48	0x3f09df8a	0.5385672
49	0xbe77983e	-0.2417917
50	0xbe229811	-0.15878321
51	0x3f330c2d	0.69940454
52	0xbeb2d006	-0.34924334
53	0xbee294f1	-0.44254258
54	0xbee94765	-0.45562282
55	0xbf03fce7	-0.51557773
56	0xc009e62f	-2.1546743
57	0xbee62b4d	-0.4495491
58	0xbec05d2b	-0.37571082
59	0x3f155aff	0.58341974
60	0xbff46bbe	-1.909538
61	0x3cb2280d	0.021747613
62	0xbf7fe796	-0.9996275
63	0xbec52d97	-0.38511345
64	0x3d94d64c	0.072674364
65	0x3e347b71	0.17625214
66	0xbd0f120d	-0.034929324
67	0x3cee786e	0.02911016
68	0x3d261a75	0.040552575
69	0x3d8b9de2	0.06817223
70	0xbecc68f0	-0.3992381
71	0xbe79b1b6	-0.24384198
72	0xbbc19637	-0.0059077996
73	0xbef5c220	-0.47999668
74	0x3bc7dd7b	0.0060994006
75	0xbd331141	-0.043717626
76	0x3df78fa6	0.12087946
77	0xbe001cc9	-0.1251098
78	0x3e051ab0	0.12998462
79	0x3e3d61c6	0.18494329
80	0x3f1eb040	0.61987686
81	0xbe981f5b	-0.29711422
82	0xbd96b64d	-0.0735899
83	0xbd56f910	-0.05248362
84	0x3def69fb	0.11690136
85	0x3def3f5e	0.11682008
86	0x3dd9d2f4	0.10635939
87	0x3d71cf27	0.059035446
88	0xbef1d0f1	-0.47229722
89	0x3eb85934	0.36005557
90	0xbf4d178e	-0.80114067
91	0xbdebb42a	-0.11508973
92	0x3b655265	0.0034991738
93	0xbf48d5ff	-0.7845153
94	0x3e0d48ef	0.13797353
95	0x3e8ae774	0.2712971
96	0xbec6b036	-0.38806313
97	0x3e23d125	0.15997751
98	0xbde87d4a	-0.11352022
99	0x3f25eaf2	0.64811623
100	0x3e4eff7a	0.20214644
101	0x3e70209b	0.23449938
102	0xbe672862	-0.22573999
103	0x3e1e8476	0.15480217
104	0x3d394d81	0.04523993
105	0x3d8f1e59	0.0698821
106	0xbe838f6b	-0.25695357
107	0xbde79da5	-0.11309365
108	0xc0115617	-2.2708795
109	0x3dd88c0e	0.10573588
110	0xbecdb66b	-0.40178236
111	0x3dc8eac6	0.098104045
112	0xbdf9e8b8	-0.12202591
113	0x3dd25087	0.102692656
114	0x3e380045	0.17968853
115	0xbf1bc1ba	-0.6084248
116	0x3e2463e7	0.16053735
117	0x3e5936c9	0.21212305
118	0x3dcb85ed	0.09937654
119	0x3e2cc4c2	0.16871932
120	0x3d5943e9	0.05304328
121	0x3d957d36	0.07299273
122	0x3e65b733	0.22433166
123	0x3d1972c5	0.03746297
124	0x3e4bf8ab	0.19919078
125	0xbe1ff627	-0.15621243
126	0xbf187a62	-0.5956174
127	0x3db6bcb3	0.0892271
128	0xbde55534	-0.11197892
129	0xbcddd1c7	-0.027077569
130	0x3d0421f5	0.032258946
131	0xbe0897f1	-0.13339211
132	0x3e7ac5ac	0.24489468
133	0x3da49039	0.08035321
134	0x3e3f6cac	0.18693799
135	0x3ef71f8b	0.48266253
136	0x3c4bb5be	0.012433467
137	0x3e5caf2f	0.21551202
138	0xbce711c5	-0.028206715
139	0xbd308b8e	-0.04310184
140	0x3d66fc49	0.05639294
141	0x3e41a8f2	0.18912104
142	0x3de85e43	0.11346104
143	0x3ddaca06	0.10683064
144	0xbf6b2200	-0.91848755
145	0x3eac4d02	0.33652502
146	0x3df8f0bd	0.12155292
147	0xbdebf6e4	-0.115217
148	0x3debf18b	0.1152068
149	0x3d5bb418	0.053638548
150	0xbb773e43	-0.003772632
151	0x3e0616d4	0.13094646
152	0x3ef05a55	0.46943918
153	0xbe9c1fcb	-0.30493006
154	0x3f3c4faf	0.7355909
155	0x3e4b7a1e	0.19870803
156	0x3e01f89c	0.12692493
157	0x3f22f322	0.6365224
158	0xbdad5eac	-0.08465323
159	0xbe2b1337	-0.16706549
160	0x3f0b9ab1	0.54532915
161	0x3e34603b	0.17614834
162	0x3e56cb40	0.20975971
163	0xbf08edf0	-0.53488064
164	0xbcea1e47	-0.02857889
165	0xbda7defb	-0.08196827
166	0x3e4bc3d9	0.19898929
167	0x3d578c18	0.05262384
168	0x3d51d0f8	0.05122468
169	0x3ba96f44	0.0051707346
170	0x3e9a077f	0.30083844
171	0x3ec9394c	0.39301527
172	0x3ff01211	1.8755513
173	0xbc7bc931	-0.015367792
174	0x3eb987e6	0.36236495
175	0x3dc028c0	0.093827724
176	0xbb79b790	-0.0038103797
177	0x3e1d0f09	0.15337767
178	0x3e03ba9e	0.12864158
179	0x3e9bd91e	0.30439085
180	0x3e5a6d01	0.21330644
181	0x3e364564	0.17799908
182	0x3e576c0b	0.21037309
183	0x3e2fd51b	0.17171137
184	0xbcabc225	-0.020966599
185	0x3cc7ba01	0.024380686
186	0x3ddd7792	0.10813822
187	0xbc900e29	-0.017584877
188	0xbe2c9b4d	-0.16856118
189	0x3e7890be	0.24273965
190	0x3f2b63f3	0.66949385
191	0x3da929d8	0.08259934
192	0xbef15f50	-0.4714303
193	0x3d8153a6	0.06314783
194	0x3e70cb31	0.23515011
195	0x3daaab1b	0.08333417
196	0xbe5e91fb	-0.21735375
197	0xbfd77206	-1.6831672
198	0xc01d28a5	-2.4556057
199	0xbe3265d3	-0.17421655
200	0x3e64f8ea	0.22360578
201	0xbfa6b33c	-1.3023448
202	0x3cf9827a	0.030457724
203	0xbcf59f8e	-0.029983308
204	0xbd8aa7ef	-0.06770312
205	0xbfb14bd5	-1.3851267
206	0xbe35e546	-0.17763242
207	0x3cfc4cb9	0.030798303
208	0xbf7646b8	-0.9620166
209	0x3d02f4f1	0.031971876
210	0x3e831101	0.2559891
211	0x3d9b27c3	0.07575943
212	0xc0005c0c	-2.005618
213	0xbe4e666a	-0.20156255
214	0x3d459830	0.04824084
215	0x3e81ce3e	0.25352663
216	0xbed98503	-0.42484292
217	0x3f2098c5	0.6273311
218	0xc0751dff	-3.8299558
219	0xc05cea92	-3.451817
220	0x3d84f040	0.064911366
221	0xbce3ee90	-0.027823716
222	0xbcaaf058	-0.020866558
223	0x3de4f300	0.11179161
224	0xbeab05ce	-0.33402866
225	0xbe1f0952	-0.15530899
226	0x3df68f36	0.12039034
227	0x3fc81e34	1.5634217
228	0x3d31a1c1	0.04336715
229	0x3e36ca58	0.17850626
230	0xbf80ee8d	-1.00728
231	0x3e8d500e	0.2760014
232	0xbc4d5e91	-0.012534753
233	0x3d9c22c3	0.07623818
234	0x3ecc3b8f	0.3988919
235	0xbf3d328a	-0.7390524
236	0xbf84458f	-1.0333728
237	0x3e017cb1	0.12645222
238	0xbf1c43ba	-0.6104084
239	0xbf28399d	-0.6571291
240	0x3c1b9a24	0.009497199
241	0xbf2bef4f	-0.6716203
242	0x3ee3e57a	0.44511014
243	0xbf0e354e	-0.55550086
244	0x3e2b84f5	0.16749938
245	0x3be57bf2	0.007003301
246	0xbdf59ab2	-0.119923964
247	0xbd4b0efd	-0.04957484
248	0x3cd2bed3	0.025725758
249	0xbef4cb39	-0.47811297
250	0xbe03f150	-0.12885022
251	0xbf582dff	-0.84445184
252	0x3f1b239d	0.60601217
253	0x3ee28ef8	0.44249701
254	0xbf50f078	-0.81616926
255	0x3e1e28e9	0.15445293

fc3.bias f4 [128]
0	0xbec7e6db	-0.39043316
1	0x3e7f9ced	0.24962206
2	0x3d8ff35d	0.0702884
3	0x3da7e897	0.0819866
4	0x3cde274d	0.02711835
5	0xbcc728bb	-0.024311414
6	0x3d7ed305	0.062212963
7	0xbd390642	-0.045171984
8	0x3e1a414b	0.1506397
9	0x3dd54b60	0.10414767
10	0x3ceb2aad	0.028706873
11	0xbdf43a67	-0.11925202
12	0xbc5d9bdb	-0.013525928
13	0x3cbab15e	0.022789653
14	0x3e238bd0	0.15971303
15	0xbc5c9b64	-0.013464782
16	0xbcf19c36	-0.029493432
17	0xbdfac704	-0.122449905
18	0x3df9a08d	0.12188826
19	0x3d44acc0	0.04801631
20	0x3da162bf	0.078801624
21	0xbdaa831a	-0.08325787
22	0xbd06b68f	-0.032888945
23	0xbd305acd	-0.043055344
24	0xbe6ad05d	-0.22931047
25	0x3dbdbf71	0.0926503
26	0xbdf35d0a	-0.1188298
27	0x3e59a941	0.21255971
28	0xbdf2fe82	-0.1186495
29	0xbd57f43c	-0.052723154
30	0x3e73c586	0.23805818
31	0x3cf75725	0.030192921
32	0xbdd7864a	-0.105236605
33	0xbdc5839a	-0.09644242
34	0xbdb06548	-0.08613068
35	0x3db59907	0.08867078
36	0xbe54d3bb	-0.20783894
37	0xbd2dd181	-0.042436127
38	0xbc952518	-0.018206164
39	0xbd1fdc74	-0.0390286
40	0x3d6b19e6	0.057397746
41	0xbd771173	-0.060319375
42	0x3e5f8623	0.21828513
43	0xbe14651f	-0.144917
44	0x3e0fc8d2	0.1404145
45	0x3d4a6932	0.04941673
46	0xbdd6a479	-0.104805894
47	0x3df4132f	0.119177215
48	0x3db971d8	0.09054917
49	0xbd7d7d2e	-0.06188696
50	0x3b1c7edc	0.0023879325
51	0x3d033921	0.032036904
52	0x3b9d234e	0.0047954684
53	0x3e515a8b	0.20444696
54	0xbdbde822	-0.092727914
55	0x3db62651	0.08894027
56	0xbc1c5d3d	-0.009543714
57	0x3dc5f5fa	0.09666057
58	0x3c9db803	0.019252783
59	0xbe095d18	-0.13414419
60	0xbdcac5bc	-0.09900996
61	0x3cf21766	0.029552173
62	0xbc35ff45	-0.011108224
63	0x3cd82338	0.026383981
64	0xbd684ef8	-0.056715935
65	0xbc98014f	-0.018555311
66	0x3e1038af	0.14084123
67	0x3c0f9290	0.008762971
68	0xbec64d7c	-0.3873099
69	0xbd12348c	-0.035694644
70	0x39adcb47	0.00033148585
71	0xbe1fad8f	-0.15593551
72	0x3dbad77e	0.09123133
73	0xbd370fe9	-0.044692907
74	0xbdf56c4d	-0.11983547
75	0x3e8c64c2	0.27420622
76	0x3db45a19	0.08806247
77	0xbe0110a1	-0.12604
78	0xbd704948	-0.058663636
79	0xba05cf6f	-0.00051044574
80	0x3cf2ea3b	0.029652705
81	0x3e35ed92	0.17766407
82	0xbcdecb77	-0.027196629
83	0xbd8cbf7a	-0.06872459
84	0xbdf6a90e	-0.120439634
85	0x3e70ee40	0.23528385
86	0x3ec54a38	0.38533187
87	0x3dbc6162	0.09198262
88	0xbe01d1a2	-0.12677625
89	0xbdd70e8c	-0.105008215
90	0xbdc3f4b6	-0.09568159
91	0xbd225a34	-0.039636806
92	0x3d8d6123	0.06903293
93	0x3e49e355	0.19715627
94	0xbdd1b0b4	-0.102387816
95	0x3e2e09a1	0.1699586
96	0xbcfc7d4c	-0.030821465
97	0xbdff4de7	-0.124660306
98	0xbc6d3284	-0.014477376
99	0x3e2e2d8b	0.17009561
100	0x3e41ef3e	0.1893892
101	0x3e408382	0.18800166
102	0x3b985f29	0.004650016
103	0x3eafd028	0.34338498
104	0x3d9d0903	0.076677345
105	0x3da12f12	0.07870306
106	0x3d92e219	0.07172031
107	0x3db1b6d2	0.08677448
108	0x3de30c0c	0.11086282
109	0xbe0416a5	-0.12899263
110	0xbca48a1d	-0.020085389
111	0x3de4a10d	0.111635305
112	0x3e98d9c7	0.2985365
113	0xbcf32acf	-0.029683499
114	0x3e8b18af	0.2716727
115	0xbd73f116	-0.05955609
116	0xbda9eefd	-0.082975365
117	0xbd15c993	-0.03656919
118	0x3e0e851d	0.13917966
119	0xbd202431	-0.039097015
120	0x3c9bdd67	0.019026471
121	0xbe1fc589	-0.15602697
122	0xbd84b867	-0.064804845
123	0xbda3da33	-0.080006026
124	0x3b84614a	0.004039918
125	0xbd37ea34	-0.044901088
126	0x3d7cb67a	0.06169746
127	0xbe17eabe	-0.14835641

v.weight f4 [1, 128]
0	0x401aea0b	2.4205348
1	0x3f0d5c72	0.55219185
2	0xbda4e9b2	-0.08052386
3	0x400775d2	2.1165662
4	0x3f8de52f	1.1085566
5	0xbd9ce404	-0.07660678
6	0x3fe0aab4	1.7552094
7	0x3fbf12b1	1.4927579
8	0x3f928efb	1.1449884
9	0x3d8e192f	0.06938397
10	0xbd0acacc	-0.03388481
11	0xbbe02180	-0.006839931
12	0x3f7d1740	0.988636
13	0xbd9b37a8	-0.07578975
14	0x3f80f983	1.0076145
15	0xbc6e179e	-0.014531998
16	0xbc8eb24e	-0.017419007
17	0xbd4620ba	-0.048371054
18	0x3f318d5d	0.6935633
19	0xbdad6879	-0.08467192
20	0xbe19d3a4	-0.1502214
21	0xbd413ec4	-0.047179
22	0x3cfc6a9d	0.030812556
23	0x3f832735	1.024634
24	0x3fbc26a5	1.4699293
25	0xbd22c9c2	-0.039743192
26	0x40422376	3.0334144
27	0x3fb37f51	1.4023229
28	0x402c4180	2.6914978
29	0x402d8eb4	2.711835
30	0x3f278f78	0.6545329
31	0xbd8e36ca	-0.06944044
32	0xbd812918	-0.06306666
33	0xbdae46f0	-0.08509624
34	0xbd6f0223	-0.058351647
35	0xbdb7cdea	-0.08974822
36	0xbda3ce2c	-0.079983085
37	0x3fa1368c	1.2594771
38	0x3fb9684d	1.4484955
39	0x4038ee09	2.8895285
40	0x3fe7e0b9	1.8115455
41	0xbdd89782	-0.10575773
42	0x401246a6	2.285562
43	0xbd0d295b	-0.034463268
44	0x3ff1c8bd	1.8889385
45	0xbd71f0a2	-0.059067376
46	0xbcccfc6b	-0.025022706
47	0x40100647	2.2503831
48	0xbd5089c6	-0.05091264
49	0xbd91b357	-0.071142845
50	0xbd50c60c	-0.050970122
51	0xbfc0e633	-1.5070251
52	0xbd88cb61	-0.066794164
53	0x3ef86704	0.48516095
54	0xbe0bd1ab	-0.136542
55	0x3d16feeb	0.036864202
56	0x3f07ede6	0.5309738
57	0x4023875d	2.555137
58	0x3b7cc7fa	0.0038571344
59	0xbd384003	-0.04498292
60	0xbdc08fef	-0.09402453
61	0xbdcb853e	-0.09937523
62	0xbd6ef732	-0.058341213
63	0xbdf1f351	-0.11813987
64	0xbd85604f	-0.0651251
65	0xbcb6f9f9	-0.022335993
66	0xbf8cbea3	-1.0995678
67	0xbe257846	-0.16159162
68	0x40113fc2	2.2695165
69	0xbcc8c884	-0.024509676
70	0x3f5a74b5	0.8533433
71	0xbdb72f8a	-0.08944614
72	0xbccd69cb	-0.02507486
73	0xbda55349	-0.08072526
74	0xbde78680	-0.11304951
75	0x3f00f4d8	0.503736
76	0x3f86219c	1.0479007
77	0xbe7a8482	-0.2446461
78	0xbdbf467a	-0.09339614
79	0xbe0d2c3e	-0.13786408
80	0xbcf87952	-0.030331288
81	0x3f4b0741	0.79307944
82	0xbd8287cc	-0.063735574
83	0xbd96d7fd	-0.07365415
84	0xbe130ee6	-0.14361152
85	0x3fa53e41	1.2909623
86	0x3f54e741	0.83165365
87	0x3f708c05	0.9396365
88	0xbd992bb1	-0.074790366
89	0xbc0d6646	-0.008630341
90	0xbd21a63d	-0.039465178
91	0xbe23aa75	-0.15982993
92	0xbdb90a2a	-0.09035142
93	0x3f8d642f	1.1046199
94	0xbd779d25	-0.0604526
95	0x3fd265e5	1.6437346
96	0xbd61efef	-0.05516046
97	0xbdf5e28d	-0.12006102
98	0x3d083497	0.03325328
99	0x3f470b1f	0.77751344
100	0x3fa91d55	1.3212076
101	0x3f39f964	0.72646165
102	0xbf883d9b	-1.06438
103	0x3f45fa81	0.77335364
104	0x3fa24f04	1.2680364
105	0x3fdebbcc	1.7401061
106	0xbe0c269c	-0.13686603
107	0x3eeae46e	0.45877403
108	0x3ef8a061	0.4855986
109	0xbd43d9e4	-0.04781522
110	0x3c126787	0.008935816
111	0xbdaf3c28	-0.08556396
112	0x3f8277d4	1.0192819
113	0xbd7b796b	-0.06139509
114	0x3f34ae8e	0.7057885
115	0x400416ae	2.0638843
116	0xbe11ef75	-0.14251502
117	0xbdb87f4e	-0.090086564
118	0x3ff1616f	1.8857859
119	0x3f906643	1.1281208
120	0x368d3c16	4.2091224e-06
121	0xbdb21939	-0.08696217
122	0xbd41640e	-0.04721456
123	0xbcc13249	-0.023583548
124	0x3fecb5e8	1.8493013
125	0xbd87a6d6	-0.06623618
126	0xbdc54a06	-0.096332595
127	0xbf63b9e8	-0.88955545
