SAC/target_critic1_v1.pth (torch, 46633 bytes, 7 tensors)

fc1.weight f4 [32, 11]
000000 23 4e af 3e 0a 1d fc 3d 6e 06 06 bf 36 9d ef bc
       0.342393 0.12310226 -0.5235356 -0.029249769
000010 96 a1 f5 bd 2d 24 96 bc 4b 14 28 3e 2f 81 b0 be
       -0.11993711 -0.018327797 0.16413991 -0.3447356
000020 7e 0f 28 3e 7d f6 c1 3d 0b ee 46 3e 6c ac ce 3d
       0.1641216 0.09470842 0.19426744 0.100914806
000030 fd 64 89 3b 5d e1 fc 3e 39 01 8f be ca 8b 30 be
       0.004192947 0.4939069 -0.2793062 -0.17240825
000040 b8 53 af bd 1e d1 23 bf 4b c1 1d 3f df f1 d9 3e
       -0.0856089 -0.6399096 0.61623067 0.42567345
000050 e4 ef 24 3d e2 0d 16 be 3a f6 d7 be 2b 2a a5 be
       0.04026784 -0.14653733 -0.42180043 -0.32258734
000060 ab a2 06 3c 05 4c 06 be d7 bc bd bd 93 c8 7b 3d
       0.008217494 -0.13114937 -0.09264534 0.06147058
000070 9d d9 b3 be 7b c8 22 bf dc 7a 8b 3e bd 8f 1d 3d
       -0.35126963 -0.6358716 0.27242172 0.038467158
000080 04 4e a0 bd 21 33 06 3e e0 8a c4 bd 6f 4a ed 3d
       -0.0782738 0.13105442 -0.09596801 0.11586463
000090 a8 d3 9c 3e ae d4 9c 3d 55 2c 90 bd 23 35 4a 3d
       0.3063023 0.07657753 -0.07039706 0.04936708
0000a0 b8 a2 cc 3e c9 68 cd 3e 9f 09 8d 3d a2 9a f1 3c
       0.39967895 0.40119007 0.06886601 0.02949268
0000b0 7b 88 9f be ba 5f 23 3e bf b5 a3 3e 2d 98 13 bc
       -0.31158814 0.15954486 0.319746 -0.0090084495
0000c0 17 7e 0a be ae 16 67 bd 8a c7 15 3d 57 04 40 3f
       -0.13524662 -0.056418113 0.03656725 0.7500662
0000d0 81 2b 86 3e 64 1c 42 3c 83 07 9f 3d ad 46 08 be
       0.26205066 0.011847589 0.077651046 -0.1330821
0000e0 df 8e b4 be 46 2e 0b bf 82 a0 a8 be ff 05 ae 3d
       -0.35265252 -0.5436748 -0.32934958 0.084972374
0000f0 11 7d 54 be 9c 52 e8 3e 8f 8b bb bd ba f4 f5 3e
       -0.20750834 0.45375526 -0.09157478 0.48038274
000100 16 ba 45 bc a4 0b 4c 3c 88 18 5a be e0 11 d0 be
       -0.012068292 0.012453947 -0.2129842 -0.40638638
000110 2d 3f 1b 3f 12 eb 5c be 09 35 09 3d b2 e8 e5 3c
       0.60643274 -0.21574047 0.033497844 0.02806506
000120 f1 ed 95 bd 9d 24 d9 ba 3f 57 82 3e 17 4f d8 3c
       -0.07320774 -0.0016566698 0.25457188 0.0264049
000130 d7 66 2d bc e8 e9 f8 3b 1a cc 3b be 8a 9d ce be
       -0.010583601 0.007596243 -0.18339577 -0.40354568
000140 f3 32 b5 3d ca 29 bb 3b f5 1e cd 3b f6 0a 8e bf
       0.088476084 0.0057117688 0.006259794 -1.1097095
000150 e4 62 36 3f da 2b 18 3e 7e d4 1b bc e9 06 42 3d
       0.71244645 0.14860478 -0.009511111 0.04736987
000160 d3 51 0b 3f e2 09 1d 3e 12 1f 64 3f 72 3a fc 3d
       0.5442173 0.15335801 0.8910991 0.12315835
000170 ff a5 21 3e 95 93 de bd ee 82 a9 be 17 5c ef 3e
       0.15785979 -0.10867993 -0.33107704 0.46749946
000180 70 ea 66 be 34 96 18 bd 61 20 79 bd 9b f2 3f be
       -0.22550368 -0.03725262 -0.060821895 -0.1874489
000190 a1 4e 0a 3e 57 b4 1b bc 8e 4a e4 3c 37 19 33 3d
       0.13506557 -0.009503446 0.027867582 0.04372522
0001a0 98 b1 c5 3d 47 d7 0c 3e 03 25 d5 be 28 3c 07 3f
       0.09653014 0.13753997 -0.416298 0.52826166
0001b0 6d fd 24 bd 4e da aa 3d 52 e3 c2 3e 6d 32 83 3e
       -0.04028075 0.083424196 0.38064057 0.2562441
0001c0 34 f5 16 3f 83 3e 20 be 26 80 c5 bc b5 bb 4e bd
       0.589679 -0.15648846 -0.024108957 -0.05047198
0001d0 51 c4 54 3d d5 59 a9 bd 73 ee 81 3e d6 e1 d9 bc
       0.051945034 -0.08269087 0.25377235 -0.026596945
0001e0 3e 71 9f bd 2a 0e 86 be 76 fc b6 3e 14 29 0a bf
       -0.07785271 -0.2618268 0.35739487 -0.5396893
0001f0 cd 5f 42 3e a3 aa 69 bd 5e d7 44 be c2 a4 45 3e
       0.18981858 -0.057047497 -0.19222781 0.19301131
000200 b1 1f 76 bf 0e 48 a8 3e 9a 43 00 bd 03 4e ef 3a
       -0.9614211 0.32867473 -0.03131447 0.0018257502
000210 02 49 96 be 24 27 39 3b 35 63 64 3f 89 98 50 3e
       -0.29352576 0.002825209 0.8921388 0.20370688
000220 61 c7 4e 3c 43 7a 64 3c a4 20 3b 3f a9 f7 18 bf
       0.012620778 0.013945165 0.7309668 -0.597529
000230 8f bb 63 3e e4 77 7b 3d 36 5f d1 bc f4 11 50 3e
       0.22239517 0.061393633 -0.025558095 0.20319349
000240 fc 7e 81 3d fd 40 36 bf 16 f4 4e 3e 51 ec eb 3b
       0.063230485 -0.71192914 0.20210299 0.007199802
000250 a0 74 79 3e 7a b0 04 3f 03 de a0 be d9 5a 2c 3d
       0.24360895 0.5183178 -0.31419381 0.042078827
000260 8c 1c 49 3d c1 bf e7 3c 42 27 39 bd df e4 be 3e
       0.04909949 0.028289678 -0.045203455 0.3728399
000270 b4 e8 0c 3f c9 76 30 3f 60 0d 2b 3b 93 bb ff 3a
       0.55042577 0.6893125 0.0026100501 0.0019510858
000280 1f 00 55 bd 9c e3 78 3e 54 d5 42 bd fa bc 89 3d
       -0.05200207 0.24305576 -0.047566727 0.067254975
000290 77 53 5f 3d cc 29 25 c0 97 f4 5c 3e 9b d6 82 be
       0.054522958 -2.580676 0.21577679 -0.25554356
0002a0 6b d8 a2 bc ee 94 07 3a b9 5a af 3a ca 4f 32 3f
       -0.019878587 0.00051720336 0.0013378478 0.69653
0002b0 58 5d bf be 69 1c 08 be f0 19 67 bc ef c4 5f 3c
       -0.37375903 -0.13292088 -0.014105305 0.0136577925
0002c0 24 92 d8 3e 4a ef ad 3d 9f a8 46 3e 1b e1 1d bf
       0.42298996 0.084929064 0.19400261 -0.6167161
0002d0 54 7a 3f bd 2a 79 8c 3d d4 6a 19 be 46 4d 01 3e
       -0.04674752 0.06859048 -0.14982158 0.12627134
0002e0 5f 3f a3 3e fd 1c 12 bc 1f 00 d1 bc ba de bc 3d
       0.31884286 -0.008918044 -0.025512753 0.09222169
0002f0 21 b1 9d bd 81 39 a4 3e 98 c9 10 3d 1b 52 3e 3e
       -0.076998 0.32075122 0.035348505 0.18586008
000300 d4 df e9 3d c8 e2 83 be 6e c6 57 3f 23 7f 02 3d
       0.11419645 -0.25758958 0.84287155 0.03185953
000310 04 b2 10 bd 48 48 52 bd e2 fe 4a 3e 31 07 1f 3d
       -0.03532602 -0.051338464 0.19823793 0.038825218
000320 11 ff c7 be f4 0c 18 bf 38 cf 52 3e 70 fd 27 3e
       -0.39061788 -0.59394765 0.2058686 0.16405272
000330 0b 08 c3 3e 42 80 7b 3e 04 f6 ee 3d 6e d0 ad bc
       0.38092074 0.24560645 0.116680175 -0.021217551
000340 34 47 5e 3d 55 0e 96 be 4e cc 09 3d 53 72 38 3f
       0.054267123 -0.2930781 0.033642106 0.72049445
000350 08 0b 76 3f 17 a2 8e 3d b0 ff bd 3c 27 33 7d bd
       0.9611058 0.0696451 0.02319321 -0.06181636
000360 96 07 1f 3f 3c 39 cb 3e 28 96 15 3d 59 26 88 3c
       0.6212095 0.39692104 0.036520153 0.016619848
000370 22 5b da bd 48 49 df 3d de 96 ab 3d 23 d3 d5 3e
       -0.106619135 0.10902649 0.08378385 0.41762647
000380 cd 2f 18 bd 3d 29 12 bd 22 ba ec 3e 4f cd 0f 3f
       -0.03715496 -0.03568386 0.46235758 0.5617265
000390 15 01 f6 3e 99 d2 8c 3b 97 c8 6c bc 86 35 78 be
       0.480477 0.004297566 -0.014452121 -0.24239168
0003a0 f7 22 b1 3e 11 d8 21 3e 99 c8 cc 3d 51 96 cc 3b
       0.3459699 0.15805079 0.099991985 0.006243505
0003b0 b0 62 0b 3b 08 fd 1d bf 2d f8 3b be 69 5a d1 3e
       0.002126854 -0.6171422 -0.1835639 0.4088929
0003c0 2a 95 3f 3a d7 6f 53 3d 78 fc 3f 3e 32 c9 9a 3d
       0.0007308299 0.05162033 0.18748653 0.07557906
0003d0 84 a4 ed 3e 33 e8 ef 3e bb ef 15 bd ba 75 b8 3e
       0.46414578 0.4685684 -0.036605578 0.36027318
0003e0 66 ac 01 bf 59 5b 16 3d 86 a8 61 be 96 48 6f 3d
       -0.50653684 0.03670821 -0.22036943 0.058418833
0003f0 68 0a 9c bd 83 ac 11 be 62 a7 07 3e c9 37 44 bf
       -0.07619172 -0.14225964 0.13247445 -0.7664762

fc1.bias f4 [32]
000000 35 1c 85 3e 07 ea 56 3c c6 a7 b1 3e 57 e9 e7 3a
       0.25998083 0.01311732 0.34698313 0.0017693442
000010 dd 28 09 bd 04 fe f2 bc c3 ca 0d 3f 9a 06 05 3e
       -0.033486236 -0.02966214 0.55387515 0.129908
000020 f1 df c5 be a4 77 ef 3e f4 4b 2f be bf 86 fd 3c
       -0.38647416 0.46770966 -0.17118818 0.030948041
000030 37 33 81 be 33 c4 8b 3e b0 8b a4 3e ff 44 46 bd
       -0.25234386 0.27298126 0.32137823 -0.048405644
000040 67 91 b8 3e 9a a4 1b 3c a0 19 b0 bd 40 77 0d 3f
       0.36048433 0.009499693 -0.085986376 0.55260086
000050 2e 13 4c 3e 50 2e 9b 3e d3 0e b5 be f9 85 ab 3e
       0.19929191 0.3030877 -0.35362872 0.3350065
000060 f1 45 58 3d a2 a0 a3 be 7c 04 45 be 4f a7 81 3d
       0.052801076 -0.3195849 -0.19239992 0.0633074
000070 70 4c bc 3d c1 91 f2 3e 14 64 9a be 00 d7 b6 3e
       0.09194267 0.47376826 -0.3015448 0.35710907

fc2.weight f4 [64, 32]
000000 fa a2 65 3e 16 ad a4 3d b5 4e b7 bd 98 5e 12 3d
       0.22425452 0.08040826 -0.08950559 0.035734743
000010 20 db a4 3d ec 2b 3c 3e 4f 0d 68 3e 92 75 01 3f
       0.08049607 0.1837613 0.22661327 0.50570023
000020 d6 25 43 3e 24 b6 aa 3e ff dd 2b bd bc 42 51 be
       0.19057402 0.33342087 -0.04195976 -0.20435613
000030 23 f2 62 3e d8 ba 3c 3e da cd a2 be 54 cb 8c bf
       0.2216268 0.1843065 -0.31797677 -1.0999551
000040 cd 8d 59 3e c5 0c 8a 3d 90 c7 a3 3d d7 2d d3 3e
       0.21245499 0.06740717 0.07997048 0.4124591
000050 26 3b f3 3e 94 00 88 3e 82 52 38 3e 7c db bd 3d
       0.47506064 0.2656294 0.18000224 0.09270379
000060 eb b1 91 3c 0f 23 a0 be f5 8c 5b be 6f 41 58 be
       0.017785033 -0.31276748 -0.2144049 -0.21118711
000070 d7 6e 22 be 92 ec 27 3e 43 cf cb be d1 ce 51 bc
       -0.15862595 0.16398838 -0.39806566 -0.0128056565
000080 ba fe 36 be 68 f6 dc 3b 05 a1 03 3e c5 b9 47 be
       -0.17870608 0.006743241 0.12854393 -0.19504459
000090 02 28 48 bd 3c 17 b1 bd 98 17 cf 3d b8 90 e9 be
       -0.04886628 -0.0864701 0.10111922 -0.45618224
0000a0 55 08 18 3e c3 89 cb be 1b 97 20 3e ff f6 dd 3c
       0.14846928 -0.3975354 0.15682642 0.027095316
0000b0 7f 79 63 be 99 50 a1 bc cc 77 5c 3f 51 2a e8 3f
       -0.22214316 -0.019691752 0.86120296 1.8137914
0000c0 16 57 51 3d 00 59 00 3e ed fd 5f 3e c5 f2 00 be
       0.051108442 0.12533951 0.21874209 -0.12592609
0000d0 92 f9 ce 3c 39 6f 15 be f0 ce 54 3d ac 1f 17 3e
       0.025265489 -0.1459321 0.051955163 0.14758176
0000e0 f7 f5 15 3e 53 67 c7 3e 20 7c ab 3a dd aa 5e be
       0.1464461 0.38946018 0.0013083257 -0.21744867
0000f0 cf e7 83 3b 75 10 f5 3d bf 86 9f be 57 6e 98 3e
       0.0040254365 0.119660296 -0.3115749 0.29771683
000100 d9 73 39 3d 0e 4a 36 be 20 ae 20 3e f5 d1 38 3e
       0.045276497 -0.17801687 0.15691423 0.18048842
000110 a9 bc 86 3d 3e ad 9d 3e df e2 3e 3e 32 91 dd 3c
       0.06578953 0.30796236 0.18641232 0.027046774
000120 3d a3 99 3e 7b c8 46 3e 2b 94 04 3e b9 19 cc bd
       0.30007353 0.19412415 0.12947147 -0.09965844
000130 9d 32 02 3f 33 7d 87 3d 3f 20 36 3e 4b 6a c5 3f
       0.5085848 0.06615677 0.17785738 1.5423063
000140 a9 ac 16 3e cd 3c 95 bd b3 32 24 3e f9 dd 18 3e
       0.14714302 -0.072869875 0.16034965 0.14928426
000150 10 cc f6 3c 5a 08 d3 bd 93 f1 81 be 1b 20 c8 3d
       0.030126601 -0.10304327 -0.2537962 0.09771749
000160 6e 32 1e 3e b0 26 2c 3f 0b 35 9d 3e cf 9c 0e 3f
       0.15448925 0.6724653 0.3070453 0.5570802
000170 5e 66 f2 bd 28 1b 46 3d 4e a2 c0 be e2 b2 1f 3e
       -0.11835931 0.048365742 -0.3762383 0.15595582
000180 19 5c 22 be ec 0a eb 3d e8 3a dc 3b 71 2d d3 bd
       -0.15855445 0.114766926 0.0067208894 -0.10311402
000190 97 b5 de 3d 97 39 95 3c 2b 6a a8 3e 5b 82 d1 be
       0.10874479 0.018215938 0.328935 -0.40919766
0001a0 32 20 3e be 21 d8 cf 3d 7c 3f 70 ba 6b 77 21 3d
       -0.18566969 0.10148645 -0.00091647333 0.039420526
0001b0 6a f6 48 3e bf ff 67 be 02 d0 6f 3e e8 28 5d be
       0.1962525 -0.22656153 0.23419192 -0.21597636
0001c0 a5 66 6e 3e ec 1c 22 3e cf 26 3e 3e 65 da 9f 3d
       0.23281343 0.15831345 0.18569492 0.07805327
0001d0 b3 4c 9f 3e df 12 f7 3d cc 73 34 be 4f fe 56 3e
       0.31113204 0.12064146 -0.17622298 0.20995449
0001e0 29 44 1b 3e c4 a7 dd be 7e d8 47 bd f9 cc 93 be
       0.1516272 -0.43292058 -0.048790447 -0.2886732
0001f0 37 4d 3d 3e 25 47 31 3e e0 1a 9b ba 18 f7 4f bd
       0.18486486 0.17312296 -0.0011833571 -0.050772756
000200 1e 59 bc bd 62 b0 f7 bd d9 d2 ff 3d 9f 94 08 3d
       -0.09196685 -0.12094189 0.12491388 0.03334486
000210 03 4f 14 3d 24 e0 99 3e 19 6e 85 3e 15 bb b8 3d
       0.036208164 0.30053818 0.2606056 0.09020058
000220 44 26 30 be ba ab 0c be 8c ca 52 be 25 d6 9a bd
       -0.17202097 -0.13737383 -0.20585078 -0.07560376
000230 59 b5 9b 3d 07 64 80 bc a3 fd 28 bf ef 82 36 3f
       0.07602949 -0.015672697 -0.6601202 0.7129354
000240 2c 4d 55 3e fc e9 b5 bd 90 5d 6f bc bf 22 87 bf
       0.2083022 -0.088825196 -0.014609709 -1.0557479
000250 62 fb 5f be ed 3e e8 be a7 57 dc bd a9 9e df 3b
       -0.21873239 -0.4536051 -0.10758906 0.0068243337
000260 ea c6 aa 3e ca db 06 3f 61 04 f9 bd 2a ba 1b 3e
       0.33354884 0.5267912 -0.12159038 0.15207735
000270 b4 6b 7c 3d 8a 82 a5 be a3 ee 8d be c2 3f aa be
       0.06162615 -0.32326156 -0.27721128 -0.33251768
000280 0b ca 57 3e bb 22 80 3e cf e6 83 3e 35 e6 d1 3d
       0.21073167 0.25026497 0.2576203 0.10248987
000290 8b f7 4c be b7 83 71 3e fe 35 cb bd 6b fd 80 3f
       -0.20016305 0.23585401 -0.099224076 1.0077337
0002a0 6f 02 4a 3e a5 b9 45 be 27 87 23 bc c6 2e 4b be
       0.19727491 -0.19309099 -0.009980953 -0.19842061
0002b0 1e f9 df be 76 e0 07 3d 1d af c3 bd 62 3d b9 3f
       -0.4374475 0.033173047 -0.095548846 1.4471858
0002c0 62 f9 8b 3e 12 ac af 3d 49 5a 48 3e 34 4d 9b bd
       0.273387 0.08577742 0.19565691 -0.07583085
0002d0 e8 fd 1c be f0 78 eb bd 3d e5 e3 bc 96 cd db bd
       -0.15331233 -0.11497676 -0.02781927 -0.10732572
0002e0 59 65 35 3e 4d 92 c8 3e 30 6a b1 3e c6 64 45 3d
       0.17714442 0.3917412 0.34651327 0.04819181
0002f0 4c 8b 94 be b7 5d 59 bd a3 ff ed bd 5a 04 80 3e
       -0.29012525 -0.05306789 -0.116210245 0.2500332
000300 36 8f 6b be 7c f7 37 3e 40 fc 25 be e5 ee 77 bd
       -0.2300385 0.17965502 -0.16209507 -0.060530562
000310 bb 4e 90 3e 91 b2 de 3d de 5a 74 bd e6 07 c2 39
       0.28185067 0.108739026 -0.05965697 0.00037008448
000320 6d 3d 89 be d2 7a 94 3e ce 33 28 bc 52 4c e5 3c
       -0.26804677 0.28999954 -0.010266257 0.027990494
000330 53 25 e2 3c 3b f6 a2 3c f5 a7 28 3e 12 85 af be
       0.027605688 0.019892802 0.1647032 -0.34281212
000340 15 93 6c 3c 90 68 b6 bd 4c 99 79 3d 30 74 e1 3d
       0.014439364 -0.089066625 0.06093721 0.11008489
000350 ac 98 46 3e 31 d9 14 be 80 b0 29 be 5a fa 47 3e
       0.19394177 -0.14535977 -0.16571236 0.19529095
000360 0f b1 99 3e 68 1c 57 be ef 8f ea 3d ea 09 c3 be
       0.30017897 -0.2100693 0.114532344 -0.380935
000370 cc cc b8 bb 5e c3 54 be b7 ca 4a bd f2 47 bd bd
       -0.005639648 -0.20777652 -0.04950973 -0.09242238
000380 0d b8 02 3e 58 fa 02 3e 7d 5c 57 3d 6f a7 90 3d
       0.12765522 0.12790811 0.052578438 0.070631854
000390 90 92 38 3e c9 43 48 bd f9 69 98 3c cd 46 f6 3c
       0.18024659 -0.04889277 0.01860522 0.030063057
0003a0 49 1a 3d bd c7 8a 83 3e 4e cc a6 3d 65 d8 80 3e
       -0.046167646 0.25691816 0.08144437 0.25165096
0003b0 27 2b 09 3d a8 a4 36 be 57 46 6c 3e 5d 5f 24 3f
       0.03348842 -0.17836249 0.23073708 0.6420801
0003c0 66 e0 54 3e 08 c7 d8 bd 75 22 cf 3d 9c c4 0c be
       0.20788726 -0.10584837 0.10113994 -0.13746876
0003d0 fb 01 76 3e 24 f6 dd 3d 35 e9 28 be 64 3b 85 bc
       0.24024193 0.10837963 -0.16495211 -0.016263671
0003e0 49 1a f9 3d 4b 2c c3 3e a8 b1 9e 3e b2 dc 9b 3e
       0.121632166 0.3811973 0.30994916 0.30441815
0003f0 c3 71 62 3d 7f ea 1a 3e 16 ba 96 3c 79 d2 2b be
       0.055284273 0.15128516 0.01839928 -0.16779508

fc2.bias f4 [64]
000000 86 ba 9a 3e e3 9c 6a be f5 e3 c0 3e 1e e1 c9 3e
       0.3022043 -0.2291141 0.37673917 0.39429563
000010 b3 3e 04 3e 10 40 35 bd e2 14 e6 3d 09 f2 a7 3e
       0.12914543 -0.044250548 0.11234452 0.32801846
000020 47 61 94 bc fa 2a 50 3e 64 28 0a bd a2 4a 55 3e
       -0.018112792 0.20328894 -0.033729926 0.20829251
000030 7f f7 c7 bb ab 65 ad 3e 69 26 03 3e 40 53 a8 3d
       -0.006102502 0.3386663 0.12807621 0.08219004
000040 1a c1 15 3d 3c 54 68 3d 2d 39 9d 3e 4a ac cb 3d
       0.03656111 0.056720957 0.30707684 0.09944971
000050 ef b6 2e 3e 62 53 54 3e 9f 39 a3 3e 31 89 bc 3d
       0.17061971 0.20734933 0.318799 0.09205855
000060 10 67 ea 3e 05 cf 85 3e 21 39 16 be 08 8f c8 3e
       0.45781755 0.26134506 -0.1467023 0.39171624
000070 65 cb a9 3e 34 a0 8d 3e e9 e9 81 3e 25 71 8f 3e
       0.3316299 0.27661288 0.25373772 0.2801601
000080 c7 0d a3 3e 7d 09 8e 3e 44 ea 00 3d 51 26 71 bb
       0.3184645 0.27741614 0.031473413 -0.003679652
000090 f7 f9 ee 3c 8c 37 95 3d 07 ec 0a 3e 1c d4 ce 3e
       0.029171927 0.07285985 0.135666 0.40396202
0000a0 6a 14 db 3e 27 45 a4 3d 5d a3 f8 3c f3 6b 14 be
       0.42789012 0.08021002 0.030351335 -0.14494304
0000b0 98 08 b5 3d 48 64 31 3e 75 07 92 3e 3b 2d 86 3e
       0.0883953 0.1732341 0.28521314 0.26206383
0000c0 b6 9a 18 3e a7 7d 6a 3c 34 26 1b be a8 1f 83 bb
       0.14902768 0.014312184 -0.15151292 -0.0040015765
0000d0 c3 77 b6 3e 6b 0b 85 3e 08 d2 83 bd 08 7a db 3d
       0.35638246 0.25985274 -0.06436545 0.10716635
0000e0 7d 23 44 3e 3b 11 c9 3d 4c 3c 9e 3e 9b 01 b5 3e
       0.19154163 0.098177396 0.30905378 0.35352787
0000f0 fe 65 9c 3d 76 8a ae 3d 64 7b c6 bd 95 57 be bd
       0.07636641 0.08522503 -0.09691504 -0.09294049

fc3.weight f4 [128, 64]
000000 2a 31 e2 3b 86 7c 8b 3e 3a 9f 3a 3d 63 25 01 be
       0.0069028335 0.2724344 0.045562007 -0.12611918
000010 3c 3d 1c 3f 86 92 2d 3e 59 3f eb 3d e5 ab de bd
       0.61030936 0.16950426 0.11486692 -0.1087263
000020 9f 03 ce bf a5 2e 4d 3d 58 8f a0 be 6a 7a 9b 3e
       -1.6094855 0.05009331 -0.31359363 0.30366832
000030 d6 5e 7d 3d 0f 3f 22 3e 07 cf a2 bc c6 40 f4 bd
       0.06185802 0.15844367 -0.019874109 -0.11926417
000040 d5 65 72 3e 60 d7 15 bf 1f 7d 2a bd 05 bd 99 3c
       0.23671658 -0.5853176 -0.04162323 0.01876689
000050 93 cc 03 3d 6f 70 90 3d 07 0c a7 bd 72 4d 6e 3e
       0.03217752 0.07052695 -0.08156591 0.2327173
000060 f4 87 43 be 79 e2 40 3e 63 4a 94 3e 10 78 40 bf
       -0.19094831 0.18836392 0.28963003 -0.751832
000070 b5 e2 ca 3d de c6 3f 3e 42 2a 26 3f 8b 0a c4 3c
       0.09906522 0.18728206 0.6490823 0.023930809
000080 b5 53 c2 3e 10 be 18 be c2 1d 54 3e 2e ce 36 3e
       0.37954488 -0.14916253 0.20714477 0.17852089
000090 99 35 7c be 89 9b 96 3e b3 7c 4f 3e 2c 89 95 3e
       -0.24629821 0.2941554 0.20262413 0.29206216
0000a0 fc 33 86 bd a8 24 6b bc 1b fe 65 be 55 ab 4d 3e
       -0.06552884 -0.014352001 -0.22460215 0.20084889
0000b0 98 0a 2d 3e 7a 8f 99 3e 60 82 cb bd 33 0f bb be
       0.16898572 0.29992276 -0.099369764 -0.36535034
0000c0 55 02 45 be 7e 97 80 3f 0e 22 4c 3d f7 bc 7c 3e
       -0.19239171 1.0046232 0.049837165 0.2468146
0000d0 76 13 b2 be 2a 4a 97 bd 17 d5 52 3f 2a a0 00 3e
       -0.34780473 -0.073871925 0.823564 0.12561098
0000e0 20 b1 90 3e bb 55 89 3e 85 06 8b bc 3c 2f dc bc
       0.28260136 0.2682322 -0.016970882 -0.026877992
0000f0 8a 3c 0c bd 1c 4c 1c bd 7f 78 dd 3d b4 73 83 3e
       -0.034237422 -0.03815852 0.108139984 0.25674212
000100 f7 cc 25 3c c8 87 65 3d 7a ec 12 3e d9 26 80 3e
       0.010119668 0.056037694 0.14348021 0.25029638
000110 15 a2 1b bf 95 99 d5 3d d1 b4 a3 3d 3c ea 36 3e
       -0.6079419 0.10429684 0.07993472 0.17862791
000120 a3 e7 ed 3e a0 ff 4f 3e 06 64 e2 bd 9d ef 40 3e
       0.46465787 0.20312357 -0.11054234 0.18841405
000130 7d ca 5f 3d eb fd 9f 3d 9a 87 4f 3e b9 76 3c bc
       0.054636467 0.07812103 0.20266572 -0.011502915
000140 63 ee ed 3d 0e 6a af 3d 1f 80 4a 3c f8 a7 1e 3d
       0.11617734 0.0856515 0.012359648 0.038734406
000150 51 4b 70 3d 51 85 4e 3e 55 59 91 3e bc 81 72 3e
       0.058665577 0.20168044 0.28388467 0.23682302
000160 99 c9 42 3d 83 28 00 3e 0b e2 4c be dc 2f c6 3e
       0.04755554 0.12515454 -0.20008104 0.3870839
000170 51 7a 48 3e c8 85 72 3f ec 38 2f 3e 68 56 42 3e
       0.1957791 0.94735384 0.17111558 0.18978274
000180 90 98 bd 3e 5f 0d 1c 3e 03 57 16 bd 3a 97 74 3e
       0.37030458 0.15239476 -0.036704075 0.23885813
000190 bf 1c e1 3e ce b2 41 3f 9d ba 12 3e 42 a3 35 3e
       0.43967244 0.7566346 0.14329 0.17738059
0001a0 37 e1 89 3e 03 2b e6 3d 28 9b b8 3e bc 42 34 be
       0.26929638 0.112386726 0.36055875 -0.17603582
0001b0 75 b8 d5 3e 93 2a 96 be 86 a1 83 3e 0e 0b 1c bd
       0.41742292 -0.29329357 0.2570917 -0.03809648
0001c0 c3 81 62 bd 1b 94 55 bf 5e a0 b2 3d a1 2d dc bc
       -0.05529953 -0.83429116 0.08721994 -0.026877226
0001d0 12 da 73 3c 42 fb cc 3c 76 54 3b bf 87 80 1c 3e
       0.014883535 0.025022153 -0.7317575 0.15283404
0001e0 2f bd 80 3e e6 8d 33 be 48 ff 22 3e 4d 07 0a 3e
       0.25144336 -0.17534599 0.15917695 0.13479348
0001f0 2c 62 63 bd b4 3b 0e 3e e9 e0 bf 3d 67 c3 82 be
       -0.055513546 0.13889962 0.0936907 -0.25539705
000200 08 7e d7 3c db 17 b5 3e 6c f9 08 3e 87 74 4f 3d
       0.026305214 0.35369763 0.13376397 0.05064824
000210 1c 80 13 3f 5f 4a 26 3e 85 a5 cc 3d c3 18 23 3d
       0.57617354 0.16239308 0.09992508 0.039818536
000220 e0 cf 06 bf 1b 7d 40 be 63 30 f1 3e 08 b4 af be
       -0.5266094 -0.18797724 0.4710723 -0.3431704
000230 44 28 0d 3e 8b 87 c2 3b 8a 3e bf bd 51 b3 eb bd
       0.13784891 0.005936568 -0.093381 -0.11508811
000240 ef c5 85 bd 61 06 c5 bd b7 dd 03 bd 2e d5 c5 3c
       -0.065318935 -0.09620357 -0.032193866 0.024149504
000250 03 e4 42 3d ab bb 85 3d 89 62 87 bd 9e b8 d2 3c
       0.04758073 0.065299354 -0.06610591 0.025722798
000260 59 b3 ff 3c 69 92 4c be 4c c3 8e 3d a6 6d b3 bd
       0.03121345 -0.19977726 0.06970844 -0.08761148
000270 ec 1e 7c 3d 31 f1 eb bf f0 86 35 bf 4a 8c 69 3c
       0.061552927 -1.8432981 -0.70909023 0.014254639
000280 34 d3 92 be 52 f4 1b 3b f4 83 2c bd 4c 21 b3 bd
       -0.2867676 0.002379675 -0.042118028 -0.08746585
000290 82 e7 c4 be c0 fd be be 78 9d 2c bd 1c c0 05 be
       -0.38457876 -0.3730297 -0.04214236 -0.13061565
0002a0 6d ba cd bd 62 59 53 bd 77 8a 18 bf 7a 4b d0 3e
       -0.100453235 -0.051598914 -0.5958628 0.40682584
0002b0 36 ef 6f 3c 2b 5f aa 3e 1c 5d c1 3d 59 8d 3b 3e
       0.014644435 0.33275732 0.09441587 0.18315639
0002c0 57 6d c0 3e d9 34 71 3f 32 05 fb bd 35 23 7f 3e
       0.3758342 0.94221264 -0.1225685 0.24915774
0002d0 ed 1c 0b 3e 78 a3 10 bc 36 58 80 3f 0c 1e b4 3d
       0.13585253 -0.0088280365 1.002692 0.087947935
0002e0 5e 6e cc bb 66 f1 95 3e 74 04 64 3d 36 8b 86 bd
       -0.0062387427 0.29285735 0.05566831 -0.06569521
0002f0 bc 32 a5 3e b6 7e 08 be 8b f7 70 bd 54 12 16 3e
       0.3226527 -0.13329586 -0.058829825 0.14655429
000300 6e 27 7c bc 82 0f 45 3c 5e 0d be bd 13 25 8a 3c
       -0.01539026 0.012027623 -0.09279893 0.016863381
000310 c5 10 63 bb e6 47 84 3d 04 4d 1a bc 39 2b a1 bd
       -0.0034647447 0.06459026 -0.009417776 -0.07869572
000320 f5 21 23 bc 5b eb 19 3d bd 2b ae bc d1 6c fd 3c
       -0.009956826 0.037577968 -0.02126109 0.030935677
000330 a8 94 e4 3d f7 d1 99 3c 03 62 ca bd 43 bb d1 bd
       0.111611664 0.018776877 -0.098819755 -0.102407955
000340 7e 7c c5 3b c6 7f 8f 3d f5 07 b8 3d a1 b9 7e 3d
       0.0060268035 0.07006793 0.08985893 0.06218875
000350 43 9f c5 bd c4 af ae 3d a5 9d fd 3c b5 d7 3e 3d
       -0.096495174 0.085296184 0.03095896 0.046592433
000360 fa ab 70 bd 51 bd e1 bd 7d 35 e3 bd 69 fe bb 3d
       -0.05875776 -0.11022437 -0.110941865 0.09179384
000370 f7 fa 0e bc 2d ea e7 bd 6a 94 3c 3d 51 85 a2 bd
       -0.008726827 -0.11323962 0.046039976 -0.07935584
000380 b9 a7 b8 3d 8b ff 4c bd d4 72 95 bc f5 41 26 bb
       0.090163656 -0.050048392 -0.01824323 -0.0025368903
000390 8f 6a 82 bd 4b aa 95 3c 6e 88 b0 bb 8a 3f fa bd
       -0.06367981 0.018269679 -0.0053873574 -0.1221915
0003a0 f1 07 ed bd f7 87 04 be 8d a0 e0 bd 1a 75 02 3c
       -0.1157378 -0.12942491 -0.10968123 0.0079624895
0003b0 2a 66 4b 3d 0d 6c 6f bd d1 dd e6 bd c0 08 d1 bd
       0.049657978 -0.058452655 -0.11272777 -0.10206747
0003c0 c4 a8 eb 3c 30 8e a0 3d 17 40 44 bc 71 2b 25 3d
       0.028766997 0.0783962 -0.011978171 0.040324632
0003d0 0f 78 1f 3c ea cd 81 3d 85 36 bd 3c a6 0b 4d 3d
       0.009733214 0.06338103 0.023097286 0.050059937
0003e0 f6 db 8f bc c6 5d 84 3c 32 4c 84 3d d1 57 b4 3d
       -0.01756094 0.016157996 0.064598456 0.08805812
0003f0 fa 42 75 bd 0d ed 3f 3d bc 15 61 3d cb 02 da 3c
       -0.059878327 0.04685693 0.05495237 0.02661266

fc3.bias f4 [128]
000000 e4 c8 6b bc e8 b8 2a 3e f9 a5 e2 3d 30 b6 d1 bd
       -0.014391158 0.16672099 0.11066813 -0.10239828
000010 0c 89 e6 3a df 79 45 bd 69 a6 a0 3b 17 bc c0 bc
       0.001758845 -0.04821193 0.00490265 -0.023527188
000020 c0 8b 07 be 11 13 c5 3d 7a 80 31 bc 01 ca 68 bd
       -0.13236904 0.09622777 -0.010833854 -0.05683327
000030 70 16 20 3d 09 b0 80 3e c2 5b 0a bc cb 80 bb 3e
       0.039083898 0.25134304 -0.008444728 0.366217
000040 4b 22 cd bd 3f 7d 08 bd 19 a3 7f 3e d5 f3 9e bd
       -0.100163065 -0.03332257 0.2496456 -0.07761351
000050 3a 36 d9 3d 43 aa 85 bd ea 60 8f bd ec f8 af 3c
       0.10606046 -0.065266155 -0.07000907 0.021481
000060 44 2b a9 3d 1b 60 ba 3d 62 20 01 3e 8d 06 9e 3e
       0.082602054 0.09100362 0.1261001 0.30864373
000070 c0 3f e7 bd ff 67 02 be 60 f3 a4 3e b3 fa 0b 3d
       -0.11291456 -0.12734984 0.3221693 0.034174632
000080 6d d8 f5 bb 0e 54 b3 bd 06 7e 9e 3d 58 55 43 be
       -0.0075026066 -0.087562665 0.07738881 -0.19075525
000090 78 c9 d0 bd 3a c1 28 be fa de 8a 3e a9 62 7d bc
       -0.10194677 -0.1647996 0.27123243 -0.015465417
0000a0 b1 10 83 bd 2d aa 21 3e f0 31 b2 3e b5 1a 84 bd
       -0.06399668 0.15787573 0.34803724 -0.064504065
0000b0 c5 ce d6 3d 7e 70 e0 3d 72 3b 8a 3e 57 17 00 bd
       0.10488657 0.10958956 0.26998478 -0.03127226
0000c0 0b 22 bd 3d 64 e7 9f bc 33 74 22 3e 33 a2 07 3e
       0.09235009 -0.019519515 0.15864639 0.13245468
0000d0 1e 8a 68 3d 7c b9 a3 3e 97 03 87 3e 04 67 be 3e
       0.056772344 0.3197745 0.26369926 0.3718797
0000e0 05 60 9e 3e 87 95 87 bd c0 9a 42 bd ba 0e 85 3c
       0.30932632 -0.06620317 -0.047510862 0.016242374
0000f0 cc 81 05 3e ce f2 b2 bd 99 37 44 3e e5 5e 7b 3d
       0.13037795 -0.087377176 0.19161834 0.061369795
000100 34 7a 10 3e 76 05 96 3e 7b ad ef 3c b7 e4 15 3d
       0.14109117 0.2930104 0.029257527 0.036595073
000110 19 ad 3e 3e 46 56 0a be a0 81 af 3e dd 72 f7 bd
       0.18620719 -0.13509473 0.34278584 -0.12082455
000120 e2 50 5a 3e d4 13 93 3d 35 7f a6 bc 05 b9 ac 3e
       0.21319917 0.07181516 -0.020324329 0.3373491
000130 00 b0 81 3e 0d b1 b6 3e 4f 31 21 3e d7 29 52 3e
       0.2532959 0.35681954 0.15741466 0.20523773
000140 0b c0 bc 3e a0 ba 02 bd 2e 29 b3 3e d0 c5 5d bd
       0.36865267 -0.03191626 0.34992355 -0.054143727
000150 31 c3 ab 3e 1e 1f 9c 3e 45 cb 38 3d f6 8a 30 3e
       0.33547357 0.3049249 0.045115728 0.1724051
000160 9e 1b 2c 3e 87 90 9a 3e c7 04 08 be 02 ff cd bc
       0.1680741 0.3018839 -0.13283072 -0.025146011
000170 04 fc 82 3e a6 7e 0e 3e 47 8a 16 3e 60 e0 2a ba
       0.25582898 0.139155 0.14701186 -0.000651842
000180 ad 26 a0 bd 7a 84 10 3e df c3 4d 3e cd 7d 3c 3e
       -0.07819877 0.14113036 0.2009425 0.18407364
000190 a8 bf f4 3d ee 97 78 bc 13 4e b0 3d 5f 7b 4d 3c
       0.11950618 -0.015172942 0.086086415 0.012541621
0001a0 52 d6 ba bd 69 1f 05 3e 81 2e f2 bc 4a 74 6b bd
       -0.091229096 0.13000263 -0.02956319 -0.05748395
0001b0 3f 2b 4f 3e c2 ff 8b 3e 41 be 2e bd ca 60 82 3d
       0.20231341 0.27343565 -0.04266191 0.06366117
0001c0 7e ef 2d 3e 2a f8 6c 3d 8b 67 af 3e f4 3c 88 3e
       0.1698589 0.057853855 0.34258685 0.26609004
0001d0 c1 b7 16 be 22 bc b1 bd a2 20 7f 3c 52 08 3b 3d
       -0.14718534 -0.086784616 0.015571745 0.04566223
0001e0 cc 4e 1a be 33 38 23 3e 8c 87 84 3e 54 0b 02 bd
       -0.15069121 0.15939407 0.25884664 -0.031749085
0001f0 6e 51 d9 3c 46 ee fc 3d 19 c8 3b 3e 92 93 12 3e
       0.026528087 0.123501346 0.1833805 0.14314106

v.weight f4 [1, 128]
000000 ac 16 77 3f ba c7 77 be 92 de 20 3f 74 f8 2b 3d
       0.9651897 -0.24197283 0.62839615 0.04198499
000010 08 b8 eb 3e 01 a6 b7 3e bd 28 a2 3c de d0 05 3d
       0.46038842 0.35868838 0.019794816 0.032669894
000020 d2 69 30 3f 93 cb 8b be e8 d4 6b 3d 4d 7c be 3f
       0.6891147 -0.27303752 0.05757609 1.4881684
000030 08 3a 0e 40 17 7f 85 be 2a dd 0c 3d 2b b5 59 be
       2.222292 -0.26073524 0.034390606 -0.21260516
000040 16 db a6 3f 3f aa 0d 3c 16 15 84 be 42 0a d6 3e
       1.303561 0.008646547 -0.25797337 0.418047
000050 61 18 f0 3f d5 c4 4f 3f 4c dd 59 3c 1f 81 1d 3f
       1.875744 0.81159717 0.01329739 0.6152515
000060 3d 73 b9 3f a5 a5 85 3e 6b 1c fe 3f c3 b1 7f be
       1.4488293 0.2610294 1.9852422 -0.24970154
000070 c6 fa dd 3e 69 88 f8 3e 18 6e 83 be cc 25 da 3f
       0.43355387 0.48541573 -0.25669932 1.7042785
000080 c3 9c 65 3f 11 52 76 3d 8d c2 0f 3f 7e 27 85 3f
       0.89692324 0.06013686 0.56156236 1.0402677
000090 65 20 7c 3d ec a0 87 3f 25 cf 76 be 3c c9 da 3c
       0.06155433 1.0595984 -0.24102457 0.026707284
0000a0 21 5e 06 3f 34 67 93 be 55 46 93 be 0d 95 6d 3f
       0.5248738 -0.28789675 -0.28764597 0.9280556
0000b0 a5 da 56 3f 17 42 59 be 4b cc ee be 64 48 54 3d
       0.83927375 -0.21216618 -0.46640238 0.05182685
0000c0 03 30 e4 3e 5e 21 83 3c a4 47 86 be 90 73 fe 3e
       0.4456788 0.016007122 -0.26226532 0.49697542
0000d0 25 20 df 3f 8d 64 4a be bd e4 a2 be af 50 53 be
       1.7431685 -0.1976492 -0.31815138 -0.20636247
0000e0 cf e5 92 be 01 e5 69 3f 03 21 05 40 5a dc 8f bd
       -0.28690955 0.9136506 2.0801399 -0.070244506
0000f0 0a 41 7b be 96 56 bd 3f f9 f1 84 be f2 42 e1 3e
       -0.24536529 1.4792049 -0.2596586 0.43996388
000100 a2 1c a4 3f ed e5 65 be 6c 59 e1 3f 8f 6b 14 3f
       1.2821238 -0.22450991 1.7605414 0.5797662
000110 fa 47 69 be 85 a7 e3 3f 19 c9 a8 be 83 eb f0 3e
       -0.22781363 1.7785498 -0.32965925 0.4705468
000120 34 93 89 be 71 d2 d2 bf a7 9b bc 3f 98 dc 3c be
       -0.2687012 -1.6470472 1.4735001 -0.18443525
000130 bd fa 74 be 8f 4d 8e be 33 53 74 be ae b7 4f be
       -0.23923774 -0.27793548 -0.23859863 -0.20284912
000140 fc 0d 7d be 9c ac 34 3f 15 5e 68 be fe 3c 22 3f
       -0.24712366 0.7057588 -0.2269214 0.63374317
000150 22 9d 5d be e2 66 5e be 5b cb 56 3d fb f9 89 be
       -0.21641973 -0.21718934 0.05244003 -0.26948532
000160 05 e5 97 be 4c 7f 5e be 66 c5 db 3e e1 4f a7 bd
       -0.29666916 -0.21728247 0.4292404 -0.081695326
000170 31 9d 88 be 09 1a 4b be 2e 79 99 be 22 aa 8b 3d
       -0.26682428 -0.1983415 -0.29975265 0.0681956
000180 5b ba 84 bd 29 f6 5f be 12 10 9f be b6 66 5c be
       -0.06480857 -0.21871246 -0.31066948 -0.21523556
000190 de 39 a2 be 61 88 13 3f 73 ac 98 3f 67 bf 87 bc
       -0.31684774 0.5762997 1.1927627 -0.01657076
0001a0 8c fc 99 3d 1d 62 6d be 95 10 cd 3e 36 31 26 3f
       0.075188726 -0.23181958 0.40051714 0.6491884
0001b0 8e 16 95 be b2 88 a2 be e2 2c bb 3f 3b 25 54 3d
       -0.2911877 -0.31744915 1.4623072 0.05179332
0001c0 71 5a 5b be 64 3f c0 3e f1 88 4f be e4 ac 75 be
       -0.2142122 0.37548363 -0.20267083 -0.23991734
0001d0 b1 78 93 3e 1d cc b1 3f 08 fb a2 3e 57 4f cf 3c
       0.28803018 1.3890415 0.31832147 0.025306387
0001e0 64 6c 1d 3f 05 f6 b7 be f1 0a 9e be 8b 78 e1 3e
       0.61493516 -0.35929886 -0.30867723 0.4403728
0001f0 cc 46 cd 3e d7 17 5e be 8d 93 84 be 95 93 53 be
       0.40093076 -0.21688782 -0.25893822 -0.20661767
