SAC/target_critic2_v2.pth (torch, 46095 bytes, 7 tensors)

fc1.weight f4 [32, 11]
000000 5a 30 e1 bc 7d 4a 99 3e e4 0b 37 3f 58 2c f1 3e
       -0.027488876 0.29939643 0.7150252 0.47104144
000010 08 34 4b 3d 10 20 c9 3d 2b 48 d9 be 37 e2 64 bd
       0.049610168 0.098205686 -0.42437872 -0.055879798
000020 24 33 b7 bd 02 f6 a3 3d cc 74 ef ba cd 82 40 be
       -0.08945301 0.08005907 -0.0018269061 -0.18799897
000030 94 02 81 3e 70 95 69 bc 9c 9c 0e 3e a7 b9 16 bd
       0.2519728 -0.01425682 0.13926929 -0.036798146
000040 9f d4 b9 bd 5b 6a 3f 3e b6 43 a7 3e df 0d f5 3e
       -0.090737574 0.18692915 0.32668847 0.47862145
000050 f8 5a 3c bd 8f 2d 65 3d 93 b0 cf 3e 33 f0 95 3e
       -0.045985192 0.05595165 0.40564403 0.2928482
000060 5f 21 7c 3e 8f 15 3d 3d 24 d3 b4 bd c8 75 28 be
       0.24622105 0.046163138 -0.088293344 -0.1645118
000070 24 5a 16 be 86 1b e5 be 9b 01 29 be 79 f8 5b bd
       -0.14682823 -0.4474756 -0.16504519 -0.05370376
000080 e4 dc 54 bd 1c a0 36 be 5c 68 97 3d 22 9e 08 be
       -0.05196847 -0.17834514 0.07392952 -0.13341573
000090 3c 77 48 3c dd f0 7f bc b9 45 98 bd 8f 6e ee bd
       0.012235459 -0.015621391 -0.074351735 -0.11642181
0000a0 09 75 ae 3e a4 e7 d8 3e 2e b9 c1 bb 06 8b 39 bd
       0.34073666 0.42364228 -0.0059119677 -0.0452986
0000b0 c4 28 e6 be c3 0c 81 bb ac 59 2d 3e 22 64 b2 3d
       -0.44952977 -0.003938289 0.16928738 0.08710505
0000c0 89 60 29 bc ec ce d7 bd 75 5e d3 3e 50 42 41 bf
       -0.010337957 -0.10537514 0.41283002 -0.7549181
0000d0 db f6 11 3e 88 aa 91 3c 34 db 92 bc 92 f9 17 3f
       0.14254324 0.017781511 -0.01792679 0.5936519
0000e0 44 74 33 3d 80 dc c6 3e b9 59 3b be ee 1b c7 3d
       0.04381205 0.38840103 -0.18295945 0.09722124
0000f0 c0 3d 90 3d 5e 88 86 3e d1 73 be bd 30 a4 b4 be
       0.07043028 0.26275915 -0.09299434 -0.35281515
000100 c5 f4 81 3d b2 2f 47 bd 48 c3 dc be 99 42 ba be
       0.06345514 -0.04862947 -0.43117738 -0.36378935
000110 ec c6 f9 3e 81 fc 89 3b 3a a8 61 3d bc 93 89 3d
       0.48784578 0.004211009 0.055092074 0.06717631
000120 0b 8e 65 be 84 10 04 3d 57 e4 08 3f 86 3d bb 3c
       -0.22417466 0.032242313 0.5347342 0.022856485
000130 a4 49 87 3d ab 18 01 3f 1b 7c 9f 3e b1 7a cf 3e
       0.06605843 0.50428265 0.31149372 0.40523294
000140 0e 70 5f 3e d8 22 28 3e 94 79 ec 3d 41 e9 bb be
       0.21820089 0.16419542 0.11546627 -0.36701396
000150 d8 ac 36 3e ee 54 81 be 05 53 41 3c a0 bc 9b bb
       0.17839372 -0.2526011 0.011799579 -0.0047527105
000160 27 20 3c 3f 30 e7 1a 3e 7a e6 1c 3f 63 27 42 3e
       0.7348656 0.15127254 0.6128918 0.18960337
000170 12 da 09 bb bf 4d 29 3b 93 a1 24 bf 6f 08 86 be
       -0.002103452 0.0025833694 -0.6430904 -0.2617831
000180 88 b3 31 3e ab c6 a1 3c 3a 5b 93 ba 16 0e b1 be
       0.17353642 0.019748053 -0.0011242398 -0.3458106
000190 0d e2 af bd 2c 36 d5 be d9 70 8d 3d 2e ea 4e bd
       -0.08588038 -0.41642892 0.069062896 -0.0505163
0001a0 e9 2e f4 bd e6 18 20 3d 8e 27 d0 3e 85 36 07 be
       -0.1192301 0.039086245 0.40655178 -0.13204391
0001b0 53 9c 0a bd 93 a9 02 3d c4 3b bc bc c3 d3 15 be
       -0.03384049 0.0319 -0.022977717 -0.14631562
0001c0 7d 84 08 be c2 b7 3d be 4a 96 94 3e 9d 42 6e 3e
       -0.1333179 -0.1852713 0.2902091 0.23267598
0001d0 5c 06 8a 3e fb b9 0e 3e 44 9d b5 3e 3c c7 bd bb
       0.26957977 0.13938133 0.35471547 -0.005791573
0001e0 58 83 2f bc 15 ad d4 3e c9 fb 1c be fa 2f 8a bd
       -0.010712467 0.415383 -0.15330423 -0.06747432
0001f0 d6 a6 67 be b5 d0 1c be d5 1b ed bd 66 f7 03 3e
       -0.22622237 -0.1531399 -0.11577574 0.12887344
000200 bc f1 5e be 7f 80 ef 3e b6 d1 f0 3c fc 41 2b 3d
       -0.21771902 0.46777722 0.029396873 0.041810974
000210 2e 7e e4 3e 72 6f 07 be b7 bc 34 3f aa fb ae 3e
       0.44627517 -0.13226107 0.70600456 0.3417638
000220 a8 a4 10 be 5e 3b 12 be 9b bc 2f 3e cc 89 ad bc
       -0.14125311 -0.1428046 0.17161791 -0.02118387
000230 00 3a b8 3c 86 a3 28 bd a1 33 45 bc 4a e8 ed bd
       0.022488594 -0.041171573 -0.012036235 -0.11616571
000240 89 7c 4e 3e c5 36 28 3e 8f b0 0d 3e c7 0e 91 bd
       0.20164694 0.16427143 0.13836883 -0.07082897
000250 35 ca e4 3c f4 34 69 3d 8a c3 ad be b0 5e f8 3e
       0.027928451 0.056935266 -0.33938247 0.4850974
000260 0c 4d 99 3d 5a 3f 69 bd 35 bf fc 3e 7c f2 5e 3e
       0.07485399 -0.056945182 0.4936463 0.21772188
000270 0c 10 e4 3d 0b f2 e5 3b f4 df 16 3e 74 7f 79 3d
       0.11135873 0.007017379 0.14733869 0.060912564
000280 18 26 a1 be 35 e0 b4 be 23 3d 53 bd 50 d0 7a bd
       -0.31474376 -0.35327306 -0.051571976 -0.06123382
000290 92 e6 4c 3d 6f 76 61 bf ee 79 b4 bd 7d 86 49 bd
       0.050024576 -0.8807134 -0.08812319 -0.049200524
0002a0 d6 4b 70 bd e7 a5 b0 bd 0a 29 8e bd d7 dd 07 bf
       -0.058666073 -0.08625393 -0.06941421 -0.53072876
0002b0 ec a1 d6 3d aa 0d c8 3e 16 55 00 bc c9 0e 65 3b
       0.10480103 0.39072925 -0.007832786 0.003495144
0002c0 81 cc da 3e 06 26 bb bc ce be 4a 3f 8e bc 03 3e
       0.4273415 -0.02284528 0.79197395 0.12864897
0002d0 e1 06 f4 3d 36 5c 1c 3d 32 28 ee be 5f 14 a5 bd
       0.119153745 0.038173877 -0.46515042 -0.08060526
0002e0 4b 12 86 bc e7 ab 88 3c 28 d9 12 bb 89 0c a5 be
       -0.016366145 0.016683532 -0.0022407267 -0.32236126
0002f0 c9 4b 0b 3e 93 71 29 bf f3 64 80 3d 92 3b 5c 3c
       0.13603128 -0.66188926 0.062692545 0.013441937
000300 13 eb ad bb 1c 95 15 bf 89 c2 72 3e 19 4a fa bd
       -0.005307564 -0.5843065 0.23707022 -0.12221164
000310 cf ce 8c bd 91 f5 0c 3c b4 ff b4 be 6a 27 a9 be
       -0.06875383 0.0086034695 -0.35351336 -0.33037883
000320 16 43 b1 3c 2c a4 a1 3e 20 5c 22 bb 88 00 a5 bc
       0.021638434 0.31570566 -0.002477415 -0.020141855
000330 ae 0d e7 3e df 12 a6 bd b1 91 14 3e b6 79 cf 3c
       0.45127624 -0.08109068 0.14508702 0.025326591
000340 9f 65 f8 3d 8d 6a 8a 3e 8e 63 60 be f0 9c 97 be
       0.12128758 0.27034417 -0.21912977 -0.2961192
000350 2e 1e 12 be 2e 0b e1 bd 39 b0 18 be a1 ef 0f 3e
       -0.14269325 -0.109884605 -0.14910974 0.14056255
000360 66 85 10 3e 2b da eb 3c ae 82 4c 3d b7 99 e1 bc
       0.14113387 0.028790554 0.049929313 -0.027539117
000370 21 1a bb 3e 41 a2 e2 3d ad a0 ae bd 52 39 b0 3e
       0.36543372 0.11066104 -0.0852674 0.34418732
000380 6a 9d 2c be e8 04 40 3e 77 52 0e 3f d6 c3 69 3e
       -0.16856924 0.18751872 0.5559458 0.22828612
000390 d1 d6 b0 be a7 5f c2 bb 5b fd 82 3b b3 d9 0d bf
       -0.34538892 -0.005931813 0.0039974875 -0.5541031
0003a0 c1 72 ef 3d 66 d1 d5 3e 93 4d c7 bc 23 1c 12 3e
       0.116918094 0.4176132 -0.024328982 0.14268546
0003b0 ab 22 1b 3e b3 92 0b 3f 4e 8f 18 3f c6 ca 45 bd
       0.15149944 0.5452072 0.59593666 -0.048289083
0003c0 cb 18 4c 3d 54 98 be bd ea cd 72 bd 61 2e ab 3e
       0.049828332 -0.09306398 -0.059278406 0.33433822
0003d0 33 1e 11 3f 46 73 8e be 47 83 97 bd 3a 54 9c bd
       0.56686705 -0.27822322 -0.07398086 -0.076332524
0003e0 bc 7f 2d bf 1b 37 94 3d ee 85 0a 3e 55 eb 06 3c
       -0.6777303 0.07237073 0.13527653 0.0082348185
0003f0 57 1b 7a 3c 27 e2 e2 be c5 a9 a3 3e b8 69 f5 be
       0.015265307 -0.44313166 0.3196546 -0.4793222

fc1.bias f4 [32]
000000 5a d4 09 3d 07 e6 e2 3e 19 ca ae 3c ed 8a c1 3e
       0.03364978 0.44316122 0.021336602 0.37801304
000010 1f e1 13 bd 3c ce 29 3d 25 da b6 3d f3 bd 90 be
       -0.036103364 0.041456446 0.089283265 -0.2826992
000020 7a f5 df bb bf 8a 8b 3e 8a 4a 0e 3f e0 c6 44 bd
       -0.006834683 0.27254292 0.5558249 -0.048041224
000030 ac 0e bc 3c 68 b9 a7 3e e4 92 d7 bd a0 0b 0f 3e
       0.022956215 0.3275864 -0.10526064 0.13969278
000040 ce a6 d1 3e 37 e0 3e 3c c8 79 53 3e c3 40 a5 bd
       0.40947574 0.011650137 0.20651925 -0.08068993
000050 74 da 29 3b bd b8 59 be 52 41 1f 3e 81 4c 67 3d
       0.0025917562 -0.21261878 0.15552261 0.056469444
000060 ad c7 ec 3e 41 a1 ee 3e 24 45 2f 3e 6d 43 66 3c
       0.4624609 0.46607402 0.17116219 0.0140541615
000070 30 1f ed 3e 33 73 02 be f8 43 9b be 5f 3a e8 3e
       0.46312857 -0.12739258 -0.30325294 0.45357034

fc2.weight f4 [64, 32]
000000 f8 aa 19 3f 5d bf bd be 48 c8 ea 3c 57 a6 87 be
       0.600265 -0.3706006 0.028659955 -0.26494095
000010 5b 75 94 3e ef b7 74 bc 86 27 f6 3d 7c 88 9f bc
       0.28995785 -0.014936431 0.12019257 -0.01947426
000020 f7 26 37 3e 5a 58 63 3e ce b7 0f 3c 0e ef 48 3e
       0.17885958 0.22201672 0.00877185 0.19622442
000030 74 aa bb 3b 7b 9d c4 bd c4 ea 19 3e 13 bf 83 3e
       0.0057271067 -0.096003495 0.15030962 0.25731716
000040 9f b3 0e 3e 9b 40 02 3e 26 24 c3 be ed 65 ba 3e
       0.13935708 0.12719958 -0.38113517 0.36405888
000050 40 6b 37 be cb 6d 84 3d 71 1c 71 be e4 0f ae be
       -0.17912006 0.06466254 -0.23546006 -0.339965
000060 2e ec 75 3e 6f 29 0b bd 49 b7 cb 3e 29 a6 79 3d
       0.24015877 -0.03397506 0.39788273 0.06094948
000070 eb 48 42 3d 16 5a 3b bd 09 fb 55 3e 74 66 9c 3d
       0.04743282 -0.04574021 0.20896544 0.07636729
000080 2f 41 18 3b 10 2b 67 be c0 e4 2d 3e d1 4f bd bd
       0.0023232212 -0.22575021 0.16981792 -0.092437394
000090 06 d1 92 be ac e5 73 3e 2b 79 d6 be 7f 5c c9 be
       -0.28675097 0.23818082 -0.4188932 -0.3932838
0000a0 55 0c 0c 3e fd 54 9b be ef a0 0f bd 14 92 67 3e
       0.1367658 -0.30338278 -0.035065588 0.22614318
0000b0 33 81 95 be 9d 27 ac bc 39 55 a6 3e 71 06 da be
       -0.29200134 -0.021014983 0.32486895 -0.4258304
0000c0 39 ae 5d bd 50 c9 f7 bd 96 c5 cd 3e 4c 56 a5 3d
       -0.05412123 -0.12098944 0.4018981 0.080731004
0000d0 18 b7 ba be 33 bc 0f be bf f5 26 bc 26 53 97 be
       -0.36467814 -0.14036636 -0.010190426 -0.29555625
0000e0 da 95 a6 3e 44 7c 63 3d b0 72 9e 3e 25 68 79 bd
       0.32536203 0.05553843 0.30946875 -0.060890336
0000f0 91 e1 85 bb ce 17 41 3d a2 c8 2f be f7 e4 2b 3e
       -0.0040857275 0.047141843 -0.17166379 0.16786562
000100 80 fb 98 3e 35 78 29 3e 95 f5 ba bd 7a 8d f3 bd
       0.2987938 0.16549762 -0.09128872 -0.11892219
000110 24 b1 54 3e ce 56 2e 3e 86 7a 9a 3e 5b 1e 86 3e
       0.20770699 0.17025301 0.30171603 0.26195034
000120 f4 f6 56 3c 08 89 22 3e 7e 0f 12 3e 9e 93 20 3d
       0.013120402 0.15872586 0.14263722 0.03920328
000130 35 d3 4a 3e c7 dd 3a 3e 5c 0e 24 be aa b2 e7 3d
       0.19807132 0.18248664 -0.16021103 0.11313374
000140 aa 80 15 be 65 d5 8c 3e 5a 75 ba 3d da 2b e0 3c
       -0.14599863 0.27506557 0.09104414 0.02736466
000150 10 2b 39 bd 27 c5 18 be 43 5c e1 be 64 61 47 3e
       -0.045207083 -0.14918958 -0.44015703 0.19470745
000160 1c 7d b7 bd 9d 95 14 be 8d 6b a7 3d 20 3a 10 be
       -0.089594096 -0.14510198 0.081748106 -0.14084673
000170 64 4d e4 bd 2e 10 dc bd 08 b8 bb 3d d7 0c 66 3c
       -0.111475736 -0.107452735 0.091659606 0.014041147
000180 1e 51 12 be d0 0f 51 bc 2a 55 9e 3d 09 51 d3 bd
       -0.14288756 -0.012760118 0.077310875 -0.103181906
000190 11 22 5a 3e 0f 8d aa bd 1f fa a1 3e 9d f5 52 3d
       0.21302058 -0.08327686 0.3163614 0.051503766
0001a0 09 48 14 3e c6 b7 83 bd 1d 77 53 be fa 91 bd bd
       0.14480604 -0.064315364 -0.20650907 -0.092563584
0001b0 c1 08 41 be 18 f9 c6 3c 9d 75 3e 3e e7 1b 09 3f
       -0.18850996 0.024288699 0.18599553 0.535582
0001c0 ff 6c 05 3e 17 28 86 3e 6f 80 99 bf 9c ba b1 be
       0.1302986 0.2620246 -1.199232 -0.34712684
0001d0 1f 71 05 be e5 1c ef 3d c9 5e 0d bd 63 dd bf 3e
       -0.13031434 0.11675433 -0.034514222 0.37473592
0001e0 28 62 d1 3d 15 1b c9 bd 88 7c 4f be d0 55 d1 3e
       0.102238 -0.098196186 -0.20262349 0.40885782
0001f0 37 07 51 3d a7 4f 23 3e f9 63 9e 3d 52 d2 34 be
       0.05103227 0.15948354 0.07733912 -0.17658356
000200 65 0c 52 be 78 d3 79 3e 0c 72 8c be 82 22 3d 3e
       -0.2051254 0.24397075 -0.2743076 0.18470195
000210 e5 ed 38 3d 26 b3 00 bf c7 30 96 3e e3 9c f3 bc
       0.04514875 -0.5027336 0.2933409 -0.029737895
000220 83 13 c7 be 4d 79 02 3e fd 0d f0 3d 5a 39 83 be
       -0.38882074 0.12741585 0.11721418 -0.25629693
000230 25 e6 95 be bc 82 b7 3d 60 03 a5 be c2 68 a2 3e
       -0.2927715 0.089604825 -0.32229137 0.3172055
000240 77 5e 70 be 08 b2 95 3e ad 78 80 3e 41 de d3 bd
       -0.23473535 0.2923739 0.25092068 -0.10345126
000250 51 f4 b0 3d 24 6f 47 3d 11 5c d2 bd a4 2f 77 3e
       0.0864035 0.048689976 -0.102714665 0.24139267
000260 1b bb 25 bc 60 3f ed 3d e4 90 03 be f7 7d a9 3d
       -0.01011541 0.115843534 -0.1284824 0.08275979
000270 87 4f 26 be e7 48 f3 bc 04 04 43 3d 7b 49 fe bb
       -0.16241275 -0.029697848 0.04761125 -0.0077602244
000280 49 98 d1 3d 0f eb f1 3d 5c 08 50 3e c3 7e 6d 3d
       0.10234124 0.11812412 0.20315689 0.057982218
000290 8b 4f a9 bd 56 7c 00 3d 24 73 a6 bd 4c 0e d9 bd
       -0.08267125 0.031368576 -0.0812743 -0.1059843
0002a0 65 c3 60 3e 86 a5 7e 3d 8f 3e 36 3e 09 02 77 3e
       0.21949537 0.062169574 0.17797302 0.2412187
0002b0 36 93 92 bd 1f 6b 93 3d 22 58 03 3e 5a 46 f4 bd
       -0.071569845 0.07198166 0.12826589 -0.11927481
0002c0 b8 37 0f be 17 51 0d be a0 d0 4e bd 60 d6 45 3e
       -0.13986099 -0.13800465 -0.05049193 0.19320059
0002d0 e8 2c 81 3d 7f 13 80 3c 93 f8 07 3e 0e 03 c8 bd
       0.06307393 0.015634296 0.13278417 -0.09766208
0002e0 8c 9f 89 bc d5 b7 06 3e a6 16 67 3c 3b 11 c8 bd
       -0.01679971 0.13156064 0.014104521 -0.097689115
0002f0 ba ba a8 39 59 1e 3b 3e 7e 14 99 bc 61 87 00 3e
       0.0003218258 0.18273295 -0.01868653 0.12551643
000300 c7 52 54 bf 22 2d 80 3d 32 41 0f be dc 10 f9 3d
       -0.8293881 0.062586084 -0.13989714 0.12161419
000310 b4 20 0c bd 3f c4 32 be f3 f7 30 bd 7f e3 62 3e
       -0.034210876 -0.17457674 -0.043205213 0.22157095
000320 59 a7 ad 3e eb 43 b0 3e 4c ba af 3d cf 0e be 3c
       0.3391674 0.34426817 0.08580455 0.02320042
000330 a6 c9 b1 bf 13 d0 a7 3d 26 ae 08 3e e8 44 05 bf
       -1.3889663 0.08193984 0.13347682 -0.5205827
000340 42 cc 8a 3e 44 69 a5 3c cf 9f 51 3e 93 a0 fc bc
       0.2710896 0.020191796 0.20471118 -0.030838287
000350 bb 02 23 3e 7c 81 b0 3d 83 08 75 be 37 81 dc bd
       0.1591901 0.08618447 -0.23929028 -0.10766833
000360 6e 0d 5f bf 37 f3 a0 bc 8d c2 dc 3d ea 16 81 be
       -0.8712987 -0.019647224 0.10779295 -0.25212795
000370 50 68 84 bb b2 d7 69 bc 30 2f 20 be c0 7e e4 3d
       -0.0040407553 -0.014272617 -0.15643 0.11156988
000380 33 19 66 3e 46 9c 4c 3e 9f 47 a5 bd 0e 8b ea bd
       0.2247055 0.19981489 -0.08070301 -0.11452304
000390 d0 d7 35 be 69 48 91 be 0e 08 1c bc 2d b0 a5 3e
       -0.17758107 -0.28375557 -0.009523405 0.32360974
0003a0 55 55 90 3e 98 d3 46 bc 39 3f f3 3d f4 af eb 3d
       0.28190103 -0.012135409 0.11877293 0.1150817
0003b0 a6 cb b7 3d 8f 93 99 3e e8 b2 50 bc 5f 1f a6 bc
       0.0897439 0.2999539 -0.012737967 -0.02027863
0003c0 8e a4 84 be f2 62 5a bd e6 74 5d bc 66 56 2a be
       -0.25906795 -0.053317018 -0.01351664 -0.16634521
0003d0 78 db 07 be 0f 90 09 3e 8d 86 1e be 6e 86 21 3d
       -0.13267314 0.1343386 -0.15481015 0.039434843
0003e0 67 81 2f bd 3e 4f 84 bd b8 1e df bd be 5a ab be
       -0.042848017 -0.06460427 -0.10894531 -0.33467668
0003f0 8d 04 09 3e 05 f4 0b 3e 8d 3e 68 bd 1a 2e 21 3e
       0.13380642 0.13667305 -0.056700278 0.15740243

fc2.bias f4 [64]
000000 3c 53 2c be 8f 14 b7 bd ef 71 8d 3c 34 f1 a1 bd
       -0.16828626 -0.08939468 0.017266242 -0.07907334
000010 69 a8 d1 3d 27 d5 58 3e ae 85 d6 3c 01 2a 5f 3e
       0.102372 0.21175061 0.02618679 0.21793367
000020 7d 0b 84 3d f7 d0 c8 3e bb 5f 8a 3e 1a 4d 75 3d
       0.06447504 0.39221928 0.27026162 0.059887983
000030 7c d6 1d 3d 2e 09 71 bd 72 d4 69 bd 8f ca 87 3d
       0.038534626 -0.058846645 -0.05708737 0.06630432
000040 e7 9a 0b 3d 4e 61 af bd 9a 5b 5b 3e 65 85 a7 bb
       0.034083273 -0.08563481 0.21421662 -0.0051123374
000050 94 7e 48 3e a3 28 b6 3e 69 31 2b 3e c3 f0 8a 3e
       0.19579536 0.35577878 0.16718067 0.27136812
000060 2d 63 b1 3e 7e 15 fa 3d 0b 90 8f 3e a6 8c 89 3e
       0.34645978 0.122111306 0.28039584 0.2686512
000070 d0 9f 65 3d 05 8d 05 3d 17 d0 d1 3d f3 ce 0f 3e
       0.056060612 0.03260519 0.10244768 0.14043789
000080 d8 36 3a be 5a 76 05 3d e5 c3 52 3e f9 50 7c bd
       -0.18184984 0.032583572 0.2058254 -0.06160066
000090 55 66 b9 3e 3d cb b0 3d cb 12 48 3e e2 71 86 3d
       0.36210886 0.086325146 0.19538419 0.0656469
0000a0 15 5b 0e bc b0 5f 2a 3d c1 f4 a5 3d 10 68 75 3e
       -0.008688708 0.04159516 0.08103324 0.23965478
0000b0 b1 d5 87 3d 7f ac 3f 3e fc 95 77 3d 41 48 95 3d
       0.06632555 0.18718146 0.06044577 0.07289172
0000c0 19 b0 96 3e da 33 6a 3e aa c0 4f 3e 2f 17 32 3e
       0.29431227 0.22871342 0.2028834 0.17391656
0000d0 47 ad 8a 3e 98 5e d4 3d 31 12 e3 bc 3d 1a 30 3c
       0.27085325 0.10369605 -0.027718635 0.010748443
0000e0 44 81 1d 3d 3d cd 91 3e 25 1d 84 3e fe c5 ba 3e
       0.038453355 0.28476897 0.25803486 0.3647918
0000f0 53 b2 d7 bd a4 a1 90 bc f5 cb 28 be f1 dd 7a 3d
       -0.105320595 -0.017655201 -0.16484053 0.061246816

fc3.weight f4 [128, 64]
000000 5a 76 c7 3e a0 14 5b bd 65 91 e5 be 5d 32 a3 3d
       0.38957483 -0.053486466 -0.4483749 0.079685904
000010 55 08 ed be 9e e3 85 3d 00 0d a2 bd f6 b5 8d 3d
       -0.4629542 0.06537555 -0.07912636 0.06919472
000020 de d8 8c 3c f3 e3 0b bb 1c f4 23 3e b4 81 52 bf
       0.017193254 -0.0021345585 0.16011089 -0.8222916
000030 ae 57 35 bd 8c 61 5e be d4 65 2c be 79 3b 80 3d
       -0.04427307 -0.21716899 -0.1683572 0.062613435
000040 24 c5 ac 3d 55 4e b2 bd c1 bf f1 39 31 6c ae 3d
       0.08436039 -0.08706347 0.0004610997 0.085167296
000050 7b 54 49 be 69 60 34 3b 0a 49 07 3d da 76 70 bd
       -0.19661133 0.0027523285 0.03302864 -0.058707096
000060 05 24 a5 b8 a7 2a 0c be e0 8a 19 be f2 ec 3d be
       -7.874522e-05 -0.13688146 -0.14994383 -0.18547419
000070 56 4f 76 bd 02 9b 8d 3e 95 f2 20 be aa 84 48 3c
       -0.060134254 0.27657324 -0.15717538 0.012238661
000080 e0 93 64 3e 3e aa f4 bc 81 d8 80 3d b3 97 1f bf
       0.22322035 -0.029866334 0.06291295 -0.6234085
000090 2c e8 9f bd 1c 12 1f be 73 d8 0f be cf 68 94 3d
       -0.07807955 -0.15534252 -0.14047413 0.07246553
0000a0 be 5c 43 bf 34 ad d1 bd 89 29 ed bd 2a 6b 06 3d
       -0.7631339 -0.10238114 -0.11580188 0.032817043
0000b0 c5 1d 25 be fc b2 65 3d 1c 80 15 be 13 9d 8f be
       -0.16124637 0.056078896 -0.14599651 -0.28049526
0000c0 b4 7d 5b 3e e7 f7 88 bd cf 77 45 be 10 95 96 bd
       0.2143467 -0.066879086 -0.19283985 -0.0735265
0000d0 25 65 bc 3d 89 e9 26 bb bd b8 fc 3d 62 39 f1 bd
       0.09198979 -0.0025468788 0.123399235 -0.11778523
0000e0 13 97 10 3f ee 82 0c 3e c5 7c ea bd a3 01 0c bd
       0.5648052 0.1372182 -0.11449579 -0.03418125
0000f0 01 65 e4 bd 85 1a 01 3f aa 1b b4 3e 4e 08 80 be
       -0.111520775 0.5043109 0.35177356 -0.25006336
000100 39 10 c2 3e 42 41 18 3f 04 f2 f0 3c 2d e5 8e be
       0.37903002 0.59474576 0.029412277 -0.27909222
000110 e9 9a 3c c0 f8 7f d6 3d 93 4e bf 3e 9b a0 3d 3d
       -2.946955 0.10473627 0.37364635 0.046295743
000120 80 7a 73 bf 67 5c 8d be f4 87 92 3f 42 a4 c0 bf
       -0.95108795 -0.2760956 1.144774 -1.5050128
000130 f1 a8 e7 3d d9 da 2d be b8 3a a9 3d bb 5e 61 3d
       0.1131152 -0.16978015 0.08263153 0.055021983
000140 51 eb a7 3d f6 e9 7c 3d 23 12 6e be 9d 59 6a bd
       0.0819918 0.06174656 -0.23249106 -0.057214368
000150 6b 63 0a be 1d f0 ea bc 37 e0 01 bd 68 66 bf be
       -0.13514487 -0.028678948 -0.03170797 -0.37382817
000160 df 80 a5 bd 9d 06 a8 be d8 c9 59 bd 1f 94 b2 b9
       -0.08081221 -0.32817546 -0.05317101 -0.00034061164
000170 78 0d a4 bd 12 4c 17 bf aa 1a c4 bc d0 7e a4 3e
       -0.080103815 -0.5910045 -0.023938496 0.32128
000180 35 c7 c4 bf f7 61 ca bd 0b 65 71 bc f1 55 9e 3e
       -1.5373293 -0.098819666 -0.014733563 0.30924943
000190 fc d4 3a 3e 19 46 00 3e ef 79 9f 3d 61 01 5c bc
       0.1824531 0.1252674 0.07786929 -0.013428063
0001a0 fa 18 3c be 39 10 87 bd 07 a9 30 be 6c c7 93 3e
       -0.18368903 -0.06594891 -0.17251979 0.28863084
0001b0 b9 5b 55 bf 1a 2e 14 3e ed ab 08 3e d3 46 63 3c
       -0.8334308 0.14470711 0.13346834 0.013871866
0001c0 a8 24 2b bf 9b 6b 7b ba f6 e3 67 3d 3b 23 6d bc
       -0.6685281 -0.00095909246 0.056613885 -0.014473732
0001d0 bb 53 8b 3d 76 60 5e 3e b1 de de 3e f8 4f b5 3d
       0.0680308 0.21716484 0.43529275 0.088531435
0001e0 f6 a5 f0 3e ea 39 77 3d ac 4b d3 3d 76 23 97 bd
       0.47001618 0.060357966 0.10317168 -0.073798105
0001f0 2e 7b dd be 6d 22 d4 3e b5 aa e0 bb 9b 6f a1 3d
       -0.4325804 0.41432515 -0.0068562874 0.07882615
000200 84 94 17 be 00 f4 32 3e 15 5a bb 3d 40 f4 66 3e
       -0.14802748 0.17475891 0.09148041 0.22554111
000210 c2 25 e3 3e f2 13 11 3b 2a b2 aa 3d 9f 09 52 3e
       0.44364744 0.0022137132 0.08334763 0.20511483
000220 96 f1 21 be 45 d6 11 3e e1 5c e9 3e 49 ed cc 3e
       -0.15814814 0.14241894 0.45578673 0.40024784
000230 4b 42 85 3d a1 5c 78 3e c3 77 66 3e 82 93 f4 3d
       0.06506785 0.24254085 0.22506623 0.119421974
000240 6e 2f 3b 3e e7 01 b4 bc 21 12 e4 3d bb 59 de bd
       0.18279812 -0.021973563 0.1113627 -0.108569585
000250 85 75 15 3e 5b 83 26 3e 97 a7 17 3d 9f 40 45 3e
       0.14595611 0.16261046 0.03702506 0.19262932
000260 b4 df 5c 3e 2e 62 7f 3d d4 1f 2f 3e 85 85 2d 3e
       0.21569711 0.06234949 0.17101985 0.16945465
000270 1d 7e 07 3d 05 d1 3c 3a b4 60 fc bc 31 29 ff 3d
       0.033079255 0.0007202777 -0.03080783 0.124590285
000280 6b f1 25 be 2e 15 00 3e de 2c dc 3d dd 25 2e 3e
       -0.16205375 0.1250808 0.10750745 0.17006631
000290 73 fb 34 bc 9c 5a 72 bc 27 16 ab 3d 63 ee 9d 3d
       -0.011046278 -0.014792111 0.083538346 0.07711484
0002a0 bd 91 2b 3f 50 b2 8b 3b 85 2c 33 3e 4b 4f 91 3d
       0.67019254 0.0042632 0.17497452 0.07095202
0002b0 93 9d b5 3d ef 97 9e 3c af 24 14 3e f0 1b 03 3e
       0.088679455 0.019359557 0.14467119 0.12803626
0002c0 be 67 47 3d 1b 62 1a 3e 61 67 21 3e a8 6b 71 3d
       0.04868292 0.15076487 0.15762092 0.05894056
0002d0 86 48 47 3e 54 20 c6 3c b3 3a bb bc 86 25 05 3e
       0.19461259 0.024185337 -0.022855138 0.13002595
0002e0 ae c4 60 be ab eb 58 3d 2f 90 24 3e fe 74 e6 3d
       -0.21950027 0.052959125 0.16070627 0.11252783
0002f0 ed 62 10 be 20 79 b3 be 6c 73 27 be 64 ff 2f 3e
       -0.14100237 -0.3505335 -0.16352624 0.17187268
000300 5c dd 2c 3c 88 a2 5d bc 0f cb cd bd dd 8f 7b 3d
       0.010550823 -0.01352752 -0.10048496 0.061416496
000310 36 95 c7 3d 2a d1 f5 bd d0 7a aa 3d 4c 8a d2 bd
       0.097452566 -0.120027855 0.08324206 -0.10280284
000320 7b 1e 52 3d aa b2 f8 bd f4 48 e9 3c 7b 97 02 bd
       0.0512986 -0.121434525 0.02847717 -0.031882744
000330 f7 89 8c bd 28 0f db bd b2 5a f3 bd 62 39 ca 3d
       -0.06862252 -0.1069625 -0.11882533 0.09874226
000340 74 c7 d6 bc eb 6c 4d bd 94 3e e5 3d 43 8c 9d 3d
       -0.026218154 -0.0501527 0.111935765 0.076927684
000350 eb 2f 93 3c 09 31 32 3d 04 f4 13 bd 76 f8 84 3d
       0.017967185 0.043503795 -0.036121383 0.06492703
000360 c7 6f 9a 3c 58 c1 95 bd 8b 17 09 bd 47 1f 5d 3c
       0.018852128 -0.07312268 -0.033469718 0.013496227
000370 d3 fd c2 bd fa 79 70 bd 51 99 a7 bc ce 30 7c bd
       -0.095210694 -0.058710076 -0.02045885 -0.06156998
000380 e6 69 8f 3d 00 a1 da bd 98 10 a7 3d b8 24 a0 bc
       0.070026204 -0.106752396 0.08157462 -0.019548759
000390 a2 79 f8 bc dc ff e0 3d 23 59 8c bd ad 40 a4 bd
       -0.030331437 0.10986301 -0.06852939 -0.080201484
0003a0 20 84 d7 bd d6 fc 89 3a d0 29 52 bd 19 8c 21 bc
       -0.10523248 0.0010527621 -0.051309407 -0.009860062
0003b0 c7 5a d1 3d 8a ef 7e bd c8 8d ee 3c eb 2e cf bd
       0.102223925 -0.06224016 0.029120341 -0.10116371
0003c0 ca e5 00 be 80 4f d9 bd 43 5d d0 3d dd 02 ad bd
       -0.12587658 -0.106108665 0.10174038 -0.08447812
0003d0 27 e3 19 3d 67 e6 8d 3c 6a 96 04 3d 64 3c 96 bd
       0.037570145 0.017321778 0.03237001 -0.07335737
0003e0 b3 0d 04 be 91 08 e3 bd b1 66 b1 3c 90 ed 5a bd
       -0.12895851 -0.11085618 0.021655412 -0.053449214
0003f0 4b 0c 8e bc 98 33 5d bd 3e 85 f6 3d e5 eb 71 3d
       -0.017339846 -0.05400428 0.12037133 0.059062857

fc3.bias f4 [128]
000000 ab 12 c2 bd b8 1c 86 bd 74 c0 96 3e c3 e3 c4 bd
       -0.09476217 -0.065484464 0.29443705 -0.096137546
000010 9d 8a 26 bc 23 4d 41 3e 00 d5 d0 bc 26 91 fd bd
       -0.010164884 0.18877082 -0.025492191 -0.123812005
000020 02 36 80 3d e7 c0 cd 3d da 9a 8a 3e 0f 09 13 3e
       0.06260301 0.10046559 0.27071267 0.14358924
000030 cc bc d4 bd 95 bc 7d 3e 5f fb 59 3d 21 bc 7a 3e
       -0.10387573 0.2477897 0.05321824 0.24485828
000040 ce 78 b0 bc ee 9e eb 3d 69 a1 86 3c 9b 89 8a 3e
       -0.02154198 0.11504923 0.016434388 0.2705811
000050 85 66 7a 3e bb ed 12 3e fb fb 02 be ad ca e6 bc
       0.2445317 0.143485 -0.12791435 -0.028172815
000060 ef 12 d7 bd 89 59 b4 3e f3 90 f5 bd 87 6a 1e 3d
       -0.10501658 0.3522456 -0.119905375 0.03867581
000070 13 ac 25 be 28 8f 83 be 95 dd c7 bd 14 61 7e 3e
       -0.16178922 -0.25695157 -0.0975906 0.2484172
000080 12 3b ff 3d d3 b4 fd 3d eb c8 1f 3e 77 ef 9c 3e
       0.12462439 0.12388005 0.15603988 0.30651447
000090 13 24 0c 3e 3a 57 e3 bd df f1 8c bd 2a a6 38 be
       0.13685636 -0.111006215 -0.06882071 -0.18032137
0000a0 68 10 76 bc f6 27 1f 3e 45 d6 b2 3d a0 d0 d6 3d
       -0.01501856 0.15542588 0.08732275 0.10489011
0000b0 dc 23 ff 3c 65 d4 8b 3e 22 16 0e 3e 0c b3 d8 bd
       0.031145029 0.27310482 0.1387563 -0.105810255
0000c0 4b ee ad 3e 0d 79 31 3e 7d 91 6a 3e 12 98 9a 3e
       0.33970866 0.17331333 0.22907062 0.30194145
0000d0 e4 71 7a 3e d8 53 83 bd b2 78 09 3e 94 7f d6 3d
       0.24457508 -0.06412476 0.13424948 0.10473552
0000e0 fb 06 de bd 9f 52 60 bd 52 e1 8d 3c e6 db d2 3d
       -0.10841175 -0.054766294 0.017319355 0.102958485
0000f0 b8 4a 07 3e 41 d6 77 3e 5e 8f 64 3e 7a af 6a 3e
       0.13212097 0.24202825 0.22320315 0.22918501
000100 14 af 41 3e a3 cc 88 3e 82 68 4b 3d f9 7e 55 3e
       0.18914443 0.26718625 0.049660213 0.20849217
000110 35 03 2a be 8d 1d 55 3e dd 71 0e 3d a8 e3 81 3d
       -0.16602786 0.20812054 0.034776557 0.0634225
000120 81 36 a7 3e 04 19 38 3e f6 12 b8 3d 14 5e 21 3d
       0.3265877 0.17978293 0.089879915 0.03939636
000130 ca 71 2d bd 24 8e 1e 3e 6c fa 22 3e 66 c9 4c 3e
       -0.042344846 0.1548391 0.15915841 0.19998702
000140 a3 c9 97 3e 1a 87 0b 3c ba 68 49 3e 58 ba 16 3e
       0.29646024 0.008516097 0.19668856 0.14719522
000150 31 a2 b9 3d e1 e7 b1 bc a4 36 b2 3e 67 2d fb bd
       0.09064139 -0.021717014 0.34807312 -0.12264519
000160 e3 f2 e7 3d 1c 73 d3 bd 35 bb 36 be 0f 18 38 3e
       0.11325624 -0.1032469 -0.17844851 0.17977928
000170 4e ad 94 3e 25 3f e1 bd 67 6f f9 3d bb 0f 28 bd
       0.2903847 -0.10998372 0.121794514 -0.041030627
000180 15 f5 4b 3e 13 3d d3 3d d9 83 72 bc 0c b0 53 bd
       0.1991771 0.10314383 -0.014801943 -0.051681563
000190 ee 0e 3e 3d 9d 3e a0 bd 46 57 0b 3d 54 92 97 bd
       0.046400957 -0.078244425 0.034018777 -0.07400957
0001a0 9a 8b 38 bd ad 27 e4 bd c8 f9 8d 3e 72 87 13 be
       -0.04505501 -0.1114038 0.2772963 -0.14407137
0001b0 e8 43 14 be a0 21 35 3e 3d ba 29 bc 65 9a ab 3e
       -0.14479029 0.17688608 -0.010359344 0.3351623
0001c0 bf 3d d6 3c d8 21 42 3e 4f e1 9b 3d c2 61 0f be
       0.02615249 0.18958223 0.076113336 -0.14002135
0001d0 72 05 12 3e 06 8f 3e 3e a3 bc 8a bd 7d 8c 61 be
       0.1425989 0.18609247 -0.06774261 -0.22026248
0001e0 fd de ff 3c 2a 44 8c 3d a5 db 1f 3e b8 25 51 3e
       0.031234259 0.06848939 0.15611131 0.20424545
0001f0 4f c5 cf bc 84 64 33 3e 64 db 89 3e be 5d c6 3d
       -0.025362639 0.17518812 0.26925194 0.09685849

v.weight f4 [1, 128]
000000 9b 78 10 3f e9 a8 a7 3f 0d 25 5e be 8b 96 11 3d
       0.5643403 1.3098422 -0.21693821 0.03554396
000010 c3 ee 17 3f a3 0b 28 be 03 79 4d 3e 54 4c aa 3f
       0.59348696 -0.16410689 0.20065694 1.3304543
000020 d3 f3 8c 3c d7 7f 89 3d a8 a9 31 be 3d 97 62 be
       0.017206108 0.06713837 -0.17349875 -0.22128005
000030 77 b7 53 3d c8 80 28 be c3 15 9e 3e a0 10 44 be
       0.051688638 -0.16455376 0.30875978 -0.19146967
000040 44 be 9d bc fd 24 47 be c5 d7 f0 3e d6 95 2b be
       -0.019255765 -0.19447704 0.4703962 -0.16756377
000050 2a 2a 65 be 3a 34 71 be b3 49 8c 3e 71 e7 a7 3d
       -0.22379366 -0.23555079 0.27399978 0.08198441
000060 19 cd cc 3e 10 fa 36 be ab 0f 95 3e 96 fd cc 3e
       0.40000227 -0.17868829 0.29113516 0.4003722
000070 d0 56 10 3e 27 25 0b 3f 03 2a a6 3e 55 74 2d be
       0.14095616 0.54353565 0.32453927 -0.16938908
000080 02 f0 33 be 96 f9 2a be 12 82 37 be 99 51 1c be
       -0.17572024 -0.16696772 -0.17920712 -0.15265502
000090 49 17 2d be 7f 54 33 3e 72 74 cf 3c 33 46 1e 3f
       -0.16903414 0.17512701 0.02532408 0.61825866
0000a0 87 78 67 3f 48 28 7e be cd 24 25 3d 2f ce 4f be
       0.90418285 -0.24820054 0.0403183 -0.20293497
0000b0 cf 24 24 3e 4a e5 29 be 42 dd 6d be a2 0a 25 3e
       0.16029666 -0.16591373 -0.23228934 0.16117337
0000c0 9c d7 4a be 0b ec 2e be 80 24 32 be 05 12 36 be
       -0.19808811 -0.17082231 -0.17396736 -0.17780311
0000d0 d5 a4 17 be fd 2c ea 3d b6 5d 71 be 0c 7e 53 3d
       -0.14808972 0.11434362 -0.23570904 0.05163388
0000e0 20 45 e8 3f 78 cc 27 3f 8d 3e 28 3b 74 8b 2f be
       1.8146095 0.6554637 0.0025672049 -0.17143041
0000f0 3b 0d 33 be 4a 81 54 be f1 30 28 be db f9 4d be
       -0.17485516 -0.20752445 -0.1642492 -0.20114844
000100 ec 20 34 be 3e e1 82 be 01 27 a6 3c 39 2a 97 be
       -0.17590684 -0.2556247 0.02028227 -0.295244
000110 be 9a e8 3e eb bb 4d be e9 0a 16 3f a1 c6 75 be
       0.4543056 -0.20091216 0.586104 -0.24001552
000120 5d 2a 71 be 9c 93 a7 be 41 0e 36 be dd 05 0c 3e
       -0.23551317 -0.32729805 -0.17778875 0.13674112
000130 e7 f1 a6 3e 04 83 5d be 59 80 30 be 2f e2 50 be
       0.32606432 -0.2163201 -0.17236461 -0.20398782
000140 b2 d1 42 be b0 67 82 3e 2c c6 3c be 1c bd 5f be
       -0.19025305 0.25469732 -0.18434972 -0.21849483
000150 b2 52 2e be ab 5c 71 3c 96 95 90 be 50 6d 30 3f
       -0.17023733 0.014731566 -0.28239125 0.689168
000160 77 fd 41 be c4 95 11 bc c5 6a 29 3f 6d f3 8c be
       -0.18944345 -0.008885805 0.6617854 -0.2752947
000170 46 4b 21 be db fe 1c 3f 03 9e 7a be 30 7f 89 3e
       -0.15751371 0.6132638 -0.24474339 0.2685485
000180 96 07 3e be bd 58 78 be 7f 2b 06 3d da bc 0e 3f
       -0.18557581 -0.24252601 0.032756325 0.55756915
000190 5b 18 86 3d b5 80 26 3e e3 81 7f be b8 3c 3f 3e
       0.06547614 0.16260035 -0.24951892 0.18675506
0001a0 34 d0 20 bc 2e 27 7b 3d 10 72 6b be ef e2 cd 3e
       -0.0098152645 0.06131666 -0.2299273 0.402122
0001b0 ce 88 3f 3e af 83 37 be c4 5d 92 3b 29 e8 1a be
       0.1870453 -0.17921327 0.004466744 -0.15127625
0001c0 f6 24 9c 3d aa 3a 1e be 82 b7 82 3d 56 3f 97 3e
       0.07624237 -0.15452066 0.063826576 0.2954051
0001d0 5e 51 2a be 65 cb 56 be ff a5 15 3f 73 18 d6 3f
       -0.16632602 -0.20976026 0.58456415 1.6726211
0001e0 25 4a 34 3c c6 c8 67 be 89 3c 63 be 35 cc 31 be
       0.011004006 -0.22635183 -0.22191061 -0.17363055
0001f0 c9 1b e8 3c 14 12 7f be a4 2d 3a be b7 9e 4f be
       0.028333561 -0.2490924 -0.18181473 -0.20275389
