SAC/target_critic1_v3.pth (torch, 46031 bytes, 7 tensors)

fc1.weight f4 [32, 11]
00000000: 3faa a23e 7626 1abe 4501 3cbe c930 74be
00000010: 876c 943c d851 b7bd 21fa d4ba a0c8 19bf
00000020: 8d99 dd3c 9cb9 6e3c cc49 e53c 09c4 3a3f
00000030: eadf 5fbe 2c03 093f fa8f 47bd 327f a4bc
00000040: 61b8 03be 25c5 82bf 104a 153f 69e7 543e
00000050: 1ec8 533c 18c9 a3be b798 6ebe a175 c4be
00000060: d7f2 10bf 0c3b 2ebe f663 99bd 4c98 e13d
00000070: b817 fbbd 3201 0cbf 63c8 a13d 4298 893d
00000080: 904f 853c 2119 d73e a4d5 223e 7c2e 513e
00000090: 597a 9db8 c203 823d 7286 8dbd 746d 65bf
000000a0: 4ff2 c5bd 16ce 1a3e 4922 293d 5a9b 80bd
000000b0: 7201 2abf 3447 9c3e eb6a 2d3e 4f8f ac3d
000000c0: 64ce 6cbd 2f33 8ebd 1225 9b3f a0db 8f3e
000000d0: 2ce5 ab3e c4e2 453d 9cde 2abd 74fb 80be
000000e0: 2b20 92be 3f53 0bbf 3881 48be 28f2 1e3e
000000f0: 2664 0ebe facf 353e d268 f6be fab9 e33d
00000100: f357 f4bb b222 92bd f437 23be 9ffa 2ebf
00000110: b23a 05be 1011 95be 3dbc 7f3c 11fb a83d
00000120: 6ff0 d5bd 67f0 2abf f0bd d6bd ef0c 113c
00000130: 6b1f d5bd 0f96 e7be 0e5a b0bd b6c7 803d
00000140: 92a2 123d a6f7 6cbe b987 9d3d 25b2 11be
00000150: be54 53bd 47c6 85be 2612 c23e ab2e b5bc
00000160: 418b 643e 5ad2 173f a85c 593f 542e 743e
00000170: b0e5 823d 9858 dcbd d5a9 1d3d 47d0 c93e
00000180: 4c81 35bd 5a55 ac39 ad95 9cbc a11f 52be
00000190: fa57 c0be 5651 0cbf 66ee 803d 84fc 5d3b
000001a0: c5e3 9e3a 8299 243e 5bd2 0cbf 7b04 af3e
000001b0: d930 d6bc b1ab 3c3c fa96 1b3f 982d 333f
000001c0: 2527 403e cdf1 153e c13c b3bc b9f6 83bc
000001d0: 89bc 3abf d869 ec3e 68aa 943e c7b4 d63c
000001e0: af7c 8abd c00a cfbe 9c72 ba3e f0d3 26bf
000001f0: a88f b43e 1249 963c 83ae d4bd 68de 07bf
00000200: 9097 a4be 0109 a53e 9d15 23bc e65b 1c3d
00000210: 4ef0 a8be 05c9 0d3f e3d0 f0be bc52 9ebe
00000220: e143 a23d f9b9 863c 181f 5e3f c3d4 ef3d
00000230: aac0 903e 44ca 053d 0ec6 c9bd b91e 773d
00000240: 664d 733d 56a3 aebe 7513 8d3b ef66 123d
00000250: d442 3b3e 0145 0b3f 11b9 08bf e1d8 6dbd
00000260: c53b 7f3c c6ed 8e3d ab21 1bbe 3c29 bd3e
00000270: 4c59 633d 9f74 303d e42a 4cba 0cee 82bb
00000280: 9571 31be b3ce 5fbd cbfd 92bc d661 e73c
00000290: 3528 ebbe ff01 00be 549f b7be f601 cfba
000002a0: 6028 81be 01c8 393e 9b4f ec3b 8125 183d
000002b0: 15bf 3ebf 9194 b0be 2b0a 61bd 0074 113e
000002c0: 028a bb3e 84db 023f 8d69 873e bb82 113e
000002d0: 7784 16bd a54d 2c3e 18e9 33be 0fb3 453f
000002e0: 80ed 2d3e 27c9 a4bd 93fa 4a3d 86fa b63e
000002f0: b34f 0d3f a450 2d3f 9e9e 3b3f 643e 153d
00000300: ae3d e83c 01e2 50be 2abd 3d3f 1391 8d3d
00000310: 583c 403c b1c4 cd3d c63e 1c3c 7431 623e
00000320: 09e7 ab3d a2c0 c33c 74f7 c43d 4be9 0a3e
00000330: 1f8d a63e a9d9 b13e db85 61bd 4e31 193e
00000340: fd33 843c 0799 8fbe 0e47 e2be bf6d 143e
00000350: aea5 1e3f 3758 153d a2ca 14bd 6ef7 a93f
00000360: 03ca 76be 16a2 633e 51d5 8c3b f9c0 333d
00000370: da64 13be 15d3 3c3e 159a d0be 2d99 393e
00000380: b772 5ebd 5b27 cabd 06f5 123f 6dd3 9b3e
00000390: 016a 563e 38b2 bf3c 5b7b 673e ec73 953e
000003a0: bb1d c0be ac96 5a3d b726 b43c 99e1 cc3c
000003b0: 7136 0c3e 5aac 88bf a388 f4be c262 c43d
000003c0: b67f 62bc 507a 1f3c 9fa0 27be 446a 493f
000003d0: c21b 6f3e c9ec 5d3e ece4 c7bd 6fc0 973e
000003e0: fd69 05be de1f fe3e 2060 fb3b d6d9 3e3d
000003f0: 74d8 6f3c 4881 b9be 9957 a5be 11ed a6bd
0.31770512 -0.15053734 -0.1835986 -0.23846735 0.018118156 -0.08951157 -0.0016248861 -0.60071754
0.027050758 0.01457062 0.02798929 0.72955376 -0.2186276 0.53520465 -0.04872129 -0.020080183
-0.12863304 -1.0216414 0.58316135 0.20791401 0.01292613 -0.3198936 -0.23300444 -0.38370994
-0.56620544 -0.17014712 -0.07489769 0.110153764 -0.12260383 -0.54689324 0.07899549 0.06718494
0.01627329 0.4201136 0.1590181 0.20427889 -7.5091324e-05 0.06348373 -0.06910409 -0.8962014
-0.09665357 0.15117678 0.041292462 -0.06279631 -0.66408455 0.30523074 0.16935317 0.084257714
-0.057814017 -0.06943356 1.2120688 0.28097248 0.33573282 0.048311964 -0.041716203 -0.25191844
-0.28540167 -0.544239 -0.19580543 0.15522063 -0.13905391 0.17755118 -0.48126847 0.111194566
-0.0074567734 -0.07135524 -0.15939313 -0.6835117 -0.13010672 -0.2911458 0.015608844 0.08251012
-0.1044625 -0.66773075 -0.104854465 0.008853181 -0.10406383 -0.45231673 -0.086109266 0.06288092
0.03579957 -0.23141345 0.07691903 -0.14228113 -0.05159449 -0.26127836 0.3790447 -0.02211698
0.22318746 0.59305346 0.8490701 0.23845798 0.06391466 -0.107590854 0.038492043 0.39416716
-0.04431276 0.00032869988 -0.01911434 -0.20519878 -0.3756712 -0.5481161 0.06295471 0.0033872435
0.0012122324 0.16074184 -0.55008477 0.34183106 -0.02614634 0.011515544 0.60777247 0.69991446
0.18764932 0.14643021 -0.021879556 -0.016108857 -0.7294393 0.46174502 0.2903626 0.026209248
-0.06762063 -0.4043789 0.36415565 -0.6516714 0.3526585 0.01834539 -0.10384848 -0.5307374
-0.32146883 0.32233432 -0.0099538835 0.03817358 -0.32995838 0.55384856 -0.47034368 -0.30922496
0.07923103 0.0164461 0.86766195 0.11710503 0.2827199 0.0326636 -0.09852229 0.060332034
0.059399985 -0.3410899 0.004305298 0.035742696 0.18287212 0.54402167 -0.5340739 -0.05806816
0.015578215 0.069789454 -0.15149562 0.36945522 0.055505082 0.04307997 -0.00077883736 -0.0039956626
-0.17328484 -0.054640483 -0.017943284 0.028244894 -0.45929113 -0.12500761 -0.35863745 -0.0015793431
-0.25226116 0.18142702 0.007211638 0.03714514 -0.7451032 -0.34488347 -0.054941338 0.14204407
0.3662873 0.51116204 0.26447716 0.14210026 -0.036747422 0.16826494 -0.17569387 0.77226347
0.1698513 -0.08046179 0.049555372 0.3573801 0.55199736 0.6770117 0.73288906 0.036436453
0.028349724 -0.20398714 0.74116766 0.06912436 0.011733137 0.100472815 0.009536451 0.22089177
0.08393676 0.023895565 0.096175104 0.13565557 0.32529542 0.34736374 -0.055059295 0.14960214
0.016138071 -0.28046438 -0.44194835 0.1449499 0.6197156 0.03646108 -0.03632606 1.3278635
-0.24100499 0.222298 0.0042978902 0.043885205 -0.1439394 0.18439896 -0.40742555 0.18124838
-0.05430862 -0.09870788 0.57405126 0.30434743 0.20938875 0.023400411 0.2260565 0.29190004
-0.37522683 0.05336635 0.021991117 0.025009917 0.13692643 -1.0677598 -0.47760496 0.09589149
-0.013824394 0.009733751 -0.16369866 0.78677773 0.23350433 0.21672358 -0.0976046 0.29639003
-0.13028713 0.49633688 0.007671371 0.046594463 0.014639009 -0.36231446 -0.32293394 -0.081506856

fc1.bias f4 [32]
00000000: 4db4 fb3d cd8e 51be f43e 1d3e 8e33 7ebe
00000010: 5bac 243d 6935 ccbe 9e1d 473e 0a58 8fbe
00000020: a033 52be a303 903e edd5 09be 2b96 c93c
00000030: ca9d 44be dffd 303e e8b8 b33e 6f4e 85be
00000040: 8692 583e ae8d 3f3d 3ff4 83be de88 c13e
00000050: 380b 93bd 1c72 22bc 429b 00be 1a72 a33d
00000060: c04c 42be b618 b9bd 8d7e c1bd 87e4 903b
00000070: 2c36 f53d 1e10 d93e 10f9 5bbe 023d 923e
0.12290249 -0.2046463 0.15356046 -0.24824354 0.040203433 -0.398845 0.19444892 -0.27996856
-0.20527506 0.28127775 -0.13460512 0.024607738 -0.19200817 0.17284344 0.3510201 -0.26036403
0.21149644 0.046765976 -0.25772282 0.37799734 -0.07179874 -0.009914901 -0.12559226 0.079807475
-0.1897459 -0.09037916 -0.09447966 0.004421774 0.11973223 0.4239511 -0.21481729 0.2856217

fc2.weight f4 [64, 32]
00000000: d68e cf3e 898e 863d 4814 ef3c 6209 2e3a
00000010: 2fce fe3c 4fc8 383e 232a a73e 63cd 3dbe
00000020: 4e14 c43c 3219 b53d a5b7 12be 3137 903e
00000030: eade c03d d7f3 553e 77e7 a5bc 1bb3 fb3f
00000040: ae36 0e3e 7a12 76be 22f8 373e 3440 1c3e
00000050: 68b1 ae3e 0ca9 41be bf8b 95be cc3d 093e
00000060: 570b 353d 3c9c 80bf 9b52 a1bd 23e3 bbbe
00000070: 0c42 b83d a7c6 dabc 88b3 853d 6912 0fbd
00000080: 1f33 35be 2f8f 6d3e 0770 27bd 3dbc 023c
00000090: 6359 a2bd b0bb 20bd 173a 43bd 3ac8 96be
000000a0: b774 3c3d b0de 32be 016f c53e 9c74 993e
000000b0: 0957 0cbe 3f19 43be c81b c93a bc80 13bf
000000c0: bffe 813d 0c31 2a3c b01d cc3d 0256 0cbe
000000d0: ebea ff3d ca28 a43e 1d0a 463e 0b9a 4ebd
000000e0: 8deb 913e 37a2 303d 4deb 2cbe a7ae 423c
000000f0: d421 60be aea3 303f 393d 66be 3857 e1bd
00000100: a899 b43e 24cd 863e ecf0 8f3d 774a 7c3e
00000110: 34d3 be3d 4093 ba3d 986f 853e e0f6 bfbd
00000120: ee09 b1bd 74bf 83be 8393 28be 7e49 81be
00000130: bb75 d63d a84f 0b3d 1294 733e 48fb 473f
00000140: c502 bc3d 45d3 de3d 1a53 fb3c a5c8 e53d
00000150: 43b1 19be 30b8 a5bc 3c7b 563c 23bf 2a3e
00000160: 4949 b33d 288a a0be db7e ff3c 093f 413e
00000170: 2955 c13d cc2c d73d 9eec 3f3d 9d3c 9cbe
00000180: 1c2e 773e f081 163d 6718 83bf 9b7f 083d
00000190: 36b2 09be 27d3 efbd 40a3 e4bf 1353 1740
000001a0: 06d2 0cbe dffa f4be 4e55 8fbd 78f0 b03c
000001b0: 7dbf 34be 631d e639 2f4e ac3e 1d42 9fbd
000001c0: 25ec 8e3d 64c9 a03e 2eee 293d a254 1f3e
000001d0: 6d9e 423e 6388 d3bc 75e8 a2be 822f 1b3e
000001e0: 4c2b ca3d c333 823e 4807 02be 0406 143e
000001f0: 7c80 003e fd96 253e ff3f b6be 7f50 ddbd
00000200: efaf 2d3e 904a a4bd 5fb5 f33d ce42 f9bc
00000210: 52fa 4e3e ebb4 2d3e eb7a 253e 7c55 a73d
00000220: a53b 0ebe f102 27bd b16a d9be f0c4 1abf
00000230: 03d0 14bd 483b fcbd 7969 a3bf fbd6 6c3f
00000240: 194a 873e 0a59 cabf 6c1b 39be 48e5 8bbe
00000250: 25e2 223c 6fde 9dbe 32f2 953d a649 5c3e
00000260: 2a34 123e fac8 35bd 87f9 abbe 58e1 92bd
00000270: 52d4 d8bd 2d15 acbf f104 c6bc 728e ab3d
00000280: 8e69 ed3c 090a 133e d049 90bd 5227 943e
00000290: a58d 883c 68b2 8d3e e9cc 1cbe 243a 9abf
000002a0: 171e 533e 15db 7abd bcb5 6bbd c104 f13d
000002b0: 65ff 5a3e d634 6dbe e3c9 e4bd ac49 853d
000002c0: 2eda 4a3d db39 1d3e 60b9 97be 3d3e ae3d
000002d0: 9b76 a1bd 24d0 c83b 6b62 a93e 1e64 2a3d
000002e0: ef4b 8dbe 02e5 3cbe a02e fdbd 42a1 45be
000002f0: 8f6e 2f3d 1e6a 2cbe 3509 cdbd 8bef 1f3e
00000300: 31da 8b3e 915d 103d f07b 1a3d 4c87 ee3d
00000310: 2cf9 843d 0721 b83d 1832 38bf 2d15 3dbe
00000320: 696d 39be a050 ef3e f8b9 b0bd 7165 103e
00000330: 302a c0be ec6f c93e dac4 77bd 8bba 223d
00000340: a8c3 ebbd c137 fa3c d711 713d 953d 463e
00000350: 8418 353e 6f6e 8bbe 1691 f8bc 75d8 513e
00000360: d0e7 973e a261 443e 7902 643e a1a9 05bf
00000370: 84ba 8dbe 0816 05be 16eb 91be 255f e0be
00000380: 0dce 3d3e 8b5b 3e3e 14d0 e5bd a902 b03c
00000390: de13 44be b6d9 9a3e 7643 c6be 4d3e 1f3e
000003a0: 2550 50be 2227 91bb 520a 8c3e 2562 713e
000003b0: 64f4 26bd 7080 74be 1ef3 503e 9845 8bbe
000003c0: 55a5 0d3e c16b 4e3e b331 303d a1de bfbe
000003d0: 4d84 e63d 2205 f63d 2e71 f1bc 8d95 ddbd
000003e0: fd6e ef3e b091 98bc e8f2 073e 923a a3bd
000003f0: 987c ebbd a046 413f 7fc1 a0bd 9d07 abbe
0.40538663 0.06570155 0.029184476 0.00066389714 0.031104175 0.18045162 0.32649335 -0.1853538
0.023935463 0.08842696 -0.14327867 0.28167108 0.094175175 0.20893799 -0.020251973 1.9664034
0.13888046 -0.24030486 0.17965749 0.15258867 0.34119725 -0.18912143 -0.2920818 0.1340248
0.044200268 -1.0047679 -0.07877084 -0.3669673 0.089969724 -0.026706053 0.065283835 -0.034929667
-0.17695282 0.23199151 -0.040878322 0.00797945 -0.079272054 -0.039241493 -0.04766282 -0.29449636
0.046009745 -0.17467761 0.38561252 0.29971778 -0.13705076 -0.190526 0.0015343362 -0.5761831
0.06347417 0.01038767 0.099666 -0.13704684 0.12495979 0.3206237 0.19339795 -0.050439876
0.28500023 0.04312345 -0.16886635 0.011882461 -0.21887904 0.68999755 -0.22484292 -0.11002964
0.3527348 0.26328385 0.07028374 0.24637781 0.093176275 0.09110117 0.26061702 -0.093732595
-0.08644472 -0.25732005 -0.16462521 -0.25251383 0.10471674 0.034011513 0.23786953 0.781178
0.09180216 0.1088014 0.030679274 0.112199105 -0.15009026 -0.020229429 0.013090905 0.16674475
0.087542124 -0.31355405 0.03118842 0.18871702 0.09440071 0.10506591 0.046856515 -0.30514994
0.24138683 0.03674501 -1.0241822 0.03332482 -0.13446888 -0.11710196 -1.786232 2.3644454
-0.13751993 -0.4784765 -0.069986925 0.02159904 -0.17651172 0.00043890913 0.336534 -0.07776282
0.06978635 0.3140365 0.04148691 0.15559629 0.19005747 -0.02582187 -0.31817976 0.15154842
0.098715395 0.25430116 -0.1269809 0.1445542 0.12549013 0.16170879 -0.355957 -0.10806369
0.16961645 -0.08022034 0.11899828 -0.030427363 0.20212677 0.16963546 0.1616017 0.08170602
-0.1388994 -0.04077429 -0.42464212 -0.6045675 -0.036331188 -0.123159945 -1.2766563 0.92515534
0.2642372 -1.5808423 -0.18076867 -0.27323365 0.009941612 -0.30833766 0.07321586 0.2151247
0.14277712 -0.04438112 -0.33588812 -0.07171887 -0.10587372 -1.3443962 -0.024172278 0.08376779
0.028980996 0.14359297 -0.070453286 0.2893625 0.016669104 0.27675176 -0.15312542 -1.2048993
0.20616947 -0.06124409 -0.057546362 0.11768485 0.21386488 -0.23164687 -0.11171319 0.065081924
0.04952448 0.15354101 -0.29633617 0.08507965 -0.0788395 0.006128328 0.330829 0.041599385
-0.27596995 -0.18446735 -0.12362409 -0.19299796 0.042830046 -0.16837355 -0.10011522 0.15618722
0.27314904 0.035245482 0.037715852 0.116468996 0.06492838 0.089906745 -0.71951437 -0.18465109
-0.18108143 0.467412 -0.08629221 0.14101197 -0.37532187 0.39343202 -0.060490467 0.039728682
-0.11511928 0.030544164 0.058854904 0.19359429 0.17685133 -0.27232692 -0.03034262 0.20492728
0.29669046 0.19177869 0.22266568 -0.5221196 -0.27681363 -0.12996686 -0.2849967 -0.4382259
0.18535633 0.18589608 -0.112213284 0.021485643 -0.19148204 0.30244225 -0.38723344 0.1555111
-0.20343073 -0.004429714 0.27351624 0.23572595 -0.040760413 -0.2387712 0.20405242 -0.27201533
0.138326 0.20158292 0.043016147 -0.3747454 0.11255703 0.12012698 -0.029472914 -0.1081954
0.46764365 -0.018624157 0.13276255 -0.07970156 -0.11498374 0.7549839 -0.078494065 -0.33404246

fc2.bias f4 [64]
00000000: 8636 ee3d fcf3 afbd 5fde 263e ea1e 453d
00000010: 9514 693e 05de 97bc 6ac0 1ebe 6efd a83c
00000020: bfd2 c63c 31e3 2039 6db1 25be 4bd7 1c3e
00000030: a70b d8bd f74f b23e 9f14 3d3e 0244 4f3c
00000040: 8259 07be 2435 ebbc d292 373e a71a 173e
00000050: e55b 483e bffa d93c 8b38 b13d 1a86 1bbe
00000060: 804d 183e a16a 273e a7ad 4bbd 1c64 203e
00000070: 2ce3 113d e596 bb3d 0a92 b83d 4463 8f3e
00000080: e2a5 1e3e 8fb7 603d 2a81 3abe f386 c0bd
00000090: 6078 7bbc b2c1 bfbd 2444 08bd 344a 373e
000000a0: ab62 293e 5bbc 3dbe a714 1cbe 6898 04be
000000b0: 5d00 c03d a413 a6b9 cc0e e1ba 00ac 6fbd
000000c0: 48bd c53d 1ca1 6d3e 1c3d dfbd 20ff 0a3c
000000d0: 7cbd d03d a51c 25bc e70c 603e 6f6c 22be
000000e0: af44 69bb 94cc 5c3d 2b2c 513e 1f2c bf3d
000000f0: da11 5e3e 41a4 a4bd 1ea9 aa3c c07d 2fbe
0.11631493 -0.08591458 0.16295765 0.048125185 0.22761758 -0.018538484 -0.15503088 0.020628657
0.024270413 0.00015343424 -0.16180964 0.15316503 -0.105490975 0.34826633 0.18464898 0.012650492
-0.13217738 -0.028711863 0.17927101 0.14756261 0.19566305 0.026608823 0.08653363 -0.15187874
0.14873314 0.1634927 -0.049726155 0.15663189 0.03561704 0.0915964 0.0901223 0.2800542
0.15492967 0.054862555 -0.18213335 -0.094007395 -0.015348524 -0.09363116 -0.03326811 0.178994
0.16541545 -0.18528883 -0.15242253 -0.12948763 0.09375069 -0.0003167662 -0.0017170548 -0.05851364
0.09655243 0.2320599 -0.109003276 0.008483678 0.10192391 -0.01007763 0.21879922 -0.15861677
-0.0035593917 0.05390604 0.20427005 0.09334587 0.21686497 -0.080391414 0.020832594 -0.17137814

fc3.weight f4 [128, 64]
00000000: a37b 993d 7a22 893c 7ce7 56bc b040 16be
00000010: 6ee0 8b3e a51a fe3d b9ed fd3d 8322 86be
00000020: b474 00c0 20da 51be 70b9 1ec0 671c 1e3d
00000030: 0ef6 b1be 23c8 1f3e 8e39 463e 39d5 e6be
00000040: b730 9e3d 79a2 633d 53bb 8b3e 846d 9fbe
00000050: 9f07 40bd da63 083d 5eee febf 4dd8 373e
00000060: dcb9 9bbd 1926 323d 76f8 443f 3537 adbe
00000070: b8f6 2f3d a997 70bf 9c76 e13c 9f94 0ebd
00000080: 1eb9 0abd acf3 5bbf f083 a9bf 3e31 043f
00000090: ab4d 4dbf 6a84 87bf f252 863d fd50 2dbd
000000a0: dee3 863c 25d5 e1bd e0cf dabf 8bce 10bf
000000b0: eb21 0dbe bba9 193e fbf4 c1bc c469 a9bf
000000c0: d054 a8be 4f96 82bf 586f 2bc0 d897 de3d
000000d0: e10a 26be 1cf0 53bb a2d5 8a3e ffe4 d73c
000000e0: d837 ae3a 4f7f 0abe 5c49 1bbe 7aa0 8d3d
000000f0: 771d 1c3e d474 ddbe 79c8 e5bf 9b68 02bf
00000100: 5c04 9f3c 622d dd3d e4a9 c13d cd2d 113e
00000110: ea61 4cbe ead9 85bd 5048 e23c 8890 293e
00000120: 9d09 ba3e d2f2 803e 16e4 ca3f 3bca 473e
00000130: af50 02bd a5c3 46bd eede af3c 3919 1e3e
00000140: 98d0 323d ccbf 203d 5271 65be a121 6b3e
00000150: cbf8 323c 1a84 593e de93 763d bae4 503e
00000160: bbbe 59bd 1be0 443e 462c 46bf 527f b63e
00000170: 2fd9 4e3e 5770 1640 72a0 e1bd 301b d13d
00000180: 7b1b dc3e d19b 193e 8181 723f a18c a53e
00000190: 58ad bc3e 50ef e13f 5dd8 143e 7a83 0bbd
000001a0: cc02 783e 9d27 ed3d e454 4f3f bc18 263e
000001b0: 956d d33d 0ff9 1b3f a3ce 5a3e 4063 28bc
000001c0: bf37 34be ea18 743d da52 2a3f 94b3 aabe
000001d0: 125f f2bd a0aa 273d 08ab 20be c672 0f3e
000001e0: 8e66 2d3e e452 863d 1e57 f23d 15a8 b93d
000001f0: 79d7 773e 96ba cc3e bdc2 153f 0ab8 55be
00000200: 969c ffbc ba0f b0be 4bb6 533b 722f 0e3e
00000210: 864a 023f 22e8 893d cc1a af3d 4da7 a2be
00000220: 6e84 f9bf a59e 28bf 664f f0bf 9393 5b3e
00000230: 1217 843e f9b3 773d a51a fe3e bc40 85be
00000240: 8d45 ebbc c171 7e3c 9df3 fa3e d178 bb3d
00000250: ab46 4abc 3fed 46bd 657d 20bf 1bad 41be
00000260: 1d47 ebbd ef1e 0cbe cde3 333f 608f 52bf
00000270: 7723 c2bd 9515 b0bf 94f1 1cbe 54a6 9bbd
00000280: 6f93 9c3d 7950 a0be 83d8 89bf 98e4 a53d
00000290: 2f25 8cbe 6612 b6bf fd69 6dbe 355d efbd
000002a0: bb77 40be 37f4 ccbe 1881 27c0 167c babe
000002b0: 6edf 873d 9020 9fbf fc4d 213c 8620 b0be
000002c0: b27e 463e a678 e6bf 08bb 1bc0 ac0f e83e
000002d0: 2144 aabd 7bd3 513a f5dc 3a3e 2f37 c9bd
000002e0: 6324 41be 1f7a 08be 3bf8 cebc 3b08 5dbe
000002f0: 62c3 0c3e a890 14bf 0630 fcbf f245 c43f
00000300: 41e9 68bc 211d bd3b da67 bfbd ae43 493c
00000310: 4447 9cbb e6f6 843d af50 4bbc d98b a0bd
00000320: 0dc3 2dbc 7e9d 333d 3f8f c5bc ed2a b13c
00000330: 3424 ec3d 97e6 943c 7750 c7bd e8a8 d1bd
00000340: 2cf1 ea3b a425 9f3d 5beb c03d 58c6 693d
00000350: 7f38 c8bd 1561 b23d eb08 0d3d 09c3 3b3d
00000360: 411a 65bd e5ac efbd 7d35 e3bd 1916 bd3d
00000370: 3621 39bb 14f2 debd 6ca4 233d 21f9 a9bd
00000380: 8655 bc3d 2bcb 4fbd 23aa 8bbc 646e d6ba
00000390: f5e7 74bd 91e0 b13c 5b8f 87bb aa85 f3bd
000003a0: bd81 e8bd a61f f9bd d5cd e3bd c3c3 013c
000003b0: 79e7 3d3d 5de8 66bd 82eb f1bd 2a0f cdbd
000003c0: 3826 a63c c3b6 983d 9b7e 4fbc 712b 253d
000003d0: 7676 893c 8a55 873d 8536 bd3c b7f2 5f3d
000003e0: 99d0 a0bc 7fb7 503c 54ab 6f3d 718d b63d
000003f0: 1b0c 87bd c155 323d d6ca 493d 730d dc3c
0.07494285 0.016740073 -0.013116714 -0.14673114 0.27319664 0.12407426 0.123988576 -0.26198205
-2.007123 -0.20493364 -2.4800682 0.038601305 -0.34758037 0.1560369 0.19357893 -0.4508455
0.07724135 0.055574868 0.27291355 -0.3113824 -0.046882268 0.03329835 -1.9916494 0.17953606
-0.07603809 0.043493364 0.7694162 -0.33831182 0.0429599 -0.93981415 0.027522378 -0.034809705
-0.033867948 -0.8591869 -1.3243389 0.5163764 -0.80196637 -1.0587285 0.06558789 -0.042313565
0.016466077 -0.11026982 -1.7094688 -0.5656516 -0.1378247 0.15006153 -0.023676386 -1.3235402
-0.32877207 -1.020212 -2.678671 0.10868806 -0.16215087 -0.0032339161 0.27116114 0.026354311
0.0013291789 -0.13525127 -0.15164703 0.06915374 0.15245615 -0.43253195 -1.7951804 -0.50940865
0.019411258 0.10799672 0.09456232 0.14177628 -0.19959226 -0.065357044 0.027622372 0.1655904
0.3633546 0.25185257 1.5850856 0.19510739 -0.031815227 -0.048526425 0.021468606 0.15439309
0.04365596 0.03924541 -0.2240651 0.22962047 0.010923575 0.21241799 0.06019961 0.20399752
-0.05316041 0.19226114 -0.77411306 0.35644013 0.20200036 2.3506067 -0.11016931 0.10210264
0.42989716 0.15000845 0.9472886 0.32333854 0.36851 1.7651157 0.14535661 -0.034060933
0.24219817 0.11579821 0.8098891 0.16220373 0.103236355 0.6092691 0.21367888 -0.010277569
-0.1759939 0.059594072 0.6653267 -0.33340132 -0.118345395 0.040934205 -0.15690243 0.14008626
0.16933653 0.06558779 0.118330225 0.09065262 0.2420329 0.39986104 0.5850027 -0.20870987
-0.031202596 -0.34386998 0.00323047 0.13885286 0.50894964 0.06733729 0.08550033 -0.31768265
-1.9493539 -0.6586707 -1.877423 0.21443014 0.2579885 0.06047437 0.49629703 -0.2602595
-0.028719688 0.015530051 0.49013987 0.09153903 -0.01234595 -0.0485661 -0.62691337 -0.18913691
-0.11488173 -0.13683675 0.7026947 -0.8225002 -0.09479421 -1.3756586 -0.1532653 -0.07600084
0.07645308 -0.31311396 -1.0769199 0.081002414 -0.2737212 -1.4224365 -0.23184963 -0.116877
-0.18795674 -0.4003007 -2.6172543 -0.36422795 0.06634413 -1.2431812 0.009845253 -0.34399813
0.19384268 -1.8005569 -2.4332905 0.45324457 -0.08313776 0.00080042303 0.18248351 -0.098249786
-0.18861537 -0.13327836 -0.02526485 -0.21585171 0.13746408 -0.5803323 -1.9702156 1.5333846
-0.014215768 0.0057712947 -0.0934598 0.0122842025 -0.0047692377 0.06492405 -0.012409373 -0.07839174
-0.010605586 0.043851368 -0.024116157 0.021626914 0.11530343 0.01817636 -0.09732144 -0.102372944
0.007169863 0.07770851 0.094198905 0.05707392 -0.09776401 0.08709923 0.034432333 0.045840297
-0.05593324 -0.11702899 -0.110941865 0.092327304 -0.0028248555 -0.108860165 0.039951727 -0.08299471
0.09196 -0.050730865 -0.017048901 -0.0016359803 -0.059791524 0.021713527 -0.0041369624 -0.11890729
-0.113528706 -0.121642396 -0.11123244 0.007920208 0.046363328 -0.056373943 -0.11812498 -0.10012658
0.020281896 0.07456734 -0.012664462 0.040324632 0.01678012 0.06608112 0.023097286 0.05467483
-0.019630717 0.012739061 0.058513 0.089136966 -0.06594106 0.043538813 0.049265705 0.026861882

fc3.bias f4 [128]
00000000: a862 a43d ec61 bdbd 58dd e13d aced dcbd
00000010: aa96 973d 3721 003d 936f d2bc ce86 013e
00000020: 8c58 13be 8a1f 1cbe 7568 7e3d 8db5 9b3e
00000030: 7fd9 02be b785 3dbc ac9f d0bc 5229 d63d
00000040: 1d41 3b3d d5c7 54bd 6157 6e39 e09c d6bd
00000050: d7d6 233d 3bcf b13c 8ad3 8bbd e0bf fe3c
00000060: 0e43 8d3e d50b b83e c4ea 213d b0e0 753d
00000070: b296 953d 73ee cfbc c37a 893d 8933 fc3b
00000080: 4b5c 803e b4c8 03bc 1ca1 9c3e d00a 0f3e
00000090: 56e6 7abd cfd1 733e 5b99 ac3c bb6e 8ebc
000000a0: 30f0 0d3d 258b 44be 3e03 a93d b6b3 843d
000000b0: 938c 983c e8d6 0fbe c968 8cbd 0f4f d1bc
000000c0: 268f 8e3d 56d8 34bd 676c b6bd dd5e 933e
000000d0: db2b 933e f6f2 7f3d 529f 813c 9d9c e33d
000000e0: c38d df3c 1885 1ebe 481a 733d c6d1 d73c
000000f0: d04d 09be 2f55 44bd 1fcc 95bd aedb ce3c
00000100: d13e b43d 7c07 b13c 0ffe d13d 0065 9e3e
00000110: 9fde a3bd 3213 97bd c040 923d daf5 b6bb
00000120: f73f 13bd 10af dabd 8548 ee3d b7b9 963d
00000130: 7eda aebb 14dc b53d a49e c8bd db37 75bd
00000140: 37fe cf3d a497 d73c a340 933d 8f2d 3a3e
00000150: ffe0 7a3c 5fa9 873c a192 843e a6ab acbd
00000160: dd16 b8bd 3f0d 203d 0c4d 17be 917e d3bc
00000170: a119 12ba 5edf e5bd e985 13be 5a20 493e
00000180: ffcf 20be 1e29 e8bd 3301 8fbd 9da5 a5bd
00000190: a4e6 00be 9ca8 8d3c ac26 123e a4f8 803c
000001a0: 9921 07be eff8 f8bd 4124 013e 2769 bcbd
000001b0: 4417 a5bd ad05 3c3c 559a b6bc 3c61 633d
000001c0: 153b ecbd 318f 913e 0536 9d3d c832 473c
000001d0: bd75 bcbc 9137 f03c 5553 803d 84a8 2a3d
000001e0: e664 343d 7c3b a4bd c058 d13b 0b27 bc3c
000001f0: ad21 713e 44af 16be 1520 8bbd 3ea2 efbd
0.0802663 -0.09247193 0.11028546 -0.1078752 0.07401784 0.031281676 -0.025687968 0.1264908
-0.14389247 -0.15246406 0.062111337 0.3041195 -0.1277828 -0.011567525 -0.025466762 0.104571
0.045716394 -0.051948387 0.0002273 -0.1047914 0.03999981 0.02170526 -0.06827457 0.031097353
0.2759022 0.35946527 0.03953053 0.06002873 0.073041335 -0.025382256 0.06712868 0.007696573
0.25070414 -0.008043457 0.30591667 0.13968968 -0.06125482 0.23810504 0.02106922 -0.017386785
0.03465289 -0.19193704 0.082525715 0.0647959 0.018621719 -0.14046824 -0.06855924 -0.025550393
0.06960897 -0.044151627 -0.08907395 0.28783312 0.28744397 0.062487565 0.01582304 0.11113856
0.027289277 -0.15480459 0.059351236 0.026345145 -0.1340859 -0.0479328 -0.07314324 0.025251236
0.08801044 0.021610014 0.10253536 0.30936432 -0.08001446 -0.07376708 0.07141256 -0.005583507
-0.035949674 -0.10677922 0.11634926 0.07359641 -0.005336105 0.08879867 -0.09795883 -0.05986772
0.101559095 0.026317425 0.07190063 0.18181442 0.015312432 0.016560255 0.2589312 -0.08431177
-0.08988736 0.039075132 -0.14775485 -0.025817188 -0.0005573277 -0.112242445 -0.14406551 0.19641247
-0.15704344 -0.113359675 -0.069826506 -0.08088229 -0.12587982 0.017292313 0.14272565 0.015743561
-0.1319641 -0.12156855 0.12611486 -0.09199744 -0.08061078 0.011475963 -0.022290388 0.05551265
-0.115347065 0.2842956 0.07676319 0.012158103 -0.02300536 0.029323371 0.06265894 0.041664615
0.044041537 -0.08019158 0.0063887537 0.022967836 0.23548003 -0.14715296 -0.067932285 -0.11700867

v.weight f4 [1, 128]
00000000: 3852 a73f 1319 55be 3b2e 9f3f 06a9 053d
00000010: 6cd7 0740 343f 1240 c406 433f 632d 6b3f
00000020: 17a1 1140 917a 60be d82f 2940 e308 563f
00000030: 4c1a 2d3d 2aae 5bbe f924 ba3c d674 41be
00000040: a560 513f e338 8a3f 1ac8 74be 3124 fa3f
00000050: 64e6 8cbf d211 903f f1fb 6e3c 744c 5a3f
00000060: ae0a 2c3f 44b4 7e3f da96 dc3f 1652 51be
00000070: ba84 183f 5374 bc3f 7ce4 32be 4107 3d40
00000080: 3a13 693f 340b b93e 26e7 483f 4752 543f
00000090: a21a cc3f 244a 5a3f e78e 56be 409e e83c
000000a0: 4967 cf3f 61dc 74bf 149c 38be 2fe5 5e3f
000000b0: 7b6b 5a3d d93a 2fbe 8beb babe ed41 693d
000000c0: 7557 313d 42fe 4a40 0715 57be 28aa 763f
000000d0: fecc 3f3f bb70 16be e74a 80be 0fc1 2abe
000000e0: 2a56 56be 0f20 9d3f 5770 4640 2a1d 9dbe
000000f0: 122e 24be ed9e 7f3f 15a6 58be cee0 e53e
00000100: 8000 e23f db32 cabd cd28 f53f ba7f 523f
00000110: dae8 28be 844a fd3f 6d48 84be b5f9 813f
00000120: 3de0 4dbe 369c cabc c42c 9a3f 54f8 0bbe
00000130: 6b39 38be 50d6 40be 11dd 31be f99e 12be
00000140: 31a6 3abe b2fa 833f 7cbd 1ebe 776c 743f
00000150: 1e5b 63bf fbc9 00be dcad 673f 43ba 3fbe
00000160: af05 8fbe d31a 2fbe 4880 ea3f 3548 73be
00000170: 273d 46be 8628 47be f0de 4abe d843 5a3f
00000180: ac30 a0be 7503 36be ab47 68be c797 42be
00000190: 706b 57be 640e 423f 090f d03f 5e53 00c0
000001a0: 9ae5 bb3f 4220 52be bd84 3040 ddf7 2540
000001b0: 6316 3fbe 2991 48be 78c9 503d bd93 3e40
000001c0: b779 05be 699e 3f3f b089 06be 2f11 47be
000001d0: 449f 2e3f e79d 973f bc2a 953f 61c4 b73c
000001e0: 3650 853f 9fdf 40be 1e52 5cbe b6b1 3440
000001f0: 8dc4 813f 79d6 09be 571f 5cbe 174f 0bbe
1.3071966 -0.20810346 1.2435983 0.032631896 2.1225233 2.2851076 0.761822 0.9186613
2.2754571 -0.21921755 2.6435452 0.8360731 0.042261407 -0.21453157 0.022722708 -0.18892226
0.8178809 1.079861 -0.23904458 1.9542295 -1.100781 1.1255438 0.014586435 0.8527291
0.67203796 0.99493814 1.7233536 -0.2044147 0.59577525 1.4722999 -0.17469972 2.9535677
0.9104496 0.3614136 0.78477705 0.82938045 1.5945628 0.8526938 -0.2095295 0.028395772
1.6203395 -0.9564877 -0.18028289 0.87068456 0.053325158 -0.17112292 -0.3650783 0.056947637
0.043296296 3.1717687 -0.21004115 0.9635339 0.7492217 -0.14691441 -0.25057146 -0.16675209
-0.20931306 1.2275409 3.1006067 -0.30686313 -0.160332 0.99851876 -0.21157105 0.44898075
1.7656403 -0.09872981 1.9153076 0.82226145 -0.16495076 1.9788365 -0.25836506 1.015433
-0.20105071 -0.02473269 1.2044911 -0.13668948 -0.17990653 -0.18831754 -0.17369486 -0.14318456
-0.1822746 1.0310881 -0.1550197 0.95478004 -0.8881091 -0.1257705 0.90499663 -0.18723397
-0.27934024 -0.17100076 1.8320398 -0.23758014 -0.19359265 -0.19449052 -0.19811606 0.8525977
-0.31287134 -0.17774756 -0.22683589 -0.19003211 -0.21037078 0.7580321 1.6254588 -2.0050883
1.4679444 -0.20520118 2.7581017 2.5932534 -0.18660884 -0.19586624 0.050973386 2.9777672
-0.13034712 0.7485109 -0.13138461 -0.19440149 0.6821177 1.1845063 1.1653666 0.022432508
1.0415103 -0.18835305 -0.215157 2.8233466 1.0138108 -0.13460721 -0.2149633 -0.13604389
